src/reinforcement_app/storage/model/2.pth (torch, 25613 bytes, 6 tensors)

model.0.weight f4 [64, 16]
0	0xbf32dc5a	-0.6986748
1	0xbe825164	-0.2545272
2	0xbe97e4e6	-0.29666823
3	0x3d4e29d4	0.05033286
4	0xbdedea71	-0.11616982
5	0x3f44e7f4	0.7691643
6	0x3f3c480f	0.7354745
7	0xbf06772a	-0.5252558
8	0x3e755f1c	0.23962063
9	0xbe4ddabc	-0.20102972
10	0xbdb4f404	-0.08835605
11	0x3e24f2fa	0.16108313
12	0xbaee9300	-0.0018201768
13	0xbd8d4078	-0.06897062
14	0xbdb04588	-0.08607012
15	0x3e2b2ab8	0.16715515
16	0x3cdcb99e	0.026943978
17	0x3f14504a	0.5793501
18	0x3f3cd1ce	0.73757637
19	0xbedc0fe7	-0.42980883
20	0x3f420829	0.757937
21	0xbf1c6097	-0.61084884
22	0xbec51ac2	-0.38496977
23	0x3eff4c3a	0.49862844
24	0xbe576248	-0.21033585
25	0x3c7a6320	0.015282422
26	0xbdcc8a78	-0.09987348
27	0xbd763a50	-0.060114205
28	0x3e7e2fee	0.24822971
29	0xbe30bf94	-0.17260581
30	0xbde488b4	-0.111588866
31	0x3dad5cf4	0.08464995
32	0x3cabd21e	0.020974215
33	0x3ea2e7bf	0.31817433
34	0x3c544dd0	0.012958005
35	0x3f2bad0b	0.6706092
36	0x3e919f1b	0.284417
37	0xbe7dd634	-0.24788743
38	0x3d12a380	0.035800457
39	0xbe6948d1	-0.22781684
40	0x3dbd2e34	0.09237328
41	0xbe039912	-0.1285136
42	0xbd82c144	-0.06384519
43	0xbe31f024	-0.17376763
44	0xbe5219fc	-0.20517725
45	0x3e40bb7e	0.18821523
46	0x3e608312	0.21925
47	0x3d81d220	0.06338906
48	0x3e862fd5	0.26208368
49	0x3e12740f	0.14302085
50	0x3dd1ba64	0.10240629
51	0x3e58b61a	0.21163216
52	0x3f37765a	0.71664965
53	0xbebe26ed	-0.37139073
54	0x3e4459d9	0.19174899
55	0x3e217279	0.15766324
56	0xbe29fdf8	-0.16600788
57	0xbe525d40	-0.20543385
58	0x3d92ef1c	0.07174513
59	0xbd22ec30	-0.039776027
60	0xbd9f3e40	-0.07775545
61	0x3db28b68	0.08717996
62	0x3e165f7c	0.14684862
63	0x3d435458	0.04768786
64	0xbf1bf714	-0.60923886
65	0xbf51f183	-0.8200914
66	0xbf1b06ee	-0.6055745
67	0x3dc48026	0.09594755
68	0x3edd84bc	0.4326533
69	0xbf6a53d6	-0.91534173
70	0x3f732a0c	0.94986033
71	0xbf094cf3	-0.5363304
72	0xbda38f64	-0.07986334
73	0xbe09437a	-0.13404647
74	0x3d8ad2d4	0.067784935
75	0x3e1a0efa	0.15044776
76	0xbd850d74	-0.064967066
77	0x3cea0f00	0.028571606
78	0xbd9651c0	-0.07339811
79	0x3e3e5438	0.18586814
80	0xbf05fe54	-0.523412
81	0xbf049682	-0.51792157
82	0xbe7d8376	-0.2475718
83	0x3f360395	0.71099216
84	0x3f0e9322	0.55693257
85	0x3f2f05df	0.68368334
86	0x3f144c0b	0.5792853
87	0xbe3f9f74	-0.1871317
88	0x3e296ff8	0.16546619
89	0xbe68726e	-0.22699901
90	0xbe4ca64a	-0.19985309
91	0x3e3c953c	0.18416303
92	0xbd549100	-0.051896095
93	0x3e7edf0a	0.2488977
94	0xbe602130	-0.2188766
95	0xbe107b26	-0.14109477
96	0xbe44fe16	-0.19237551
97	0x3e37ac90	0.17936921
98	0x3dbbbc7c	0.0916681
99	0x3d2d18b0	0.042259872
100	0x3e24829c	0.16065449
101	0x3e38a3b2	0.18031195
102	0x3d3346a0	0.043768525
103	0xbdca1e58	-0.09869069
104	0x3e23847c	0.15968508
105	0x3b992540	0.00467363
106	0x3e7ec822	0.24881032
107	0xbdfec20c	-0.12439355
108	0xbe012ae0	-0.12614012
109	0xbd844e18	-0.06460208
110	0xbe72eb8c	-0.23722667
111	0xbc727d40	-0.01480037
112	0xbe958f63	-0.29210958
113	0x3e573fb9	0.21020402
114	0xbcb13efa	-0.021636475
115	0xbec1fa61	-0.37886336
116	0xbecbf370	-0.39834166
117	0x3ef10bd9	0.47079352
118	0xbec882d8	-0.39162326
119	0xbd0fb781	-0.035087112
120	0xbc643e00	-0.013930798
121	0x3d5fe858	0.05466494
122	0x3d02d3f0	0.0319404
123	0xbe218d74	-0.15776616
124	0xbe30b442	-0.17256263
125	0xbe0b6cba	-0.13615695
126	0x3d64fe18	0.055906385
127	0xbe2dfdd4	-0.16991359
128	0xbf114e9b	-0.5676057
129	0xbe8b4b2f	-0.27205798
130	0x3d44cbe7	0.04804602
131	0x3e17fe41	0.14843084
132	0x3e3de672	0.18544939
133	0x3ea787a6	0.3272068
134	0xbe249389	-0.16071905
135	0x3e7b9069	0.24566807
136	0xbdf82208	-0.12115866
137	0x3e62a8ca	0.221347
138	0x3e111c88	0.1417104
139	0xbd94b844	-0.072617084
140	0xbc5418e0	-0.012945384
141	0xbe64cff4	-0.22344953
142	0xbe62c944	-0.22147089
143	0x3e478200	0.19483185
144	0xbea89489	-0.32925823
145	0xbf310bd9	-0.69158703
146	0xbe5575c2	-0.20845702
147	0xbd90004a	-0.07031305
148	0x3eed197d	0.4630851
149	0x3f26fc15	0.65228397
150	0x3ef663a8	0.48122907
151	0xbe1e924b	-0.15485494
152	0x3ca0bbd0	0.019620806
153	0x3d84d920	0.06486726
154	0xbdca41f4	-0.09875861
155	0x3e33d8fc	0.17563242
156	0xbd298390	-0.041385233
157	0x3dba6834	0.091019064
158	0x3c4265a0	0.01186505
159	0xbe24ac4c	-0.16081351
160	0x3dc0b7c2	0.09410049
161	0x3eb06cf6	0.3445813
162	0x3efaa192	0.48951393
163	0x3ec23d13	0.3793722
164	0xbe7ec71e	-0.24880645
165	0x3ee5849a	0.4482773
166	0x3ece07b1	0.40240243
167	0x3e51985e	0.2046828
168	0xbe48e236	-0.19617543
169	0xbe07099e	-0.13187262
170	0x3e605d8a	0.21910682
171	0x3e68f5e8	0.22750056
172	0x3e0fbebe	0.14037606
173	0xbda2bc78	-0.07946104
174	0x3d8fb460	0.07016826
175	0x3dba716c	0.09103665
176	0xbe110aa3	-0.14164214
177	0xbeb08d9e	-0.34483045
178	0xbf43d30c	-0.76493907
179	0x3f158d66	0.5841888
180	0x3ef97c4c	0.48727643
181	0xbe97c1ac	-0.29639947
182	0x3f11b4e1	0.56916624
183	0xbd97847e	-0.07398318
184	0xbe337e6c	-0.17528695
185	0x3dc3f17c	0.09567544
186	0x3e73505a	0.2376112
187	0xbe4eb022	-0.20184377
188	0xbe023152	-0.12714127
189	0xbd735a20	-0.05941212
190	0xbd2c0c78	-0.04200408
191	0x3d1e3478	0.038624257
192	0xbe38efb9	-0.18060197
193	0xbf32ad4b	-0.69795674
194	0x3e00a80b	0.12564103
195	0x3f1cf071	0.61304384
196	0x3eebd6e8	0.46062398
197	0xbe1a7dc2	-0.15087035
198	0xbe8b03dd	-0.27151385
199	0x3e8df455	0.27725473
200	0xbe108b20	-0.14115572
201	0xbc2572c0	-0.010098159
202	0xbc20b7e0	-0.009809464
203	0x3ad26100	0.0016050637
204	0x3e5c1bd6	0.21494994
205	0xbdde6890	-0.108597875
206	0x3d6ff550	0.058583558
207	0xbda09ce0	-0.078424215
208	0x3eb9e2b3	0.3630577
209	0x3ec07d8f	0.37595794
210	0x3e80650d	0.25077096
211	0x3e55dc9f	0.20884942
212	0x3ee9df81	0.45678332
213	0xbe9d5c96	-0.307347
214	0xbeb9959a	-0.3624695
215	0x3d74cfbc	0.059768423
216	0x3cff4450	0.031160504
217	0x3e3a2648	0.18178666
218	0x3e4bab66	0.19889602
219	0xbe102d48	-0.14079773
220	0x3e429ffa	0.19006339
221	0xbdd49554	-0.103800446
222	0xbddab5e8	-0.10679227
223	0xbdb27924	-0.08714512
224	0x3ea73f39	0.32665423
225	0xbdec7289	-0.11545283
226	0xbc4693f4	-0.012120236
227	0xbe734805	-0.23757942
228	0xbe32995f	-0.17441319
229	0x3f0150e4	0.50514054
230	0xbfb87852	-1.4411719
231	0x3eaca225	0.33717456
232	0x3dbb0288	0.09131342
233	0x3e206230	0.15662456
234	0x3dd33530	0.10312879
235	0x3d5694e8	0.0523881
236	0xbe29de30	-0.16588664
237	0x3d83aa38	0.06428951
238	0x3dcac088	0.09900004
239	0x3e3ddd4a	0.18541446
240	0xbee55a0c	-0.44795263
241	0xbe99dc33	-0.3005081
242	0x3d7d78c4	0.06188275
243	0xbea3d4e6	-0.31998366
244	0xbe8751fe	-0.26429743
245	0x3f0e0b6c	0.5548618
246	0x3e82a475	0.25516096
247	0xbb6c5079	-0.0036058708
248	0xbdce1414	-0.10062423
249	0x3e1441be	0.14478204
250	0x3c83ed70	0.01610443
251	0x3e733ff2	0.23754862
252	0xbdaa6540	-0.08320093
253	0xbdde8f00	-0.10867119
254	0xbe6051d4	-0.21906215
255	0xbbda1b80	-0.0066561103

model.0.bias f4 [64]
0	0x3e142d66	0.14470443
1	0x3eaafc15	0.33395448
2	0x3e2b76dc	0.1674456
3	0x3e87c554	0.26517737
4	0x3d9bef3c	0.0761399
5	0x3ee8c66f	0.45463893
6	0xbe50aa86	-0.2037755
7	0x3ec79688	0.38982034
8	0x3f0df99a	0.55458987
9	0x3ecadbe8	0.396209
10	0x3e7e1978	0.24814403
11	0x3e4c7baf	0.19969057
12	0x3e16bcfc	0.1472053
13	0x3e581114	0.21100265
14	0x3e31cac3	0.17362504
15	0x3e8a22fd	0.2697982
16	0x3eb7ab96	0.35873097
17	0x3ed28277	0.41115162
18	0x3e5bc5f9	0.2146224
19	0xbe65720d	-0.22406788
20	0x3e9b2e6b	0.30308852
21	0xbe84b360	-0.25918102
22	0x3ea50363	0.32229146
23	0x3e2f08ae	0.17093155
24	0xbe5acbc4	-0.21366793
25	0x3e0e98b0	0.13925433
26	0x3e451fc4	0.19250399
27	0x3f096a51	0.5367785
28	0xbe76df46	-0.2410861
29	0x3ee933a9	0.45547226
30	0xbd122045	-0.035675306
31	0xbe72f0a6	-0.23724613
32	0x3ebd9979	0.37031153
33	0xbe4a3a18	-0.19748724
34	0x3de4c89c	0.11171076
35	0x3e60bf10	0.21947885
36	0x3ea4aec5	0.3216459
37	0x3eb4198c	0.3517574
38	0x3f0764da	0.5288826
39	0x3e4b8835	0.19876178
40	0xb9ac2d06	-0.00032839942
41	0xbe5c8ed2	-0.21538857
42	0xbe7b150a	-0.24519745
43	0xbe5b47ec	-0.21414155
44	0x3e86341d	0.26211634
45	0x3e8521a6	0.26002234
46	0x3eca9c41	0.39572337
47	0x3ea6609d	0.32495585
48	0x3e78b2f0	0.24287009
49	0xbe496d34	-0.19670564
50	0x3e914a3a	0.28376943
51	0x3d3194cb	0.04335479
52	0x3ee2466b	0.4419435
53	0xbe4eecae	-0.20207474
54	0x3cebba53	0.02877537
55	0x3d3b4940	0.045724154
56	0xbe50932e	-0.20368645
57	0xbe1f0518	-0.15529287
58	0x3ef7e16f	0.4841418
59	0x3ec01e85	0.37523285
60	0xbe220719	-0.1582302
61	0x3eacba9b	0.3373612
62	0x3ebe425b	0.3716
63	0x3e2d1d36	0.16905674

model.2.weight f4 [64, 64]
0	0x3d991c69	0.07476122
1	0xbdb0fa63	-0.086415075
2	0x3cd02e13	0.025412595
3	0xbccff93a	-0.025387395
4	0xbdde4834	-0.108536154
5	0xbcd287bc	-0.025699489
6	0xbcf53af0	-0.02993533
7	0x3d25fee8	0.0405263
8	0xbdfc9326	-0.12332754
9	0x3dc4cf49	0.09609849
10	0x3cb7b20d	0.022423768
11	0xbdde64e0	-0.10859084
12	0xbdec6d6b	-0.11544307
13	0x3c89add8	0.016806528
14	0xbe111167	-0.14166795
15	0xbcf157ee	-0.029460873
16	0x3dd04444	0.10169271
17	0x3c86f1b5	0.016472677
18	0xbd03aa20	-0.032144666
19	0xbdcee6b8	-0.101026
20	0xbdb4048c	-0.0878993
21	0x3da814aa	0.08207066
22	0xbd1ad401	-0.03779984
23	0x3d057a56	0.03258737
24	0xba11c900	-0.00055612624
25	0x3ded97f6	0.1160125
26	0xbdb32996	-0.08748166
27	0xbd6f609b	-0.05844174
28	0xbde78e44	-0.11306432
29	0xbd9bf924	-0.07615879
30	0x3db5a580	0.08869457
31	0x3da7a822	0.08186366
32	0xbc6f7dbf	-0.014617383
33	0xbceb9858	-0.028759167
34	0x3d58fce3	0.052975547
35	0xbbeede03	-0.0072896495
36	0xbdd2786d	-0.10276876
37	0xbe0007e0	-0.12503004
38	0xbe06c6e8	-0.13161814
39	0x3ddd5161	0.108065374
40	0x3d5a7c9c	0.053341493
41	0x3d2ccad8	0.042185634
42	0xbdfb84ba	-0.12281175
43	0x3da48e0c	0.08034906
44	0xbd6446ba	-0.055731513
45	0xbd797760	-0.06090486
46	0xbc593323	-0.013256821
47	0xbc5d28ce	-0.013498498
48	0x3d3c1262	0.04591597
49	0x3bab1c00	0.0052218437
50	0xbce8255a	-0.028338123
51	0x3cddc269	0.027070241
52	0x3da5abe4	0.08089426
53	0xbde58346	-0.11206679
54	0x3d06aeb8	0.03288147
55	0xbbc3d7c0	-0.005976647
56	0xbca94d18	-0.020666644
57	0xbdcd4ec6	-0.100247905
58	0x3d04912e	0.032365017
59	0x3db364e4	0.08759478
60	0xbdd21f3a	-0.10259862
61	0xbd84c655	-0.06483141
62	0xbc14ab6f	-0.009074076
63	0x3d865478	0.0655908
64	0xbba8b10b	-0.0051480583
65	0x3f2b121a	0.66824496
66	0xbe719db9	-0.23595323
67	0xbc9f6620	-0.019457877
68	0x3e40da0e	0.18833181
69	0x3e285fb8	0.16442764
70	0x3cd25d90	0.02567938
71	0x3e82e7aa	0.2556737
72	0x3eadfdcf	0.33982703
73	0x3e4bf869	0.1991898
74	0x3db7c978	0.08973974
75	0xbeede98e	-0.4646725
76	0xbe269f58	-0.16271722
77	0xbe68afbb	-0.22723286
78	0x3f060c09	0.52362114
79	0x3e8cf516	0.27530736
80	0xbe71637f	-0.23573111
81	0x3f085509	0.53254753
82	0x3e9d178f	0.30682036
83	0x3d28a1e3	0.041170012
84	0x3e07c18e	0.13257429
85	0xbd8861f2	-0.066593066
86	0x3daa5e3c	0.08318755
87	0xbf21e3d3	-0.6323826
88	0xbda2372a	-0.07920678
89	0xbe39ce5e	-0.18145129
90	0x3f34b341	0.7058602
91	0x3ed29b8b	0.41134295
92	0xbdf2e078	-0.1185922
93	0x3e1b780a	0.1518251
94	0x3ecbe077	0.3981969
95	0xbc98af50	-0.018638283
96	0x3e913b4e	0.28365558
97	0x3db6080a	0.08888252
98	0x3ed55cb3	0.41672286
99	0xbe547224	-0.20746666
100	0xbec52ac4	-0.3850919
101	0x3d538f84	0.05165054
102	0x3e6970ce	0.22796938
103	0x3e83e3f9	0.25759867
104	0x3cb4f1a3	0.022087878
105	0x3dce77d8	0.10081452
106	0x3d0e5fdc	0.034759387
107	0xbde02b62	-0.109457746
108	0x3f2fe56f	0.6870946
109	0xbdc60470	-0.09668815
110	0x3db2a73d	0.087233044
111	0x3f001975	0.50038844
112	0xbdb50763	-0.088392995
113	0xbc1040f0	-0.008804545
114	0x3dfd5120	0.12368989
115	0xbda6cc0d	-0.08144388
116	0x3e5848fb	0.2112159
117	0x3cd1c138	0.02560483
118	0x3e62dd20	0.22154665
119	0x3cb87c7b	0.022520294
120	0x3dad220a	0.08453758
121	0x3dfb62f2	0.12274732
122	0x3e68800a	0.22705093
123	0x3ee77704	0.4520799
124	0xbdc8d347	-0.09805923
125	0x3e96467c	0.2935065
126	0xbe9505e2	-0.2910605
127	0x3f0812db	0.5315377
128	0x3d989974	0.07451144
129	0x3ea77a0a	0.32710296
130	0x3ed041cb	0.40675196
131	0x3ed38c8e	0.41318172
132	0x3e83579c	0.25652778
133	0x3db54cd3	0.08852544
134	0xbc43cf30	-0.011951253
135	0xbde9d870	-0.11418235
136	0x3e1e7252	0.15473297
137	0x3e1315d1	0.14363791
138	0x3c14aaa2	0.009073885
139	0x3f07dd73	0.5307228
140	0x3e425b76	0.18980202
141	0x3eeff01e	0.46862882
142	0xbe750f9d	-0.23931737
143	0xbe20e1d8	-0.15711153
144	0x3f0a4adc	0.54020476
145	0xbc9fdb2e	-0.019513693
146	0xbf31c14e	-0.69435585
147	0x3ded35b8	0.11582512
148	0x3f58222b	0.84427136
149	0x3cc7e002	0.024398807
150	0xbe31983b	-0.17343228
151	0x3f074361	0.5283719
152	0x3ce69270	0.028145999
153	0x3f22c9bd	0.6358908
154	0xbe57c560	-0.21071386
155	0xbd37134a	-0.04469613
156	0xbd4b851c	-0.04968749
157	0x3e1e0a6e	0.15433666
158	0xbee647b6	-0.44976586
159	0xbd348278	-0.044069737
160	0xbe06a016	-0.13147005
161	0x3da6cab2	0.0814413
162	0x3d5a5ca3	0.053311
163	0x3ed33be0	0.41256618
164	0x3ee33628	0.44377255
165	0x3dbf88e3	0.09352281
166	0x3e08d10b	0.13360994
167	0x3e924bdf	0.2857351
168	0xbe9484a4	-0.29007447
169	0x3d4acf74	0.04951425
170	0xbc200340	-0.0097664
171	0xbcf00170	-0.02929756
172	0xbe7d26e4	-0.24721867
173	0x3f15f77b	0.5858075
174	0x3e8931a2	0.2679568
175	0x3c1d1089	0.009586462
176	0x3f09da12	0.53848374
177	0xbc9f88f8	-0.019474491
178	0x3f031dc8	0.5121732
179	0xbed9621d	-0.42457667
180	0xbc4cf390	-0.012509242
181	0x3d384774	0.044990018
182	0x3e17808a	0.14795128
183	0x3e164cee	0.14677784
184	0xbcbb36a8	-0.02285321
185	0x3d0ac39c	0.033877954
186	0x3e6e8335	0.23292239
187	0xbd639808	-0.05556491
188	0x3c2b28ec	0.010446768
189	0x3d453ac0	0.04815173
190	0x3ee9435b	0.455592
191	0xbd8a2fa1	-0.06747366
192	0xbdbebe68	-0.09313661
193	0xbd2d9d30	-0.042386234
194	0xbd9566f8	-0.0729503
195	0x3daddd07	0.08489423
196	0xbde84ade	-0.11342405
197	0x3d78a6d4	0.060705975
198	0x3dab9076	0.08377163
199	0xbc1d83b0	-0.009613916
200	0xbcb1235c	-0.021623306
201	0x3d0645f4	0.032781556
202	0xbd98031e	-0.074224696
203	0x3c7ecb29	0.015551367
204	0xbd3a00a8	-0.045410782
205	0xbdb70b0e	-0.089376554
206	0x3db5c8d0	0.088761926
207	0x3d4bee3a	0.049787737
208	0x3d5da26c	0.054109976
209	0xbc187350	-0.009304836
210	0xbd77bb10	-0.06048113
211	0xbd1c5548	-0.038167268
212	0xbde21114	-0.11038414
213	0x3dfc32e0	0.12314391
214	0x3de8ce08	0.11367422
215	0xbe005b1f	-0.1253476
216	0x3d2b2560	0.04178369
217	0x3d452dcc	0.04813938
218	0xbc10c840	-0.008836806
219	0x3d4354f2	0.047688432
220	0x3ccef510	0.02526334
221	0x3dbfd218	0.09366244
222	0xbdd062fc	-0.1017513
223	0x3d84c102	0.06482126
224	0x3d1b9712	0.03798587
225	0xbdbecf82	-0.09316923
226	0x3dac2c4f	0.08406889
227	0x3dd1bcce	0.1024109
228	0xbcd5e5c5	-0.02611054
229	0xbd9008be	-0.070329174
230	0x3d282757	0.041053142
231	0xbccac420	-0.024751723
232	0xbd4a020c	-0.04931836
233	0x3c9fb140	0.0194937
234	0x3bdab660	0.006674573
235	0xbd25b204	-0.040452972
236	0xbdedfc5b	-0.116203986
237	0xbcaa9a3c	-0.020825498
238	0xbdc17ccb	-0.094476305
239	0x3bbf144e	0.005831278
240	0x3d339c26	0.043850087
241	0x3d1844e0	0.03717506
242	0xbcdd90e7	-0.027046634
243	0xbd5cfec5	-0.053953905
244	0x3d90cd0d	0.0707036
245	0x3a615e00	0.0008597076
246	0xbd4578c4	-0.048210874
247	0xbcb6ba01	-0.02230549
248	0x3bdfed20	0.0068336874
249	0x3da363f8	0.07978052
250	0x3caad9db	0.020855835
251	0x3b9c57fe	0.0047712317
252	0x3ca82650	0.020526081
253	0x3c451419	0.012028717
254	0xbcf6a387	-0.030107273
255	0xbd0974f0	-0.033558786

model.2.bias f4 [64]
0	0x3cacabb9	0.021077977
1	0x3e0f1ea0	0.13976526
2	0x3e41e1c0	0.18933773
3	0xbe08cbee	-0.13359043
4	0x3e04048c	0.1289236
5	0x3e88892e	0.2666716
6	0x3c940b8d	0.018071914
7	0x3e1a9ca5	0.15098818
8	0x3e89410c	0.2680744
9	0x3e71a20a	0.23596969
10	0xbd37ff55	-0.044921238
11	0x3e0efc07	0.13963328
12	0x3d237408	0.039905578
13	0x3da9509e	0.0826733
14	0xbbb6469e	-0.0055626174
15	0x3e4612b6	0.19343075
16	0xbe4f4ceb	-0.20244186
17	0xbd421008	-0.04737857
18	0xbd0f4df4	-0.03498645
19	0x3cdf3828	0.027248457
20	0x3e61d402	0.22053531
21	0x3e98e8a5	0.29864994
22	0xbe0436a5	-0.1291147
23	0xbda4fedc	-0.08056423
24	0x3e9351e9	0.2877343
25	0x3d655955	0.055993397
26	0x3eba0ebd	0.3633937
27	0xbdf1c10a	-0.118043974
28	0x3e624779	0.22097577
29	0x3e309262	0.1724334
30	0x3e20d1d2	0.1570504
31	0x3e6e3512	0.23262432
32	0xbd6abfcd	-0.05731182
33	0x3d06f2da	0.032946445
34	0x3e99aba4	0.30013764
35	0x3d251d2f	0.040311035
36	0x3e4571c4	0.1928168
37	0x3ea40456	0.32034558
38	0x3e9e2826	0.30890006
39	0xbc8ad47a	-0.01694702
40	0xbd0762f0	-0.03305334
41	0x3e106fe3	0.14105181
42	0x3e3e1c74	0.18565542
43	0x3c7549c8	0.014971204
44	0x3df80c58	0.121117294
45	0xbe06a85a	-0.13150159
46	0x3e7ee242	0.24890998
47	0xbdbdd27d	-0.09268663
48	0x3e86893e	0.26276582
49	0x3e44b703	0.19210438
50	0x3e84fe6c	0.25975358
51	0x3e97fd63	0.29685506
52	0x3e42a70f	0.1900904
53	0x3e49ce23	0.19707541
54	0xbd8600d6	-0.06543128
55	0x3e306127	0.1722456
56	0xbd284e94	-0.041090563
57	0xbddbebf4	-0.10738364
58	0x3e3b16c3	0.18270402
59	0x3de8bc51	0.113640435
60	0xbd7aef93	-0.061263632
61	0x3e907ee4	0.2822181
62	0x3e53d23d	0.20685668
63	0x3e484fa8	0.19561636

model.4.weight f4 [8, 64]
0	0xbdb76ec7	-0.08956676
1	0xbe0d7838	-0.13815391
2	0x3eae6ba8	0.3406651
3	0x3dd2f67b	0.10300919
4	0x3fabce49	1.3422328
5	0x3ef4b0f6	0.4779126
6	0x3d5a8a62	0.05335463
7	0x3e58a4e6	0.21156654
8	0xbeef7131	-0.46766046
9	0x3eb6ef9d	0.35729685
10	0xbca90151	-0.02063051
11	0x3db0fe3e	0.08642243
12	0x3e478351	0.19483687
13	0xbe93bc6c	-0.28854692
14	0x3d9782b4	0.073979765
15	0x3eeb4949	0.4595435
16	0x3e7ff79e	0.24996802
17	0xbd600894	-0.05469568
18	0x3d216414	0.039402083
19	0x3dd1549c	0.10221216
20	0xbead5f73	-0.33861884
21	0xbe902c88	-0.28158975
22	0xbdf168e6	-0.11787586
23	0xbdc88628	-0.09791213
24	0xbf183b69	-0.5946565
25	0xbcdd794b	-0.027035376
26	0xbef441e3	-0.47706518
27	0xbca86f50	-0.02056089
28	0xbef3a448	-0.47586274
29	0xbe64cb15	-0.22343095
30	0x3edf39c9	0.43598774
31	0xbe4cdbe4	-0.20005757
32	0x3e073fcc	0.1320793
33	0x3ab10447	0.0013505303
34	0x3fc4b183	1.5366672
35	0xbda8c262	-0.082402006
36	0x3eac9890	0.33710146
37	0x3dc9b524	0.09849003
38	0xbef35515	-0.4752585
39	0x3dc41c8a	0.09575756
40	0xbdd6ecf6	-0.104944155
41	0x3eb8f92f	0.36127612
42	0x3f0d1925	0.5511649
43	0xbdae7dd7	-0.08520096
44	0xbe7669ea	-0.2406384
45	0x3d0317d2	0.03200514
46	0xbee0482f	-0.43805072
47	0xbd10109c	-0.03517209
48	0x3eb1c0d1	0.3471742
49	0x3ee8a701	0.45439914
50	0xbeda72b7	-0.42665645
51	0x3ee02c34	0.43783724
52	0x3e6509bd	0.22366996
53	0xbeedb93a	-0.4643038
54	0x3e53778e	0.20651075
55	0x3df627cc	0.120193094
56	0x3a7a6600	0.00095519423
57	0xbe19b2bb	-0.15009587
58	0x3e44d607	0.1922227
59	0x3e8b8c4f	0.27255484
60	0x3ddd8f32	0.10818328
61	0xbef6813f	-0.48145482
62	0x3e090b84	0.13383299
63	0x3ec82fd0	0.39098978
64	0xbde4aa3f	-0.11165284
65	0x3ea33286	0.31874484
66	0xbe84e7c0	-0.2595806
67	0x3d615534	0.055012897
68	0x3f117381	0.5681687
69	0xbec3173e	-0.3810367
70	0xbd9b7bf4	-0.075920016
71	0x3eee66b6	0.46562737
72	0x3e945436	0.28970498
73	0xbdbc9c3f	-0.09209489
74	0x3dc40ad0	0.09572375
75	0xbed60754	-0.41802466
76	0xbed8dbed	-0.4235529
77	0x3ed6384d	0.4183983
78	0xbdb58be0	-0.0886457
79	0xbe6d5a95	-0.23179086
80	0x3e8ab37a	0.27090055
81	0x3dfd64e2	0.123727575
82	0xbd52c250	-0.051454842
83	0x3dd99c35	0.10625497
84	0x3e7fda6f	0.2498567
85	0x3eb5003d	0.35351744
86	0xbdb36208	-0.08758932
87	0xbd72b140	-0.05925107
88	0x3ea5d1c8	0.32386613
89	0x3dc97d42	0.09838344
90	0x3e7d857b	0.2475795
91	0xbbb5ed80	-0.005551994
92	0x3eb42ff3	0.35192832
93	0x3ea47066	0.32117003
94	0xbec85841	-0.39129832
95	0x3e904804	0.28179944
96	0xbcc79133	-0.024361229
97	0xbd5a0f36	-0.053237163
98	0x3efdf536	0.49601144
99	0xbd7280ad	-0.059204746
100	0x3ec7d8c1	0.39032558
101	0x3eb352b6	0.3502404
102	0x3e80afb8	0.25134063
103	0xbd8e3ceb	-0.06945213
104	0x3c266570	0.0101560205
105	0x3ebbed5d	0.3670453
106	0x3f99667e	1.1984403
107	0x3ddd5356	0.10806911
108	0x3ee7216b	0.45142683
109	0xbc6b6ee4	-0.0143697
110	0x3ecf031b	0.40432057
111	0x3cc164b8	0.023607597
112	0xbe893f8d	-0.26806298
113	0xbe10cb7f	-0.14140128
114	0x3eaf8696	0.34282368
115	0x39b4e4e4	0.00034502812
116	0xbef5b62d	-0.47990552
117	0x3eb95013	0.36193904
118	0xbde81e06	-0.113338515
119	0xbeb6a6f0	-0.35674238
120	0xbd9b8758	-0.07594174
121	0xbd831f3e	-0.06402443
122	0xbeb1f581	-0.34757617
123	0xbebaeaba	-0.36507207
124	0xbcb08b78	-0.021550879
125	0x3ea81063	0.32825002
126	0xbf00a048	-0.5024457
127	0xbe9a819b	-0.30177006
128	0xbd2f61ad	-0.04281776
129	0xbd9e8972	-0.07741059
130	0x3d850c90	0.06496537
131	0x3d9faaac	0.07796225
132	0x3f858b96	1.0433223
133	0x3e361be9	0.17784084
134	0xbce1d8bf	-0.027569173
135	0x3e89c61b	0.26908955
136	0xbe9c7692	-0.30559212
137	0x3e8ba82d	0.27276745
138	0xbc39c050	-0.011337355
139	0xbf0d3846	-0.5516399
140	0xbde2439a	-0.1104805
141	0x3eaab3da	0.3334034
142	0x3dc3739b	0.09543534
143	0x3e2743b9	0.16334428
144	0x3e192277	0.14954554
145	0x3d2fc450	0.042911828
146	0x3dff8178	0.12475866
147	0xbdc0a45e	-0.094063506
148	0x3e9c7fde	0.30566305
149	0x3e21ad81	0.15788843
150	0x3c4af3a0	0.012387186
151	0xbc8e59c8	-0.017376795
152	0x3dd07581	0.10178662
153	0x3df57961	0.11986042
154	0x3dc597a1	0.096480615
155	0xbb382b00	-0.0028101802
156	0x3e1339bc	0.14377493
157	0xbed69565	-0.41910854
158	0xbda78c5f	-0.081810705
159	0x3e43caba	0.19120303
160	0xbdd782fe	-0.10523032
161	0x3ddaf790	0.1069175
162	0x3f38083f	0.7188758
163	0x3d3142db	0.04327665
164	0x3eed665f	0.46367165
165	0xbf229c7d	-0.6352003
166	0xbef28279	-0.47365168
167	0xbddca610	-0.107738614
168	0xbd636804	-0.05551912
169	0xbec8cb46	-0.39217585
170	0x3e204616	0.15651736
171	0xbdb2bac0	-0.08727026
172	0xbecf71c7	-0.40516493
173	0x3d75ca61	0.060007457
174	0x3e5fcee1	0.21856262
175	0x3c986180	0.01860118
176	0xbd0dc5dc	-0.03461252
177	0x3eaadeeb	0.33373198
178	0x3ea541d8	0.32276797
179	0x3d1745fa	0.03693197
180	0x3df7ad41	0.120935924
181	0x3e51c8f5	0.20486815
182	0x3e66af91	0.22527911
183	0xbe910d7c	-0.283306
184	0x3dafe32c	0.085882515
185	0xbcb4c5f0	-0.02206704
186	0xbd068faf	-0.03285187
187	0x3e8ba240	0.27272224
188	0x3d5b16a3	0.053488385
189	0x3e1636d4	0.14669353
190	0xbebf9f0d	-0.37426034
191	0x3ea37e78	0.31932425
192	0x3ddb646c	0.10712513
193	0x3e068ab0	0.13138843
194	0xbd54acb2	-0.051922508
195	0xbd7e1ea0	-0.062040925
196	0x3e3738d1	0.17892767
197	0x3d9e1ed3	0.07720723
198	0x3ba8e955	0.0051547685
199	0x3e33efa1	0.1757188
200	0x3dbabb28	0.091177285
201	0xbd25d8eb	-0.040490072
202	0xbcc508a8	-0.02405198
203	0xbde5bdb9	-0.11217827
204	0xbe2eb4f4	-0.17061216
205	0x3cd15f3f	0.025558112
206	0x3b244fd5	0.0025071998
207	0x3e27577e	0.1634197
208	0x3ea9ec57	0.33188125
209	0xbdaa0ae8	-0.083028615
210	0x3d1420c8	0.036164075
211	0x3d672ea5	0.056440968
212	0x3deed4ac	0.11661658
213	0x3e45376c	0.19259423
214	0x3db2f827	0.087387376
215	0xbdc0414c	-0.093874544
216	0x3d97c568	0.07410699
217	0xbc1eb91e	-0.00968769
218	0x3dd7fdcc	0.10546455
219	0xbc7fd9c0	-0.0156158805
220	0x3e0cf26e	0.13764355
221	0x3cba9214	0.022774734
222	0xbcc5d5b5	-0.024149755
223	0x3e668332	0.22510985
224	0x3dc8535a	0.09781523
225	0xbd9f8154	-0.07788339
226	0x3e1fe816	0.15615878
227	0xbdc10e2a	-0.0942653
228	0x3e5b74fd	0.21431346
229	0xbc2ebff4	-0.010665882
230	0x3dc1e8d0	0.094682336
231	0x3c865520	0.016398013
232	0xbdd18c72	-0.10231866
233	0x3dbe11c6	0.09280734
234	0x3ed474be	0.41495317
235	0xbd847b6d	-0.06468854
236	0xbd464434	-0.048404887
237	0xbc73898e	-0.014864339
238	0xbdbcc431	-0.09217108
239	0xbdba39aa	-0.0909303
240	0x3d3ac238	0.045595378
241	0x3db9954b	0.090616785
242	0xbc409397	-0.011753938
243	0xbd948439	-0.07251782
244	0x3d65e9ff	0.05613136
245	0x3e03af86	0.12859926
246	0xbe1a04a1	-0.15040828
247	0xbe3bf455	-0.18354924
248	0xbd89ff50	-0.0673815
249	0x3d8eeedf	0.06979155
250	0xbd9757d1	-0.073897965
251	0xbc6b184d	-0.0143490555
252	0xbc7bd4ae	-0.015370531
253	0xbd2b0a19	-0.041757677
254	0xbe3c2192	-0.18372181
255	0x3dea858b	0.114512525

model.4.bias f4 [8]
0	0x3e3ee5df	0.18642376
1	0x3e58576a	0.21127096
2	0x3c092260	0.008370012
3	0x3cda6077	0.026657326
4	0x3ce00c78	0.027349696
5	0xbde47ad2	-0.111562386
6	0xbe373b67	-0.17893754
7	0x3d4f57fa	0.05062101
