src/reinforcement_app/storage/model/3.pth (torch, 25613 bytes, 6 tensors)

model.0.weight f4 [64, 16]
-1.2911148 -0.32916814 0.1558198 0.045049023 0.061148867 1.0622573 1.0291866 -0.22637092
0.23962063 -0.20102972 -0.08835605 0.16108313 -0.0018201768 -0.06897062 -0.08607012 0.16715515
-0.32791185 0.23056197 0.69124144 -0.60274667 0.98248625 -1.1121597 -0.7259794 -0.032932777
-0.21033585 0.015282422 -0.09987348 -0.060114205 0.24822971 -0.17260581 -0.111588866 0.08464995
0.41562107 0.45902455 0.27929142 0.8562659 0.3928651 -0.39984727 -0.06868817 0.12086834
0.09237328 -0.1285136 -0.06384519 -0.17376763 -0.20517725 0.18821523 0.21925 0.06338906
0.6259176 0.32789022 0.35474968 0.32664976 0.7535894 -0.657171 0.06843037 0.595371
-0.16600788 -0.20543385 0.07174513 -0.039776027 -0.07775545 0.08717996 0.14684862 0.04768786
-1.1577586 -0.90721834 -0.86857194 -0.075190686 0.71536493 -0.94390786 0.8985155 -0.15197341
-0.07986334 -0.13404647 0.067784935 0.15044776 -0.064967066 0.028571606 -0.07339811 0.18586814
-0.65276426 -0.03379313 0.19628637 0.8373687 1.0768969 1.100745 0.84496355 0.18351161
0.16546619 -0.22699901 -0.19985309 0.18416303 -0.051896095 0.2488977 -0.2188766 -0.14109477
-0.19237551 0.17936921 0.0916681 0.042259872 0.16065449 0.18031195 0.043768525 -0.09869069
0.15968508 0.00467363 0.24881032 -0.12439355 -0.12614012 -0.06460208 -0.23722667 -0.01480037
-0.44127932 -0.31884682 -0.0764808 -0.57783556 -0.94432956 0.29911494 -0.5570898 -0.46211055
-0.013930798 0.05466494 0.0319404 -0.15776616 -0.17256263 -0.13615695 0.055906385 -0.16991359
-1.4718055 -0.15576163 0.59359497 0.042956673 0.5919537 0.66282386 -0.010492764 0.6422057
-0.12115866 0.221347 0.1417104 -0.072617084 -0.012945384 -0.22344953 -0.22147089 0.19483185
0.12717512 -0.08297619 0.2930453 -0.099315554 0.8918957 1.0112829 0.74385864 0.21977308
0.019620806 0.06486726 -0.09875861 0.17563242 -0.041385233 0.091019064 0.01186505 -0.16081351
0.64872986 0.6779877 1.1728435 0.37013644 -0.06386849 0.6908121 0.72543865 0.75273573
-0.19617543 -0.13187262 0.21910682 0.22750056 0.14037606 -0.07946104 0.07016826 0.09103665
0.33519837 0.020235544 -1.1863606 0.74077046 0.5583144 -0.18228981 0.69234616 0.5517072
-0.17528695 0.09567544 0.2376112 -0.20184377 -0.12714127 -0.05941212 -0.04200408 0.038624257
-0.270151 -0.7007576 0.47969058 0.697329 0.8246377 0.0620208 -0.103005886 0.81928504
-0.14115572 -0.010098159 -0.009809464 0.0016050637 0.21494994 -0.108597875 0.058583558 -0.078424215
0.40230256 0.25655502 0.50235206 0.3514773 0.47376025 -0.6250091 -0.6144949 -0.36199337
0.031160504 0.18178666 0.19889602 -0.14079773 0.19006339 -0.103800446 -0.10679227 -0.08714512
-0.07079515 -0.4718421 -0.2877059 -0.56446457 -0.5819678 0.3889549 -1.7455605 0.13110922
0.09131342 0.15662456 0.10312879 0.0523881 -0.16588664 0.06428951 0.09900004 0.18541446
-1.2240558 0.109627865 0.5110782 -0.43076244 -0.24862947 0.7236184 0.581553 0.569565
-0.10062423 0.14478204 0.01610443 0.23754862 -0.08320093 -0.10867119 -0.21906215 -0.0066561103
00000000: 4043 a5bf ba88 a8be 3a8f 1f3e 5385 383d
00000010: 3c77 7a3d 0cf8 873f 63bc 833f c7cd 67be
00000020: 1c5f 753e bcda 4dbe 04f4 b4bd faf2 243e
00000030: 0093 eeba 7840 8dbd 8845 b0bd b82a 2b3e
00000040: 10e4 a7be 7018 6c3e 33f5 303f 9b4d 1abf
00000050: 3884 7b3f 405b 8ebf c9d9 39bf 85e4 06bd
00000060: 4862 57be 2063 7a3c 788a ccbd 503a 76bd
00000070: ee2f 7e3e 94bf 30be b488 e4bd f45c ad3d
00000080: 49cc d43e 4405 eb3e 49ff 8e3e 3e34 5b3f
00000090: 9d25 c93e c8b8 ccbe 62ac 8cbd d289 f73d
000000a0: 342e bd3d 1299 03be 44c1 82bd 24f0 31be
000000b0: fc19 52be 7ebb 403e 1283 603e 20d2 813d
000000c0: 233c 203f 3ae1 a73e c0a1 b53e a33e a73e
000000d0: 3ceb 403f 5c3c 28bf 3925 8c3d 3c6a 183f
000000e0: f8fd 29be 405d 52be 1cef 923d 30ec 22bd
000000f0: 403e 9fbd 688b b23d 7c5f 163e 5854 433d
00000100: 6f31 94bf 763f 68bf bb5a 5ebf 93fd 99bd
00000110: 2822 373f f2a3 71bf 1d05 663f eb9e 1bbe
00000120: 648f a3bd 7a43 09be d4d2 8a3d fa0e 1a3e
00000130: 740d 85bd 000f ea3c c051 96bd 3854 3e3e
00000140: 8f1b 27bf aa6a 0abd 4bff 483e cc5d 563f
00000150: c2d7 893f 36e5 8c3f 884f 583f 78ea 3b3e
00000160: f86f 293e 6e72 68be 4aa6 4cbe 3c95 3c3e
00000170: 0091 54bd 0adf 7e3e 3021 60be 267b 10be
00000180: 16fe 44be 90ac 373e 7cbc bb3d b018 2d3d
00000190: 9c82 243e b2a3 383e a046 333d 581e cabd
000001a0: 7c84 233e 4025 993b 22c8 7e3e 0cc2 febd
000001b0: e02a 01be 184e 84bd 8ceb 72be 407d 72bc
000001c0: 5def e1be e43f a3be f7a1 9cbd 08ed 13bf
000001d0: 95bf 71bf 9825 993e 709d 0ebf c199 ecbe
000001e0: 003e 64bc 58e8 5f3d f0d3 023d 748d 21be
000001f0: 42b4 30be ba6c 0bbe 18fe 643d d4fd 2dbe
00000200: 1f64 bcbf fa7f 1fbe d7f5 173f 56f3 2f3d
00000210: 478a 173f d3ae 293f d8e9 2bbc 9867 243f
00000220: 0822 f8bd caa8 623e 881c 113e 44b8 94bd
00000230: e018 54bc f4cf 64be 44c9 62be 0082 473e
00000240: 323a 023e 6cef a9bd 090a 963e f465 cbbd
00000250: 4753 643f b871 813f 856d 3e3f 320c 613e
00000260: d0bb a03c 20d9 843d f441 cabd fcd8 333e
00000270: 9083 29bd 3468 ba3d a065 423c 4cac 24be
00000280: 2913 263f 9a90 2d3f bc1f 963f 8682 bd3e
00000290: 7ccd 82bd 10d9 303f 59b6 393f 4ab3 403f
000002a0: 36e2 48be 9e09 07be 8a5d 603e e8f5 683e
000002b0: bebe 0f3e 78bc a2bd 60b4 8f3d 6c71 ba3d
000002c0: 1f9f ab3e 03c5 a53c aada 97bf 22a3 3d3f
000002d0: b1ed 0e3f 2eaa 3abe 993d 313f af3c 0d3f
000002e0: 6c7e 33be 7cf1 c33d 5a50 733e 22b0 4ebe
000002f0: 5231 02be 205a 73bd 780c 2cbd 7834 1e3d
00000300: 3b51 8abe da64 33bf 019a f53e 2784 323f
00000310: 751b 533f 8609 7e3d c0f4 d2bd aabc 513f
00000320: 208b 10be c072 25bc e0b7 20bc 0061 d23a
00000330: d61b 5c3e 9068 debd 50f5 6f3d e09c a0bd
00000340: 9afa cd3e 2e5b 833e 259a 003f d5f4 b33e
00000350: b490 f23e 9900 20bf 8a4f 1dbf 3257 b9be
00000360: 5044 ff3c 4826 3a3e 66ab 4b3e 482d 10be
00000370: fa9f 423e 5495 d4bd e8b5 dabd 2479 b2bd
00000380: 0cfd 90bd 4a95 f1be 304e 93be c080 10bf
00000390: d7fb 14bf 1925 c73e 876e dfbf 7f41 063e
000003a0: 8802 bb3d 3062 203e 3035 d33d e894 563d
000003b0: 30de 29be 38aa 833d 88c0 ca3d 4add 3d3e
000003c0: dcad 9cbf 9384 e03d 05d6 023f e58c dcbe
000003d0: b998 7ebe 0e3f 393f a8e0 143f 03cf 113f
000003e0: 1414 cebd be41 143e 70ed 833c f23f 733e
000003f0: 4065 aabd 008f debd d451 60be 801b dabb

model.0.bias f4 [64]
0.09526862 0.3830425 0.16383962 0.25578332 0.057287954 0.40007854 -0.2037755 0.34423816
0.47920603 0.3889299 0.24088553 0.06952049 0.11184788 0.27649745 0.24495295 0.23485595
0.31164733 0.48976934 0.33611983 -0.22406788 0.35248655 -0.25918102 0.24503927 0.08727785
-0.21366793 0.055158764 0.46105105 0.46740335 -0.2410861 0.3801579 -0.035932705 -0.23724613
0.37245536 -0.19748724 0.19342232 0.2050575 0.2756538 0.13554068 0.45962617 0.31483528
0.006239199 -0.21538857 -0.24519745 -0.21414155 0.3292061 0.24083304 0.3168991 0.33835584
0.23354428 -0.19670564 0.27128154 0.116583556 0.42847943 -0.20207474 0.07904211 0.05104686
-0.20368645 -0.15529287 0.31689224 0.4136669 -0.1582302 0.27288198 0.3928505 0.47276354
00000000: 321c c33d 261e c43e 93c5 273e 08f6 823e
00000010: c6a6 6a3d 18d7 cc3e 86aa 50be fc3f b03e
00000020: 7e5a f53e d221 c73e b2aa 763e c260 8e3d
00000030: 8010 e53d 1391 8d3e f2d4 7a3e 147e 703e
00000040: 3d90 9f3e 0cc3 fa3e e617 ac3e 0d72 65be
00000050: 1e79 b43e 60b3 84be 93eb 7a3e bbbe b23d
00000060: c4cb 5abe 28ee 613d e20e ec3e 7e4f ef3e
00000070: 46df 76be 0ea4 c23e 2c2e 13bd a6f0 72be
00000080: 78b2 be3e 183a 4abe 8010 463e 98fa 513e
00000090: 7f22 8d3e 2dcb 0a3e 1f54 eb3e 1732 a13e
000000a0: 3272 cc3b d28e 5cbe 0a15 7bbe ec47 5bbe
000000b0: b48d a83e f09c 763e 9940 a23e fa3c ad3e
000000c0: 3b26 6f3e 346d 49be 6ae5 8a3e 5cc3 ee3d
000000d0: a861 db3e aeec 4ebe d4e0 a13d 8316 513d
000000e0: 2e93 50be 1805 1fbe b33f a23e 26cc d33e
000000f0: 1907 22be 30b7 8b3e b323 c93e 100e f23e

model.2.weight f4 [64, 64]
0.06756227 -0.121821076 0.42725372 0.34765044 -0.10758858 -0.15464042 -0.02993533 -0.34241953
-0.19593762 0.19078545 0.3715791 0.2401358 -0.20142767 0.30252758 -0.38977012 0.011903855
0.38902107 -0.61150944 0.35683662 -0.101026 -0.15623435 0.08207066 -0.026694616 0.033382498
-0.00055612624 0.14732917 -0.5424748 0.054656602 -0.11306432 -0.20583661 0.67697686 0.08186366
0.1835079 -0.028759167 -0.062815316 0.3261457 0.18682235 -0.29930264 -0.9934992 0.1583309
0.335918 0.042185634 -0.12281175 0.08034906 -0.13836056 0.29826057 -0.32191983 0.16483718
0.10278968 0.0052218437 -0.17768544 0.5136155 0.36417788 -0.11206679 -0.09023607 0.0767564
-0.020666644 -0.100247905 -0.8558638 -0.08363504 -0.10259862 -0.04365336 0.18209991 -0.6469277
-0.12434133 0.64817834 -0.3871008 -0.08199357 0.14485878 0.11854787 0.02567938 0.34069294
0.3380081 0.20027675 -0.1787759 -0.50193006 -0.2296571 -0.3785469 0.56649816 0.22842735
-0.31414798 0.7711615 0.20631775 0.041170012 0.2978429 -0.066593066 -0.076086 -0.7858879
-0.07920678 -0.34790903 0.82172406 0.34428155 -0.1185922 0.09860459 0.26155704 -0.018638283
0.38230142 0.08888252 0.5972953 -0.38690925 -0.49341613 0.0046255034 0.2905617 0.37747058
-0.55952585 0.10081452 0.034759387 -0.109457746 0.69869095 -0.10729486 0.0569385 0.48975188
0.0017353331 -0.008804545 0.2412562 -0.2514676 0.10225723 0.02560483 0.040164206 0.0768188
0.08453758 0.12274732 0.22451213 0.6067272 -0.09805923 0.2526119 -0.42438805 0.72519284
0.23173523 0.3422328 0.4877323 0.44130602 0.4386056 0.15832146 -0.011951253 -0.22614291
0.14757337 0.18925017 0.17336014 0.5480849 0.16485484 0.53089774 -0.32630256 -0.12710384
0.551882 -0.19257164 -0.6769688 0.11582512 0.6911536 0.024398807 -0.06732833 0.6526948
0.028145999 0.74081326 -0.28188017 -0.067193225 -0.04968749 0.20740351 -0.57086444 -0.044069737
-0.17600526 0.0814413 -0.11884903 0.5107004 0.49477684 0.12349845 0.05492773 0.31488702
-0.013787094 0.04951425 -0.0097664 -0.02929756 -0.30513546 0.61321956 0.31669626 -0.07265559
0.53963643 -0.019474491 0.46619913 -0.38725856 0.010911339 0.044990018 0.23197266 0.24814326
-0.02285321 0.033877954 0.23416495 -0.09610516 0.010446768 0.09493364 0.49635792 -0.07465009
-0.09313661 -0.07395799 -0.10452054 0.05332248 -0.11342405 0.029134337 0.08377163 -0.041180648
-0.053195447 0.0012098977 -0.105797 -0.016019907 -0.07698301 -0.12093137 0.057191607 0.018215792
0.022540975 -0.009304836 -0.09205351 -0.038167268 -0.11038414 0.12314391 0.08210205 -0.15691847
0.04178369 0.016567301 -0.040398534 0.01611786 0.02526334 0.062090855 -0.1017513 0.06482126
0.006413657 -0.09316923 0.05249673 0.07084013 -0.057677984 -0.10189721 0.009483022 -0.05632372
-0.04931836 0.0194937 0.006674573 -0.040452972 -0.14777489 -0.05239733 -0.12604731 -0.025740653
0.012278377 0.03717506 -0.058617856 -0.08552619 0.039133 0.0008597076 -0.048210874 -0.05387749
0.0068336874 0.07978052 0.020855835 -0.026800836 0.020526081 -0.019543009 -0.06167454 -0.033558786
00000000: 165e 8a3d 547d f9bd 00c1 da3e 3dff b13e
00000010: 6757 dcbd 0f5a 1ebe f03a f5bc 9d51 afbe
00000020: dfa3 48be 435d 433e 9e3f be3e 29e6 753e
00000030: 0e43 4ebe e5e4 9a3e f38f c7be 6308 433c
00000040: c52d c73e e28b 1cbf 4ab3 b63e b8e6 cebd
00000050: e6fb 1fbe aa14 a83d abae dabc 16bc 083d
00000060: 00c9 11ba 75dd 163e a1df 0abf 9adf 5f3d
00000070: 448e e7bd d5c6 52be 5b4e 2d3f 22a8 a73d
00000080: 7fe9 3b3e 5898 ebbc 51a5 80bd 92fc a63e
00000090: 5c4e 3f3e 323e 99be f755 7ebf 7f21 223e
000000a0: 72fd ab3e d8ca 2c3d ba84 fbbd 0c8e a43d
000000b0: 64ae 0dbe 9cb5 983e add2 a4be 14cb 283e
000000c0: 6583 d23d 001c ab3b 2cf3 35be 4e7c 033f
000000d0: 8675 ba3e 4683 e5bd b0cd b8bd 7632 9d3d
000000e0: 184d a9bc c64e cdbd e419 5bbf d948 abbd
000000f0: 3a1f d2bd decd 32bd 6678 3a3e 0e9d 25bf
00000100: aba6 febd 04ef 253f 1332 c6be 3fec a7bd
00000110: dc55 143e 3ac9 f23d 905d d23c 4e6f ae3e
00000120: 660f ad3e 5915 4d3e 0811 37be 7d7e 00bf
00000130: 3b2b 6bbe e6d0 c1be 0606 113f dce8 693e
00000140: 01d8 a0be d76a 453f f644 533e e3a1 283d
00000150: dd7e 983e f261 88bd fad2 9bbd f32f 49bf
00000160: 2a37 a2bd 2221 b2be 825c 523f ac45 b03e
00000170: 78e0 f2bd 34f1 c93d ceea 853e 50af 98bc
00000180: 03bd c33e 0a08 b63d 58e8 183f f818 c6be
00000190: 0aa1 fcbe 8991 973b 81c4 943e d343 c13e
000001a0: 163d 0fbf d877 ce3d dc5f 0e3d 622b e0bd
000001b0: 69dd 323f 68bd dbbd 5838 693d c2c0 fa3e
000001c0: 1e74 e33a f040 10bc de0b 773e 5cc0 80be
000001d0: 3d6c d13d 38c1 d13c 3983 243d 2d53 9d3d
000001e0: 0a22 ad3d f262 fb3d 82e6 653e 7952 1b3f
000001f0: 47d3 c8bd 5956 813e 6449 d9be 3da6 393f
00000200: 004c 6d3e 2339 af3e 0cb8 f93e ddf2 e13e
00000210: ea90 e03e 051f 223e 30cf 43bc 0292 67be
00000220: 791d 173e ccca 413e 5285 313e 4b4f 0c3f
00000230: b5cf 283e eae8 073f 2111 a7be 8227 02be
00000240: 2448 0d3f 8031 45be d44d 2dbf b835 ed3d
00000250: 71ef 303f 02e0 c73c 6fe3 89bd 0217 273f
00000260: 7092 e63c f0a5 3d3f 9952 90be 9a9c 89bd
00000270: 1c85 4bbd 9661 543e 2c24 12bf 7882 34bd
00000280: b93a 34be b2ca a63d 1f67 f3bd 43bd 023f
00000290: 6453 fd3e c1ec fc3d e6fb 603d df38 a13e
000002a0: 43e3 61bc 74cf 4a3d 4003 20bc 7001 f0bc
000002b0: b73a 9cbe f5fb 1c3f 0326 a23e 74cc 94bd
000002c0: 9d25 0a3f f888 9fbc a7b1 ee3e c146 c6be
000002d0: 79c5 323c 7447 383d 3e8a 6d3e 4419 7e3e
000002e0: a836 bbbc 9cc3 0a3d f0c8 6f3e c8d2 c4bd
000002f0: ec28 2b3c 916c c23d a022 fe3e 25e2 98bd
00000300: 68be bebd 4977 97bd dd0e d6bd ac68 5a3d
00000310: de4a e8bd 22ab ee3c 7690 ab3d 0aad 28bd
00000320: 78e3 59bd 6e95 9e3a 19ac d8bd 2e3c 83bc
00000330: 45a9 9dbd deaa f7bd bf41 6a3d 4939 953c
00000340: daa7 b83c 5073 18bc 8d86 bcbd 4855 1cbd
00000350: 1411 e2bd e032 fc3d 1f25 a83d 3caf 20be
00000360: 6025 2b3d 26b8 873c ef78 25bd 9a09 843c
00000370: 10f5 ce3c fb52 7e3d fc62 d0bd 02c1 843d
00000380: a829 d23b 82cf bebd d006 573d a114 913d
00000390: c03f 6cbd 7caf d0bd ad5e 1b3c b3b3 66bd
000003a0: 0c02 4abd 40b1 9f3c 60b6 da3b 04b2 25bd
000003b0: 4d52 17be 959e 56bd 8c12 01be 10de d2bc
000003c0: 3f2b 493c e044 183d 4719 70bd 5b28 afbd
000003d0: ed49 203d 005e 613a c478 45bd a5ae 5cbd
000003e0: 20ed df3b f863 a33d dbd9 aa3c 6d8d dbbc
000003f0: 5026 a83c a918 a0bc 719e 7cbd f074 09bd

model.2.bias f4 [64]
0.14148685 0.16624969 0.1373493 -0.16516052 0.17741592 0.25782633 0.018071914 0.16875994
0.28937224 0.22227818 -0.044921238 0.17161858 0.08743696 0.09084651 -0.0055626174 0.21663104
-0.20792152 -0.04737857 -0.03498645 0.027248457 0.25069916 0.32458076 -0.1291147 -0.08056423
0.31532392 0.055993397 0.38626024 -0.118043974 0.26530507 0.11199273 0.07498355 0.14917873
-0.08893565 0.032946445 0.32130527 0.040311035 0.0976501 0.27226812 0.29637915 0.07226724
-0.03305334 0.007938043 0.22128905 0.014971204 0.14285427 -0.13150159 0.19054104 -0.09268663
0.24417232 0.2345061 0.33526257 0.4031433 0.22195289 0.16315451 0.06705708 0.16133414
-0.041090563 -0.10738364 0.2036616 0.07200505 -0.061263632 0.27046108 0.24403034 0.19587216
00000000: eee1 103e 5c3d 2a3e 4ba5 0c3e d71f 29be
00000010: 85ac 353e d001 843e 8d0b 943c 68cf 2c3e
00000020: 9928 943e e49c 633e 55ff 37bd c8bc 2f3e
00000030: 2612 b33d bc0d ba3d 9e46 b6bb 87d4 5d3e
00000040: 61e9 54be 0810 42bd f44d 0fbd 2838 df3c
00000050: a45b 803e 732f a63e a536 04be dcfe a4bd
00000060: 2372 a13e 5559 653d e7c3 c53e 0ac1 f1bd
00000070: 11d6 873e 725c e53d fa90 993d 4fc2 183e
00000080: e523 b6bd daf2 063d 2082 a43e 2f1d 253d
00000090: c7fc c73d ba66 8b3e 02bf 973e d900 943d
000000a0: f062 07bd 910e 023c 9999 623e c849 753c
000000b0: 6448 123e 5aa8 06be 311d 433e 7dd2 bdbd
000000c0: 4f08 7a3e 5e22 703e 89a7 ab3e cc68 ce3e
000000d0: 9e47 633e fa11 273e 3955 893d c734 253e
000000e0: 944e 28bd f4eb dbbd ab8c 503e 6277 933d
000000f0: 93ef 7abd e079 8a3e 17e3 793e b692 483e

model.4.weight f4 [8, 64]
0.37026542 -0.16903597 0.39315015 0.10300919 1.6771204 0.54309535 0.05335463 0.23340605
-0.37489194 0.45084488 -0.02063051 0.100210726 0.16461398 -0.28309008 0.073979765 0.54695445
0.48788813 -0.05469568 0.039402083 0.10221216 -0.41775766 -0.19501573 -0.11787586 -0.09791213
-0.5776644 -0.027035376 -0.41864005 -0.02056089 -0.44241962 -0.11476751 0.5197571 -0.105428144
0.10138147 0.0013505303 1.864619 -0.082402006 0.43964198 0.18235524 -0.4178235 0.2411474
-0.104944155 0.58354676 0.7494918 -0.08520096 -0.19389148 0.03200514 -0.42692918 -0.03517209
0.44400886 0.5032492 -0.5522977 0.54296017 0.23188712 -0.38141942 0.13362874 0.16589032
0.00095519423 -0.15009587 0.1959984 0.3077882 0.10818328 -0.4369424 0.038922995 0.46042758
0.49911174 0.2902364 -0.146794 0.023513336 0.7631177 -0.31436875 -0.075920016 0.39048347
0.34686634 0.0023479029 0.09572375 -0.33157283 -0.29874694 0.36451274 -0.0886457 -0.14332785
0.39672905 0.123727575 -0.051454842 0.10625497 0.07385075 0.33204302 -0.08758932 -0.05925107
0.21879 0.09838344 0.2023229 -0.005551994 0.27984193 0.35726118 -0.20707193 0.1846309
-0.024361229 -0.053237163 0.67885524 -0.059204746 0.41074586 0.3874362 0.20254384 -0.47545782
0.0101560205 0.44941464 1.5603766 0.10806911 0.5268736 -0.0143697 0.2815595 0.023607597
-0.11635959 -0.034136143 0.22284356 0.29987612 -0.5054409 0.16164924 -0.0812618 -0.21005967
-0.07594174 -0.06402443 -0.12327423 -0.3600181 -0.021550879 0.2907178 -0.51024926 -0.25797448
0.1691781 -0.16931054 0.12965551 0.07796225 1.3244551 0.21396929 -0.027569173 0.26939854
-0.27202865 0.37666446 -0.011337355 -0.5977044 -0.06741844 0.3764267 0.09543534 0.22378851
0.39391133 0.042911828 0.12475866 -0.094063506 0.28052443 0.21105811 0.012387186 -0.017376795
0.115655206 0.11986042 0.1636519 -0.0028101802 0.15219209 -0.4465176 0.008880471 0.28582618
-0.10523032 0.1069175 0.96753234 0.04327665 0.8666342 -0.6191623 -0.5064731 -0.46074286
-0.05551912 -0.3002768 0.47689587 -0.08727026 -0.47053435 0.060007457 0.2189691 0.01860118
0.004866484 0.3900889 0.3062633 0.13416974 0.09691302 0.21669139 0.24633174 -0.22899577
0.085882515 -0.02206704 -0.013038937 0.32561934 0.053488385 0.19885787 -0.42532262 0.37390602
0.30901515 0.13295731 -0.083783805 -0.062040925 0.056184713 0.16227438 0.0051547685 0.39656535
0.023256902 0.069095284 -0.02405198 -0.32121366 -0.6312124 0.20193346 0.0025071998 0.2976061
0.911585 -0.083028615 0.036164075 0.056440968 0.38056555 0.38295886 0.087387376 -0.093874544
0.24403894 -0.00968769 0.27295616 -0.0156158805 0.32461533 -0.18046017 -0.19575721 0.6232504
0.09781523 -0.07788339 0.03707301 -0.0942653 0.5782383 -0.24462545 0.060845535 0.37995484
-0.10231866 0.03436813 0.6469117 -0.06468854 -0.2799102 -0.014864339 0.00071982807 -0.0909303
0.023961667 0.25631607 0.18755834 -0.38030225 0.24004893 0.40634325 -0.12327053 -0.49526763
-0.0673815 0.06979155 -0.3303045 0.12438966 -0.015370531 0.03600235 -0.5220176 0.2544096
00000000: 6e93 bd3e c417 2dbe fa4a c93e 7bf6 d23d
00000010: e2ab d63f 4c08 0b3f 628a 5a3d ff01 6f3e
00000020: d6f1 bfbe 24d5 e63e 5101 a9bc 483b cd3d
00000030: 9190 283e 2ff1 90be b482 973d 3505 0c3f
00000040: 79cc f93e 9408 60bd 1464 213d 9c54 d13d
00000050: 55e4 d5be 34b2 47be e668 f1bd 2886 c8bd
00000060: d0e1 13bf 4b79 ddbc fd57 d6be 506f a8bc
00000070: d384 e2be 3a0b ebbd cd0e 053f b6ea d7bd
00000080: 17a1 cf3d 4704 b13a d6ab ee3f 62c2 a8bd
00000090: c118 e13e 55bb 3a3e f6ec d5be 58ef 763e
000000a0: f6ec d6bd 5263 153f b2de 3f3f d77d aebd
000000b0: 7d8b 46be d217 033d 7696 dabe 9c10 10bd
000000c0: 2155 e33e f1d4 003f 6263 0dbf 70ff 0a3f
000000d0: d173 6d3e 6849 c3be f9d5 083e 27df 293e
000000e0: 0066 7a3a bbb2 19be ceb3 483e 6a96 9d3e
000000f0: 328f dd3d eab6 dfbe b86d 1f3d 2abd eb3e
00000100: 938b ff3e de99 943e 2b51 16be 0a9f c03c
00000110: ae5b 433f f1f4 a0be f47b 9bbd 73ed c73e
00000120: 7798 b13e 46df 193b d00a c43d eac3 a9be
00000130: 5cf5 98be 6aa1 ba3e e08b b5bd 89c4 12be
00000140: 1220 cb3e e264 fd3d 50c2 52bd 359c d93d
00000150: 103f 973d 8b01 aa3e 0862 b3bd 40b1 72bd
00000160: 7c0a 603e 427d c93d bc2d 4f3e 80ed b5bb
00000170: 7147 8f3e f0ea b63e aa0a 54be e20f 3d3e
00000180: 3391 c7bc 360f 5abd 75c9 2d3f ad80 72bd
00000190: 484d d23e 0a5e c63e a767 4f3e 356f f3be
000001a0: 7065 263c ad19 e63e 6cba c73f 5653 dd3d
000001b0: 30e1 063f e46e 6bbc 9128 903e b864 c13c
000001c0: f04d eebd 57d2 0bbd 1a31 643e 5d89 993e
000001d0: 9364 01bf 6187 253e 966c a6bd e219 57be
000001e0: 5887 9bbd 3e1f 83bd 3377 fcbd 4b54 b8be
000001f0: 788b b0bc f7d8 943e b29f 02bf 3b15 84be
00000200: 063d 2d3e be5f 2dbe 6ac4 043e acaa 9f3d
00000210: bf87 a93f c41a 5b3e bfd8 e1bc 9bee 893e
00000220: 5747 8bbe 2ada c03e 50c0 39bc 2803 19bf
00000230: ae12 8abd 00bb c03e 9b73 c33d d128 653e
00000240: bfae c93e 50c4 2f3d 7881 ff3d 5ea4 c0bd
00000250: e6a0 8f3e 9e1f 583e a0f3 4a3c c859 8ebc
00000260: a3dc ec3d 6179 f53d 5d94 273e 002b 38bb
00000270: 3ed8 1b3e f49d e4be 657f 113c cf57 923e
00000280: fe82 d7bd 90f7 da3d 33b0 773f db42 313d
00000290: bddb 5d3f 6c81 1ebf 39a8 01bf 7de6 ebbe
000002a0: 0468 63bd e1bd 99be b22b f43e c0ba b2bd
000002b0: e1e9 f0be 61ca 753d 7039 603e 8061 983c
000002c0: 0777 9f3b bbb9 c73e 8bce 9c3e cb63 093e
000002d0: 557a c63d 59e4 5d3e 633e 7c3e de7d 6abe
000002e0: 2ce3 af3d f0c5 b4bc 44a1 55bc 94b7 a63e
000002f0: a316 5b3d 66a1 4b3e e3c3 d9be 9c70 bf3e
00000300: 3c37 9e3e f625 083e d896 abbd a01e 7ebd
00000310: f121 663d 412b 263e 55e9 a83b 9d0a cb3e
00000320: 4285 be3c d481 8d3d a808 c5bc 1e76 a4be
00000330: 2397 21bf a5c7 4e3e d54f 243b d45f 983e
00000340: a25d 693f e80a aabd c820 143d a52e 673d
00000350: 7dd9 c23e 2f13 c43e 27f8 b23d 4c41 c0bd
00000360: 58e5 793e 1eb9 1ebc e9c0 8b3e c0d9 7fbc
00000370: fb33 a63e 8dca 38be 9474 48be 578d 1f3f
00000380: 5a53 c83d 5481 9fbd ded9 173d 2a0e c1bd
00000390: 6d07 143f 187f 7abe 2b39 793d 7189 c23e
000003a0: 728c d1bd 99c5 0c3d 019c 253f 6d7b 84bd
000003b0: 6450 8fbe 8e89 73bc d8b2 3c3a aa39 babd
000003c0: 424b c43c dc3b 833e 4b0f 403e fab6 c2be
000003d0: 63cf 753e 390c d03e 4275 fcbd b893 fdbe
000003e0: 50ff 89bd dfee 8e3d ac1d a9be 02c0 fe3d
000003f0: aed4 7bbc 3377 133d f2a2 05bf fa41 823e

model.4.bias f4 [8]
0.17123814 0.2342566 -0.022547351 0.092254244 -0.03122493 -0.11726481 -0.26201802 0.17548834
00000000: 0d59 2f3e f6e0 6f3e 39b5 b8bc cbef bc3d
00000010: 6dcb ffbc 8828 f0bd 3a27 86be 37b3 333e
