src/reinforcement_app/storage/model/3.pth (torch, 23565 bytes, 6 tensors)

model.0.weight f4 [64, 8]
000000 e6 8c 65 3d 62 7a 40 be 1c 1f 23 be 2f 08 53 be
       0.056042574 -0.18796685 -0.15929836 -0.2060859
000010 3c 2c 0e 3e 3c a1 e1 3d b9 22 82 bf 54 5f fd 3e
       0.13884062 0.11017081 -1.0166847 0.49486792
000020 2d 72 06 3f fb 30 d0 3e a7 2b 0d 3f 24 46 8a be
       0.5251797 0.4066237 0.55144733 -0.27006638
000030 3e 26 6c 3e c8 38 0a be 7f 30 19 3f a7 f0 5c 3f
       0.23061463 -0.13498223 0.59839624 0.86304706
000040 b6 64 c0 3e 25 fb 08 3e 5e ce c0 be 4b 00 a2 3e
       0.37576836 0.13377054 -0.37657446 0.3164085
000050 d0 5f 00 bd 65 ad 93 3e 82 45 42 be a3 6c 26 3f
       -0.031341374 0.28843227 -0.18971828 0.65009516
000060 64 a9 86 3e 75 cb 92 be b6 01 11 bf a6 f6 77 3e
       0.2630111 -0.2867085 -0.56643236 0.24215183
000070 ee 39 2c be 8c f2 b6 bd 99 94 62 3e d8 23 37 bd
       -0.16818973 -0.08932981 0.22126998 -0.044711918
000080 db de 6d 3e 2e c1 35 3e f1 35 11 bf 5a 75 35 3e
       0.23229544 0.17749473 -0.56722933 0.17720547
000090 50 f5 9d bc 61 e7 9f 3e b1 1d 5d be 34 65 ae 3d
       -0.019282013 0.31231216 -0.21593358 0.08515397
0000a0 bd 63 a8 3e 5a 08 34 be 48 9d 76 bf 63 b5 8e 3e
       0.32888594 -0.17581311 -0.9633374 0.27872762
0000b0 3b 26 ae 3e e6 c7 40 be b7 2c 94 3e 6e e9 72 3d
       0.34013543 -0.18826255 0.28940365 0.059304647
0000c0 8a 07 f1 3d 95 6e 04 3f 06 14 25 3f ce cf 47 be
       0.11769016 0.51731235 0.6448368 -0.19512865
0000d0 66 f2 6b 3e 2a 15 38 be 91 f2 94 be c0 50 84 3e
       0.23041686 -0.17976823 -0.29091313 0.25842857
0000e0 26 db e3 3e 01 1e 0d bd fd 3a 4e 3f 9a bc 2d 3e
       0.44503134 -0.034452442 0.8055876 0.16966477
0000f0 9a b6 6c 3e 3f 87 83 3e c8 75 7d 3e 47 22 c3 3e
       0.23116532 0.25689122 0.24751961 0.3811209
000100 1a 48 91 be 10 14 64 bd 79 be 14 be a0 06 ff bc
       -0.28375322 -0.055683196 -0.14525785 -0.031131089
000110 3e 71 8a be ee 33 ad be 10 cd fc 3d 0a 6b ab be
       -0.27039522 -0.33828682 0.123438 -0.33480102
000120 23 d1 9e 3e 81 39 4f be c8 74 81 be 00 9f a7 3d
       0.31018934 -0.2023678 -0.2528441 0.08184624
000130 4e 2c 70 be d2 56 34 3e ac a3 8e bd eb 8c 85 3e
       -0.23454401 0.17611244 -0.06964812 0.26084074
000140 6a 7d 60 be 03 f4 a3 be 65 d4 97 3e 77 6e ac be
       -0.21922842 -0.32022104 0.29654232 -0.33678028
000150 32 a3 22 3e 87 c7 9f 3e 2b 30 ea 3d be ba fc be
       0.15882567 0.31206915 0.114349686 -0.49361223
000160 91 0e 99 be c2 1b d3 bd 01 76 c6 3e d3 50 aa 3e
       -0.29893926 -0.10308029 0.38761905 0.3326479
000170 18 9e 00 3e e7 44 0a be f1 0d 23 bf b4 61 e0 be
       0.12560308 -0.13502847 -0.6369315 -0.43824542
000180 8a 15 a5 be 9f 38 9e 3d ee cc 57 bf 88 75 6d bd
       -0.32242996 0.07725643 -0.8429707 -0.057973415
000190 b5 ad 1b be 69 07 53 be f4 a8 3d bf 7d 4e 68 bd
       -0.15202983 -0.20608296 -0.74085927 -0.056715477
0001a0 cc 0f af 3e 5e b8 27 3f 05 df 30 3f 80 d1 68 3d
       0.3419174 0.65515697 0.690903 0.05684042
0001b0 00 d8 b3 3c de 22 55 be 9b de 87 3e 2d c1 0e 3f
       0.021953583 -0.20814082 0.26537022 0.5576351
0001c0 e5 73 b6 be 89 d5 93 be 56 33 40 bf 6d 68 88 3e
       -0.35635296 -0.28873852 -0.7507833 0.2664217
0001d0 b3 b3 4f be 14 52 e7 3d d3 90 e1 3e 51 96 92 be
       -0.20283394 0.11294952 0.44055805 -0.28630307
0001e0 a7 c5 12 3f 8b 6f 1a 3e 13 7e e3 3e ba 34 86 be
       0.57332844 0.15081613 0.44432124 -0.26212102
0001f0 78 c0 6a bd c8 ea a1 be 1b 0e 5a 3f c3 4e 2b 3f
       -0.05731246 -0.31624436 0.85177773 0.66917056
000200 e4 71 31 be b0 92 47 3f 88 d8 5c 3f 60 c8 00 3e
       -0.17328602 0.779582 0.862679 0.12576437
000210 20 57 9c 3c b8 c2 d6 bd de 76 49 3f 83 c7 5c be
       0.019084513 -0.104863584 0.78697 -0.21560483
000220 df a8 8e be dd 7a 4d bf 1e 29 60 3f 96 ae 14 be
       -0.27863213 -0.802656 0.8756274 -0.14519724
000230 50 7c 9e bc fe c0 2d 3e 25 5e f8 bd 4f 04 91 bf
       -0.019346386 0.16968152 -0.12127332 -1.132944
000240 9e c0 29 3f 2e a5 e6 be 70 c9 89 be f8 4e 8d be
       0.66309536 -0.45047897 -0.26911497 -0.2759931
000250 b0 f1 59 bd 2d bc 8f 3e b3 d0 13 3f 49 77 41 3e
       -0.053209007 0.28073254 0.57740325 0.1889316
000260 0d 66 0c be 0f 21 22 3f 59 c1 60 3f be 9b 48 3e
       -0.13710804 0.63331693 0.87795025 0.19590661
000270 40 8d e2 3b 80 64 4a bc 83 06 84 3f 61 87 5c 3e
       0.006913811 -0.012353063 1.0314487 0.21536018
000280 aa 28 58 bc fa 4d ce 3d a2 f5 49 bf 0a 39 5c be
       -0.013193289 0.100734666 -0.7889043 -0.21506134
000290 0f 54 a4 be 1a f9 69 be 20 31 ca 3e 67 cc c5 be
       -0.32095382 -0.22848931 0.39490604 -0.3863251
0002a0 b6 96 03 3e eb 09 9c 3e 54 e9 ab 3d 48 59 aa 3d
       0.1285046 0.30476317 0.08394113 0.0831781
0002b0 60 5a 34 3c 09 8f 93 be f4 3a 8f be dc 09 23 be
       0.011007875 -0.28820065 -0.27974665 -0.1592173
0002c0 b3 b7 60 3f 2d 46 36 3f 5f 33 52 3e 14 ce ea 3d
       0.877803 0.7120083 0.20527409 0.114650875
0002d0 80 ba b8 bc 56 7d 37 be 41 8b 37 3f 7d a9 5f 3f
       -0.022549868 -0.17918906 0.7169686 0.87367994
0002e0 13 58 40 bd c4 4e ff be 84 94 78 bf cf b4 9b be
       -0.046958994 -0.4986478 -0.97101617 -0.30411384
0002f0 0f 01 05 be c2 6a 4c 3e 69 1c 03 3d 54 9d c6 be
       -0.12988685 0.199626 0.032009516 -0.38791907
000300 a6 87 52 3e 3f 55 21 3f f1 b6 85 3e da 62 20 3e
       0.20559558 0.630207 0.26116136 0.15662709
000310 76 5b 79 3e 0a 1b 2f 3e c3 7a 9c be 88 16 e9 3e
       0.24351296 0.17100158 -0.3056241 0.45525002
000320 a3 91 cd 3e fd 93 de 3e 85 b5 5c 3f 77 2b 8a be
       0.40150174 0.4347228 0.86214477 -0.26986286
000330 f4 a7 8d be aa 2a 3a 3e 07 7e 2f be e5 a1 2e 3e
       -0.276672 0.18180338 -0.1713792 0.17053945
000340 ad 76 c9 bf 2e 1f f3 3e 95 e6 22 3f e8 e0 fc bd
       -1.5739342 0.47484726 0.6363309 -0.12347585
000350 50 80 b9 3d 88 a6 77 be 1f a3 79 3f a3 eb 83 3e
       0.09057677 -0.2418462 0.9751453 0.25765714
000360 ca 95 b2 bf 61 8d 04 be 67 c9 69 3f 22 5a 4e 3e
       -1.3951962 -0.12944557 0.9132294 0.2015157
000370 aa 00 97 be a4 73 9e bd 6f 87 58 3f 15 58 c0 3d
       -0.29492694 -0.077369004 0.84581655 0.093918
000380 2d e2 7c be 07 9d e3 3e c3 3c e1 3e 1a b0 1c 3e
       -0.24695654 0.4445574 0.4399167 0.15301552
000390 f6 25 66 be 0b 24 b4 3e 32 80 3a bf 52 79 05 bf
       -0.22475418 0.3518375 -0.7285186 -0.52138245
0003a0 02 a5 8d 3e 4d c2 27 be 70 29 4c bd bb a2 86 be
       0.27664953 -0.16382714 -0.049844205 -0.26296028
0003b0 22 68 77 3e 70 e3 28 be 3d 66 2d be d4 f7 8e 3f
       0.24160817 -0.1649301 -0.16933532 1.1169381
0003c0 26 77 32 3f 53 6f 14 bf 17 81 33 be e5 97 37 be
       0.69713056 -0.5798237 -0.17529713 -0.17929037
0003d0 4e d5 59 3e f5 df a0 3e be f9 23 3f f0 0f ca 3e
       0.21272776 0.31420866 0.6405295 0.39465284
0003e0 1a e1 af 3e fd 2d 00 3f 2d 09 c8 bf 60 c2 20 be
       0.34351426 0.5007017 -1.56278 -0.15699148
0003f0 48 83 76 3d 85 7e 89 3e d8 14 13 bf 2f f8 67 3e
       0.060183793 0.2685434 -0.5745368 0.22653268

model.0.bias f4 [64]
000000 c0 67 1e 3e 3d 93 09 3f e7 ea 4e 3e f6 ac 56 3e
       0.15469265 0.5374029 0.20206796 0.20964417
000010 61 9a 68 3e ea 9a 02 3f 1c 6f 8e 3e 70 03 bf 3e
       0.22715141 0.5101763 0.27819145 0.3730731
000020 15 4a 28 be 17 fd a3 be 79 70 d9 3e 31 cd ae 3e
       -0.1643451 -0.3202903 0.42468622 0.34140924
000030 67 0a bb 3e 73 10 50 3e 20 cb ac 3e f7 fa 0d 3f
       0.36531374 0.20318775 0.33748722 0.55461067
000040 8f 33 61 3d fc f5 bb 3e d1 20 87 bd 24 db 90 bd
       0.05498081 0.3671111 -0.06598056 -0.07073048
000050 07 53 c0 3e 72 47 70 be 25 e7 10 be dd 44 ff 3e
       0.37563345 -0.23464754 -0.14150675 0.49857226
000060 2b d8 3a 3f 27 61 37 3e 64 f7 97 3e a5 2b 9a 3e
       0.72986096 0.17908154 0.29680932 0.30111423
000070 54 09 ca 3e 7c 6e d8 bd 26 b3 c8 bd 41 60 a9 3e
       0.39460242 -0.10567948 -0.09799795 0.33081248
000080 53 22 6d 3e be 6d 1c 3e 00 ff 16 3e b1 27 a6 be
       0.23157625 0.15276238 0.14745712 -0.32452157
000090 5b 23 b8 3e c2 a3 a4 3e 6c 12 0d 3f 1a 70 f3 3e
       0.35964474 0.32156187 0.55106235 0.47546464
0000a0 0e e2 1e 3f 38 c0 46 be c1 01 0c 3e 20 34 20 3f
       0.6206368 -0.19409263 0.13672544 0.62579536
0000b0 ca 89 28 be c0 41 c6 3e c1 19 de 3e e0 08 2c be
       -0.16458812 0.38722038 0.43379024 -0.1680026
0000c0 a8 70 ae 3e 4b 2b 5a be 91 4d 24 3f c5 d5 b8 3e
       0.34070325 -0.21305577 0.64180857 0.36100593
0000d0 84 38 9e 3e 07 15 aa 3e 15 79 1a 3f 8c cb 12 3f
       0.30902493 0.33219168 0.60341007 0.5734184
0000e0 83 56 eb 3e 3f 19 14 3e 2d 00 c8 3e ca 30 42 3e
       0.4596444 0.14462756 0.39062634 0.18963924
0000f0 b7 68 7e 3e 87 5a eb 3e 79 49 0c 3f 6f e2 9b be
       0.24844633 0.45967504 0.5479961 -0.30446193

model.2.weight f4 [64, 64]
000000 3b 54 f7 3e 91 73 2a 3e fb e3 0a 3f 2a ca ef 3e
       0.4830645 0.16645648 0.5425412 0.46833926
000010 83 8e d3 3e af 34 0e 3f 05 00 10 be 5f 63 d4 bc
       0.41319665 0.5554914 -0.14062507 -0.02592629
000020 b0 80 51 bc d6 c2 6a 3d a8 81 82 be 3b 74 6a be
       -0.012787029 0.057314716 -0.25489545 -0.22895901
000030 ac bd ee 3e cf 4f 65 3d 97 6d 4d 3f db 32 04 3e
       0.46629083 0.055984315 0.80245346 0.12910025
000040 ab 2f dc 3b 04 31 5b be 4c 38 65 3f d4 12 80 3e
       0.0067195497 -0.21405417 0.8953903 0.25014365
000050 36 4d fc 3e 03 8f 59 bd a1 b7 6e 3f da 7c 1f 3f
       0.49277657 -0.053114902 0.93248945 0.62299883
000060 12 ca 09 3e ea d9 43 bd 3b 39 ae bd e0 f6 66 be
       0.1345599 -0.04781524 -0.085070096 -0.22555113
000070 db 8e 57 bd 73 c7 9a 3f 58 b0 63 3f 8b ce 17 bf
       -0.052626472 1.2092117 0.88940954 -0.59299535
000080 c5 a2 1c 3f fa ab b9 bc a5 4a df be 62 b9 91 bd
       0.61185867 -0.022665013 -0.43611637 -0.07115437
000090 62 25 4a be 60 e2 f8 be 19 73 d7 bd e1 49 4b be
       -0.19740823 -0.4861021 -0.1052 -0.19852401
0000a0 25 5c 8e 3d 9d d7 d2 be d7 46 9d 3d 8e 5f 7b 3c
       0.06951169 -0.41180125 0.07679527 0.015342606
0000b0 d4 3f 9d 3d 91 e0 1b be a7 a8 60 bd d7 d9 9c 3f
       0.0767819 -0.15222384 -0.05484834 1.225398
0000c0 82 32 70 3e 25 5c 12 bf 57 79 4a 3d e5 ad 06 3f
       0.23456767 -0.5717185 0.049432125 0.5260909
0000d0 8c 8f 2e 3c 4f 2f 12 bf f2 7d 24 be 6a 05 4b be
       0.010654341 -0.5710344 -0.1606367 -0.19826284
0000e0 a2 02 28 3f ac 61 d1 ba be f3 7a bd f9 fd 3f be
       0.6562902 -0.0015974543 -0.061267607 -0.18749227
0000f0 92 0d 31 be 83 0e 5e be f9 d1 22 bc e4 54 a3 3d
       -0.17290333 -0.21685223 -0.009937757 0.07975176
000100 40 58 44 bd 9c b6 7c bd 80 3a 6b bc 9a 99 84 3d
       -0.047935724 -0.061697587 -0.014357209 0.0647461
000110 f2 73 ae 3d ae fa d0 bd 42 61 f5 bd e4 3e c8 3d
       0.085182086 -0.10204063 -0.11981441 0.097776204
000120 38 1b a7 3c 82 25 ed 3d 0c fc f4 3d 10 fe b8 3d
       0.020398721 0.1157942 0.119621366 0.090328336
000130 4e 8e 97 3d 1c f2 b8 3d 56 17 fb 3d 9c 5c 59 3d
       0.07400189 0.09030554 0.1226031 0.053066835
000140 7a 16 f2 3d 58 07 83 bd 30 5f 74 3c 00 f6 ec 3c
       0.11820693 -0.06397885 0.014915273 0.028925896
000150 c0 57 d1 bc 56 75 a2 bd 06 c6 88 3d 5c 39 05 bd
       -0.025554538 -0.07932536 0.06678395 -0.032525405
000160 1a 59 c1 bd 24 8c 4d bd a0 3f 4a 3d e0 45 a7 3c
       -0.09440823 -0.050182477 0.049377084 0.020419061
000170 58 43 35 bd 32 5e 93 bd 58 03 5a bd 56 7f cb 3d
       -0.044253677 -0.07195701 -0.053225845 0.09936397
000180 48 f9 a1 3d bc 8f 73 bd da cf fc bd 00 d1 51 3d
       0.07908875 -0.059463248 -0.12344332 0.05122471
000190 38 f9 44 3d e0 14 c9 3d 60 26 cd bd 50 34 2e bc
       0.048089236 0.09818435 -0.10017085 -0.010632589
0001a0 18 5a df 3c 04 76 6d 3d f0 49 93 bd be 96 97 bd
       0.02726464 0.057973877 -0.07191837 -0.07401799
0001b0 4a c2 dd bd f0 62 60 bd 54 c8 b0 bd 10 6f 60 bc
       -0.10828073 -0.054781854 -0.086319596 -0.013698354
0001c0 e4 d8 cb 3d 6a 66 bb 3d d8 22 e1 bc 6a 56 8a 3d
       0.09953478 0.09150393 -0.027482435 0.067547634
0001d0 02 8b 88 bd 48 a9 63 bd 68 4e 80 bc 50 61 bd bc
       -0.06667139 -0.05558136 -0.015662387 -0.023117691
0001e0 bc 37 b7 bd 56 2c df bd 06 b5 b1 bd 2c 10 f0 3d
       -0.08946177 -0.10897128 -0.086771056 0.117218345
0001f0 b2 d9 df bd 4c e1 e4 3d 50 f9 a5 bd e0 3f 4c bd
       -0.10930194 0.111757845 -0.08104193 -0.049865603
000200 64 96 47 3d a8 4d 7a 3d 36 64 af bd f0 a5 7d bd
       0.048727408 0.061109215 -0.085640356 -0.06192583
000210 2c a2 5d 3d 08 e7 e1 3c c0 d6 19 3d b0 10 d8 3d
       0.054109737 0.027575985 0.037558317 0.10550058
000220 a2 4d cb bd a4 73 ff 3d fc f9 74 3d ce b6 f8 3d
       -0.09926917 0.124732286 0.059808716 0.12144242
000230 0a cf e5 bd 80 2b 21 bd 18 8f fe 3c 48 30 70 3d
       -0.1122113 -0.039348125 0.031074092 0.058639795
000240 d0 9c 72 3d d0 b9 ee bc 12 4c a6 bd ec e5 19 3d
       0.05923158 -0.029141337 -0.08119978 0.037572786
000250 00 16 aa 3d cc 59 3e 3d e0 a9 ad bc 76 6f b8 bd
       0.083049774 0.046472356 -0.021199167 -0.090056345
000260 44 4d 5b bd 60 39 22 3c ae fc 88 bd 40 f0 a8 3d
       -0.053540483 0.009901375 -0.0668882 0.08248949
000270 20 50 69 bc d0 0c d6 3d 02 44 c4 bd b0 a8 9f bc
       -0.014240295 0.104516625 -0.09583284 -0.019489616
000280 08 f2 68 bd ba d9 bd 3d 94 3a f4 bd 86 e0 c1 bd
       -0.056871444 0.09270044 -0.119252354 -0.094666526
000290 34 d0 1e bd 84 cf c8 3d a0 14 ec 3c aa 14 f7 bd
       -0.038772777 0.098052055 0.028818429 -0.12064488
0002a0 38 8b 74 bd d4 7d 99 bd c0 bd 49 3c 40 55 98 bd
       -0.05970308 -0.07494703 0.012313306 -0.07438135
0002b0 7c 50 b7 bd 88 50 e7 bd c6 75 dd 3d 24 60 51 bd
       -0.08950898 -0.11294657 0.10813479 -0.051117077
0002c0 90 e1 14 3c 48 e9 9f 3d 78 20 93 3d 10 90 40 3d
       0.009086981 0.07808167 0.07183927 0.04701239
0002d0 a0 e4 9f bc b8 fa 9f bc 40 85 d1 bd 64 76 78 bd
       -0.019518197 -0.019528732 -0.102304935 -0.06065978
0002e0 d4 b0 de bd 00 16 03 3a 64 0f e8 bd 30 6f c4 bd
       -0.10873571 0.00050005317 -0.113310605 -0.0959152
0002f0 fc 76 dc 3d 00 ce 7c 3c 30 c5 ee bc b0 c6 2a bd
       0.10764882 0.015429974 -0.02914676 -0.04169339
000300 b1 cf 0d 3f 25 c6 d5 3e 55 d6 97 3f d8 ed ad 3c
       0.55395037 0.41752735 1.1862284 0.021231577
000310 2e 2e 4c 3f 04 19 11 3f 07 57 12 3f 28 2f 3b 3e
       0.79757965 0.56678796 0.57164043 0.18279707
000320 fe 60 df bd 0b 05 33 bd c1 0a 89 be 73 98 51 bd
       -0.10907172 -0.04370598 -0.26766017 -0.051170778
000330 1d 98 1f 3f e3 b6 e0 3e 48 1a 73 3d 58 92 ba 3d
       0.6234148 0.43889531 0.059351236 0.09109944
000340 0e 36 af 3e 93 00 2b bd 3d 40 79 3f 74 2d 74 3e
       0.34220928 -0.041748594 0.97363645 0.23845464
000350 91 11 1b 3f 9e b2 ba 3c 4c 47 bb 3f 7d ea 47 3e
       0.6057368 0.02279025 1.4631133 0.19523044
000360 24 be c2 3e 2d f7 b2 3e a3 b3 38 3e 12 a9 54 be
       0.3803569 0.34954205 0.18037276 -0.2076762
000370 06 d1 7f 3e df 9d ae 3f 4e 33 67 3f 2b f7 84 be
       0.2498208 1.3641928 0.9031266 -0.25969824
000380 bd 59 50 3f 24 bc 4c 3e a5 6d d4 be 2c 5e e1 3d
       0.8138693 0.19993645 -0.41489902 0.1100429
000390 65 cd b1 3d 2e e3 4a be e2 75 8d be 3d ed 5e be
       0.08681754 -0.19813225 -0.27629 -0.21770187
0003a0 e7 48 2d 3e 7f d2 04 3c 4a 9c 2c 3f 81 6e 65 3d
       0.16922341 0.008106827 0.6742598 0.056013588
0003b0 00 4f e6 ba 68 80 5b be 11 2f c7 3e f1 35 76 3f
       -0.0017571151 -0.21435702 0.38903096 0.9617606
0003c0 67 df b7 3e 26 cc 82 bd 14 22 ae 3e cf f7 e6 3e
       0.3591263 -0.063865945 0.34010375 0.45110938
0003d0 b9 03 ef 3e 38 6f 98 be 63 1a 75 be ad 0d 21 3d
       0.46682528 -0.29772353 -0.23935847 0.039319683
0003e0 05 1f 22 3f 49 33 0e 3f e9 ac ac 3e 78 43 a8 be
       0.6332858 0.55547005 0.3372567 -0.32863975
0003f0 2a 9d 2a be 4a be 1a 3d f2 5f 4d bd e6 86 9d bd
       -0.16661516 0.03777913 -0.05014033 -0.076917455

model.2.bias f4 [64]
000000 e4 73 38 3e 88 5f d7 bd be 6f cc bd 0b 0e 5d 3e
       0.18012959 -0.10516268 -0.09982251 0.21587388
000010 c3 79 49 3e 5e 63 08 3e 3b c8 0e 3d 97 7b 2d 3e
       0.19675355 0.13319156 0.034858923 0.16941677
000020 58 f4 41 3e 3a 72 80 3d 2d f1 56 3e 45 55 e4 3d
       0.18940866 0.06271787 0.20990439 0.11149076
000030 61 c9 15 3e 1c a9 1f bd 82 c8 e0 bd 62 d4 38 3e
       0.14627601 -0.038979635 -0.10975744 0.18049768
000040 de db 96 3e 55 e1 f1 3d 78 ab bb 3d ae f4 b4 bd
       0.2946462 0.11810557 0.091635644 -0.088357314
000050 fe f9 dc bd 51 ff 6e 3d 77 f4 1d 3d 30 6d d1 3e
       -0.1078987 0.058348957 0.038563218 0.40903616
000060 d7 05 58 3e 7f 5e b7 bd c6 1b 91 3e e6 1e 78 3e
       0.21095978 -0.089535706 0.28341502 0.24230537
000070 cc 21 08 bd 81 b4 16 3e 17 f4 54 3d f9 9d d6 bc
       -0.033235356 0.14717294 0.051990595 -0.026198374
000080 6f 44 56 3e b0 17 d7 bd 58 b8 88 bc 59 43 31 3c
       0.20924543 -0.10502565 -0.016689464 0.01081928
000090 80 31 b5 3e 5d 02 e1 bc eb 87 67 3d 21 70 13 3e
       0.35389328 -0.027466947 0.056526106 0.14398243
0000a0 8e 34 02 3e 60 a2 e4 3c 10 45 fa bd de f2 84 bd
       0.1271536 0.027909458 -0.12220204 -0.06491636
0000b0 f7 6d 8a 3d 17 68 8b 3e c6 52 90 bd 00 c5 3e 3e
       0.067592554 0.27227852 -0.07047038 0.18629837
0000c0 fc 54 1d 3e ea 88 09 be 3f e6 be 3e 19 2f 24 3e
       0.1536445 -0.13431135 0.3728504 0.16033591
0000d0 b2 7d aa 3e 52 30 7c 3e c9 59 28 3e 2a 4e c1 3e
       0.33299023 0.24627808 0.164405 0.37754947
0000e0 0c d0 a1 3e d5 8b f0 3c bc 22 25 bd a0 42 06 3e
       0.3160404 0.029363552 -0.04031633 0.13111353
0000f0 48 7f 76 3b 91 88 8e 3e 39 4b 7f 3e 83 f5 60 3e
       0.0037612487 0.27838567 0.24931039 0.21968655

model.4.weight f4 [8, 64]
000000 8f 95 08 3e 90 68 b2 bd c6 da a8 3d 81 d5 8e bc
       0.13338302 -0.0871135 0.08244853 -0.017435791
000010 bf 76 7c 3e 24 f1 54 be df 1d 9b be 99 f1 7d be
       0.24654673 -0.20795113 -0.30296227 -0.24799193
000020 58 c0 36 3d 70 1c 53 3c ff d3 12 3d 5c 2c 1f bd
       0.044617027 0.012885198 0.035846706 -0.038860664
000030 97 fe 63 bd e8 bf 0f bd d4 af c2 3d 2f 5b 92 be
       -0.055662718 -0.035095125 0.09506193 -0.28585193
000040 b8 74 c0 3d e5 2f d8 3c fe 67 24 3e f0 2d 66 3c
       0.09397262 0.026390025 0.16055295 0.014049038
000050 8a 1e c8 3d 1a 35 22 3c 14 36 83 3d ef a7 3f 3e
       0.0977145 0.009900356 0.06406799 0.18716405
000060 13 02 0e be 50 38 a5 3d 1b f0 ae be e8 20 63 be
       -0.13867979 0.080673814 -0.3416756 -0.22180521
000070 6c 59 72 bd 6b 77 0a bc 4d 1f 04 bf 4e 17 45 bd
       -0.05916731 -0.008451323 -0.5161026 -0.04811793
000080 b3 48 58 3c 4c f3 27 3d ed 49 0c be ba 73 8b 3e
       0.013200927 0.04100351 -0.13700075 0.2723673
000090 60 03 82 3e 64 34 74 3b 48 d2 11 bd 4e 9b 31 3c
       0.253932 0.0037262673 -0.03560093 0.01084025
0000a0 08 14 06 be 24 9b d3 3d 88 3d bd 3c 4f 6e 23 3d
       -0.13093579 0.10332325 0.02310063 0.03990012
0000b0 35 a9 98 3d 8e b4 d6 3d f0 38 b6 bd 53 3a be 3d
       0.07454149 0.10483657 -0.08897579 0.09288468
0000c0 dd 89 85 3c 5a 5b cd 3d 5b da 5a 3e e4 e1 76 3e
       0.01630109 0.100271896 0.21372359 0.24109608
0000d0 33 fb 26 be 89 f9 07 3e d1 d7 fc bd 8f ac 13 3e
       -0.16306762 0.13278784 -0.12345851 0.14421295
0000e0 50 80 47 3e 14 dc 66 bd f4 69 70 bd f1 20 19 be
       0.19482541 -0.056362227 -0.058694795 -0.14953972
0000f0 ea a6 25 3d 49 1a 28 be 57 73 cf bd 0e 68 49 3e
       0.040442385 -0.16416277 -0.10129421 0.196686
000100 9c 76 d9 3d 08 6a fb bc 60 38 83 3b c9 56 e3 3d
       0.10618326 -0.030690208 0.004004523 0.11100537
000110 53 32 be 3e aa be fe bd ee 75 d3 be 35 e8 b6 bd
       0.3714777 -0.1243871 -0.4130091 -0.08931009
000120 63 a4 f3 3c e8 b7 be 3d 71 ca c7 3d ea 3a b8 bd
       0.029741472 0.09312421 0.097554095 -0.08995612
000130 89 0c 75 bd 36 ed a7 3d 78 c8 e5 3d 67 be 8a be
       -0.059826408 0.08199541 0.11219877 -0.2709839
000140 d2 1d a0 bd 6a e7 7e 3d 89 e7 7f 3e 94 c5 c1 3d
       -0.07818188 0.062232412 0.24990667 0.09461513
000150 9c 81 b3 bd e0 e6 7e bd 37 9c b1 bd 49 cf 62 3e
       -0.087649554 -0.0622319 -0.08672374 0.22149386
000160 39 1c 7e be da a1 80 bd 74 06 3c be d3 75 77 be
       -0.24815454 -0.06280871 -0.18361837 -0.2416604
000170 24 38 8c bd 4d 58 56 be f5 0e 21 bf e6 8a 0a bd
       -0.068466455 -0.20932122 -0.6291345 -0.03382387
000180 18 ff 05 3f bc 69 48 3d 8d 55 4e be 1b 26 b8 3e
       0.5234237 0.04892896 -0.20149823 0.35966572
000190 5b 89 c1 3d ab 7c 31 3c 5c 88 85 3d eb 07 e9 3c
       0.094500266 0.010832946 0.06520149 0.028446158
0001a0 31 db 20 be 66 0a 9a 3d ca 94 e2 3d d4 c6 90 bc
       -0.15708615 0.075215146 0.110635355 -0.017672934
0001b0 57 e1 b9 bd b1 86 86 3d 70 e5 52 3d 2e 0f 4c 3d
       -0.09076183 0.06568659 0.05148834 0.049819164
0001c0 03 97 8a 3d 70 40 ef bc d5 e3 c6 3d a6 b1 28 3e
       0.067670844 -0.02920553 0.09711424 0.16474018
0001d0 d7 f2 97 bd 68 13 fe 3d 62 7d 4c 3e e0 9a 5a 3e
       -0.07419365 0.12406045 0.19969705 0.21348143
0001e0 b0 df 71 3e b9 fb cd bd c4 99 e7 3d ee 4c b7 bd
       0.23620486 -0.10057778 0.11308625 -0.0895022
0001f0 51 af d7 bd 4c cd 38 be 3e 2c 47 be 0b 52 86 3e
       -0.10531486 -0.18047065 -0.19450471 0.2623447
000200 bf 8d 42 3e 60 ab e9 3d 80 df b4 3c 8c 5e 9e 3d
       0.18999384 0.1140964 0.02207923 0.07732877
000210 c1 46 c7 3e bc 6e e5 be b6 a2 1f bf 88 c8 1a be
       0.38921168 -0.44811046 -0.6235765 -0.15115559
000220 d2 ec c4 bd 52 16 9f 3d c5 fa a1 be 3f a7 d2 3c
       -0.096154824 0.07767929 -0.31636634 0.025714515
000230 30 39 cb be 64 51 ad bd 4c 54 5a bd 8d 29 a1 be
       -0.39692068 -0.0846279 -0.053303048 -0.31477013
000240 c8 38 3f be b5 cb bb 3e 3f ed 1c 3f 44 9d 8f bd
       -0.18674004 0.36678854 0.6129951 -0.07012418
000250 6e 7a cb 3d 2f 05 b1 3d f4 dd 40 bd 3a a1 c3 3e
       0.09935461 0.08643567 -0.04708667 0.38208944
000260 b8 40 d2 be 88 5a e0 bc 43 37 52 be 6c e5 c0 be
       -0.41065 -0.027386919 -0.20528893 -0.37675035
000270 98 12 cf bd 17 d6 ae be fc e2 28 bf 7e 04 41 3d
       -0.10110968 -0.34147713 -0.6597135 0.047123425
000280 13 08 4a 3f 6e 17 88 3d ec 54 e6 bd 1a 70 ad 3e
       0.7891857 0.06645094 -0.11246666 0.3387459
000290 c8 f4 aa 3e 81 6a a1 3e 8b 20 9e bd 86 58 16 be
       0.33389878 0.3152657 -0.07721051 -0.14682207
0002a0 b3 7f d8 be 70 37 d7 bc f6 8a fe 3d 59 8e bb 3e
       -0.42284927 -0.026271552 0.124288484 0.3663204
0002b0 ed 3e c7 bc 04 a1 f4 3d 30 81 cc bd 07 b9 8a 3e
       -0.024321998 0.11944774 -0.09985578 0.2709429
0002c0 4e 70 8f 3e 2c d4 b7 3d 95 22 46 3e 27 4d 3e 3e
       0.2801537 0.089760154 0.1934913 0.18584119
0002d0 41 31 34 be d7 a3 02 be ae c4 2a 3e 1d 89 d9 3e
       -0.17596914 -0.12757812 0.1667659 0.42487422
0002e0 06 de 82 3e 6b 93 c0 bc 8c c9 df bd bb 5a 7f 3e
       0.25560015 -0.023507794 -0.10927114 0.24936955
0002f0 81 84 ee 3d 79 7f ab be 1d 16 27 be 29 fe 8e 3e
       0.11646367 -0.3349569 -0.1631703 0.27928284
000300 d0 2f 90 3e 18 2e 25 3d 8c 40 f5 bd 68 8e 98 3e
       0.28161478 0.04032716 -0.11975202 0.29796147
000310 02 2c bf 3e 3c 0b c7 be 51 f0 93 be 41 53 10 bd
       0.37338263 -0.3887576 -0.28894284 -0.035235647
000320 a1 de db be 48 58 e2 bc 17 08 92 be 39 96 bb 3d
       -0.4294329 -0.027629986 -0.28521797 0.09159512
000330 7d 1a f6 be b4 07 9d 3d 74 55 0f 3d 0f c0 bf be
       -0.48067084 0.07667485 0.034993604 -0.37451217
000340 dd 32 1c bf c7 bd 86 3e 5b 79 38 3f 8c 15 75 bd
       -0.6101511 0.26316664 0.72060174 -0.059835
000350 12 0c cf 3d 4c 3a ac bc bc 86 b6 3d 4b df b8 3e
       0.10109724 -0.021023892 0.08912417 0.3610786
000360 e0 26 04 bf a8 5e e7 3c 4b 6c 5e bf 6a ba c5 be
       -0.5162182 0.028243378 -0.8688399 -0.38618785
000370 18 b5 0e 3d 52 2d cb 3d f7 b7 d7 bd 02 61 b8 3d
       0.034840673 0.099207535 -0.105331354 0.09002878
000380 6e f6 3c 3f 10 a4 56 3c ef 7c a6 be ab 22 a3 3e
       0.7381352 0.013100639 -0.32517192 0.31862387
000390 ab 98 b1 3e 29 c4 2a 3e de 31 64 3d 2d 6d 94 be
       0.3468679 0.16676392 0.05571162 -0.28989545
0003a0 d6 7b 4e be 98 9f e2 bd b8 b6 28 bd 63 f1 0f 3f
       -0.20164427 -0.11065596 -0.04118988 0.562277
0003b0 7a da 88 bd c0 41 20 3c 90 11 75 3c 75 f5 85 3e
       -0.06682296 0.009781301 0.0149578005 0.2616383
0003c0 86 45 6e 3e 9c d5 91 3d 76 a1 88 3e 56 8e b6 3e
       0.23268709 0.07120821 0.26685685 0.3565547
0003d0 1f 13 f5 be 4e 12 9e be fb 2d b3 3e 0b 65 b1 3e
       -0.4786615 -0.3087334 0.34996018 0.34647402
0003e0 f6 4a ac 3e 4f 45 9c be 46 db ed bd 98 f0 4d 3d
       0.3365094 -0.30521628 -0.11614089 0.050278276
0003f0 34 63 a1 3c 82 78 d6 be 8c f4 1a 3e 29 6e d4 3e
       0.019700624 -0.41888815 0.1513235 0.41490296

model.4.bias f4 [8]
000000 2b 6c 83 bd ba 23 28 3d 09 47 cb 3c 21 58 4f 3e
       -0.06417116 0.041049697 0.024814146 0.20248462
000010 97 c2 e2 3c be f5 11 3d d4 9f 5d 3e 50 8f ce 3d
       0.027680678 0.03563475 0.21643001 0.100859284
