src/reinforcement_app/storage/model/5.pth (torch, 23565 bytes, 6 tensors)

model.0.weight f4 [64, 8]
00000000: 6840 1dbe 43b7 0dbf 9b80 29bf 2f08 53be
00000010: 3c2c 0e3e 3ca1 e13d 554c 99bf 95de fa3e
00000020: 3554 043f 0183 003f 129c fe3e 2446 8abe
00000030: 3e26 6c3e c838 0abe cbb6 033f 88b7 803f
00000040: 25d8 513e b9ce 18be 35a6 3bbf 4b00 a23e
00000050: d05f 00bd 65ad 933e 2a01 cdbe 4a8d 3f3f
00000060: 29aa 5bbd ac0b 17bf 3bec 81bf a6f6 773e
00000070: ee39 2cbe 8cf2 b6bd cbb5 483d 24e9 00be
00000080: 7e61 90bd b969 07be 23fd 93bf 5a75 353e
00000090: 50f5 9dbc 61e7 9f3e 94e4 a2be a975 353d
000000a0: 76ce 683d 3eb3 cabe d721 bdbf 63b5 8e3e
000000b0: 3b26 ae3e e6c7 40be 7aff 1d3d b905 17bd
000000c0: 7f87 603e 0e26 253f 35b6 1b3f cecf 47be
000000d0: 66f2 6b3e 2a15 38be 41a9 bdbe 5b27 c53e
000000e0: 0368 e83e 6db0 a33d e078 433f 9abc 2d3e
000000f0: 9ab6 6c3e 3f87 833e f7d5 323e 3b15 063f
00000100: 1a48 91be 1014 64bd 79be 14be a006 ffbc
00000110: 3e71 8abe ee33 adbe 10cd fc3d 0a6b abbe
00000120: 23d1 9e3e 8139 4fbe c874 81be 009f a73d
00000130: 4e2c 70be d256 343e aca3 8ebd eb8c 853e
00000140: 0c79 2ebf dc82 fcbe 3b69 083e 776e acbe
00000150: 32a3 223e 87c7 9f3e dc6f 173d b36e 39bf
00000160: 5d3a 5dbf 66a7 d0bd fce7 993e d350 aa3e
00000170: 189e 003e e744 0abe 3b3e 92bf 2a5a 4ebf
00000180: e3fc 3ebf 9460 acbd 1c2c c5bf 8875 6dbd
00000190: b5ad 1bbe 6907 53be ef59 a0bf fa46 49be
000001a0: 02e4 df3e 88cd 483f 8bb1 2b3f 80d1 683d
000001b0: 00d8 b33c de22 55be 680a 403e 698d 343f
000001c0: 7f1a 37bf f7d2 10bf 4bfb 9bbf 6d68 883e
000001d0: b3b3 4fbe 1452 e73d 5752 b83e 1a59 e2be
000001e0: b471 073f a1f3 6f3e 6191 bd3e ba34 86be
000001f0: 78c0 6abd c8ea a1be f9c2 453f 02fc 4f3f
00000200: f5c6 5cbe 60db 793f b214 8d3f 60c8 003e
00000210: 2057 9c3c b8c2 d6bd 4a76 553f 067f 0abe
00000220: ab8f 7fbe 8f02 9cbf 5399 813f 96ae 14be
00000230: 507c 9ebc fec0 2d3e 503f 913d b006 bcbf
00000240: 5912 363f 4e93 333e 70c9 89be f84e 8dbe
00000250: b0f1 59bd 2dbc 8f3e 7c90 123f a6c8 013f
00000260: d8e8 333e 33bf 5a3f 86fe 9f3f be9b 483e
00000270: 408d e23b 8064 4abc aa7d 8c3f c45a c93e
00000280: 0623 9abe 19b1 ebbd fd4a a8bf 0a39 5cbe
00000290: 0f54 a4be 1af9 69be 78ec 623e aa11 1bbf
000002a0: b696 033e eb09 9c3e 54e9 ab3d 4859 aa3d
000002b0: 605a 343c 098f 93be f43a 8fbe dc09 23be
000002c0: 1db1 7d3f 541b 4b3f bd95 c33d 14ce ea3d
000002d0: 80ba b8bc 567d 37be 9d9d 333f 9d9b 8e3f
000002e0: b37a 98be 2577 52bf 37e0 c1bf cfb4 9bbe
000002f0: 0f01 05be c26a 4c3e a9aa 9cbd 9690 05bf
00000300: 7687 183e c714 313f a283 023e da62 203e
00000310: 765b 793e 0a1b 2f3e ba77 f1be 4aee 163f
00000320: dc2a 0a3f 55fc 153f 20bd 5a3f 772b 8abe
00000330: f4a7 8dbe aa2a 3a3e c7f9 7bbe fcad a03e
00000340: a5c8 b0bf a165 173f 6fca 243f e8e0 fcbd
00000350: 5080 b93d 88a6 77be f875 713f dbb6 bb3e
00000360: 208c a0bf 5e7e a83b b88a 743f 225a 4e3e
00000370: aa00 97be a473 9ebd 740a 5d3f f6e6 3f3e
00000380: 449d 6dbe e89b f83e f8ba a93e 1ab0 1c3e
00000390: f625 66be 0b24 b43e 7ea2 a5bf 2109 59bf
000003a0: 5ecb 9d3d 4dc2 27be 7029 4cbd bba2 86be
000003b0: 2268 773e 70e3 28be a067 c63d 96eb b83f
000003c0: d7b5 393f 0f0c f43d 1781 33be e597 37be
000003d0: 4ed5 593e f5df a03e faaf 273f caf4 363f
000003e0: da5a 113f af61 253f c51e abbf 60c2 20be
000003f0: 4883 763d 857e 893e 176c 96bf 352b 9e3e
-0.153566 -0.5535776 -0.6621186 -0.2060859 0.13884062 0.11017081 -1.197642 0.48997942
0.5169099 0.50199896 0.49728447 -0.27006638 0.23061463 -0.13498223 0.51450795 1.0056009
0.20492609 -0.14922608 -0.73300487 0.3164085 -0.031341374 0.28843227 -0.4003995 0.74824965
-0.053629074 -0.59002185 -1.0150217 0.24215183 -0.16818973 -0.08932981 0.049001496 -0.12588936
-0.07049845 -0.13223924 -1.1561626 0.17720547 -0.019282013 0.31231216 -0.31815016 0.044301663
0.05683752 -0.39589876 -1.4775952 0.27872762 0.34013543 -0.18826255 0.03857372 -0.036870692
0.21926688 0.6451119 0.608249 -0.19512865 0.23041686 -0.17976823 -0.37043193 0.38506588
0.45391855 0.07992635 0.76356316 0.16966477 0.23116532 0.25689122 0.17464434 0.52376145
-0.28375322 -0.055683196 -0.14525785 -0.031131089 -0.27039522 -0.33828682 0.123438 -0.33480102
0.31018934 -0.2023678 -0.2528441 0.08184624 -0.23454401 0.17611244 -0.06964812 0.26084074
-0.6815345 -0.49318588 0.13321392 -0.33678028 0.15882567 0.31206915 0.03697191 -0.7243454
-0.8641718 -0.10188179 0.30059803 0.3326479 0.12560308 -0.13502847 -1.1425241 -0.8060633
-0.74604625 -0.08416858 -1.5404086 -0.057973415 -0.15202983 -0.20608296 -1.2527446 -0.19655982
0.43728644 0.78438616 0.67067784 0.05684042 0.021953583 -0.20814082 0.1875397 0.70528275
-0.71524805 -0.56571907 -1.2186064 0.2664217 -0.20283394 0.11294952 0.3600032 -0.44208604
0.5290787 0.23432781 0.37024978 -0.26212102 -0.05731246 -0.31624436 0.7725063 0.8124391
-0.21560271 0.97600365 1.1021941 0.12576437 0.019084513 -0.104863584 0.8338362 -0.13525018
-0.24957149 -1.2188281 1.0124916 -0.14519724 -0.019346386 0.16968152 0.07092154 -1.4689541
0.71121746 0.17536661 -0.26911497 -0.2759931 -0.053209007 0.28073254 0.57251716 0.5069679
0.17569292 0.85447997 1.2499549 0.19590661 0.006913811 -0.012353063 1.097585 0.3932706
-0.30104846 -0.11508388 -1.3147885 -0.21506134 -0.32095382 -0.22848931 0.22160518 -0.6057383
0.1285046 0.30476317 0.08394113 0.0831781 0.011007875 -0.28820065 -0.27974665 -0.1592173
0.9909838 0.79338574 0.09550045 0.114650875 -0.022549868 -0.17918906 0.70162374 1.114124
-0.29781112 -0.8221305 -1.514655 -0.30411384 -0.12988685 0.199626 -0.07649738 -0.52173746
0.14895424 0.6917233 0.12745526 0.15662709 0.24351296 0.17100158 -0.47161657 0.5895735
0.5397165 0.58588153 0.8544483 -0.26986286 -0.276672 0.18180338 -0.24607001 0.3138274
-1.3811232 0.5913945 0.6437139 -0.12347585 0.09057677 -0.2418462 0.9432063 0.36662945
-1.2542763 0.0051420173 0.9552417 0.2015157 -0.29492694 -0.077369004 0.86344075 0.18740448
-0.23204523 0.48556447 0.33150458 0.15301552 -0.22475418 0.3518375 -1.2940214 -0.84779555
0.07704805 -0.16382714 -0.049844205 -0.26296028 0.24160817 -0.1649301 0.09687734 1.4446895
0.7254309 0.119163625 -0.17529713 -0.17929037 0.21272776 0.31420866 0.65502894 0.7146727
0.56779253 0.6460218 -1.3368765 -0.15699148 0.060183793 0.2685434 -1.1751736 0.3089234

model.0.bias f4 [64]
00000000: cbe0 7c3e f4ec 2e3f 2946 d13e 4f91 703e
00000010: 4595 a83e 2e66 063f e615 ca3e 2471 fe3e
00000020: 154a 28be 17fd a3be 4001 0a3f 867d a53e
00000030: b79a ab3e 4d16 993e c537 ad3e e76b 363f
00000040: 5ea9 e33c 5340 c63e 9dd2 71bd 4dbe 9b3b
00000050: f6fe c03e 7247 70be b77d edbd 7e3e f33e
00000060: 241d 763f 3687 883e 4cef aa3e cf5c a33e
00000070: 30ad f03e 404d c5bd e63e a3bd 4650 9e3e
00000080: 6679 a83e 685b 6c3e b95c 043e b127 a6be
00000090: 9cf2 e73e 61fa bd3e c250 0f3f eca2 d53e
000000a0: ed0a 453f 765c f1bd f29d 5f3e e2e5 693f
000000b0: ca89 28be 1931 b23e 9d6a 0a3f 56f7 f5bd
000000c0: c366 b03e 82e6 ba3c 2ed6 5b3f 4ebd b73e
000000d0: f3db d43e e3fb c13e a182 fa3e 0c7b 403f
000000e0: 661d 023f a335 5d3e ecf9 003f bb1d 293e
000000f0: 9e18 a53e 25f1 c63e 2760 383f 6fe2 9bbe
0.24695127 0.6833031 0.4087384 0.23492931 0.32926384 0.52499664 0.39469832 0.49695694
-0.1643451 -0.3202903 0.5390816 0.3232233 0.33516476 0.29899827 0.3383161 0.71258396
0.027790722 0.3872095 -0.059038747 0.00475291 0.3769452 -0.23464754 -0.11596244 0.47508615
0.96138215 0.26665658 0.33385694 0.31906745 0.47007132 -0.09633875 -0.07970981 0.3092062
0.3290512 0.23081744 0.12925996 -0.32452157 0.45302284 0.37105086 0.559826 0.41725862
0.76969796 -0.11785214 0.21837595 0.913664 -0.16458812 0.34803084 0.5406893 -0.12010066
0.344534 0.022814993 0.8587369 0.35886616 0.41574058 0.37887487 0.48927787 0.75187755
0.5082611 0.21602492 0.5038135 0.16515248 0.32245344 0.38855854 0.72021717 -0.30446193

model.2.weight f4 [64, 64]
00000000: 715d e53e fec2 0d3e c8e6 193f a530 f43e
00000010: 3555 f93e a891 103f 6993 07be 96eb 90bd
00000020: b080 51bc d6c2 6a3d c4af 35be c5b5 bbbe
00000030: 2e32 d73e e976 dfbb 42be 583f 6ce0 b43d
00000040: e0bc 13be 6957 67be a2dc 193f 7588 013e
00000050: 3c87 013f 038f 59bd 0e39 2d3f f52e 343f
00000060: 671f 2f3e 835d 19be 3218 08be 7dea 87be
00000070: 495f 33be 61fd c13f 5de0 203f a47b 3cbf
00000080: d966 123f 6e6d a4bd 2bd2 20bf 62b9 91bd
00000090: d05b 82be daca 1bbf 0846 c53c f7f8 92be
000000a0: 8dec 2e3c bd92 d2be 2bb1 10bd 0f87 143e
000000b0: d43f 9d3d 470b 89be af87 08be b85f 993f
000000c0: 4d05 653e d25b 19bf 440c f43d 517f 293f
000000d0: 3987 5fbd d556 2cbf 43ac 5bbe 3d69 11be
000000e0: 35d4 223f e58e 0abe 7066 0cbe 9510 d7be
000000f0: 0812 94be a84a 9ebe 9858 973c e454 a33d
00000100: 4058 44bd 9cb6 7cbd 803a 6bbc 9a99 843d
00000110: f273 ae3d aefa d0bd 4261 f5bd e43e c83d
00000120: 381b a73c 8225 ed3d 0cfc f43d 10fe b83d
00000130: 4e8e 973d 1cf2 b83d 5617 fb3d 9c5c 593d
00000140: 7a16 f23d 5807 83bd 305f 743c 00f6 ec3c
00000150: c057 d1bc 5675 a2bd 06c6 883d 5c39 05bd
00000160: 1a59 c1bd 248c 4dbd a03f 4a3d e045 a73c
00000170: 5843 35bd 325e 93bd 5803 5abd 567f cb3d
00000180: 48f9 a13d bc8f 73bd dacf fcbd 00d1 513d
00000190: 38f9 443d e014 c93d 6026 cdbd 5034 2ebc
000001a0: 185a df3c 0476 6d3d f049 93bd be96 97bd
000001b0: 4ac2 ddbd f062 60bd 54c8 b0bd 106f 60bc
000001c0: e4d8 cb3d 6a66 bb3d d822 e1bc 6a56 8a3d
000001d0: 028b 88bd 48a9 63bd 684e 80bc 5061 bdbc
000001e0: bc37 b7bd 562c dfbd 06b5 b1bd 2c10 f03d
000001f0: b2d9 dfbd 4ce1 e43d 50f9 a5bd e03f 4cbd
00000200: 6496 473d 1077 f03c c661 f0bd f0a5 7dbd
00000210: b641 b73c 7b7d 88bb ec3c be3b 590e 973d
00000220: a24d cbbd a473 ff3d 3e2d e63c 4bbd b73d
00000230: c568 13be b49d 91bd 8c53 1eba 5441 dc3c
00000240: 5d1c e13c d0b9 eebc 124c a6bd cdde be3b
00000250: c924 523d cc59 3e3d b4dd 58bd 3552 f9bd
00000260: 2ab1 aebd a2f9 b2bc 4804 cabd 12ea 4f3d
00000270: af63 3cbd d00c d63d 0244 c4bd 38e4 51bd
00000280: 4e7e b5bd 50ad 793d 943a f4bd 86e0 c1bd
00000290: 5d6f 90bd 6ec6 873d a014 ec3c aa14 f7bd
000002a0: 7c4e bbbd d47d 99bd eb41 9fbc cf5a d9bd
000002b0: 7c50 b7bd 8850 e7bd b46b 9c3d 2460 51bd
000002c0: de8d b9bc 48e9 9f3d c82e 243d 0242 7a3c
000002d0: ceff 51bd 910f 52bd 4085 d1bd c543 bdbd
000002e0: b9db 0fbe e305 00bd c28b 14be 306f c4bd
000002f0: 6470 9b3d 00ce 7c3c dc6f 79bd b0c6 2abd
00000300: 5aef 0a3f 006a e53e 71e8 ad3f 5fc5 ad3d
00000310: e56a 803f 70a5 293f ead6 293f 0e8d 713e
00000320: fe60 dfbd 0b05 33bd be7c 2abe 96ca 0abe
00000330: 55ca 0c3f 84ca e83e 619e 3c3d 0efc de3d
00000340: 8a1c 633e b86a 00bd 58c9 4b3f d729 013e
00000350: 501d 293f 9eb2 ba3c 8304 a83f 211f bb3e
00000360: 8b85 f93e ae99 d13e 8025 f43c f9ca a4be
00000370: 4fdd 723e decd c23f 7b7a 3a3f 30cc 97be
00000380: 3e59 543f 7308 403e 58b6 00bf 2c5e e13d
00000390: a571 d43d c501 6fbe b645 f8bd 8fa4 c0be
000003a0: c027 493e 2f8f 363d dba0 263f 5c2e 683e
000003b0: 004f e6ba 631f c5be 8030 cf3e 0d0e 593f
000003c0: c1d0 003f 8b1b ebbc 5a1f f73e 8901 113f
000003d0: 4602 0d3f 11c8 9abe ad61 a7be dae0 233e
000003e0: 3a83 2d3f 8ee1 ef3e 4fb1 b53e 3964 c7be
000003f0: 2cdc 38be 1032 bdbd 1347 1b3c e686 9dbd
0.44797853 0.13843915 0.6011777 0.47693363 0.4869782 0.56472254 -0.13239826 -0.070761845
-0.012787029 0.057314716 -0.1774283 -0.36662117 0.42030472 -0.006819595 0.8466531 0.088318676
-0.14427519 -0.22591938 0.60102284 0.1264971 0.50596976 -0.053114902 0.67665184 0.7038415
0.17101823 -0.14977078 -0.1329048 -0.26546088 -0.17516817 1.515545 0.6284235 -0.7362616
0.57188183 -0.080286846 -0.6282069 -0.07115437 -0.25460672 -0.608564 0.024081245 -0.2870557
0.010676515 -0.41127577 -0.03532521 0.14504646 0.0767819 -0.26766416 -0.13333009 1.1982336
0.22365303 -0.5990573 0.11916402 0.66209894 -0.054572318 -0.67319995 -0.21452431 -0.14200301
0.6360505 -0.13531072 -0.13710952 -0.4200484 -0.28920007 -0.30916333 0.018474862 0.07975176
-0.047935724 -0.061697587 -0.014357209 0.0647461 0.085182086 -0.10204063 -0.11981441 0.097776204
0.020398721 0.1157942 0.119621366 0.090328336 0.07400189 0.09030554 0.1226031 0.053066835
0.11820693 -0.06397885 0.014915273 0.028925896 -0.025554538 -0.07932536 0.06678395 -0.032525405
-0.09440823 -0.050182477 0.049377084 0.020419061 -0.044253677 -0.07195701 -0.053225845 0.09936397
0.07908875 -0.059463248 -0.12344332 0.05122471 0.048089236 0.09818435 -0.10017085 -0.010632589
0.02726464 0.057973877 -0.07191837 -0.07401799 -0.10828073 -0.054781854 -0.086319596 -0.013698354
0.09953478 0.09150393 -0.027482435 0.067547634 -0.06667139 -0.05558136 -0.015662387 -0.023117691
-0.08946177 -0.10897128 -0.086771056 0.117218345 -0.10930194 0.111757845 -0.08104193 -0.049865603
0.048727408 0.029353648 -0.11737399 -0.06192583 0.0223702 -0.004165349 0.0058056023 0.073757835
-0.09926917 0.124732286 0.028097745 0.08971652 -0.14395435 -0.071101576 -0.0006039671 0.02688662
0.027479345 -0.029141337 -0.08119978 0.0058248998 0.051304612 0.046472356 -0.052945808 -0.12173883
-0.08529885 -0.02184755 -0.09864098 0.050760336 -0.045993503 0.104516625 -0.09583284 -0.051243037
-0.08861981 0.0609563 -0.119252354 -0.094666526 -0.07052491 0.06629644 0.028818429 -0.12064488
-0.09145829 -0.07494703 -0.019440612 -0.106130235 -0.08950898 -0.11294657 0.0763773 -0.051117077
-0.022650655 0.07808167 0.040083677 0.015274527 -0.051269345 -0.051284377 -0.102304935 -0.09241442
-0.14048661 -0.031255614 -0.14506438 -0.0959152 0.07589796 0.015429974 -0.060897693 -0.04169339
0.5427147 0.44807434 1.358656 0.08484911 1.0032622 0.6626806 0.6634356 0.23588964
-0.10907172 -0.04370598 -0.16649148 -0.13553843 0.54996234 0.45467007 0.04604948 0.10887919
0.22178856 -0.031351775 0.796041 0.12613617 0.6606035 0.02279025 1.3126377 0.36547187
0.48734698 0.4093756 0.029803038 -0.32186106 0.23717235 1.5219076 0.7284314 -0.2964797
0.8294867 0.18753223 -0.50278234 0.1100429 0.103732385 -0.23340519 -0.12122671 -0.37625548
0.1964407 0.044570144 0.65089196 0.22673935 -0.0017571151 -0.3850051 0.4046669 0.84787065
0.50318533 -0.028699657 0.48266107 0.5664297 0.55081594 -0.30230764 -0.32691708 0.16003743
0.6777836 0.46851772 0.35486838 -0.3894365 -0.18052739 -0.09238064 0.009477395 -0.076917455

model.2.bias f4 [64]
00000000: 47d7 563e 885f d7bd c1bc 06be b331 9d3e
00000010: ee8d b43e aece 2d3e eca0 803d 8412 5f3e
00000020: c8a2 453e 3a72 803d db59 313e 4555 e43d
00000030: 488f 153e 1ca9 1fbd 82c8 e0bd 8ff1 6c3e
00000040: ced2 983e dce7 313e 6797 4a3e aef4 b4bd
00000050: fef9 dcbd 51ff 6e3d 77f4 1d3d 5f0c 133f
00000060: a206 803e 7f5e b7bd 7ecf ac3e e4dc 963e
00000070: cc21 08bd 8c7b 823e 0bf8 f93d f99d d6bc
00000080: 98b6 8e3e b017 d7bd 58b8 88bc 61ab dc3d
00000090: 0132 013f 141d be3c eb87 673d 2700 0e3e
000000a0: f954 123e 60a2 e43c 1045 fabd 7b33 c43d
000000b0: f76d 8a3d c7c0 c33e c652 90bd 2d13 a93e
000000c0: 440c 6e3e ea88 09be fdc3 023f e302 9f3e
000000d0: 4343 c43e 2267 693e dd0a 783e ff09 0a3f
000000e0: 9ce5 f03e 8251 363d bc22 25bd d9f0 393e
000000f0: 487f 763b ddcb a33e 15c6 b53e 1f56 c43e
0.2098056 -0.10516268 -0.13157941 0.3070198 0.35264534 0.16973373 0.062806934 0.21784407
0.19300377 0.06271787 0.17319433 0.11149076 0.14605439 -0.038979635 -0.10975744 0.23139022
0.2984833 0.17373604 0.19784318 -0.088357314 -0.1078987 0.058348957 0.038563218 0.5744075
0.2500506 -0.089535706 0.33752054 0.294654 -0.033235356 0.25484884 0.122055136 -0.026198374
0.27873683 -0.10502565 -0.016689464 0.107748754 0.50466925 0.023207225 0.056526106 0.13867246
0.14290227 0.027909458 -0.12220204 0.095801316 0.067592554 0.38233015 -0.07047038 0.33022442
0.23246866 -0.13431135 0.51080304 0.3105689 0.38332567 0.22793248 0.24222894 0.539215
0.47050178 0.044511326 -0.04031633 0.18158282 0.0037612487 0.31991473 0.35502687 0.38346955

model.4.weight f4 [8, 64]
00000000: 258f 333e 9068 b2bd c6da a83d a100 99bc
00000010: 4a02 db3e 8bad 03bf 0cd9 41bf 1d94 16bf
00000020: 2ddf 26be 701c 533c 81c3 a43d 5c2c 1fbd
00000030: 9ff0 03be e8bf 0fbd d4af c23d 4dae 1dbf
00000040: ce88 c13d 66b7 183e eade d73e f02d 663c
00000050: 8a1e c83d 1a35 223c 1436 833d b253 b73e
00000060: 5f03 e1be 5038 a53d ba5f 25bf cc52 07bf
00000070: 6c59 72bd de42 38be 7563 86bf 4e17 45bd
00000080: 725f a53e 4cf3 273d ed49 0cbe c2a6 223f
00000090: ae7f d93e 4bec b83d 48d2 11bd 00e9 ac3d
000000a0: 3d61 f5be 249b d33d 883d bd3c 298b 283e
000000b0: 35a9 983d 65da 683e f038 b6bd 2ad2 823e
000000c0: 492a fd3d 5a5b cd3d 8fe5 bd3e 8f60 ce3e
000000d0: b529 f0be e5a5 b23e 16a8 f3bd 4c2c b43e
000000e0: 54bb c93e 6e63 fb3c f469 70bd 4847 adbe
000000f0: eaa6 253d 7ab7 f3be 5b7f 60be 46c4 b63e
00000100: 3a23 2d3e 086a fbbc 6038 833b 3016 283e
00000110: 989b 173f ddbe e5be 8558 3bbf 1bab c0be
00000120: 4407 3f3c e8b7 be3d 8799 563c ea3a b8bd
00000130: eb21 39be 36ed a73d 78c8 e53d 20e9 20bf
00000140: f938 0bbe 9199 803e f81b e93e 94c5 c13d
00000150: 9c81 b3bd e0e6 7ebd 379c b1bd 19b0 c93e
00000160: d531 16bf daa1 80bd 7c73 0bbf 96b8 0fbf
00000170: 2438 8cbd fa6a cbbe 6ad6 89bf e68a 0abd
00000180: 9968 493f bc69 483d 8d55 4ebe d751 323f
00000190: a34d 803e b96d 313e 5c88 853d d025 d53d
000001a0: 0478 05bf 660a 9a3d ca94 e23d 88b1 3b3d
000001b0: 57e1 b9bd 58f4 353e 70e5 523d 1caa 423e
000001c0: 1a57 823e 7040 efbc cbd6 6c3e 90d4 9b3e
000001d0: 8f23 bfbe 87c0 273e beb1 9d3e 2f3a d33e
000001e0: c4aa ce3e e250 febd c499 e73d c98a a9bd
000001f0: 51af d7bd 8f35 02bf 02b4 96be f364 e63e
00000200: 194e 7f3e 60ab e93d 80df b43c da7c 203e
00000210: f800 e53e cb7b 4cbf 899d 32bf ada8 f4be
00000220: 5791 7cbe 5216 9f3d 3a6f c6be 3fa7 d23c
00000230: cfdd fcbe 6451 adbd 4c54 5abd 2e34 32bf
00000240: 191c a4be 97fe d53e f6e8 373f 449d 8fbd
00000250: 6e7a cb3d 2f05 b13d f4dd 40bd e805 df3e
00000260: 931f 44bf 885a e0bc 9884 12bf f7a5 30bf
00000270: 9812 cfbd 63c1 67be 30f5 38bf 7e04 413d
00000280: b5e3 613f 6e17 883d ec54 e6bd 882f d53e
00000290: 4fea c53e b0b4 a63e 8b20 9ebd 9145 d3bd
000002a0: f5eb 22bf 7037 d7bc f68a fe3d 6e1f fd3e
000002b0: ed3e c7bc 40db 393e 3081 ccbd 35af a43e
000002c0: 9da0 993e 2cd4 b73d ff7f 7e3e 411a 763e
000002d0: 1c6a 09bf 502e 42be 817b 503e e2f0 f43e
000002e0: e069 9f3e 9aaa 06be 8cc9 dfbd 5e6c 7e3e
000002f0: 8184 ee3d cdb1 32bf 7f19 1abd fb83 b03e
00000300: ca3a 9c3e 182e 253d 8c40 f5bd 988a b93e
00000310: 1355 bc3e 93fe 57bf 1dd4 1dbe 5d2c 90be
00000320: a52a 26bf 4858 e2bc 33fa 90be 3996 bb3d
00000330: 98fc 18bf b407 9d3d 7455 0f3d 89ff 59bf
00000340: b815 82bf cf51 833e 6a2e 373f 8c15 75bd
00000350: 120c cf3d 4c3a acbc bc86 b63d e680 b93e
00000360: e7d2 82bf a85e e73c 7812 bdbf a2f7 59bf
00000370: 18b5 0e3d 8a05 b63e 9a6b 553d 0261 b83d
00000380: b1c3 333f 10a4 563c ef7c a6be d2c6 563e
00000390: a094 af3e e060 fd3d de31 643d f5e5 35be
000003a0: ca14 80be 989f e2bd b8b6 28bd 9b86 333f
000003b0: 7ada 88bd 9c97 803d 9011 753c b596 843e
000003c0: 5c66 4a3e 9cd5 913d 23e8 8a3e d4c5 b63e
000003d0: da93 80bf 37ab f7be 3de4 c83e 336b ab3e
000003e0: 2121 ab3e 8b31 26bf 46db edbd 28ae 563e
000003f0: 3463 a13c e50e 67bf 6fce cd3e 86f6 d83e
0.17535074 -0.0871135 0.08244853 -0.018677058 0.42775184 -0.5143668 -0.7572181 -0.5881975
-0.16296072 0.012885198 0.08045102 -0.038860664 -0.12884758 -0.035095125 0.09506193 -0.61594087
0.094499215 0.14913711 0.42162257 0.014049038 0.0977145 0.009900356 0.06406799 0.35806042
-0.43947884 0.080673814 -0.6459919 -0.52860713 -0.05916731 -0.17994258 -1.0499102 -0.04811793
0.32299381 0.04100351 -0.13700075 0.635357 0.42480224 0.09029444 -0.03560093 0.08442879
-0.4792575 0.10332325 0.02310063 0.16459335 0.07454149 0.22739561 -0.08897579 0.25550967
0.12361581 0.100271896 0.37089202 0.40308043 -0.4690682 0.34892192 -0.11897294 0.35190046
0.39400733 0.03068706 -0.058694795 -0.33843446 0.040442385 -0.4760092 -0.21923582 0.3569662
0.16907969 -0.030690208 0.004004523 0.16414714 0.5922179 -0.4487218 -0.73181945 -0.37630543
0.011659447 0.09312421 0.013098127 -0.08995612 -0.18079345 0.08199541 0.11219877 -0.6285572
-0.13595952 0.25117162 0.4552915 0.09461513 -0.087649554 -0.0622319 -0.08672374 0.39392164
-0.5866979 -0.06280871 -0.5447309 -0.5614103 -0.068466455 -0.39730054 -1.0768559 -0.03382387
0.7867523 0.04892896 -0.20149823 0.6965613 0.25059232 0.17327012 0.06520149 0.10407603
-0.52136254 0.075215146 0.110635355 0.045823604 -0.09076183 0.17768991 0.05148834 0.19010204
0.25457078 -0.02920553 0.23128812 0.3043561 -0.37331817 0.16382037 0.3079967 0.41255328
0.4036466 -0.12417771 0.11308625 -0.08278424 -0.10531486 -0.50862974 -0.2943421 0.44998893
0.24932136 0.1140964 0.02207923 0.15672627 0.44727302 -0.79876393 -0.6977163 -0.4778494
-0.24664818 0.07767929 -0.38756734 0.025714515 -0.49387977 -0.0846279 -0.053303048 -0.6961087
-0.32052687 0.417958 0.71839845 -0.07012418 0.09935461 0.08643567 -0.04708667 0.43559194
-0.7661068 -0.027386919 -0.5723357 -0.6900324 -0.10110968 -0.22632365 -0.72249126 0.047123425
0.8823808 0.06645094 -0.11246666 0.41637826 0.38655326 0.3255973 -0.07721051 -0.10316003
-0.6364129 -0.026271552 0.124288484 0.4943804 -0.024321998 0.18150043 -0.09985578 0.32164922
0.3000535 0.089760154 0.24853514 0.24033453 -0.53677535 -0.1896298 0.20359613 0.4784003
0.31135464 -0.13151017 -0.10927114 0.24846026 0.11646367 -0.6980255 -0.03762197 0.34475693
0.30513602 0.04032716 -0.11975202 0.3623855 0.36783656 -0.84372824 -0.15412946 -0.28158846
-0.6490882 -0.027629986 -0.28315887 0.09159512 -0.5976043 0.07667485 0.034993604 -0.8515554
-1.0162878 0.25648353 0.715552 -0.059835 0.10109724 -0.021023892 0.08912417 0.36231154
-1.0220612 0.028243378 -1.4771261 -0.8514348 0.034840673 0.355511 0.05210457 0.09002878
0.70220476 0.013100639 -0.32517192 0.20974281 0.3429308 0.12371993 0.05571162 -0.17763503
-0.2501586 -0.11065596 -0.04118988 0.70127267 -0.06682296 0.06278917 0.0149578005 0.2589623
0.1976561 0.07120821 0.2713023 0.35697806 -1.0045121 -0.48372814 0.39236632 0.33480224
0.33423713 -0.64919347 -0.11614089 0.20964873 0.019700624 -0.902571 0.4019656 0.42375582

model.4.bias f4 [8]
00000000: d614 93bd 6a91 513e f8cd 063e 626f a93e
00000010: 4ab8 e53c 1a4e fa3d 0c73 973e afcb 743d
-0.071817085 0.20465627 0.13164508 0.3309279 0.028041977 0.12221928 0.2957996 0.05976456
