src/reinforcement_app/storage/model/7.pth (torch, 25613 bytes, 6 tensors)

model.0.weight f4 [64, 16]
000000 50 16 1f bf 96 95 3a 3e 25 27 34 bf f2 58 ae 3b
       -0.6214342 0.18221125 -0.7037223 0.0053206617
000010 28 67 a5 bf d4 09 33 3f 98 63 04 bf 7d d5 7b be
       -1.2922106 0.6993687 -0.5171447 -0.24593158
000020 24 fb 45 3e 68 2a 0e 3e 80 db 35 be 8c e2 cb 3d
       0.19334084 0.13883364 -0.17759514 0.0995532
000030 40 6a d9 3c 72 36 02 3e d8 72 69 3e 74 d3 25 be
       0.026539922 0.12716082 0.22797716 -0.16193944
000040 b6 75 f7 be d6 99 fe 3e bd 10 b9 3e c0 1a 22 3e
       -0.48331994 0.49726743 0.36145583 0.15830517
000050 60 8f 48 bf b3 e5 2b 3f 21 e2 8b be f5 7b e7 bd
       -0.7834377 0.6714737 -0.2732096 -0.1130294
000060 9e 9c 5a be 28 03 8f 3d a0 3e a1 bd 26 e6 54 be
       -0.21348807 0.06983024 -0.07873273 -0.2079092
000070 84 97 9d 3d 48 e3 d9 3d 0a 32 5c be 2e 09 23 be
       0.07694915 0.106390536 -0.21503463 -0.1592147
000080 af dd 4a bd 2e 72 2a 3f b3 11 14 3f 42 ec 8b bc
       -0.04952782 0.66580474 0.57839507 -0.01708043
000090 f3 fd 0f 3d 82 5b 98 3e a2 4a ec 3e 9d 6c d3 3d
       0.035154294 0.29757315 0.4615069 0.10323451
0000a0 e2 dd 34 3e 62 50 48 be 50 90 2a 3d 18 12 81 bd
       0.17662767 -0.19561914 0.041641533 -0.06302279
0000b0 6e cf 4a be 4e 42 27 be f4 2a da bd 24 2e 7f 3e
       -0.1980569 -0.16333887 -0.10652724 0.24919945
0000c0 25 a1 1e 3d e5 d0 a5 be af 4a 05 3f 9f ee 10 3e
       0.0387279 -0.32385936 0.52067083 0.14153527
0000d0 a0 5e c4 3e 9c 8a bb be 5a ed 87 3e 2c 52 58 bd
       0.38353443 -0.36629188 0.26548272 -0.05281274
0000e0 40 66 60 bd 80 46 87 bd 44 8c b3 3d 86 c0 7a 3e
       -0.054785013 -0.06605244 0.08766988 0.24487504
0000f0 d4 6d 90 bd fa 8c 41 be 4a fb 14 3e 90 4b 48 3d
       -0.07052198 -0.18901435 0.14548984 0.048900187
000100 80 2f 9d bc d0 f1 9a bc 2a e8 48 3e 24 f8 db bd
       -0.019187689 -0.018914133 0.19619814 -0.107406884
000110 c2 a2 60 be 18 01 18 bd 04 01 1b be 24 7d 55 be
       -0.21937087 -0.037110418 -0.15137106 -0.20848519
000120 3e 0a 14 be 48 5b 99 3d 34 7a ec 3d 20 f9 f4 3d
       -0.14457032 0.07488114 0.11546746 0.11961579
000130 08 6d 61 3e 4a ba 78 be 20 2f c5 bc 28 57 ff bd
       0.22014248 -0.24289814 -0.024070323 -0.124677956
000140 30 26 30 3e 17 f0 c4 be 56 c9 09 3e f6 17 5f 3b
       0.17202067 -0.38464424 0.1345571 0.0034041381
000150 0a c4 dc 3d 02 2c e6 be f0 bb 9f 3e f1 3a 03 bc
       0.10779579 -0.4495545 0.31198072 -0.008009658
000160 46 aa 14 be a0 14 9c bd d2 83 71 be 2a cd 15 3e
       -0.14518079 -0.076211214 -0.23585442 0.14629045
000170 b4 2e 1f be 5c 82 c0 3d 9c e8 f4 bd f4 21 be bd
       -0.1554516 0.09399864 -0.11958429 -0.0928382
000180 69 0e 0c 3f 23 71 c0 be 80 d0 a9 bd b3 ed 0c 3e
       0.5470949 -0.37586316 -0.08291721 0.1376255
000190 70 80 95 be 70 25 b4 3d 4a 2f b6 3e bf 67 d1 3e
       -0.29199553 0.08796203 0.35582954 0.40899464
0001a0 d8 0f d8 3d cc 4b 4a be 30 49 7a bd 92 61 51 3e
       0.10549897 -0.19755477 -0.061104953 0.20447376
0001b0 6e ea 4f be 3c 64 20 be 08 62 6a bd 50 10 70 bd
       -0.20304272 -0.15663236 -0.057222396 -0.058609307
0001c0 5b 7a db 3e cf dd 16 3f 29 29 50 3f 60 45 b6 be
       0.42866787 0.58932203 0.81312805 -0.35599804
0001d0 50 7f e2 bc 56 b4 fb 3d 0e 2c d9 3e 2d 2c 74 3d
       -0.027648598 0.12290256 0.42416424 0.05961244
0001e0 6c d3 89 3d 8c ff 81 bd c4 44 26 be 8c da e2 bd
       0.06729779 -0.0634757 -0.1623717 -0.11076841
0001f0 a8 ef 4e be 78 e9 8b bd 28 de 1f bd 78 d0 d4 3d
       -0.20208609 -0.0683164 -0.039030224 0.10391325
000200 d1 07 22 3f 16 58 37 3f e4 2a 56 3f d6 f3 16 be
       0.63293177 0.71618783 0.83659196 -0.14741454
000210 17 91 83 bf 30 16 d3 3e 68 e5 00 bf 4b 78 b0 3e
       -1.0278653 0.41227865 -0.50350046 0.34466776
000220 a0 d8 32 3c 70 e8 e5 bc 64 ef 81 3d 4a af 73 3e
       0.010915905 -0.028064936 0.06344488 0.23797336
000230 58 ba 6c 3e 8c dc 0f be e0 9c ca 3d 6a 67 4f be
       0.2311796 -0.14048976 0.09893203 -0.20254293
000240 4e c3 c4 3e 3a 48 f6 be 5e d8 06 3e fd e3 6e 3b
       0.38430256 -0.4810198 0.13168475 0.003645181
000250 f1 4e cd 3d 0a 84 eb be 87 10 20 3f f3 f4 e5 bd
       0.100248225 -0.45999175 0.6252522 -0.11228361
000260 d8 8e e6 3d 40 0d b2 bd fa 1d 37 3e 56 15 0a 3e
       0.11257714 -0.086939335 0.17882529 0.13484702
000270 98 d8 0f be 46 2d 1d 3e 20 51 23 be b0 f9 c7 3d
       -0.14047468 0.15349302 -0.15948915 0.09764421
000280 a9 cb e7 be 08 b0 44 be 5e 87 a6 bf bf aa 01 bf
       -0.45272568 -0.19207776 -1.3010061 -0.5065116
000290 f2 9b 10 be 17 88 62 3f dc c8 13 bf b5 36 36 bf
       -0.14121988 0.88488907 -0.5772836 -0.71177226
0002a0 0e 0d 3c 3e a6 73 5c 3e 28 ee 3e 3d 08 38 bd 3d
       0.18364355 0.21528491 0.046613842 0.09239203
0002b0 6e 4c 47 3e 24 89 30 be ec de 20 be 4e 1c 48 3e
       0.1946275 -0.17239815 -0.15710038 0.19542047
0002c0 7a e4 a6 3e e9 1d 48 3f f5 64 5d 3f 3f 6d 45 3d
       0.3259619 0.7817064 0.86482173 0.04819989
0002d0 0c 2a 42 bd 30 80 1e bf 03 6d 5f 3e cb d6 e7 3c
       -0.04740338 -0.6191435 0.21818928 0.028300663
0002e0 c0 46 9f 3c 34 97 e1 3d d0 c9 01 3d e8 f0 65 3d
       0.019442916 0.11015168 0.031686604 0.05613795
0002f0 94 c9 e9 3d c0 c9 71 bc 10 24 96 bc b0 90 1f be
       0.11415401 -0.014757574 -0.018327743 -0.15582538
000300 f4 ec 27 bf 06 01 61 3f dd 28 0b be 30 b3 f0 3e
       -0.65595937 0.87892187 -0.13589807 0.4701171
000310 57 90 1a 3f 57 b1 06 bf a5 23 10 be 45 8b 77 3e
       0.60376495 -0.5261435 -0.14076097 0.24174221
000320 a6 0b 0d 3e 34 cd 5a be 10 f0 e4 bc 52 7e 7f 3e
       0.13773975 -0.21367341 -0.027946502 0.24950531
000330 10 42 42 be 66 5e 04 be 98 3e 12 3e f4 58 5c 3e
       -0.18970513 -0.12926635 0.1428169 0.21518308
000340 5e 19 4b be 0c 12 c1 be 32 1f 1a 3f af 9e 6f 3e
       -0.19833896 -0.3770908 0.6020385 0.23400377
000350 9f 34 d5 3c 39 bd ce be 58 3f cd bd cc 9d 27 bc
       0.026026068 -0.4037874 -0.100218475 -0.010230493
000360 52 a9 78 be 3a fa 4d be f0 87 5b bd 84 c9 b3 bd
       -0.2428334 -0.20114985 -0.053596437 -0.087786704
000370 8e c9 7a 3e 64 43 ff 3d ee 5e 33 be 6e 4b 4c 3e
       0.2449095 0.124640256 -0.17516682 0.19950649
000380 13 96 49 3f 16 19 70 3e 9a 5d 30 3e 30 cd aa 3d
       0.7874462 0.2344707 0.17223206 0.08339918
000390 18 82 11 bf d0 3a 23 3f 1d db 46 bf 17 36 42 bf
       -0.5683913 0.63761616 -0.7767809 -0.75863785
0003a0 50 db 64 bd 38 c1 3c bd f4 ec 1b 3e c0 1d 57 3d
       -0.055873215 -0.046082705 0.15227109 0.052518606
0003b0 c6 3b 05 be 92 7e 54 be 28 bc c2 3d fe 2d 3b be
       -0.13011083 -0.20751408 0.09508544 -0.18279263
0003c0 75 bc 1c be 93 73 3b 3f 34 0b 5a bf 7c 86 04 3f
       -0.15306266 0.7322323 -0.85173345 0.51767707
0003d0 0a fd b8 be 7d 74 70 be bd ab df 3e d9 b0 de 3d
       -0.36130553 -0.23481937 0.43685713 0.10873575
0003e0 88 bb 00 3d c0 9c 07 3c 38 07 ee 3d a6 40 60 3e
       0.031428844 0.008277118 0.116224706 0.21899661
0003f0 90 69 e9 3d 06 b0 08 be 04 89 44 be a6 98 22 3e
       0.113970876 -0.13348398 -0.19192892 0.15878543

model.0.bias f4 [64]
000000 b2 2f 00 be 41 1f 7e 3d 11 ae 5d 3e 62 f3 69 3e
       -0.12518194 0.062041525 0.21648432 0.2284675
000010 2c 35 5e be 7d 70 af 3e 63 4f 85 3e ea f6 65 3e
       -0.21699971 0.3426551 0.2603713 0.22457471
000020 c6 0a 2e be 7c e0 7a 3e d7 69 f8 bc 52 f3 be 3c
       -0.16996297 0.24499696 -0.030323906 0.023309384
000030 39 d5 02 be 6f 29 78 3e ad 0f aa bd 85 cd ca bc
       -0.1277665 0.24234556 -0.08303771 -0.024756202
000040 6c 72 3f 3d ed 20 dd 3d f9 39 29 bd bc a8 03 3d
       0.04673998 0.10797296 -0.041315053 0.03214334
000050 4f da 29 be e9 48 00 be 1f 36 28 be f5 04 42 3e
       -0.16587184 -0.12527813 -0.16426896 0.18947203
000060 64 bf 26 3e 47 cd 94 3e 30 14 74 be 3a 09 f7 3d
       0.16283947 0.29062864 -0.23835826 0.12062307
000070 c3 b4 3f 3e d4 e0 7f be 25 30 35 be 9f 55 96 3e
       0.18721299 -0.24988109 -0.17694147 0.293622
000080 68 49 29 be e3 92 65 3e 42 d7 13 3f 26 80 67 3e
       -0.16531909 0.22419314 0.5775033 0.22607478
000090 f9 9e 12 be 36 7f d5 bd 72 f2 23 3e ae 0b 88 3e
       -0.14318456 -0.10424654 0.16010454 0.2657141
0000a0 29 73 13 3e 8d d8 90 3e 6c 42 1f bd 37 c1 04 be
       0.14399399 0.28290215 -0.038881704 -0.1296433
0000b0 f3 57 04 be 8c e7 9b 3e fb 04 54 3e 1d dd cb 3e
       -0.12924175 0.30450094 0.20705025 0.39817134
0000c0 c3 04 8e bc 72 bc 5c 3e a0 33 9b 3e 06 47 b3 3e
       -0.017336255 0.21556261 0.30312824 0.35015124
0000d0 e6 44 96 3e e9 4a 74 3e 47 50 4f 3e 0d f1 7e 3e
       0.2934944 0.23856701 0.20245467 0.24896641
0000e0 42 da 78 be a1 ba 82 3e 24 42 4d be 73 d2 a7 bd
       -0.24302009 0.25533012 -0.20044762 -0.08194437
0000f0 1b c3 79 3e b4 60 66 bd 9b 69 37 3d e2 d8 c9 3d
       0.24390833 -0.056244567 0.044778448 0.0985582

model.2.weight f4 [64, 64]
000000 48 91 36 bf 82 b3 01 be f7 43 66 bd ce 74 51 3f
       -0.7131543 -0.12666133 -0.05621716 0.81818855
000010 c8 61 54 3d f8 23 7a 3f 87 f9 26 3e 03 0e 7e 3e
       0.051851064 0.97711134 0.16306125 0.24810033
000020 d1 96 9a 3e 61 29 82 3f 92 1d 2f bf 29 db c1 3e
       0.3019319 1.0168878 -0.68404496 0.37862518
000030 4c 72 91 3d 69 db 36 3f 79 d2 51 be b7 0e 70 bd
       0.071018785 0.71428543 -0.20490445 -0.058607783
000040 e6 58 86 be ad 1f db 3d a7 cf d6 be 6e 83 86 3e
       -0.262397 0.10699401 -0.419553 0.26272148
000050 48 e3 43 3e 61 8e 6a bd f8 c6 98 3f be 48 83 3f
       0.1912967 -0.05726469 1.193572 1.0256574
000060 09 72 01 3e 4b dd 63 3f c0 fc cb bc ca 97 2b be
       0.12641157 0.8900954 -0.024900794 -0.16757122
000070 9e 01 ee 3c c8 09 ef bc ea 60 0d 3f 89 d0 94 3d
       0.029053506 -0.029179469 0.55226004 0.072663374
000080 4a 52 10 3e 77 57 92 bd 60 4b b4 bd 4c e9 d6 bd
       0.14093891 -0.07145589 -0.08803439 -0.104937166
000090 11 b4 2f 3f dd 79 eb 3e 7d 07 68 bd 89 1c d7 3e
       0.68634135 0.45991412 -0.056647766 0.42013958
0000a0 7f 16 30 3e f3 bc 83 3f 24 2e cd bc 6d 03 e7 bd
       0.17196082 1.0292038 -0.025046416 -0.1127995
0000b0 6b 16 d0 be 5c b4 25 3e c6 b5 d4 bb c5 ee 80 3e
       -0.40642104 0.16182083 -0.0064913956 0.25182167
0000c0 8a 3e f7 3c 3c 02 93 be 6f 55 35 bf da 66 94 3e
       0.030181188 -0.28712642 -0.70833486 0.2898472
0000d0 5f 7b aa be 39 5b 75 3f aa ff dd bd 9a ba 4d 3e
       -0.3329725 0.9584232 -0.1083978 0.20090714
0000e0 48 57 fe 3c ee c6 d8 3e 31 df 07 3e 5f d8 ba bc
       0.031047478 0.4233927 0.13268735 -0.022808252
0000f0 c7 b3 8d 3d 5b 48 54 be 42 00 85 3c 7c bc 0b 3e
       0.069190554 -0.20730726 0.016235474 0.1364612
000100 7b 2a 3e 3f 3b 8e 05 3f 8d d9 23 3e 7d 93 07 bf
       0.7428357 0.5217015 0.16000958 -0.52959424
000110 88 c6 ad 3c 7c 53 44 bf a0 9a 31 3e 02 56 14 3e
       0.021212831 -0.7668989 0.17344141 0.14485934
000120 54 78 b6 3e 73 fc 32 bf d6 07 9c 3f b6 c8 ac be
       0.35638678 -0.69916457 1.2189891 -0.3374688
000130 00 cf f5 be 40 d5 fc be ae 12 44 3f a5 35 3a bf
       -0.4800949 -0.49381447 0.76591 -0.72738105
000140 c2 3b 1e 3f 56 c6 65 3e 49 dd 45 bf 30 36 3f 3e
       0.61809933 0.2243894 -0.7729078 0.18673015
000150 f2 6c df 3e e9 ba e2 bc 35 e2 f9 be ce 7a 01 bf
       0.43637806 -0.027677016 -0.48805395 -0.5057801
000160 16 2d 40 3e 00 e0 c1 be 32 70 96 3d 17 78 ac 3e
       0.18767199 -0.3786621 0.07345618 0.3368537
000170 0f 11 fd 3e fe 7b e3 bd 96 91 a7 be c1 bb 12 3f
       0.49427077 -0.11107634 -0.3272826 0.5731774
000180 d5 16 01 3f 93 cc 0f 3f 55 92 f5 be 33 25 eb bf
       0.50425464 0.5617153 -0.47963205 -1.8370727
000190 f7 1f a4 bf d9 60 19 bf 20 5b c0 3e 31 2a e8 be
       -1.2822255 -0.599134 0.37569523 -0.4534469
0001a0 8b cf 0c 3d a0 aa 1f bf 57 d0 1a bf 84 97 ba be
       0.034377616 -0.6236973 -0.6047415 -0.36443722
0001b0 28 e9 ec 3e 22 bc 86 bd 97 0a 60 3d 7f 92 03 bc
       0.46271634 -0.06578852 0.0546976 -0.008030533
0001c0 1f b8 71 3e d1 ac 9f 3e 9b 78 02 c0 b3 1e eb be
       0.23605393 0.31186536 -2.0386112 -0.4592186
0001d0 ca bb c2 3e a2 6e 0c bf 6d f9 cb 3e 73 2b ec be
       0.38033897 -0.5485631 0.39838734 -0.461269
0001e0 2e 10 f2 3d 34 19 31 bf 6c 33 ad 3e 4a 95 35 be
       0.11819492 -0.6917908 0.33828294 -0.1773273
0001f0 d7 29 36 3e ed fc 36 bf 8b cb 92 3f c9 5e 0c 3f
       0.17789398 -0.71479684 1.1468366 0.5483213
000200 9f a7 ee be 9e 57 c2 be 85 54 e1 3d 46 34 7f 3f
       -0.4661226 -0.37957472 0.11002449 0.9968914
000210 44 dc dd 3d bb f1 44 3f f8 16 5a 3e d6 a9 36 3d
       0.10833028 0.7693135 0.21297824 0.044595562
000220 d6 8a fb be 67 01 41 3f 97 28 cb be 6a 03 22 3e
       -0.4912936 0.75392765 -0.39679405 0.15821615
000230 d6 1f a0 3e 07 8b 14 3f b9 d5 5d bf 84 6e 45 bd
       0.3127429 0.5802464 -0.8665424 -0.0482011
000240 56 92 f4 bd de b7 03 bd bf a7 79 bf 05 f4 66 3e
       -0.11941974 -0.03215777 -0.97521585 0.22554024
000250 ac d3 47 bf 8c e2 79 bf 99 37 07 be 14 d4 69 3f
       -0.7805736 -0.9761131 -0.13204803 0.9133923
000260 79 63 c7 bd 23 63 4a 3f 60 a4 8a bd 53 23 b9 be
       -0.0973577 0.7905752 -0.06769633 -0.36159763
000270 c4 09 e4 3c 20 54 45 bd 76 f4 43 be 14 1e 54 be
       0.027836688 -0.04817593 -0.19136223 -0.20714599
000280 20 3b 19 bd 45 aa 8a be 22 ca 37 bf a1 3a d1 3e
       -0.0374099 -0.2708303 -0.71792805 0.40865043
000290 99 32 7c bd 52 e5 5a 3e 32 8d 69 be 7a f4 1c 3f
       -0.06157169 0.21376541 -0.22807768 0.6131054
0002a0 fc 48 42 3e 26 75 53 3f 22 fc 89 3b 8e 07 06 3f
       0.18973154 0.8260063 0.004210965 0.5235528
0002b0 de 22 8c bf 91 00 cc 3e d1 4b 05 bd 15 b7 90 3d
       -1.0948141 0.39844182 -0.032543007 0.0706617
0002c0 61 ea cf be a2 5b fc be e7 31 69 3f db a2 10 3f
       -0.40608504 -0.4928866 0.9109177 0.564985
0002d0 a2 4d 85 3f 99 2a 55 3f e8 6c 90 bd 2e 74 b6 3e
       1.0414317 0.83268124 -0.07052022 0.35635513
0002e0 78 93 93 3c e0 85 31 3e 60 02 0b 3d 98 8d 08 3f
       0.018014655 0.17336226 0.03393781 0.53341055
0002f0 77 8c 4e 3d b4 37 b3 3d a8 88 57 3f d0 50 97 3e
       0.050426926 0.08750859 0.84192896 0.29553843
000300 84 64 1a 3e aa f3 03 3f 41 d4 f0 3e 17 c0 45 3e
       0.15077406 0.51543677 0.47036937 0.19311558
000310 90 b1 06 3d 73 63 cf be f2 7b 05 bf 3b 1c 8f 3e
       0.03288418 -0.4050556 -0.5214225 0.27951226
000320 0c c0 be 3e 89 7e 07 bf 15 42 0c bd 98 8f e0 3e
       0.37255895 -0.5292745 -0.03424271 0.43859553
000330 ef d3 43 3f 65 ff 11 3e 37 84 80 bf 52 60 0d 3f
       0.7649526 0.14257582 -1.0040349 0.552251
000340 6f 58 b5 3e a4 cc 61 3e 6b e9 f0 3e 5f 6e c7 3e
       0.35419032 0.2205072 0.47053084 0.38951394
000350 9f 9d 88 be 19 6d 93 be 8e 1f 03 bf 78 6d 7b be
       -0.26682755 -0.28794172 -0.51220024 -0.24553478
000360 dd 74 f2 bd ba de bb be 42 e1 f5 3d f0 95 23 3f
       -0.11838696 -0.36693364 0.12005855 0.6390066
000370 b1 b1 0c bf 00 c8 55 bb fa d8 1a 3e 85 30 b1 be
       -0.54958636 -0.003262043 0.15121832 -0.3460733
000380 5d 65 bc 3e 44 3e 34 bf 12 ac 24 3f d3 85 bc 3f
       0.36796084 -0.7040751 0.6432506 1.472834
000390 01 69 21 bf 3c 5f 12 3d 57 55 0a 3f 01 7c ec 3e
       -0.6305085 0.035735354 0.5403647 0.46188357
0003a0 71 17 ba 3e 63 d8 82 be 2b dd 96 3e f6 7d 8a 3f
       0.3634601 -0.25555715 0.29465613 1.081969
0003b0 4f ae 8e 3e 1d c3 15 bf e0 b4 ce 3e 65 79 1d 3e
       0.27867362 -0.58500844 0.40372372 0.1537834
0003c0 5e 5b 07 3e 2c cc 21 3f 04 d8 88 3f b8 f1 f1 3e
       0.13218448 0.63202167 1.0690923 0.4725473
0003d0 d0 24 b6 bd 48 61 84 be 32 e3 25 3e 99 66 a7 3e
       -0.0889374 -0.2585547 0.1619995 0.32695463
0003e0 fa 7c 8f 3d 2b a9 c1 3e f9 51 00 3c 81 c6 09 3f
       0.07006259 0.37824377 0.007832044 0.5381852
0003f0 0e 7c 7f 3e 40 e5 97 3e 43 e4 2d 3f 5e 19 0d bf
       0.24949667 0.2966709 0.67926425 -0.5511683

model.2.bias f4 [64]
000000 60 e2 c0 3c e7 a1 ce bb 52 74 2e 3e 3c 43 9a 3e
       0.023545444 -0.0063059214 0.1703656 0.3012942
000010 82 fd 26 bd ff 99 59 bd b2 a7 4c 3e e3 25 58 3c
       -0.040769108 -0.053125378 0.19985846 0.013192627
000020 cc 1a 60 3e bf 97 91 bd 8e 8b b5 bd 54 87 a2 bd
       0.21885222 -0.071090214 -0.088645086 -0.07935968
000030 e8 ee 9a bd 9e dc 45 3d a9 c6 4f 3d 20 88 0f 3f
       -0.07565099 0.0483061 0.050726566 0.56067085
000040 da 3b 9e bc a3 19 fc bc 52 86 a3 bd 1e 4c 09 3e
       -0.019315649 -0.030773943 -0.07984604 0.13407943
000050 14 8f c5 3c 7a b9 c1 3b b2 80 6d 3d 90 e9 87 3e
       0.024116077 0.005912003 0.05798406 0.26545382
000060 08 b9 c8 bc 70 87 ef 3d 98 ac e5 bd b0 13 49 3e
       -0.024502292 0.116957545 -0.1121456 0.19636416
000070 87 5d 60 be a3 a8 59 3d 7a dd 86 3d ae 41 90 bc
       -0.21910678 0.05313934 0.06585212 -0.017609444
000080 fa 6f 1d 3d 3c 45 61 bc 78 44 18 bd f7 fd e2 3e
       0.038436867 -0.013749417 -0.037174672 0.44334385
000090 5d d8 e6 3d f7 a5 4b 3e 9f 5f 1b bd 75 a4 20 3d
       0.11271737 0.1988753 -0.03793299 0.03921934
0000a0 9a 06 6b bd 52 1f 00 be 24 ba bb bd b5 e2 1d 3d
       -0.057379343 -0.12511948 -0.09166363 0.038546283
0000b0 0a d4 93 3e 43 b3 61 3e 5d 0c b7 bc 4e 26 88 bb
       0.2887271 0.22041039 -0.022344762 -0.004154957
0000c0 e3 ed 43 3e 2a 66 f3 bd ad c0 a4 bd cd d8 a5 bd
       0.19133715 -0.118847206 -0.080445625 -0.08097992
0000d0 d5 5d 7d bd e8 c7 7f 3e c9 60 3c bd b2 60 e5 bd
       -0.061857063 0.24978602 -0.04599074 -0.11200084
0000e0 57 40 cc bd b4 08 ba 3d 2a 0a fa bc 67 8e 95 3c
       -0.09973209 0.09083691 -0.030522425 0.01825638
0000f0 eb 36 e0 3e 00 63 b6 3a 7b 73 28 3e c8 27 b2 3c
       0.437919 0.0013915002 0.16450302 0.021747485

model.4.weight f4 [8, 64]
000000 01 07 80 3d 9d 96 a2 3e df ce 3d 3e d5 23 84 3d
       0.06251336 0.31755534 0.18535946 0.06452147
000010 6d f2 e7 3d 2e d8 98 3d 23 de 22 be 3e 96 9f bc
       0.11325536 0.07463108 -0.15905051 -0.01948082
000020 3d a7 34 be 6c 55 69 3e 38 65 b3 3d 51 a7 af bd
       -0.17641921 0.22786492 0.0875954 -0.08576835
000030 93 63 e3 3d 53 b9 79 3e 80 56 8c bd cf 97 4a 3e
       0.11102977 0.24387102 -0.06852436 0.19784473
000040 36 72 01 3d f8 09 69 3d be 2a a5 bd e7 3f 11 3d
       0.03160306 0.056894273 -0.08064793 0.035461333
000050 41 8c 03 3e 2c 4c ee 3d 97 83 47 3d 05 6a 48 be
       0.12846471 0.116356224 0.04870948 -0.19571693
000060 32 d0 bc 3e 56 46 59 3e 39 77 51 3e 99 47 89 bf
       0.3687759 0.21218237 0.20455636 -1.0724975
000070 5c e1 83 3e 11 4b 95 3c b0 9a 7e 3e ea 9a 8e bc
       0.25757873 0.018224271 0.24863696 -0.017407853
000080 5d 36 96 3e cd 84 ad 3c 89 17 89 bd f2 9c 8e 3d
       0.2933835 0.021181488 -0.06693942 0.06963529
000090 14 c7 1a bd 19 44 74 bd ea b1 ea 3d 72 3d b6 3e
       -0.037787512 -0.059635255 0.11459716 0.35593754
0000a0 51 fd 62 bd b8 a8 58 3d 60 27 99 3b f5 1a 0c 3d
       -0.055417363 0.052895278 0.0046738833 0.034205396
0000b0 d8 7e cc bd dc 55 82 3c 90 98 dd 3d f4 f3 1d 3e
       -0.09985131 0.015910082 0.108201146 0.15425092
0000c0 46 64 6e 3d e8 ce 1a 3d 58 59 06 bd 79 37 bc 3d
       0.058201097 0.037794977 -0.03280005 0.09190268
0000d0 58 dc 15 bd f6 30 24 3e 08 0f 0a 3d 44 82 c7 3d
       -0.03658709 0.16034302 0.03370574 0.09741643
0000e0 d0 bf d7 3c cd 19 be 3d 69 8d bb 3d 07 75 12 bd
       0.02633658 0.09282265 0.09157831 -0.035756137
0000f0 10 bb 99 be 46 18 d3 bd 0f 46 e2 3e 60 6a a0 bd
       -0.3002553 -0.10307364 0.44194075 -0.078327894
000100 6b c5 71 bf 2e c0 44 3f 3e f9 bd 3f 61 a3 33 be
       -0.9444186 0.7685574 1.4841688 -0.17542793
000110 17 a1 d5 bd 71 35 03 3d 96 27 c8 3f 22 1a 0c bd
       -0.10431116 0.032033388 1.5637081 -0.03420461
000120 ac 1f 2d 3f 59 d4 3f bf 02 96 a4 bd 05 fb 92 bd
       0.6762645 -0.7493339 -0.08036424 -0.071767844
000130 38 b6 c0 3e b4 05 69 3e 5f d5 7d bf 93 48 83 3e
       0.37639022 0.22756082 -0.99153703 0.25641307
000140 39 b2 75 bf 88 0f 25 ba fc 79 60 bf 8d d2 5c 3e
       -0.9597507 -0.0006296565 -0.87686133 0.21564694
000150 86 44 c2 3f be 86 37 bd 36 8a d1 3e 6d 3b cd 3e
       1.5177162 -0.044806235 0.4092576 0.400844
000160 b7 69 bc 3d 60 41 91 3e a9 9a 5e bf bf 09 8e 3e
       0.09199851 0.2837019 -0.8695474 0.2774181
000170 b2 99 9c 3e d5 4c a7 3e fb 20 14 3f f8 f2 89 bf
       0.3058601 0.32675806 0.57862824 -1.0777273
000180 8a 94 91 3d ab 34 ac 3e 64 d3 4d bd 99 47 50 3e
       0.0710841 0.33633932 -0.050250426 0.20339812
000190 16 b7 82 bf 77 f9 e2 3e 22 f7 c8 bc 41 80 5c 3e
       -1.0212123 0.44330952 -0.024531905 0.215333
0001a0 a0 70 10 bd 40 63 8d 3d ec 77 e0 bd 4a a4 6a be
       -0.035263658 0.06903696 -0.10960373 -0.22914234
0001b0 93 ca cf 3f 38 d5 c5 3e 3e c8 a1 3e 6f 6f 93 3e
       1.6233696 0.38639235 0.31598085 0.28795955
0001c0 8b c0 45 bf 16 8f a5 bd 4b 12 97 3b 4e 6f b1 bd
       -0.7724692 -0.08083932 0.004610335 -0.08663808
0001d0 40 bb 5f 3c da 85 13 3f ca 74 34 bc 34 d0 e1 bd
       0.013655484 0.57626116 -0.011014173 -0.1102604
0001e0 7a b7 92 bd f1 c1 bd 3e 86 aa 99 3e e7 a8 1b 3e
       -0.071639016 0.37062028 0.30012912 0.1520115
0001f0 e3 cf 6b 3d 56 fc f9 bd 46 c0 1d 3f 96 50 87 3d
       0.057571303 -0.122063324 0.6162151 0.066071674
000200 09 db fb 3c 04 4e 95 be 72 2c bb 3d 99 a9 20 be
       0.030744093 -0.29161084 0.09139337 -0.15689696
000210 84 8f 7c bd 28 a4 e9 bd 9f c7 8c be 64 6d ee bc
       -0.061660305 -0.114082634 -0.2749605 -0.029104896
000220 a2 0c 5a 3e a7 3e ec 3c 40 01 53 3c 24 c0 39 3c
       0.21293882 0.028838469 0.012878716 0.011337314
000230 54 88 41 3e 7b e3 b3 bd 23 1f 8d bd 30 03 03 bf
       0.18899661 -0.08783623 -0.068907045 -0.5117674
000240 fb 3a 07 3e ae 37 92 3d 59 93 00 3e 8d 23 66 3e
       0.13206093 0.07139526 0.12556209 0.22474499
000250 a9 ae 23 3e 5d 74 f1 bc 4b 4f 44 3e 2d 1e 8d 3e
       0.15984596 -0.029474432 0.19170873 0.27562085
000260 3a 0f ca be 07 9c 17 3e 34 b5 17 3e 68 28 bb bd
       -0.39464742 0.14805613 0.14815217 -0.09138566
000270 84 c7 d3 3e 31 3a 3b 3e bf ae 73 3d d8 9a 5c 3d
       0.41363156 0.18283917 0.059492823 0.053858608
000280 70 e7 23 be 7a b9 a6 3e 12 56 b0 bd 2e b2 e8 be
       -0.16006255 0.32563382 -0.086101666 -0.4544844
000290 2c 92 1d 3e 89 8a 98 3e 48 2d 40 bd c1 98 88 be
       0.15387791 0.29793194 -0.046918184 -0.26679042
0002a0 e5 b9 25 bd 58 f8 a7 bd ec 99 e8 3d 5f 15 63 3e
       -0.040460486 -0.08201665 0.11357483 0.22176121
0002b0 2f 4a 44 3d f4 ee 77 be f2 9c 84 3e 37 21 4a 3e
       0.04792231 -0.24212247 0.2590099 0.19739233
0002c0 b0 ef 84 3d c6 09 ae 3d 58 9b ec bc f5 18 ab 3b
       0.06491029 0.08497958 -0.028882667 0.005221481
0002d0 2e 38 99 3d 5b 7f 0a be 38 9c 28 bd 00 03 99 3a
       0.074814186 -0.13525145 -0.041164607 0.0011673868
0002e0 f2 d0 d3 3d 2a 11 65 bd c9 31 a4 3d fd 1b 05 3e
       0.103425875 -0.055924572 0.08017308 0.12998958
0002f0 bd 29 4a be bc 52 47 3d 28 5d 07 3d dc da e1 bd
       -0.19742484 0.048662886 0.033047825 -0.11028072
000300 a0 97 18 3e 10 c2 03 bf d2 5b a0 bb 89 3a cb be
       0.1490159 -0.5146799 -0.0048937583 -0.39693096
000310 86 9d 37 bc 8c af c6 3d a1 cb 88 3d c2 f2 f0 bc
       -0.01120699 0.09701452 0.06679464 -0.029412631
000320 3e d5 a7 3e cd 5b 44 bd c4 92 e7 bd 1f 68 80 bd
       0.32779878 -0.04793911 -0.1130729 -0.062698595
000330 e6 ac ce 3e 2c 9e d9 be ff 7b 11 3e 90 68 34 bf
       0.40366286 -0.42503488 0.14207457 -0.7047205
000340 94 c9 43 3d e0 29 cc bc 5f ef e2 3d 74 1c 80 3e
       0.04779966 -0.024922311 0.11080813 0.25021708
000350 ff d3 bb bd 6e 0d 6c bd 9b fa 87 3e 59 92 56 3e
       -0.091712944 -0.057629995 0.26558384 0.20954265
000360 7b 1f 98 be f8 0a b0 3c eb 53 f0 3d 91 e8 53 bf
       -0.29711518 0.021489605 0.11734756 -0.82776743
000370 54 c1 a9 3e c5 cd d1 3e 22 8e 88 3d a4 32 99 3d
       0.3315531 0.40977302 0.06667735 0.07480362
000380 b5 e2 f2 bd aa 3d 97 3e 0d 39 ab 3d 72 65 9f be
       -0.11859647 0.29539233 0.08360491 -0.31132084
000390 7f fb 2a 3e 30 35 8a 3e 0c e7 2d 3d 6b 81 a7 be
       0.166975 0.26993704 0.04245667 -0.32715926
0003a0 5c 1b 87 bb 1c 9c e3 3d 30 8c d2 bd 59 f4 63 3d
       -0.0041231345 0.1111376 -0.10280645 0.05565295
0003b0 24 f3 41 be 46 23 15 3e db cd 59 3e eb 23 ae 3e
       -0.18940407 0.14564237 0.21269934 0.34011778
0003c0 f1 25 9e be 8a 20 fc 3d b4 54 be 3d 76 bf d6 bd
       -0.30888322 0.12310894 0.092934996 -0.10485737
0003d0 00 5c 7b 3d 8b bb c6 bc 3e 08 fd bd f8 d2 8e 3d
       0.061367035 -0.02425935 -0.12355088 0.06973833
0003e0 84 9b b4 3d bb 82 05 3d 9e 69 6d 3e 36 12 72 3c
       0.08818725 0.032595377 0.23184821 0.01477485
0003f0 9a 00 54 bd 10 f2 b9 bc 3c 5e 1e bf 9e d1 b6 bd
       -0.051758386 -0.022698432 -0.6186254 -0.089267

model.4.bias f4 [8]
000000 fd 61 7c be 60 ef 1f 3e 43 d8 ea bd ea e9 99 bc
       -0.24646755 0.15618658 -0.1146703 -0.018788297
000010 6c 95 15 be 1d bf 3f 3e 91 f0 00 be a5 0b 06 bd
       -0.14607781 0.18725248 -0.12591769 -0.03272595
