src/reinforcement_app/storage/model/8.pth (torch, 25613 bytes, 6 tensors)

model.0.weight f4 [64, 16]
000000 0d c2 72 bf 4f a1 f9 3c 50 da ec be fd 20 ff 3c
       -0.9482735 0.030472426 -0.4626031 0.03114366
000010 0e 2c ca bf 0a 79 52 3f 7c 79 e8 be b0 0b 78 be
       -1.5794694 0.8221594 -0.45405185 -0.24223208
000020 24 fb 45 3e 68 2a 0e 3e 80 db 35 be 8c e2 cb 3d
       0.19334084 0.13883364 -0.17759514 0.0995532
000030 40 6a d9 3c 72 36 02 3e d8 72 69 3e 74 d3 25 be
       0.026539922 0.12716082 0.22797716 -0.16193944
000040 78 3d 31 3c 55 28 f2 3e 00 ed f4 3e 6f d4 2f 3f
       0.010817878 0.47296396 0.47837067 0.6868352
000050 e6 b1 91 bf b2 b0 46 3f a0 26 53 be 3e 3d ad be
       -1.1382415 0.77613366 -0.20620203 -0.33835787
000060 9e 9c 5a be 28 03 8f 3d a0 3e a1 bd 26 e6 54 be
       -0.21348807 0.06983024 -0.07873273 -0.2079092
000070 84 97 9d 3d 48 e3 d9 3d 0a 32 5c be 2e 09 23 be
       0.07694915 0.106390536 -0.21503463 -0.1592147
000080 fa 37 6c bd 99 23 48 3f 33 db 23 3f cb 34 16 3e
       -0.05767057 0.7817932 0.64006346 0.14668576
000090 aa 04 3a 3e fa 28 93 3e 9e 3c 36 3f 0d 7e 85 3e
       0.18165842 0.287422 0.71186244 0.26072732
0000a0 e2 dd 34 3e 62 50 48 be 50 90 2a 3d 18 12 81 bd
       0.17662767 -0.19561914 0.041641533 -0.06302279
0000b0 6e cf 4a be 4e 42 27 be f4 2a da bd 24 2e 7f 3e
       -0.1980569 -0.16333887 -0.10652724 0.24919945
0000c0 19 f9 4d 3d 39 44 46 bf a2 79 06 3f 1b ad 39 3f
       0.050286386 -0.7744785 0.52529347 0.72529763
0000d0 2d 2d 6f 3e 5d 11 04 bf b9 2e ce 3d 7a aa 1d be
       0.23357077 -0.51588994 0.100675054 -0.15397063
0000e0 40 66 60 bd 80 46 87 bd 44 8c b3 3d 86 c0 7a 3e
       -0.054785013 -0.06605244 0.08766988 0.24487504
0000f0 d4 6d 90 bd fa 8c 41 be 4a fb 14 3e 90 4b 48 3d
       -0.07052198 -0.18901435 0.14548984 0.048900187
000100 80 2f 9d bc d0 f1 9a bc 2a e8 48 3e 24 f8 db bd
       -0.019187689 -0.018914133 0.19619814 -0.107406884
000110 c2 a2 60 be 18 01 18 bd 04 01 1b be 24 7d 55 be
       -0.21937087 -0.037110418 -0.15137106 -0.20848519
000120 3e 0a 14 be 48 5b 99 3d 34 7a ec 3d 20 f9 f4 3d
       -0.14457032 0.07488114 0.11546746 0.11961579
000130 08 6d 61 3e 4a ba 78 be 20 2f c5 bc 28 57 ff bd
       0.22014248 -0.24289814 -0.024070323 -0.124677956
000140 96 b5 21 3d ac dc 44 bf bf ea a6 3d fa ca 20 be
       0.039479814 -0.7689922 0.08150243 -0.1570243
000150 40 2e 66 bd 4e 47 35 bf 2c fc 1a 3e 8c 47 11 bd
       -0.05619645 -0.7081193 0.15135258 -0.035468623
000160 46 aa 14 be a0 14 9c bd d2 83 71 be 2a cd 15 3e
       -0.14518079 -0.076211214 -0.23585442 0.14629045
000170 b4 2e 1f be 5c 82 c0 3d 9c e8 f4 bd f4 21 be bd
       -0.1554516 0.09399864 -0.11958429 -0.0928382
000180 d7 f3 4e 3e 51 da 1b bf 45 e3 cc be bf 54 37 be
       0.20210205 -0.6088 -0.40017143 -0.17903422
000190 bd df 10 bf 4b f0 40 3e ce 4d 30 3f c1 0b 83 3f
       -0.565914 0.18841664 0.6886872 1.0237962
0001a0 d8 0f d8 3d cc 4b 4a be 30 49 7a bd 92 61 51 3e
       0.10549897 -0.19755477 -0.061104953 0.20447376
0001b0 6e ea 4f be 3c 64 20 be 08 62 6a bd 50 10 70 bd
       -0.20304272 -0.15663236 -0.057222396 -0.058609307
0001c0 bf bc de 3e 6b f3 46 3f 3f 9f 57 3f 77 52 5d bf
       0.43503377 0.77715176 0.84227365 -0.86453956
0001d0 fd 36 93 3d 44 80 c3 3d d8 73 11 3f 94 39 ab 3e
       0.071882226 0.09545949 0.5681739 0.33442366
0001e0 6c d3 89 3d 8c ff 81 bd c4 44 26 be 8c da e2 bd
       0.06729779 -0.0634757 -0.1623717 -0.11076841
0001f0 a8 ef 4e be 78 e9 8b bd 28 de 1f bd 78 d0 d4 3d
       -0.20208609 -0.0683164 -0.039030224 0.10391325
000200 97 b2 37 3f 7f 68 7d 3f 00 3b 83 3f f6 8e a7 be
       0.7175688 0.98987573 1.025238 -0.32726258
000210 5e de 80 bf 6f 14 57 3e 39 03 35 be 13 0b c5 3e
       -1.0067861 0.21003889 -0.1767701 0.3848501
000220 a0 d8 32 3c 70 e8 e5 bc 64 ef 81 3d 4a af 73 3e
       0.010915905 -0.028064936 0.06344488 0.23797336
000230 58 ba 6c 3e 8c dc 0f be e0 9c ca 3d 6a 67 4f be
       0.2311796 -0.14048976 0.09893203 -0.20254293
000240 b5 34 8c 3e 90 bc 56 bf fe e8 00 3e 1d df 58 be
       0.27383962 -0.83881474 0.1258888 -0.21178861
000250 86 e5 5b bb 66 5e 23 bf 3f eb 0b 3f 9f 64 6e bd
       -0.0033553555 -0.63815916 0.5465583 -0.05820143
000260 d8 8e e6 3d 40 0d b2 bd fa 1d 37 3e 56 15 0a 3e
       0.11257714 -0.086939335 0.17882529 0.13484702
000270 98 d8 0f be 46 2d 1d 3e 20 51 23 be b0 f9 c7 3d
       -0.14047468 0.15349302 -0.15948915 0.09764421
000280 f6 a7 88 be 40 9a eb bd b4 0a db bf b5 37 28 bf
       -0.26690644 -0.1150403 -1.7112641 -0.6571
000290 eb e2 80 3e ec e7 69 3f 23 7d 20 bf d7 c0 e3 be
       0.25173125 0.9136951 -0.62690943 -0.44483063
0002a0 0e 0d 3c 3e a6 73 5c 3e 28 ee 3e 3d 08 38 bd 3d
       0.18364355 0.21528491 0.046613842 0.09239203
0002b0 6e 4c 47 3e 24 89 30 be ec de 20 be 4e 1c 48 3e
       0.1946275 -0.17239815 -0.15710038 0.19542047
0002c0 e9 b3 2e 3f 5b ac 7a 3f d3 bf 68 3f 12 24 b5 3e
       0.6824327 0.97919244 0.909177 0.35379082
0002d0 ff 32 63 bd 7e bf 0d bf 16 98 3f 3e 1f d7 c9 3c
       -0.055468556 -0.5537032 0.1871036 0.02463871
0002e0 c0 46 9f 3c 34 97 e1 3d d0 c9 01 3d e8 f0 65 3d
       0.019442916 0.11015168 0.031686604 0.05613795
0002f0 94 c9 e9 3d c0 c9 71 bc 10 24 96 bc b0 90 1f be
       0.11415401 -0.014757574 -0.018327743 -0.15582538
000300 95 49 f1 be 9e 26 16 3f cb da 26 be db d7 80 3f
       -0.4712645 0.58652675 -0.162944 1.0065874
000310 e9 85 2d 3f 9c ce cc be 31 cb ab bd 2c 9c 1c 3e
       0.67782456 -0.4000138 -0.08388365 0.1529395
000320 a6 0b 0d 3e 34 cd 5a be 10 f0 e4 bc 52 7e 7f 3e
       0.13773975 -0.21367341 -0.027946502 0.24950531
000330 10 42 42 be 66 5e 04 be 98 3e 12 3e f4 58 5c 3e
       -0.18970513 -0.12926635 0.1428169 0.21518308
000340 b0 c8 03 bf 62 20 4a bf a9 0f 22 3f 15 63 3b 3f
       -0.514781 -0.7895566 0.63305146 0.7319806
000350 7c 00 30 be a1 c0 13 bf 70 b7 3b be 1c 69 4c be
       -0.17187685 -0.57715803 -0.18331695 -0.19961971
000360 52 a9 78 be 3a fa 4d be f0 87 5b bd 84 c9 b3 bd
       -0.2428334 -0.20114985 -0.053596437 -0.087786704
000370 8e c9 7a 3e 64 43 ff 3d ee 5e 33 be 6e 4b 4c 3e
       0.2449095 0.124640256 -0.17516682 0.19950649
000380 c4 7e 30 3f 2b d1 f9 3e af 82 56 3e c4 4b 02 3f
       0.6894343 0.48792395 0.2094829 0.5089686
000390 ec 53 0e bf 9a 9a d5 3e 95 56 6c bf 63 02 bc bf
       -0.55596805 0.41719514 -0.92319614 -1.4688228
0003a0 50 db 64 bd 38 c1 3c bd f4 ec 1b 3e c0 1d 57 3d
       -0.055873215 -0.046082705 0.15227109 0.052518606
0003b0 c6 3b 05 be 92 7e 54 be 28 bc c2 3d fe 2d 3b be
       -0.13011083 -0.20751408 0.09508544 -0.18279263
0003c0 d9 60 60 3e 25 ca 58 3f c0 e3 0a bf e5 b4 56 3f
       0.21911944 0.8468345 -0.5425377 0.83869773
0003d0 bc 58 01 be 3e 86 4f be 16 ad cc 3e 4f 98 3c 3e
       -0.12631506 -0.20266053 0.39975804 0.18417476
0003e0 88 bb 00 3d c0 9c 07 3c 38 07 ee 3d a6 40 60 3e
       0.031428844 0.008277118 0.116224706 0.21899661
0003f0 90 69 e9 3d 06 b0 08 be 04 89 44 be a6 98 22 3e
       0.113970876 -0.13348398 -0.19192892 0.15878543

model.0.bias f4 [64]
000000 8d e7 b9 bd 9e 67 07 3e 6c b6 1d 3e b8 61 44 3e
       -0.09077368 0.1322312 0.1540162 0.19177902
000010 2c 35 5e be 3d 53 97 3e a5 93 62 3e 14 93 fc 3d
       -0.21699971 0.29555693 0.22126634 0.123327404
000020 39 83 ec 3c 98 0c 8b 3e 09 05 16 be e4 88 bf 3d
       0.028871166 0.27158046 -0.14650358 0.09352282
000030 eb 03 5a be 2c fe 83 3e 8b df ff 3c 5b e4 93 bd
       -0.21290557 0.25779855 0.031234523 -0.0722129
000040 9d 0a 23 bd 1e e8 d9 3b a4 42 a0 bd c1 40 67 bd
       -0.039805043 0.006649985 -0.07825211 -0.05645824
000050 78 c4 a6 bd 05 b9 44 bd 57 23 cb bd 86 00 56 3e
       -0.08142942 -0.04802801 -0.0991885 0.20898637
000060 28 65 22 3e 60 fd 8f 3e 30 14 74 be fa 9d 82 3e
       0.158589 0.28122997 -0.23835826 0.25511152
000070 5b a4 dd 3d d4 e0 7f be 0c 2b e6 bd 35 ad 93 3e
       0.10822364 -0.24988109 -0.11238679 0.28843084
000080 88 b5 72 bd c4 9e a4 3e 25 32 20 3f 88 c2 c9 3d
       -0.059255153 0.3215238 0.62576514 0.09851557
000090 6c e3 25 be 0e d7 d9 3c 49 06 60 3e 31 98 8f 3e
       -0.16200036 0.026591804 0.21877398 0.280458
0000a0 b2 d2 77 3d e6 96 90 3e 49 32 dc bd 0c 43 2f be
       0.06050367 0.28240126 -0.10751779 -0.1711542
0000b0 88 2b 81 bd dd 6b 88 3e 63 17 cd 3d a5 41 aa 3e
       -0.06307131 0.26644793 0.10014226 0.33253208
0000c0 6e 55 cc 3d 36 8f ab 3e 01 19 c6 3e b9 48 b6 3e
       0.09977232 0.335077 0.3869095 0.35602358
0000d0 19 90 66 3e ff 41 9d 3e 0e 69 03 3e 61 61 82 3e
       0.22515906 0.30714414 0.12833044 0.2546492
0000e0 42 da 78 be db 6a 95 3e f8 6c f2 bd fb 35 1e be
       -0.24302009 0.29183087 -0.118371904 -0.1545028
0000f0 b9 68 e6 3d 8d 31 88 3d 36 e9 92 3d 7e 64 33 3d
       0.11250443 0.06650076 0.07173388 0.04379701

model.2.weight f4 [64, 64]
000000 df 34 7c bf 5c 60 ee 3a cc 3c 61 bd e3 1e 46 3f
       -0.98518175 0.0018186676 -0.05498962 0.7739088
000010 c8 61 54 3d 26 de 6d 3f 0c 41 f1 3d de de 56 3e
       0.051851064 0.92917097 0.11779985 0.20983455
000020 5c 6a dc 3e 3d a7 6f 3f 9f 84 21 bf f7 b9 d5 3e
       0.43049896 0.9361456 -0.6309299 0.41743442
000030 b5 ed b4 3e 97 90 3c 3f 08 06 2f bd c5 68 8a 3e
       0.35337606 0.73658127 -0.04273036 0.27033058
000040 b9 e4 8d be 8a 58 23 3e 8d d3 95 3b 01 2a c1 3e
       -0.27713564 0.15951744 0.004572338 0.3772736
000050 a5 86 ab 3e d8 6d 53 3d 7a d9 80 3f d7 23 8b 3f
       0.33501163 0.051618427 1.0066369 1.0870312
000060 d0 fa 8d 3d e0 14 64 3f c0 fc cb bc 73 98 80 be
       0.06932604 0.8909435 -0.024900794 -0.2511631
000070 6b 66 e0 3c c8 09 ef bc 10 de 51 3f 56 fc 93 3b
       0.027392587 -0.029179469 0.81979465 0.004516165
000080 e3 f6 81 3e 1b 15 8b bd 24 2f 30 bd a2 85 83 bd
       0.25383672 -0.06791135 -0.043013707 -0.06421973
000090 db 26 0d 3f 8a 4a e5 3e 19 5d 99 bd f7 0f c7 3e
       0.55137414 0.4478343 -0.0748846 0.38879368
0000a0 4c 04 32 3e 69 18 6e 3f ce d4 b3 3e cb 58 3a 3c
       0.17384452 0.93005997 0.35123295 0.011373709
0000b0 86 10 27 bf f5 d2 10 3e ef 41 0d 3d 08 d6 80 3e
       -0.6525959 0.14142974 0.034486707 0.25163293
0000c0 75 cb 89 3d 3d 7a 99 be a5 f3 48 bf 9c 92 a4 3e
       0.067282595 -0.29976073 -0.7849677 0.32143104
0000d0 fa f9 d2 be ce 2e 65 3f ff 47 de bd 29 7b 3c 3e
       -0.41206342 0.89524543 -0.10853576 0.18406357
0000e0 48 57 fe 3c 95 dd f9 3e 61 6a 57 3e a9 bf f2 3c
       0.031047478 0.48801866 0.21036674 0.029632406
0000f0 6e e9 44 3e c7 d1 59 be 48 5e 92 bd 43 e2 0d 3e
       0.19229671 -0.2127143 -0.07146889 0.13855843
000100 c2 17 18 3f 54 92 f4 3e 00 bf 56 3e 6b 98 f9 be
       0.5941125 0.4776789 0.20971298 -0.48749098
000110 88 c6 ad 3c 61 68 75 bf e2 b3 a8 3d d5 8a 29 3e
       0.021212831 -0.95862395 0.08237435 0.16556866
000120 43 f4 f8 3e 94 5f 88 bf 86 6a ab 3f 39 1a e8 be
       0.48623857 -1.0654168 1.3391883 -0.45332506
000130 d2 ef 66 be 85 cd 2b bf 35 24 2a 3f ec 24 4b bf
       -0.22552422 -0.6711047 0.664615 -0.79353213
000140 bc 2e 4d 3f 68 90 a4 3e 7d 02 66 bf 9f a1 d3 3e
       0.80149436 0.32141423 -0.89847547 0.41334245
000150 da 8b 1d 3f eb 5d 8a 3c ee 67 7a be 9d e3 53 bf
       0.6154152 0.016890487 -0.24453709 -0.82769185
000160 a7 22 6b 3e 45 c5 00 bf 32 70 96 3d ef 0a 74 3e
       0.22962438 -0.5030101 0.07345618 0.23832296
000170 02 91 07 3f fe 7b e3 bd 66 15 dc be ef ba 11 3f
       0.5295564 -0.11107634 -0.42985076 0.56925863
000180 68 de 47 3f 2b 03 2c 3f 76 91 0c bf 2f 47 06 c0
       0.7807374 0.67192334 -0.54909456 -2.0980947
000190 99 d0 a4 bf f8 a3 13 bf 23 be 8d 3e fd 6b 06 bf
       -1.2876159 -0.5767207 0.27684125 -0.5250853
0001a0 29 5a 0f 3e 27 12 40 bf 79 a4 7a bf 5a f6 26 3e
       0.13999237 -0.750277 -0.97907215 0.16304913
0001b0 4a f8 96 3e 51 68 42 be 0d e1 02 3e 08 2d d3 bc
       0.29486305 -0.18985106 0.12781163 -0.025778309
0001c0 11 7b 7b 3e 4c b2 6a 3e b9 cd 10 c0 52 2b db be
       0.24558665 0.22919577 -2.2625563 -0.42806488
0001d0 07 b5 65 3e 5f bc 29 bf 55 b5 03 3f 0e 90 11 bf
       0.22432338 -0.66303056 0.51448566 -0.56860435
0001e0 2e 10 f2 3d 61 92 43 bf f8 4a 20 3f 4f ce 17 3c
       0.11819492 -0.7639523 0.62614393 0.009265496
0001f0 66 1b 8a 3e af 63 97 bf eb 33 c5 3f d3 27 25 3f
       0.26974028 -1.1827296 1.5406469 0.6451389
000200 a2 71 1f be c4 b4 08 be ed b7 1f 3e 30 51 8f 3f
       -0.15570691 -0.13350207 0.15597506 1.1196651
000210 44 dc dd 3d 43 3c 3b 3f 26 27 ac 3e e2 c0 cb 3d
       0.10833028 0.7313883 0.33623618 0.09948899
000220 44 cd 01 bf ab c1 3d 3f 60 14 71 be 75 b0 30 3e
       -0.50703835 0.7412364 -0.23542929 0.17254813
000230 88 5a 03 3f c1 b5 20 3f ed f0 62 bf e8 81 eb bd
       0.51310015 0.62777334 -0.88648874 -0.11499387
000240 91 2b 4b bd 32 7f 8d 3d e3 5b e2 bf 11 55 c1 3e
       -0.049602095 0.06909026 -1.7684292 0.37760213
000250 a3 7c 50 bf 7f 04 7e bf b6 0f 15 3e 23 c2 88 3f
       -0.8144018 -0.9922561 0.14556774 1.0684246
000260 6c a2 7e 3d b4 69 58 3f 60 a4 8a bd 6b e9 5e be
       0.062166616 0.8453629 -0.06769633 -0.2176873
000270 15 b0 1e 3e 20 54 45 bd 18 9e 85 be 3e 14 35 be
       0.15496857 -0.04817593 -0.26097178 -0.17683503
000280 57 35 21 3d 02 e9 89 be fe df 61 bf fd 01 bf 3e
       0.03935751 -0.26935583 -0.8823241 0.37306204
000290 0c 98 7b 3e 49 94 cf 3e 04 09 6e bd 3e e5 33 3f
       0.2456972 0.4054282 -0.058114067 0.7027167
0002a0 29 10 8f 3e fc b9 35 3f ad d4 46 3d f5 b9 49 3f
       0.27942017 0.70986915 0.048542667 0.7879937
0002b0 65 ca 55 bf 52 74 dc 3e 1d 5a b3 bc 9d 2e 2c 3e
       -0.83511955 0.43057495 -0.021893555 0.16814657
0002c0 72 2b b2 be 77 1b e5 be 28 40 7c 3f fb 50 11 3f
       -0.3479877 -0.44747517 0.98535395 0.5676419
0002d0 0d f5 9d 3f eb 35 31 3f fc 5f 90 bd 6e 51 de 3e
       1.2340409 0.692229 -0.070495576 0.434215
0002e0 78 93 93 3c 8f 24 45 3e 4f d4 87 3e 8d e3 44 3f
       0.018014655 0.19252227 0.26529166 0.76909715
0002f0 f7 91 0d 3e 60 2f 84 3e 32 32 9d 3f 8f b9 e5 3e
       0.13825212 0.25817394 1.2280943 0.44868132
000300 34 b1 15 bf f2 a0 5c 3f fa 45 d6 3e 71 c9 a1 3e
       -0.58473516 0.86183083 0.41850263 0.31599
000310 90 b1 06 3d 8e b4 cc be 00 c9 31 bf d7 09 b1 3e
       0.03288418 -0.39981502 -0.69447327 0.3457782
000320 5a 7c 0b 3f b6 63 16 bf 74 60 79 3d 27 0e 03 3f
       0.5448662 -0.58745897 0.060883 0.5119347
000330 73 f1 85 3f 10 c8 c6 3e 8a f4 00 bf 7e aa 3f 3f
       1.046431 0.3882451 -0.50373137 0.74869525
000340 bc 7a ea 3e 10 05 5c 3e 29 be 10 be 12 18 dc 3e
       0.45796764 0.21486306 -0.1413504 0.42987114
000350 d8 c1 15 bf e6 5d 3b bf 19 34 ea be fb 5c 5f be
       -0.5849891 -0.7319015 -0.45742872 -0.21812813
000360 3b 13 2f be 72 9f b0 be 42 e1 f5 3d dc aa 8c 3f
       -0.1709718 -0.34496647 0.12005855 1.0989642
000370 d4 c0 0f bf 00 c8 55 bb 56 18 a0 3e b5 fe e1 be
       -0.5615361 -0.003262043 0.31268567 -0.4413964
000380 88 f0 d1 3e f2 e9 4b bf 17 a4 56 3f bf 3c ba 3f
       0.41003823 -0.7965385 0.8384413 1.4549788
000390 52 a8 2e bf 61 b8 14 bd b7 10 54 3f 3c ad cc 3e
       -0.68225586 -0.03630865 0.82838005 0.39975917
0003a0 e6 66 9e 3e ae c8 90 be 44 b3 9d 3e ef ba 99 3f
       0.3093788 -0.28278106 0.3080083 1.2010173
0003b0 83 34 d6 be e9 d7 2c bf a3 99 b8 3e 6f d9 1f 3e
       -0.41836938 -0.6751695 0.36054716 0.15610288
0003c0 4f ab 51 3e 95 1d 52 3f 68 ce 89 3f 7f 0d 07 3f
       0.20475505 0.8207639 1.0766115 0.5275497
0003d0 19 57 2b be 24 9e 97 be bb da 9f 3d 8a 50 87 3e
       -0.16732444 -0.2961284 0.078053914 0.26428634
0003e0 fa 7c 8f 3d 29 db cb 3e a3 94 1b be 43 25 df 3e
       0.07006259 0.39815643 -0.15193419 0.43583116
0003f0 94 90 b4 3e ca f7 eb bd a6 b8 70 3f da bb 11 bf
       0.35266554 -0.115218714 0.9403175 -0.56927264

model.2.bias f4 [64]
000000 d3 9e 6a 3d b5 14 7f bc 85 2f e1 3d ea 90 bf 3e
       0.057280373 -0.015568902 0.10995392 0.37415248
000010 e7 ab 46 be ff 99 59 bd 6b c2 bb 3d e3 25 58 3c
       -0.19401513 -0.053125378 0.09167942 0.013192627
000020 5d db 5c 3e da 69 0a bd 8e 8b b5 bd 8c fb 05 3e
       0.21568055 -0.033792354 -0.088645086 0.13084239
000030 b4 04 ac bd c1 90 a3 3d e5 bb 4b 3e 80 fe 08 3f
       -0.083993345 0.07986594 0.19895895 0.53513336
000040 f5 4d 8b 3d a7 13 80 bd 28 6f 74 3d ce 34 0c 3c
       0.068019785 -0.062537484 0.05967632 0.0085575115
000050 6f 99 f8 bd b1 b3 1f bd 33 01 f5 3d 4f de 98 3e
       -0.1213864 -0.038989726 0.11963119 0.29857108
000060 3f 96 96 bb 79 65 5e bd be 98 bc bd bb a2 32 3e
       -0.0045955474 -0.05429599 -0.09208821 0.17444889
000070 48 b9 b8 be 74 14 0d 3e e8 1c 41 bc 1e 8f ab 3d
       -0.36078858 0.13777333 -0.011786677 0.08376907
000080 dc 9e cc bd af 8e 9e bd 78 44 18 bd ff a9 ed 3e
       -0.099912375 -0.077420585 -0.037174672 0.4641876
000090 59 0d ea 3d e8 f6 8c 3e 9f 5f 1b bd 4f 88 a4 bb
       0.11428327 0.27532125 -0.03793299 -0.005021132
0000a0 2f 8f 90 bd 52 1f 00 be 24 ba bb bd 2b 29 eb 3d
       -0.0705856 -0.12511948 -0.09166363 0.114824615
0000b0 97 23 2d 3e 6f 07 39 3e 2c 76 2d be d8 a4 ba bd
       0.16908108 0.18069242 -0.1693961 -0.09113473
0000c0 98 34 be 3e 2a 66 f3 bd 86 3c 2c be cd d8 a5 bd
       0.371495 -0.118847206 -0.16819963 -0.08097992
0000d0 d5 5d 7d bd 41 e8 9e 3e c9 60 3c bd b2 60 e5 bd
       -0.061857063 0.3103657 -0.04599074 -0.11200084
0000e0 57 40 cc bd d5 8e a0 3c 9e e7 39 bd 2b 10 1c 3d
       -0.09973209 0.019599358 -0.045386903 0.038101356
0000f0 18 87 11 3f d3 c1 f8 bc aa 01 32 3e c8 27 b2 3c
       0.5684676 -0.03036586 0.17383447 0.021747485

model.4.weight f4 [8, 64]
000000 11 a7 da 3d 15 22 35 3f 18 15 c3 3e 7b 0b 02 3e
       0.10676397 0.7075513 0.3810203 0.12699692
000010 7f 18 0a 3f 2e d8 98 3d e5 62 8f bd 3e 96 9f bc
       0.5394363 0.07463108 -0.070012845 -0.01948082
000020 61 4c 23 bd 37 31 9f 3e 38 65 b3 3d 91 58 25 bf
       -0.039867762 0.31092235 0.0875954 -0.64588267
000030 a3 7a a0 3e d6 72 9e 3e b5 f3 b9 be 61 c7 7e 3e
       0.31343564 0.30946988 -0.36318746 0.24880745
000040 32 fb 2e 3d f8 09 69 3d 6a a9 bf bb a3 c8 75 3e
       0.042720027 0.056894273 -0.005849053 0.24002318
000050 3e 25 a7 3e 2c 4c ee 3d d8 b8 8b 3e 67 80 bd bd
       0.326456 0.116356224 0.27289462 -0.092530064
000060 fd df f1 3e 5b 5e ec 3e f6 8e 98 3e 91 ce b3 bf
       0.47241202 0.46165738 0.2979657 -1.4047414
000070 08 58 01 3f 1d eb 28 3e 50 19 ca 3e 6c da c2 3c
       0.5052495 0.16495939 0.39472437 0.023785792
000080 91 4a 09 3f 69 cb 5f 3e 89 17 89 bd 44 7e 12 3e
       0.53629404 0.21854939 -0.06693942 0.14305979
000090 da fc e1 bd f4 75 91 3d ea b1 ea 3d ac 3a be 3e
       -0.11034556 0.07102576 0.11459716 0.37154138
0000a0 c6 ff c1 bc b8 a8 58 3d 60 27 99 3b 26 99 d6 3d
       -0.023681533 0.052895278 0.0046738833 0.104784295
0000b0 eb e7 2e be 3b d0 bc 3d 6a 6f bb 3e c9 a4 be 3e
       -0.17080657 0.09219404 0.3660844 0.37235096
0000c0 35 79 04 be e8 ce 1a 3d 81 31 1d bf 79 37 bc 3d
       -0.12936862 0.037794977 -0.6140366 0.09190268
0000d0 58 dc 15 bd 04 fa 37 3e 08 0f 0a 3d 44 82 c7 3d
       -0.03658709 0.17966467 0.03370574 0.09741643
0000e0 d0 bf d7 3c 8b bc b5 3e cd 7d 3f 3e 0d 75 4e 3e
       0.02633658 0.3549541 0.18700333 0.20161839
0000f0 e8 09 37 bf 46 18 d3 bd ed 3f 2d 3f 60 6a a0 bd
       -0.7149949 -0.10307364 0.6767567 -0.078327894
000100 9e 94 64 bf 8e ee 67 3f ad 51 cb 3f de b6 19 be
       -0.8928927 0.9059838 1.58843 -0.15011165
000110 2a f4 e3 bd 71 35 03 3d bd 4a c8 3f 22 1a 0c bd
       -0.11130555 0.032033388 1.5647808 -0.03420461
000120 38 4e 3f 3f 24 1e 2a bf 02 96 a4 bd 5a f2 68 3e
       0.7472873 -0.6645224 -0.08036424 0.227487
000130 66 53 e5 3e 63 af 29 3e b9 c0 97 bf 14 7b 94 3e
       0.4479019 0.16570811 -1.1855689 0.2900015
000140 ef 44 6b bf 88 0f 25 ba a4 6c 4f bf a3 ba 9f 3e
       -0.9190206 -0.0006296565 -0.8102515 0.3119708
000150 75 e2 d7 3f e2 cf 8b bd a7 b6 06 3f 96 6e db 3e
       1.6865984 -0.0682676 0.52622455 0.42857808
000160 04 94 b5 3d 8e 79 e5 3e 90 a0 48 bf a9 d4 06 bd
       0.08866122 0.448193 -0.7837 -0.032917652
000170 1e c4 ed 3e da 8d c4 3e 7e 2e 2c 3f e1 d7 83 bf
       0.46438688 0.38389474 0.6725844 -1.0300256
000180 dd 6f 25 3e 9b 5c ee 3e 64 d3 4d bd 59 0d 8a 3e
       0.16155954 0.46555027 -0.050250426 0.26963308
000190 d5 d1 8a bf be a7 f4 3e 22 f7 c8 bc e7 80 20 3e
       -1.0845286 0.47784227 -0.024531905 0.15674172
0001a0 33 ef 9b bc 40 63 8d 3d ec 77 e0 bd 21 d2 26 be
       -0.019034958 0.06903696 -0.10960373 -0.16291095
0001b0 77 3b c6 3f 51 04 d3 3e 46 d8 ef 3e 24 5d b2 3e
       1.5486897 0.4121423 0.4684469 0.34836686
0001c0 b7 7c 88 bf 16 8f a5 bd 0e 05 94 bd 4e 6f b1 bd
       -1.066306 -0.08083932 -0.072275266 -0.08663808
0001d0 40 bb 5f 3c 6c bb 28 3f ca 74 34 bc 34 d0 e1 bd
       0.013655484 0.65910983 -0.011014173 -0.1102604
0001e0 7a b7 92 bd ef b8 fc 3e f9 1c a0 3e 29 94 9f 3e
       -0.071639016 0.49359843 0.31272104 0.31167725
0001f0 0c 2b 6d bb 56 fc f9 bd a4 d3 2f 3f 96 50 87 3d
       -0.0036188988 -0.122063324 0.6868231 0.066071674
000200 40 d8 70 3c c8 38 ae 3d f7 c6 a9 3e 3c 91 91 be
       0.0146999955 0.08506924 0.3315961 -0.28431118
000210 1d 7c 85 bf 28 a4 e9 bd 09 16 46 be 64 6d ee bc
       -1.0428501 -0.114082634 -0.19344343 -0.029104896
000220 ba 71 af 3e 20 1b 9d 3d 40 01 53 3c 06 e6 0c 3e
       0.34266454 0.07671189 0.012878716 0.13759622
000230 b8 ad d1 3e fa 20 c8 3c 20 a5 90 be 31 e1 07 bf
       0.4095285 0.024429787 -0.2825098 -0.5307799
000240 dc 55 1d 3e bd 81 22 3d b8 6f 22 3d 0c 16 fb 3e
       0.15364784 0.03967451 0.039657325 0.49040258
000250 9f e4 ea 3e 5d 74 f1 bc 81 2e 8d 3e 94 d0 ce 3e
       0.4587755 -0.029474432 0.27574542 0.40393507
000260 7d 92 fc be 08 b4 fb 3e e2 5c 7c 3e 5e 40 c1 be
       -0.49330512 0.4916079 0.24644807 -0.3774442
000270 6f 3a 35 3f 2a a0 85 3e 0e cc 52 3f 87 a4 19 3d
       0.7079229 0.26098758 0.8234261 0.03751042
000280 98 b3 99 be 46 dc 07 3f 12 56 b0 bd 50 c3 11 bf
       -0.30019832 0.53070486 -0.086101666 -0.5693865
000290 c4 10 74 3e e3 d9 cb 3e 48 2d 40 bd 23 95 98 be
       0.2383452 0.39814672 -0.046918184 -0.29801282
0002a0 05 c2 8e bb 58 f8 a7 bd ec 99 e8 3d 59 69 a3 3e
       -0.004356625 -0.08201665 0.11357483 0.3191631
0002b0 73 67 38 3e 03 75 0f be a8 6a d8 3e 54 65 b9 3e
       0.18008213 -0.1400948 0.42268872 0.3621012
0002c0 21 4e 47 be c6 09 ae 3d a8 76 48 3e f5 18 ab 3b
       -0.19463398 0.08497958 0.19576514 0.005221481
0002d0 2e 38 99 3d b5 bb 9c 3e 38 9c 28 bd 00 03 99 3a
       0.074814186 0.3061196 -0.041164607 0.0011673868
0002e0 f2 d0 d3 3d f9 74 3b 3e 1f f3 f0 3d f0 aa 42 3e
       0.103425875 0.1830634 0.11765122 0.1901052
0002f0 08 6a 06 bf bc 52 47 3d bd 0d 38 3f dc da e1 bd
       -0.5250554 0.048662886 0.7189596 -0.11028072
000300 d0 73 50 3e 93 f8 1f bf 7f 1f 1c 3b fb 79 f8 be
       0.20356679 -0.6248867 0.0023822484 -0.48530564
000310 25 b7 39 be 8c af c6 3d 01 d1 c8 3d c2 f2 f0 bc
       -0.1813627 0.09701452 0.09805489 -0.029412631
000320 e6 9e d8 3e b4 87 2b bd c4 92 e7 bd 14 c0 b6 be
       0.4230873 -0.041877463 -0.1130729 -0.3569342
000330 36 ac 19 3f 9b 39 f2 be c7 87 88 3e e8 83 53 bf
       0.600284 -0.47309574 0.2666609 -0.8262315
000340 ff 0f b0 3d e0 29 cc bc 69 92 2f 3e 80 11 df 3e
       0.08596801 -0.024922311 0.17145695 0.4356804
000350 04 42 09 be 6e 0d 6c bd 02 15 c3 3e 20 d2 a1 3e
       -0.13404089 -0.057629995 0.38101965 0.31605625
000360 1d 97 9b be 14 58 d6 3d fc 3e 2f 3e b8 5f 90 bf
       -0.30388728 0.10466018 0.1711387 -1.1279211
000370 c5 85 f8 3e 0d ba 0d 3f a0 a2 b2 3e e1 61 03 3e
       0.48539558 0.55362016 0.34889698 0.12830307
000380 72 d5 6b be b9 78 e1 3e 0d 39 ab 3d 6c 88 8a be
       -0.23030642 0.44037417 0.08360491 -0.27057207
000390 36 1f 7a 3e 25 0a cd 3e 0c e7 2d 3d a3 74 cd be
       0.24425969 0.40046802 0.04245667 -0.4012805
0003a0 51 f0 12 bd 1c 9c e3 3d 30 8c d2 bd 1d 78 b7 3d
       -0.035873715 0.1111376 -0.10280645 0.08958457
0003b0 0a 38 bd be 24 19 bc 3e 4c 73 a6 3e e9 3e db 3e
       -0.36956817 0.3673793 0.3250984 0.42821434
0003c0 39 ac 24 bf 8a 20 fc 3d d7 a4 76 3e 76 bf d6 bd
       -0.6432529 0.12310894 0.24086319 -0.10485737
0003d0 00 5c 7b 3d 32 02 aa bd 3e 08 fd bd f8 d2 8e 3d
       0.061367035 -0.083012 -0.12355088 0.06973833
0003e0 84 9b b4 3d 53 7b d5 3c 98 ec bf 3e 88 25 51 3d
       0.08818725 0.026059782 0.37485194 0.051061183
0003f0 a1 03 fe bc 10 f2 b9 bc b6 fa 52 bf 9e d1 b6 bd
       -0.03100759 -0.022698432 -0.82413805 -0.089267

model.4.bias f4 [8]
000000 9f ae 48 be 89 87 c3 3d 9e 98 f7 bd 3e 5e 1b bd
       -0.19597863 0.09547336 -0.12089656 -0.037931673
000010 e4 63 65 3d 9d a5 a2 3e af 7b 87 bd df f0 ab bd
       0.056003466 0.31766978 -0.06615388 -0.08395552
