model/2.pth (torch, 23565 bytes, 6 tensors)

model.0.weight f4 [64, 8]
0.023368746 0.15174434 -0.3039896 0.19716588 -0.004600197 -0.25282723 0.21050474 0.11587337
0.270717 -0.0902676 0.0045510232 0.09464061 -0.24356848 -0.06991699 0.2249088 -0.17946643
-0.12883511 0.08377159 0.033851206 -0.21568418 0.11924523 0.2522396 -0.3180524 -0.02299115
-0.14742951 -0.29075298 0.14610058 0.15525624 0.010392606 0.00038585067 -0.25026715 0.16379312
0.24912545 0.12594646 0.19608459 0.014038891 -0.16480598 -0.12568755 -0.07493052 0.16530874
0.14430481 0.19568846 -0.27677906 -0.33149093 0.3499135 -0.12528765 -0.1226982 0.04962045
0.14855269 -0.085779995 -0.08632508 -0.124276385 -0.26925138 0.1681718 0.112051904 -0.029362708
-0.2506721 0.18011525 0.13328633 -0.2815578 0.16335669 -0.1831622 -0.20503762 0.21829614
0.29224733 0.06953609 0.11294058 0.18749133 -0.14690992 0.28865102 -0.2078348 -0.21403138
-0.026584953 0.010482371 0.1908156 0.101855814 -0.027728796 0.062030226 0.26288512 0.103259385
0.070714116 0.24394986 -0.24392563 0.09409565 -0.17497778 -0.15572906 0.2724401 0.068032
0.016523093 0.20527169 -0.00845176 0.05407095 0.09969863 -0.20708247 -0.23341548 0.15991643
0.055454463 0.014205724 0.25156263 -0.2963599 0.27378526 0.23975894 0.050574064 -0.15976226
0.3335519 0.0042944252 -0.007816017 -0.20142463 -0.12260644 -0.2904112 -0.057536215 -0.067768455
0.2245253 -0.22831336 0.25316927 0.21857294 0.08423036 0.18927899 -0.14256488 0.14375067
-0.18788584 0.1561766 -0.14876881 -0.12000881 -0.21928065 -0.21665162 -0.054448962 0.21308449
0.17791197 -0.03396666 0.033456206 -0.15970406 0.09119502 0.14301383 0.27332893 -0.10817717
-0.09542683 -0.2756886 0.27087274 0.33679345 -0.21778713 -0.20793653 -0.26145267 0.27959886
0.17988285 0.01705426 -0.11153565 0.18793568 0.24402997 0.108398736 0.003495872 -0.088195145
-0.00077980757 0.1277611 -0.1272369 0.021250606 -0.047203153 -0.21573125 0.3177062 0.123806745
-0.06878266 0.25786123 0.19486192 -0.17509006 -0.32946566 -0.039334863 0.13773918 -0.16617163
0.16223928 -0.046580136 0.309732 -0.19258314 0.23363522 -0.19582306 -0.17396437 0.06046036
-0.22103265 -0.12741375 -0.20006105 -0.31419694 -0.10656266 -0.309322 0.29880622 0.24116942
0.11403474 -0.18930072 -0.30750787 -0.21822841 0.0062128305 -0.2874781 -0.052065343 -0.17914197
-0.3067831 -0.10347158 0.13860133 0.093880504 -0.2528086 -0.32029498 0.13993946 -0.2474849
0.112469256 -0.054103643 -0.32977653 0.023280531 0.253118 -0.0743072 0.058986187 0.04075098
0.30526784 0.13217354 -0.24610266 -0.3234073 0.26346484 0.014408082 -0.14776857 0.34923044
0.042616665 0.31596866 -0.022657692 0.33032963 -0.12572923 -0.087604076 0.21406302 -0.29327428
-0.17412072 0.18844655 0.32763073 0.11010164 -0.34889662 0.101988465 0.27633855 0.22381648
-0.3179814 0.35180262 0.004312128 0.26582095 0.11194199 0.095957994 0.1905097 -0.3455551
0.31105635 0.15125278 0.31237116 0.3051456 0.2843649 0.20649788 0.086527854 0.09893164
-0.2671321 0.09167442 0.031060576 0.22162834 -0.030425131 -0.046839952 -0.28851813 0.09218031
00000000: d06f bf3c de62 1b3e 86a4 9bbe dae5 493e
00000010: 40bd 96bb 9272 81be 8e8e 573e 044f ed3d
00000020: 6b9b 8a3e 38de b8bd c020 953b f0d2 c13d
00000030: 046a 79be a430 8fbd 7e4e 663e 0cc6 37be
00000040: 5aed 03be 7090 ab3d 90a7 0a3d 50dc 5cbe
00000050: d836 f43d 8d25 813e c4d7 a2be f057 bcbc
00000060: c3f7 16be 93dd 94be 649b 153e 7efb 1e3e
00000070: c045 2a3c 004c ca39 0423 80be 62b9 273e
00000080: be1a 7f3e 1cf8 003e 66ca 483e 6003 663c
00000090: e6c2 28be 3db4 00be 2c75 99bd b246 293e
000000a0: a4c4 133e 8e62 483e fcb5 8dbe 2eb9 a9be
000000b0: dd27 b33e 684b 00be 3249 fbbd d03e 4b3d
000000c0: 321e 183e 6cad afbd 34cb b0bd 9e84 febd
000000d0: 51db 89be 3a35 2c3e 787b e53d 108a f0bc
000000e0: 1858 80be 2270 383e 367c 083e 5828 90be
000000f0: fa46 273e df8e 3bbe 62f5 51be 0689 5f3e
00000100: 71a1 953e f068 8e3d 644d e73d bafd 3f3e
00000110: 8e6f 16be 11ca 933e a5d2 54be 0b2b 5bbe
00000120: b0c8 d9bc 40be 2b3c 2a65 433e c899 d03d
00000130: 8027 e3bc 6813 7e3d e198 863e a879 d33d
00000140: 90d2 903d fecd 793e a4c7 79be 38b5 c03d
00000150: 602d 33be 7077 1fbe 457d 8b3e 5c54 8b3d
00000160: 705b 873c be32 523e 4079 0abc 8079 5d3d
00000170: cc2e cc3d 6d0d 54be 7804 6fbe 22c1 233e
00000180: 3824 633d 20bf 683c d1cc 803e 7cbc 97be
00000190: 952d 8c3e 5e83 753e c026 4f3d b898 23be
000001a0: 51c7 aa3e 40b8 8c3b c00e 00bc 4242 4ebe
000001b0: 1619 fbbd c7b0 94be 18ab 6bbd 30ca 8abd
000001c0: f6e9 653e faca 69be 679f 813e 96d1 5f3e
000001d0: f880 ac3d 5ad2 413e 87fc 11be 6033 133e
000001e0: 2565 40be c2ec 1f3e da56 18be 2ec7 f5bd
000001f0: 1b8b 60be ecd9 5dbe e005 5fbd d232 5a3e
00000200: 8e2e 363e a020 0bbd 6009 093d 7689 23be
00000210: 74c4 ba3d 3872 123e c5f1 8b3e fe8b ddbd
00000220: 246f c3bd 0e27 8dbe d5af 8a3e 3170 ac3e
00000230: 9703 5fbe 50ed 54be 20dd 85be 9527 8f3e
00000240: 3633 383e 60b5 8b3c ce6c e4bd 3672 403e
00000250: fee2 793e 2800 de3d 001b 653b a89f b4bd
00000260: 006c 4cba ced3 023e 644a 02be c015 ae3c
00000270: 1858 41bd a7e8 5cbe 63aa a23e 648e fd3d
00000280: ecdd 8cbd 6306 843e e289 473e cf4a 33be
00000290: b9af a8be 981d 21bd 800b 0d3e e528 2abe
000002a0: 0e22 263e d0ca 3ebd 3195 9e3e 8434 45be
000002b0: 123e 6f3e d785 48be b723 32be 48a5 773d
000002c0: 6256 62be c078 02be cedc 4cbe 6cde a0be
000002d0: 863d dabd 745f 9ebe 21fd 983e 1ef5 763e
000002e0: 0c8b e93d 0cd8 41be ac71 9dbe 4577 5fbe
000002f0: 0095 cb3b 5430 93be 7842 55bd fe70 37be
00000300: ad12 9dbe e8e8 d3bd 82ed 0d3e 6c44 c03d
00000310: 2170 81be b4fd a3be 4a4c 0f3e ae6c 7dbe
00000320: 4856 e63d c89b 5dbd 78d8 a8be d0b6 be3c
00000330: af98 813e 602e 98bd 809b 713d 80ea 263d
00000340: 114c 9c3e 8058 073e 5602 7cbe a495 a5be
00000350: dde4 863e e00f 6c3c a550 17be 55ce b23e
00000360: d08e 2e3d a5c6 a13e a09c b9bc f720 a93e
00000370: 2abf 00be c469 b3bd 5633 5b3e 0c28 96be
00000380: b44c 32be 22f8 403e 37bf a73e f87c e13d
00000390: 94a2 b2be 54df d03d 3f7c 8d3e 2630 653e
000003a0: 75ce a2be 791f b43e c04c 8d3b af19 883e
000003b0: d841 e53d a085 c43d fa14 433e 99ec b0be
000003c0: c742 9f3e 02e2 1a3e 1def 9f3e 0b3c 9c3e
000003d0: 4798 913e 2e74 533e 8435 b13d ac9c ca3d
000003e0: 8ac5 88be ccbf bb3d c072 fe3c 8af2 623e
000003f0: 203e f9bc 40db 3fbd a6b8 93be 08c9 bc3d

model.0.bias f4 [64]
-0.3220384 0.24070147 0.23803881 -0.2982821 0.28616086 -0.26393524 -0.078252524 -0.026723891
0.20044717 -0.3129756 -0.04438275 -0.3273689 -0.30247158 -0.198915 -0.1395993 -0.095500976
0.11687827 0.2558243 -0.33232793 -0.25511178 -0.09910321 0.07205692 -0.1776281 0.05786851
0.2962061 -0.0041547418 0.05385536 0.13006824 -0.021313787 0.11879006 0.16299728 0.24232927
-0.06960443 -0.115465835 -0.29703555 -0.30866623 -0.09854317 -0.2637124 -0.31744656 -0.23398563
0.09118301 -0.1016404 0.20780239 -0.33394566 -0.09428251 -0.20009443 -0.2044672 0.23460332
-0.2611807 -0.3464249 0.16776183 0.22545967 -0.20922622 -0.16212977 -0.25728324 0.047859102
-0.16686894 0.1001195 0.09821117 0.18104699 0.13952398 0.07280409 -0.07513115 0.023723483
00000000: 38e2 a4be 727a 763e 72c0 733e 6eb8 98be
00000010: ad83 923e 8522 87be dc42 a0bd 10ec dabc
00000020: 0642 4d3e 563e a0be b0ca 35bd e59c a7be
00000030: 8edd 9abe 60b0 4bbe 1ef3 0ebe 0496 c3bd
00000040: e05d ef3d 67fb 823e e326 aabe 039e 82be
00000050: a0f6 cabd 9492 933d 24e4 35be 8807 6d3d
00000060: 53a8 973e 8024 88bb 7097 5c3d 9c30 053e
00000070: 409a aebc 3448 f33d c2e8 263e 2a25 783e
00000080: c48c 8ebd 5a79 ecbd 0b15 98be 8009 9ebe
00000090: 00d1 c9bd 5005 87be 5b88 a2be ee99 6fbe
000000a0: 28be ba3d d828 d0bd 26ca 543e edfa aabe
000000b0: 3017 c1bd 8ee5 4cbe da5f 51be da3b 703e
000000c0: 7ab9 85be 9b5e b1be c2c9 2b3e e6de 663e
000000d0: 663f 56be 5905 26be a1ba 83be e807 443d
000000e0: b1df 2abe 740b cd3d f022 c93d 6264 393e
000000f0: 60df 0e3e 501a 953d 5cde 99bd c057 c23c

model.2.weight f4 [64, 64]
0.10924363 0.0994612 -0.11593962 0.08639185 -0.05728993 0.048566237 0.03175442 -0.0757304
-0.028323218 -0.10560782 -0.08336365 -0.07843013 0.07606365 -0.011935756 -0.09807204 -0.1045481
0.03961803 0.060169175 0.031339273 0.014615849 0.04841441 0.07201284 -0.12335268 0.03916277
0.08048536 -0.07855886 0.0087174475 0.1160506 0.05985476 0.09576206 -0.017866224 0.023574546
0.11633779 -0.015110716 0.0116986185 -0.033812195 0.095696375 0.10683486 0.08960611 0.09882188
0.10746339 0.119543836 -0.006882459 0.114503786 -0.09690285 0.029879943 -0.104431406 0.11913507
0.015300021 -0.09495379 0.08012661 -0.11779599 0.043102458 -0.12314868 -0.014008716 -0.011916652
-0.10025042 0.019596115 0.031092495 -0.008481219 0.061515912 -0.1161633 -0.024443388 0.08571711
-0.021939054 0.033917636 0.11246766 -0.040075913 0.07998967 -0.0731273 -0.079813495 -0.10043006
-0.096281365 -0.10635647 -0.045822784 -0.059855223 0.039353147 0.09020993 0.011090025 -0.06607941
0.056044728 0.03849554 0.094342604 -0.10212147 0.054926082 -0.01152122 -0.04518333 0.076188326
-0.10309601 -0.030294895 -0.053854167 -0.07273409 -0.10100035 -0.12481788 0.008136049 0.047513217
-0.10754116 0.048537254 0.030682683 0.0921337 0.08684884 -0.065978244 -0.06428629 0.069144085
0.03424737 0.078266695 -0.03877841 -0.10968873 0.018746525 -0.06984924 -0.065444425 -0.10145813
0.07307263 0.015067622 -0.041134477 -0.10554026 -0.08436616 -0.007869393 0.047274843 0.072819635
0.080266386 -0.05621113 -0.093870044 -0.054525867 -0.075768486 0.11667769 -0.10890441 -0.11132105
0.05307184 -0.028671324 0.06929746 -0.08798155 0.023412451 -0.028870314 0.06024082 -0.08253282
-0.065430135 -0.021598771 0.071032554 0.044055328 0.04249236 -0.07750207 -0.008979455 0.06286794
0.03133528 -0.080540925 0.06259769 0.01706326 -0.08128534 0.004651144 0.050257802 0.08869843
0.061281636 -0.01810664 -0.119668275 -0.0096294135 0.110236734 -0.057797313 -0.062667295 -0.1227759
-0.08407737 0.06832197 -0.07620503 -0.10427675 -0.12078574 -0.111438796 0.0056842268 0.11043735
-0.052720413 -0.00652875 0.053992644 -0.10844779 0.03258206 -0.11349067 -0.031425223 0.11509669
-0.098260894 -0.014598519 -0.066267684 0.08062592 0.08220996 -0.0034611523 -0.064183906 -0.09400317
0.08853032 0.07080349 0.012828112 -0.11408307 -0.0062073767 -0.0153891 -0.035519242 -0.05017762
-0.102422714 -0.025767118 -0.108285084 -0.075742304 -0.003817767 -0.014624387 -0.074479535 0.11472422
0.040043563 -0.11277197 0.076208144 0.055290356 0.013635069 -0.1196468 -0.09939468 -0.045374125
0.09602584 -0.058835447 0.035718054 0.015211508 -0.031148568 -0.09760827 -0.110170305 -0.08464089
-0.11334394 0.076692626 -0.06624217 0.040131748 -0.097010344 -0.058934033 -0.100688234 -0.11907455
0.011145562 0.045669824 0.10164447 0.078525975 0.028569758 -0.04898569 0.09266718 0.06585999
-0.036556527 0.087300375 0.05665745 -0.11748606 -0.121026725 -0.00054600835 0.09714727 0.0064356327
0.10407148 -0.11840589 -0.06530182 -0.10630944 0.06555915 -0.084187165 0.005838439 0.031779096
-0.021115884 -0.11270328 0.08345246 0.048930883 0.036601096 0.097556606 0.112879634 0.06752618
00000000: 20bb df3d 50b2 cb3d c071 edbd 36ee b03d
00000010: d8a8 6abd 64ed 463d ec10 023d 8a18 9bbd
00000020: 1806 e8bc ea48 d8bd 90ba aabd fa9f a0bd
00000030: 42c7 9b3d 308e 43bc fed9 c8bd 501d d6bd
00000040: 8446 223d f473 763d 9c5d 003d 5077 6f3c
00000050: 304e 463d 787b 933d 54a0 fcbd 2469 203d
00000060: 82d5 a43d 78e3 a0bd a0d3 0e3c f0ab ed3d
00000070: 442a 753d e61e c43d 305c 92bc 681f c13c
00000080: 8242 ee3d f092 77bc 90ab 3f3c a87e 0abd
00000090: 76fc c33d 3ccc da3d 6883 b73d 2063 ca3d
000000a0: c415 dc3d 66d3 f43d 4086 e1bb f680 ea3d
000000b0: 0075 c6bd c8c6 f43c 22e0 d5bd 16fd f33d
000000c0: f0ac 7a3c 2277 c2bd 6c19 a43d 063f f1bd
000000d0: 348c 303d 6035 fcbd d084 65bc 103e 43bc
000000e0: 1850 cdbd 0888 a03c b0b5 fe3c d0f4 0abc
000000f0: 1cf8 7b3d 06e7 edbd 803d c8bc 748c af3d
00000100: 88b9 b3bc 38ed 0a3d 7255 e63d a426 24bd
00000110: a0d1 a33d c4c3 95bd 4275 a3bd 46ae cdbd
00000120: 2a2f c5bd 6cd1 d9bd acb0 3bbd c02a 75bd
00000130: c430 213d fcbf b83d f0b2 353c a454 87bd
00000140: 288f 653d 80ad 1d3d b236 c13d 1025 d1bd
00000150: 2cfa 603d 80c3 3cbc 2812 39bd a008 9c3d
00000160: 0024 d3bd 002d f8bc 3096 5cbd 9cf5 94bd
00000170: 46d9 cebd 84a0 ffbd 104d 053c 389d 423d
00000180: 8a3e dcbd 00cf 463d 405a fb3c 98b0 bc3d
00000190: cedd b13d 9a1f 87bd 88a8 83bd 6a9b 8d3d
000001a0: f846 0c3d 4a4a a03d 1cd6 1ebd 7ca4 e0bd
000001b0: 5092 993c 1e0d 8fbd ba07 86bd 48c9 cfbd
000001c0: 1aa7 953d 30de 763c a07c 28bd 7e25 d8bd
000001d0: 2ac8 acbd a0ee 00bc 44a3 413d 7622 953d
000001e0: b462 a43d a43d 66bd f03e c0bd 8456 5fbd
000001f0: 822c 9bbd b6f4 ee3d 4609 dfbd 4afc e3bd
00000200: dc61 593d 20e0 eabc d4eb 8d3d ac2f b4bd
00000210: 78cb bf3c 7081 ecbc 14bf 763d f806 a9bd
00000220: 3c00 86bd e8ef b0bc 8479 913d 5c73 343d
00000230: 780c 2e3d 68b9 9ebd 901e 13bc e8c0 803d
00000240: 6c59 003d a4f2 a4bd 3833 803d 40c8 8b3c
00000250: ee78 a6bd a068 983b 20db 4d3d 86a7 b53d
00000260: 7402 7b3d 6054 94bc a414 f5bd b0c4 1dbc
00000270: ccc3 e13d e0bc 6cbd b657 80bd ee71 fbbd
00000280: c230 acbd 64ec 8b3d 6211 9cbd 0c8f d5bd
00000290: 845e f7bd 063a e4bd c042 ba3b fa2c e23d
000002a0: 5cf1 57bd 20ef d5bb 6427 5d3d e019 debd
000002b0: c474 053d cc6d e8bd bcb7 00bd d0b7 eb3d
000002c0: 023d c9bd a02e 6fbc 5ab7 87bd 341f a53d
000002d0: b25d a83d 80d4 62bb da72 83bd bc84 c0bd
000002e0: 624f b53d 6c01 913d 002d 523c 62a4 e9bd
000002f0: 4067 cbbb 9022 7cbc a07c 11bd 0c87 4dbd
00000300: 00c3 d1bd 9015 d3bc 92c4 ddbd c81e 9bbd
00000310: 8033 7abb 209b 6fbc ba88 98bd 88f4 ea3d
00000320: b804 243d fef4 e6bd 0413 9c3d 2478 623d
00000330: a065 5f3c 6209 f5bd 708f cbbd 38da 39bd
00000340: 32a9 c43d 70fd 70bd 184d 123d b039 793c
00000350: 482b ffbc d8e6 c7bd f8a0 e1bd 3458 adbd
00000360: de20 e8bd 0611 9d3d faa9 87bd 3061 243d
00000370: 5cad c6bd d064 71bd a235 cebd 5cdd f3bd
00000380: e09b 363c 4810 3b3d fa2a d03d 3ad2 a03d
00000390: 200b ea3c 38a5 48bd 4ac8 bd3d 9ae1 863d
000003a0: 4cbc 15bd 8aca b23d a411 683d 889c f0bd
000003b0: dcdc f7bd 0022 0fba 26f5 c63d 00e2 d23b
000003c0: 6e23 d53d ca7e f2bd f6bc 85bd c4b8 d9bd
000003d0: e043 863d 526a acbd 6050 bf3b cc2a 023d
000003e0: 38fb acbc fad0 e6bd 20e9 aa3d c06b 483d
000003f0: 08eb 153d c2cb c73d 702d e73d 2a4b 8a3d

model.2.bias f4 [64]
-0.07174742 -0.07094744 -0.04324563 -0.024251357 -0.058882073 -0.10103555 -0.109031424 0.08760327
-0.03963603 0.037419736 -0.020916581 -0.07410593 0.060860008 -0.036473513 -0.087911695 -0.073950484
0.038431928 0.031200513 0.04786761 -0.0689514 0.025729865 -0.12406294 -0.0007677376 -0.101919174
0.10729754 0.11063869 0.029484421 0.044638902 0.10677266 -0.1085784 -0.0009825528 -0.060631678
-0.10148281 0.059120715 0.09042522 -0.06348099 0.10477641 0.033479646 -0.09020652 -0.009551197
0.056064278 -0.016011298 0.056275174 0.027339756 -0.1052396 -0.074559316 0.030616358 -0.013761178
-0.11061457 -0.07608114 0.05178626 0.01118733 0.030902147 -0.11914784 -0.056144685 -0.00503622
-0.070932314 0.11313373 0.053487584 0.08768305 0.10210641 0.030083165 0.032045245 0.09506212
00000000: 50f0 92bd e44c 91bd 5422 31bd c8aa c6bc
00000010: 542e 71bd baeb cebd de4b dfbd 5869 b33d
00000020: 6459 22bd 7045 193d 4059 abbc dac4 97bd
00000030: 5848 793d 4065 15bd 0c0b b4bd 5a73 97bd
00000040: cc6a 1d3d 3898 ff3c d410 443d 6436 8dbd
00000050: 70c7 d23c b614 febd 0042 49ba 00bb d0bd
00000060: d0be db3d 8a96 e23d 5089 f13c 48d7 363d
00000070: a0ab da3d 5a5e debd 00c9 80ba ec58 78bd
00000080: 38d6 cfbd 9028 723d dc30 b93d 5202 82bd
00000090: 0495 d63d f421 093d 32be b8bd a07c 1cbc
000000a0: a8a3 653d 202a 83bc cc80 663d a0f7 df3c
000000b0: dc87 d7bd 8eb2 98bd 28cf fa3c 9076 61bc
000000c0: e489 e2bd 6ed0 9bbd d41d 543d 104b 373c
000000d0: 8026 fd3c c803 f4bd f8f7 65bd e006 a5bb
000000e0: f644 91bd a8b2 e73d cc15 5b3d 2c93 b33d
000000f0: 2a1d d13d f870 f63c e041 033d eeaf c23d

model.4.weight f4 [8, 64]
0.014455482 0.10803513 -0.041918248 -0.067199275 0.05361122 0.049795777 -0.11667231 0.070799306
0.077651724 0.005636096 0.08919978 -0.045403436 0.05173208 -0.087411314 0.115452945 -0.09883107
0.03634104 0.027599499 -0.02099897 0.089127496 -0.02729027 -0.034448028 -0.12472637 0.029865026
0.0017958134 0.046460032 0.06520119 -0.05680546 -0.1185424 0.02015011 -0.08085053 -0.028253883
0.098560676 0.060822293 0.09597634 0.052500665 0.11284277 -0.06435025 0.08066006 0.012267932
0.08641891 0.023006067 -1.4588237e-05 0.058930725 -0.00018921494 0.043367058 0.056858033 -0.070011616
0.07256855 -0.024464116 -0.08179073 0.1056838 -0.0778044 0.045681655 0.103722826 -0.019669056
0.09464331 0.1181014 -0.072647244 0.06522 0.10385598 -0.050134525 0.084087715 0.040509865
-0.004439473 0.07209925 0.034298837 -0.11135647 0.015610382 0.11220883 -0.09306243 0.018118933
-0.024974987 -0.042617753 -0.048033893 0.04587561 0.06768343 0.03408104 -0.0050593615 0.12335312
-0.0392247 -0.028948963 -0.0042827874 0.088518664 0.098524526 -0.090527415 -0.05235368 -0.0082901865
0.120612085 0.0129956305 -0.002825141 0.059758216 0.11292465 -0.072234556 -0.05981566 -0.07302928
0.097339734 0.039520606 -0.075653896 0.024017751 -0.08456224 0.00969024 0.034734145 -0.08227952
0.04851158 0.049115658 0.02671209 -0.006475687 -0.06785177 -0.041446283 0.0032319278 0.029219598
0.051468715 0.052313864 -0.05912526 0.057216614 0.00045597553 -0.06891751 0.08498649 -0.0005155802
0.11003062 0.116258174 -0.032987177 -0.068913415 -0.0074083954 -0.066138625 -0.03521198 -0.037704617
0.05126083 -0.06395304 0.111138225 0.111328095 -0.04725656 0.0626535 0.06965135 0.06986019
0.12127663 -0.06655581 -0.041856125 -0.0783381 -0.092005745 0.058497995 0.09346934 0.021699935
-0.046055943 -0.062625125 0.08521479 0.06030248 -0.09916741 0.02393946 -0.05684738 -0.09004314
0.039851382 0.107036516 0.052324668 0.051858068 0.07404184 -0.007922173 -0.11998561 0.08048849
-0.02032812 0.0077374578 -0.0730018 -0.03242205 -0.04180917 0.023544952 -0.010216787 0.086672395
-0.09994808 0.01209569 0.122597694 0.004527375 0.061085537 -0.037979573 -0.100326836 0.02855073
-0.029278517 -0.06895381 -0.118970215 -0.01214397 -0.07616693 -0.05636929 -0.021373615 0.06393294
0.096692055 0.09392801 -0.109964564 0.058712617 -0.0040950775 0.098593116 -0.024302348 -0.06734975
0.06303227 -0.031690583 0.08239986 0.052034274 0.020440146 0.031888142 -0.06306802 0.023539335
0.042765036 0.10282196 -0.116918474 -0.019372508 0.00021488965 0.08323714 -0.07463217 -0.08309691
-0.103414044 0.036656186 0.09560524 -0.07655063 0.07498017 -0.0010772645 0.06991468 0.012062609
0.04388766 0.09375687 -0.028538868 -0.03568153 -0.11943363 -0.0742151 0.078591004 -0.0173309
-0.017102346 0.07845901 0.114796385 0.008650869 0.07915762 0.015559047 -0.06909433 0.013630331
-0.049437195 -0.08176826 0.036438137 0.072138384 -0.004332736 -0.07673235 -0.09790172 -0.10192762
0.076287046 -0.07789874 0.12286036 -0.06312914 0.041618973 0.11918849 0.04617898 0.010814652
0.04175301 -0.04973878 -0.0076786727 -0.09641838 0.08943592 0.12239458 -0.11263324 0.099545255
00000000: b0d6 6c3c 8641 dd3d 78b2 2bbd c69f 89bd
00000010: 7097 5b3d a8f6 4b3d e4f1 eebd 3aff 903d
00000020: de07 9f3d 00af b83b 60ae b63d f4f8 39bd
00000030: 04e5 533d b404 b3bd 9872 ec3d f267 cabd
00000040: 58da 143d 5818 e23c 0806 acbc 7a88 b63d
00000050: d88f dfbc 6019 0dbd 8a70 ffbd 80a7 f43c
00000060: 8061 eb3a e04c 3e3d 3488 853d d8ac 68bd
00000070: 5cc6 f2bd d811 a53c f694 a5bd b074 e7bc
00000080: 2eda c93d cc20 793d 3e8f c43d f00a 573d
00000090: 1c1a e73d 10ca 83bd 1a31 a53d 70ff 483c
000000a0: 66fc b03d 3877 bc3c 00c0 74b7 5861 713d
000000b0: 0068 46b9 a8a1 313d f8e3 683d 4062 8fbd
000000c0: d29e 943d f868 c8bc e681 a7bd c070 d83d
000000d0: ea57 9fbd b01c 3b3d a26c d43d 0021 a1bc
000000e0: 5ad4 c13d 26df f13d 14c8 94bd 1092 853d
000000f0: 72b2 d43d dc59 4dbd 2e36 ac3d aced 253d
00000100: 0079 91bb c6a8 933d f07c 0c3d dc0e e4bd
00000110: b0c2 7f3c becd e53d 8497 bebd 286e 943c
00000120: 5898 ccbc f48f 2ebd 30bf 44bd 10e8 3b3d
00000130: 9c9d 8a3d 9098 0b3d 00c9 a5bb 90a0 fc3d
00000140: 14aa 20bd 6026 edbc a056 8cbb 4649 b53d
00000150: 3ac7 c93d 7066 b9bd d070 56bd 90d3 07bc
00000160: 7803 f73d a0eb 543c 0026 39bb 08c5 743d
00000170: 0a45 e73d b6ef 93bd 4401 75bd 6090 95bd
00000180: 0e5a c73d 5ce0 213d 6ef0 9abd e0c0 c43c
00000190: f82e adbd d0c3 1e3c 6445 0e3d 2a82 a8bd
000001a0: 14b4 463d 802d 493d 50d3 da3c 0032 d4bb
000001b0: def5 8abd 94c3 29bd c0ce 533b f05d ef3c
000001c0: dcd0 523d 1047 563d 542d 72bd f85b 6a3d
000001d0: 0010 ef39 a024 8dbd 660d ae3d 0028 07ba
000001e0: bc57 e13d c418 ee3d 901d 07bd 7a22 8dbd
000001f0: 20c2 f2bb b073 87bd 703a 10bd 2870 1abd
00000200: e0f6 513d d0f9 82bd 709c e33d fcff e33d
00000210: 1890 41bd 7a50 803d 5ea5 8e3d dc12 8f3d
00000220: e25f f83d 6a4e 88bd 5471 2bbd ba6f a0bd
00000230: 826d bcbd 989b 6f3d da6c bf3d 10c4 b13c
00000240: 28a5 3cbd 9a41 80bd 1885 ae3d bcff 763d
00000250: 4818 cbbd b01c c43c ccd8 68bd 8a68 b8bd
00000260: 343b 233d f635 db3d 6452 563d 2069 543d
00000270: 40a3 973d 00cc 01bc 04bb f5bd 26d7 a43d
00000280: 2887 a6bc 808a fd3b f881 95bd fccc 04bd
00000290: 1840 2bbd 58e1 c03c 5064 27bc 4c81 b13d
000002a0: 94b1 ccbd 002d 463c 8014 fb3d 605a 943b
000002b0: d434 7a3d 7890 1bbd 2878 cdbd 38e3 e93c
000002c0: 80d9 efbc a837 8dbd a8a6 f3bd 80f7 46bc
000002d0: 68fd 9bbd 7ce3 66bd b817 afbc 46ef 823d
000002e0: 7c06 c63d 545d c03d 1a35 e1bd a47c 703d
000002f0: 0030 86bb 30eb c93d b815 c7bc aaee 89bd
00000300: 1017 813d fccd 01bd 42c1 a83d e421 553d
00000310: 1872 a73c 249d 023d ce29 81bd 90d5 c03c
00000320: 642a 2f3d 5294 d23d f472 efbd 18b3 9ebc
00000330: 0054 6139 3c78 aa3d c0d8 98bd b62e aabd
00000340: beca d3bd cc24 163d aecc c33d 94c6 9cbd
00000350: 348f 993d 0033 8dba 6e2f 8f3d 40a2 453c
00000360: 8cc3 333d 9a03 c03d 58ca e9bc cc26 12bd
00000370: 9e99 f4bd 16fe 97bd 52f4 a03d 88f9 8dbc
00000380: 381a 8cbc 1eaf a03d 5e1a eb3d 60bc 0d3c
00000390: 641d a23d 60eb 7e3c 5481 8dbd c051 5f3c
000003a0: a87e 4abd 1e76 a7bd 2840 153d 4abd 933d
000003b0: a0f9 8dbb da25 9dbd b280 c8bd 6ebf d0bd
000003c0: 623c 9c3d 6089 9fbd 369e fb3d da49 81bd
000003d0: a878 2a3d 1819 f43d 2c26 3d3d f02f 313c
000003e0: 3405 2b3d e4ba 4bbd 609d fbbb 0077 c5bd
000003f0: 2e2a b73d 02aa fa3d 42ac e6bd 62de cb3d

model.4.bias f4 [8]
-0.11541775 0.0866549 0.058231503 -0.07877351 0.09275432 0.094856486 -0.07319346 0.12294701
00000000: 2460 ecbd 2078 b13d 2884 6e3d 0254 a1bd
00000010: faf5 bd3d 1e44 c23d 74e6 95bd a4cb fb3d
