model/2.pth (torch, 23565 bytes, 6 tensors)

model.0.weight f4 [64, 8]
000000 4f 6a a1 3e f3 e5 83 be 87 cd a1 3e cf e5 91 3e
       0.3152642 -0.25761375 0.31602117 0.28495643
000010 40 93 c9 bb 65 d9 aa 3e 4a 9e 4f be 06 2a 30 3e
       -0.006151587 0.33368984 -0.20275226 0.1720353
000020 da 10 27 3e 40 b7 f9 bc d1 3e 60 be d7 11 a7 be
       0.16315022 -0.030482888 -0.21898963 -0.32630798
000030 be 95 9b be 60 55 78 3c ce ab a7 be 08 c0 d1 bd
       -0.30387682 0.015157074 -0.32748264 -0.10241705
000040 68 a9 4e be 5e b3 51 be 3d 07 93 3e b8 46 9d bd
       -0.20181811 -0.2047858 0.2871646 -0.07679504
000050 a0 7e 2c 3c 24 e0 d0 bd c3 4e 98 3e a0 4b a3 bc
       0.010528237 -0.101990014 0.2974759 -0.019933522
000060 c6 39 16 3e 38 8f e9 3d 55 c5 83 3e 8f 14 57 be
       0.14670476 0.1140427 0.2573649 -0.21003936
000070 40 61 a9 bd 12 b6 26 be 80 a5 d3 bc 33 b4 b4 3e
       -0.08270502 -0.16280392 -0.025835752 0.3529373
000080 3c 72 a2 3d 7d 6f 94 be a0 db f6 bc 1a f8 82 be
       0.07931945 -0.2899131 -0.030134022 -0.2557991
000090 7b d7 80 3e 34 98 86 bd 90 b5 92 bd ad 83 35 be
       0.251644 -0.06571999 -0.071635365 -0.17726012
0000a0 08 f4 cc 3d c2 d2 95 be 1d fb ab 3e c8 c6 3a 3d
       0.10007483 -0.29262358 0.33590022 0.04559973
0000b0 8e f2 1e 3e e6 38 81 be 80 a4 89 3d f0 b3 68 bd
       0.15522215 -0.25238723 0.06720829 -0.056812227
0000c0 50 22 c4 3c de ed 47 be 23 15 a4 be f8 8f 51 3d
       0.023942143 -0.19524333 -0.32047376 0.05116269
0000d0 47 c8 83 3e 20 5d a3 bc c0 33 de 3d 26 a4 a2 be
       0.25738737 -0.019941866 0.10849714 -0.3176586
0000e0 69 c3 9e 3e 9e cc 5c 3e 3a 83 97 be 0d b3 91 3e
       0.3100846 0.2156243 -0.29592305 0.28456917
0000f0 80 56 d7 3d 70 fb 14 3d 23 f6 9d 3e 90 5d 02 3e
       0.105145454 0.036372602 0.3085185 0.12731004
000100 90 b9 6c 3d a2 41 5b 3e 90 f5 f8 3c 7b 22 6a be
       0.057794154 0.21411756 0.03039053 -0.22864716
000110 76 22 66 3e 34 4e 93 bd 9e 9a 77 3e 2f 98 8b 3e
       0.22474083 -0.071926504 0.24180076 0.27264544
000120 11 fe 4f be d0 2c 89 be 60 fa 36 bd ce 85 ae be
       -0.20311762 -0.26792002 -0.04467237 -0.3408646
000130 40 f9 b1 3d 3f ff 00 be 20 51 0a bd 0a 93 5a 3e
       0.08690119 -0.12597369 -0.033768773 0.21345153
000140 5e d2 2a be 80 aa 01 bb 3d ad a3 3e 22 1b 7a 3e
       -0.16681811 -0.0019785464 0.31968108 0.24424413
000150 05 6d 8b be 9a 9a 69 3e 8e 86 16 3e 67 6b 96 3e
       -0.27231613 0.22812882 0.14699766 0.29378816
000160 45 95 88 3e 17 a1 81 be a8 de 04 3d f2 55 41 3e
       0.26676384 -0.25318214 0.032438904 0.18880442
000170 b6 4f 2c 3e a4 17 bd bd 79 1c 48 be 09 46 a9 3e
       0.16827282 -0.09233025 -0.19542111 0.33061245
000180 ff 95 3f be 4e 83 56 3e 68 9e 70 bd e6 78 28 3e
       -0.18709563 0.20948526 -0.058744818 0.16452369
000190 c4 90 89 be 3c 23 89 be f0 93 14 bd 56 d6 7e be
       -0.2686826 -0.26784694 -0.036273897 -0.2488645
0001a0 94 35 9a 3d ce 85 ee bd 3a c3 92 be 3a 25 d8 bd
       0.075297505 -0.11646615 -0.2866457 -0.105539754
0001b0 48 af 7a bd 0a 61 7f be 5a b7 72 3e 08 8e 2a 3d
       -0.061202317 -0.24939361 0.23702756 0.041639358
0001c0 e1 35 68 be ef 38 ae 3e 06 41 83 be d4 05 d0 3d
       -0.22676803 0.34027812 -0.25635546 0.101573616
0001d0 0a e1 48 3e 0b 64 95 3e d3 33 8a 3e fc 0f 93 bd
       0.19617096 0.2917789 0.26992664 -0.07180783
0001e0 0e fd 79 3e bb d6 9a be d8 95 3b bd 15 5c 99 be
       0.24412939 -0.3024195 -0.0457972 -0.29953066
0001f0 c9 52 a0 be 98 7f 93 3d 10 e5 f7 bd 82 da 32 3e
       -0.3131316 0.07202071 -0.12104237 0.17466167
000200 4e 1c 67 3e 6b 09 b0 3e a0 99 e2 3c bd c1 88 3e
       0.22569391 0.34382185 0.027661145 0.2671031
000210 c0 b8 63 bc e9 43 ac 3e 88 99 f0 3d d9 d7 90 3e
       -0.013899028 0.3364556 0.11748034 0.2828968
000220 23 6f 05 be 92 4e 2c be 40 ce 59 bd 2b 2f a9 3e
       -0.13030677 -0.16826847 -0.05317521 0.330438
000230 a0 c2 1f bd e0 89 8b 3c b0 2a 42 bd f8 ee ae 3d
       -0.03900397 0.017033517 -0.04740399 0.085416734
000240 60 89 9d bc d6 fb 52 3e c9 cd 97 3e 8e 07 38 3e
       -0.019230545 0.2060388 0.2964919 0.17971632
000250 81 d7 9b 3e b0 e5 13 3e b5 4e b0 3e 66 42 1c be
       0.30437854 0.14443088 0.3443505 -0.15259704
000260 68 09 6e 3d ab 5b a5 3e 4f e2 a4 be 12 69 7d 3e
       0.05811444 0.322965 -0.3220391 0.24747112
000270 c9 1a a1 be 2a d8 19 3e 0b c6 2b be de 14 1c be
       -0.31465748 0.15023866 -0.16774766 -0.15242335
000280 40 8e 1f bc ec 7e 91 3d b6 6e 9a be 5b 06 47 be
       -0.009738505 0.071042866 -0.3016259 -0.19436018
000290 59 a7 a2 be 88 4c 13 bd 00 ac c2 bd 7a 5a 4e be
       -0.317683 -0.035961658 -0.09505463 -0.20151702
0002a0 90 94 27 3d 2e e7 6c 3e 00 30 09 bd d6 f2 6e 3e
       0.040913165 0.23135063 -0.033493042 0.23334822
0002b0 f6 3e d6 bd fe 9a 73 be 70 5c b0 bd a8 8d a2 bd
       -0.104612276 -0.23789594 -0.08611381 -0.07937175
0002c0 e0 8c 7e bd 87 f9 25 be 79 b0 12 be 30 e9 81 be
       -0.062146068 -0.16208468 -0.14325131 -0.2537322
0002d0 ce 5c 45 3e a0 15 bf 3c 6c 3e d0 3d 7c fd 03 3e
       0.19273683 0.023325741 0.10168156 0.12889665
0002e0 86 bc 49 3e 90 c5 5e bd 9d 90 85 be 65 57 84 3e
       0.19700822 -0.05438763 -0.26086894 0.25847927
0002f0 bb 96 62 be 14 50 f8 bd c0 8f 8e bc 6c 09 05 3e
       -0.22127812 -0.12124649 -0.01740253 0.12991875
000300 43 0a 87 3e bd b5 02 be e6 89 22 3e e9 24 87 be
       0.26375017 -0.1276464 0.15872917 -0.26395348
000310 04 ee 14 be 58 58 65 3d 57 04 35 be 7d 05 31 be
       -0.14543921 0.055992454 -0.17677437 -0.1728725
000320 60 3d 74 3c 01 47 83 3e 54 f5 ff 3d 73 62 8a 3e
       0.014907211 0.2564011 0.124979645 0.27028236
000330 e8 0e 80 bd 20 f1 a1 3d 58 84 cc bd a5 f3 b4 3e
       -0.06252843 0.07907319 -0.0998618 0.35342136
000340 66 64 ea bd 90 b5 29 bd f1 6c 3b be cf 0f 82 3e
       -0.11444931 -0.041432917 -0.18303277 0.25402686
000350 96 94 50 3e 1c bb 85 3d 21 bf 8b 3e 57 5b 96 be
       0.20369181 0.06529829 0.27294257 -0.29366562
000360 bc c0 0e be 9a 90 f0 bd b0 6e b4 be 85 66 15 be
       -0.1394071 -0.117463306 -0.35240698 -0.1458989
000370 b5 d0 46 be d0 29 af be 50 75 d4 bc d8 70 15 3e
       -0.19415553 -0.34211588 -0.025934845 0.14593828
000380 51 52 5e be 08 e7 0f 3d 3b 56 86 3e a9 34 90 3e
       -0.21711089 0.035132438 0.26237664 0.28165177
000390 d8 82 f3 bd d6 f1 75 be 6c 7d 59 be ca b0 66 3e
       -0.11890191 -0.24018034 -0.21239251 0.22528377
0003a0 c0 23 b0 bc d8 62 0c 3e 85 9e 47 be 60 ac 01 bd
       -0.021501422 0.13709581 -0.19494064 -0.03165853
0003b0 32 b5 7b be d1 7b 85 3e fb 42 04 be a1 9d 96 3e
       -0.2458084 0.26071027 -0.12916176 0.29417136
0003c0 98 0e 41 bd 0c d7 88 3d 32 fc 2f 3e 8a 87 21 3e
       -0.04713306 0.06681642 0.17186049 0.1577436
0003d0 c1 0a 90 3e 30 53 d4 bc 31 20 8e 3e df 60 97 3e
       0.28133205 -0.025918573 0.27758935 0.29566094
0003e0 58 b5 ad bd a4 0d ef bd 38 c0 37 3d 03 07 89 3e
       -0.08481854 -0.116725236 0.04486105 0.26763162
0003f0 80 f6 bc 3b 40 1b e1 bc 1c 16 50 be af 8b a8 be
       0.00576669 -0.027478814 -0.20320934 -0.3291907

model.0.bias f4 [64]
000000 48 bb a8 bd e6 84 45 3e 2e bc 1a 3e c2 26 eb bd
       -0.08238846 0.19288978 0.15110847 -0.11482002
000010 e5 07 90 3e 71 5c af 3e 81 68 68 be 5f 34 a4 3e
       0.28131023 0.34250215 -0.22696115 0.32071206
000020 f3 e9 10 be 16 ce 97 be fa 52 7e 3e 90 8a bd 3c
       -0.14151745 -0.2964942 0.2483634 0.02313736
000030 d0 9e d7 bc 65 3d 29 be 60 59 6f be a2 5f 09 be
       -0.026320845 -0.16527326 -0.23373938 -0.13415387
000040 55 34 ab 3e 80 45 ea bd 1c 5a 64 be 2e be 32 3e
       0.33438364 -0.11439037 -0.22299999 0.1745536
000050 fd 37 75 be 94 45 a1 be 20 dd 7c bc 08 41 3f bd
       -0.23947139 -0.31498396 -0.01543358 -0.046692878
000060 e6 b9 68 3e d3 76 b1 be a0 1f cf bc 7f 1e 2e be
       0.22727165 -0.34660968 -0.025283635 -0.17003821
000070 46 c4 5e 3e a8 29 72 3d 5d 60 2b be 1c e1 aa bd
       0.2175456 0.059121758 -0.16735978 -0.083437175
000080 a8 7f 43 bd 66 de 42 3e 88 60 6f 3d 45 eb 84 3e
       -0.047729164 0.19030151 0.05844167 0.25960746
000090 06 cb 7b 3e 94 85 e0 3d 26 3c 4c 3e b2 64 a6 be
       0.24589166 0.10962978 0.1994482 -0.324987
0000a0 6f 60 58 be 92 0f 65 3e 70 c4 32 3d 7d 0b b2 be
       -0.21130536 0.22369221 0.04364437 -0.3477439
0000b0 8a fb 1f 3e 14 ae 8a be 2a 4b e9 bd 8e a5 7c be
       0.15623298 -0.27085936 -0.113912895 -0.24672529
0000c0 2f bb 86 3e 41 06 a3 be 99 51 a5 3e c8 cf 53 3d
       0.26314685 -0.3184071 0.32288817 0.051711828
0000d0 80 95 93 3b dc 03 8b bd f6 56 34 3e 08 17 db 3d
       0.004503906 -0.067878455 0.17611298 0.10697752
0000e0 60 ca 24 bd 26 83 4d 3e 9e 3d 99 be d2 f0 44 3e
       -0.040232062 0.2006956 -0.29929823 0.1923249
0000f0 bc 4c b2 3d 96 6b ec bd e2 f6 41 be 40 28 11 3e
       0.08706042 -0.11543958 -0.18941835 0.1417551

model.2.weight f4 [64, 64]
000000 10 de 44 3c 48 81 49 bd 74 23 52 bd ac 08 22 3d
       0.012015834 -0.049195558 -0.051303342 0.03955905
000010 70 9f 75 bd 60 7b 5c 3d d0 14 ec 3d 80 9f e1 3c
       -0.059966505 0.053828597 0.11527407 0.027541876
000020 20 b5 a3 bd d0 c5 1c bc ec f4 61 3d ee b3 f0 3d
       -0.07993531 -0.009568647 0.055165216 0.11753069
000030 80 f3 73 bd 7e 2c b5 3d 14 53 76 bd 34 7b 30 3d
       -0.05955839 0.08846377 -0.060137823 0.043086246
000040 e2 cf 94 3d f2 7b 84 bd 7e 6c f7 bd 6c f3 74 3d
       0.07266213 -0.06468953 -0.1208124 0.059802458
000050 b8 60 c6 bd 28 a2 40 bd 88 5d 22 bd 0a 0f 99 bd
       -0.096864164 -0.047029644 -0.03963998 -0.074735716
000060 20 3e ff bb 14 87 7b bd 1c 52 cc bd f8 bd 8c bd
       -0.0077893883 -0.061408117 -0.099765986 -0.06872171
000070 20 3f b1 3c 70 84 ef 3d 14 aa 21 3d 18 f2 fe 3d
       0.021636546 0.11695182 0.03946884 0.124485195
000080 60 ad 90 bb 14 59 24 bd 4a 62 a7 bd de f5 dc bd
       -0.004415199 -0.040124014 -0.08173044 -0.10789083
000090 60 a5 c3 bc 00 9a 08 bb a4 01 25 3d 7a c0 9a bd
       -0.023882568 -0.0020843744 0.040284768 -0.07556243
0000a0 2c 94 c4 bd c8 d9 ee 3c 08 69 10 bd fe 3b f0 bd
       -0.09598574 0.02915658 -0.035256416 -0.117301926
0000b0 c0 ed 82 bb 0c 64 00 3d 72 87 b8 3d cc 20 a7 3d
       -0.003995627 0.031345412 0.09010209 0.081605524
0000c0 6c 4b 5f 3d 00 e1 87 ba 0c c7 81 bd 68 4d ff 3c
       0.054515287 -0.0010366738 -0.06336793 0.03116484
0000d0 44 9b cb bd e8 e6 d6 3d b0 ee 43 3c 68 7b 3b bd
       -0.09941724 0.104932606 0.011958763 -0.045771986
0000e0 70 ed 9d bd 92 de 93 bd 88 b2 17 3d a0 f4 73 3c
       -0.07711303 -0.07220186 0.037035495 0.014889866
0000f0 f0 f5 23 3d 26 e8 b5 3d 0e 25 9c bd 7a 0c f7 bd
       0.040029466 0.088821694 -0.07624255 -0.120629266
000100 74 80 12 3d ba c3 dd bd 6e 2e bf 3d 40 b3 5d 3c
       0.035767034 -0.108283475 0.09335028 0.013531506
000110 14 50 0e bd 00 cc 67 39 90 ee f4 3c ec 4d 16 3d
       -0.034744337 0.00022105873 0.029898912 0.036695406
000120 e6 7b be 3d 40 9a e9 3b 90 d9 f3 3c 8e c2 98 3d
       0.093009755 0.0071289837 0.029766828 0.07458983
000130 b8 0f e6 bd 96 c2 a0 3d 50 dc 51 bd 54 7a 95 3d
       -0.11233467 0.07849614 -0.051235497 0.07298723
000140 a0 f1 81 bb 42 48 96 3d 50 ee 1e bd 74 a4 fb bd
       -0.0039655715 0.07338001 -0.03880149 -0.12287226
000150 a8 0f f9 3c 60 e7 87 3c 80 5c 29 bd b0 8b ac 3c
       0.030402973 0.01658982 -0.04134798 0.021062702
000160 80 98 ce bd 90 d0 25 3c 30 07 38 bc 50 65 b3 3c
       -0.10087681 0.010120526 -0.011232182 0.021898896
000170 70 f7 d3 bc de 4f da 3d e4 ad bc bd e4 4f 18 bd
       -0.025874823 0.10659765 -0.092128545 -0.037185565
000180 3c 23 1b 3d c8 83 d1 bc ae 76 d0 3d 2a 8e d9 3d
       0.0378754 -0.025575534 0.10178886 0.10622819
000190 84 4d b4 bd bc 2d 65 3d a0 1d 51 3c 18 55 ad bc
       -0.088038474 0.05595182 0.012763411 -0.02115874
0001a0 68 2e 85 3d e4 ef 7b bd 78 e4 20 bd 68 69 bf 3d
       0.06502992 -0.061508074 -0.039280385 0.093462765
0001b0 3a 70 f2 bd 20 2b 87 bc 40 b3 17 3c f8 3f f8 3c
       -0.11837812 -0.016500056 0.009259045 0.03030394
0001c0 4a c1 cd 3d b6 f5 8b 3d 48 c4 ba 3d 8e c6 f4 3d
       0.100466326 0.06833975 0.09119469 0.11951934
0001d0 2c 4b cf bd 5c 23 9d bd a0 f1 63 bd c4 5c 37 3d
       -0.1012176 -0.0767276 -0.055650353 0.044766203
0001e0 96 ca a9 bd b6 61 de bd c0 20 da bb dc 36 e1 3d
       -0.08290593 -0.10858481 -0.006656736 0.10996792
0001f0 e0 39 e7 3d b4 bd 4a 3d 00 d6 30 ba ae 9b 9d 3d
       0.11290336 0.04949732 -0.00067457557 0.07695709
000200 90 98 63 bc 96 53 cf 3d 20 7f f1 3b 10 79 94 bd
       -0.013891354 0.101233646 0.007369891 -0.07249653
000210 90 b5 8b bc d0 13 ec 3c 50 27 fb 3c e0 76 73 3d
       -0.01705435 0.028818041 0.030658394 0.05943954
000220 52 9e a2 3d 34 53 66 bd cc ef a0 bd ec a5 fd 3d
       0.079403535 -0.056231692 -0.078582376 0.12385163
000230 fc 2c 19 3d 18 ac 89 3c 40 cb e8 bd 30 75 58 3c
       0.037396416 0.016805694 -0.11366892 0.013211533
000240 c8 e6 d0 3c 8a f0 b7 3d fc 64 fb bd 80 c2 9d ba
       0.02550067 0.08981426 -0.122751206 -0.0012036115
000250 24 61 b2 bd 40 be 2f bb 0a d2 82 3d 32 aa d9 bd
       -0.08709934 -0.0026816279 0.06387718 -0.10628165
000260 32 7b b9 3d d0 ac 73 3c 60 9a b4 3b 40 e5 c4 3d
       0.09056701 0.014872745 0.005511567 0.096140385
000270 d4 be 19 3d ca f2 bd bd 00 5d 81 bd 8a de bf bd
       0.037535504 -0.09274824 -0.063165665 -0.09368618
000280 7c fa 51 bd ce d9 fb 3d ec 8f 6f 3d 28 38 f1 3d
       -0.05126427 0.12297402 0.058486864 0.11778289
000290 50 26 05 3c 70 87 63 bc 74 cc 88 bd ea f0 c9 3d
       0.00812681 -0.013887271 -0.06679621 0.09860404
0002a0 24 0d 3c 3d d6 6c a5 bd 4e a5 9b bd 92 9f c2 3d
       0.04591097 -0.080773994 -0.07599889 0.09503092
0002b0 9c b8 0e 3d 92 9e b1 3d 38 da 7c bd 00 20 64 bd
       0.034844026 0.08672823 -0.061731547 -0.05569458
0002c0 04 d5 7b bd 80 63 be 3b 90 e5 7b 3d ac 74 aa bd
       -0.061482444 0.005810201 0.061498225 -0.08323035
0002d0 b8 82 a4 bc ec cf a2 bd 48 49 d4 bd 20 bc a7 3b
       -0.020081863 -0.07949814 -0.1036554 0.005118862
0002e0 90 98 98 bc fa 25 f5 3d a6 a1 99 3d e8 f8 ef bd
       -0.018627435 0.11970134 0.07501535 -0.11717397
0002f0 f0 dc cf bd 80 d2 56 bd 6a 3a e6 bd 80 b4 d9 3a
       -0.10149562 -0.052446842 -0.1124161 0.0016609579
000300 00 80 bb 38 70 17 65 3c 1a 5e b2 3d b2 9b cf bd
       8.940697e-05 0.013982639 0.08709355 -0.101371184
000310 68 ab 76 3d 40 fc 0b bc c8 d4 d9 3c 1c 1f 3c 3d
       0.06022206 -0.008544028 0.02659072 0.045928106
000320 40 24 b8 3c e0 94 cd 3d 00 65 e4 bd 8c 43 7e 3d
       0.022478223 0.10038161 -0.11152077 0.062076136
000330 88 f6 4b 3d 14 54 74 3d 1c 7e 62 bd 80 ac 8a 3b
       0.049795657 0.059650496 -0.05529605 0.0042319894
000340 78 96 49 bd f4 99 27 bd ac fe 71 bd 32 5e c9 bd
       -0.049215764 -0.040918306 -0.059080765 -0.098324195
000350 b4 e5 81 bd 70 4d fe bd 3c 85 ed bd 80 fe 4b 3c
       -0.063426405 -0.12417114 -0.11597678 0.012450814
000360 50 fb fb 3c 60 a2 b7 3b a8 2c dc 3d 60 0a d8 3d
       0.030759484 0.0056040734 0.10750705 0.10548854
000370 c0 0a 18 bb ec 52 44 bd ba e4 ad 3d ca 24 e8 bd
       -0.0023199767 -0.047930643 0.08490892 -0.11335142
000380 96 26 f7 bd 40 a4 50 3c 80 b4 1a bc 70 e7 ff bd
       -0.120679066 0.012734473 -0.009442449 -0.12495315
000390 c8 45 88 3d 3c 09 b9 3d 90 ad 76 bd 60 79 a4 3c
       0.06653935 0.090349644 -0.060224116 0.020077407
0003a0 92 e0 c5 3d 60 cc 23 bc 68 a0 9f bc 0a 37 85 bd
       0.09661974 -0.009997457 -0.019485667 -0.065046385
0003b0 40 0c 16 bd 90 69 af 3c 5a 76 fa bd 08 9b b4 3c
       -0.036632776 0.02141264 -0.12229605 0.02204658
0003c0 70 09 22 bc 40 95 7a 3b 60 49 bc 3d 96 e8 ec 3d
       -0.009889945 0.0038235933 0.09193683 0.115678
0003d0 e0 7e a3 3d 20 9f 2b bc 56 72 9b bd a0 bf d3 3d
       0.07983184 -0.01047495 -0.07590167 0.10339284
0003e0 30 48 31 bd b0 cb be 3c 60 54 5f bc 70 90 ed bc
       -0.043281734 0.023290485 -0.013630956 -0.028999537
0003f0 30 fe 6b 3d 1e c1 bc bd 9e 16 80 bd 0c fa 75 bd
       0.05761546 -0.09216522 -0.06254314 -0.060052916

model.2.bias f4 [64]
000000 a0 1b cd 3c 60 65 bd bc 72 96 96 3d 30 91 f0 bc
       0.025037587 -0.023119628 0.07352914 -0.029366106
000010 ba 3d 98 bd 80 3f b6 3d 90 86 53 3d fe 09 94 bd
       -0.074336484 0.088988304 0.051642 -0.07228468
000020 4c 74 a0 3d d0 ad a5 bc 8a bd fd bd b0 95 d1 bc
       0.07834682 -0.020224482 -0.12389667 -0.025584072
000030 44 a5 f1 bd 2c b1 0b 3d 38 8b 23 3d f6 38 ca bd
       -0.117991 0.03410451 0.03992769 -0.09874146
000040 20 d6 ef 3c 76 b7 ef 3d d8 f7 aa bc e0 a6 3f 3d
       0.029276907 0.11704914 -0.020870134 0.046790004
000050 f0 7b 99 3d 36 37 99 bd a2 ee cd 3d 44 c3 69 3d
       0.07494342 -0.07481234 0.10055281 0.057070985
000060 64 6d be bd e6 25 bc 3d d4 09 8a 3d 0a f4 94 3d
       -0.09298208 0.09186916 0.06740156 0.07273109
000070 48 d8 f8 3c 7c 54 64 bd d8 13 ef 3d 44 d9 da bd
       0.030376568 -0.055744633 0.11673707 -0.106859714
000080 88 76 d9 bc 80 78 14 3d 36 31 d7 bd 9c a1 4b bd
       -0.026545778 0.03624773 -0.10507433 -0.04971467
000090 ca 2f bc bd 0c 40 2b bd 22 0f dd 3d c8 9c c0 bc
       -0.091888025 -0.041809127 0.10793902 -0.02351226
0000a0 e8 0d ea 3d 8a 49 9f 3d d0 c5 fe 3c cc d2 9d bd
       0.11428434 0.07777698 0.031100184 -0.07706222
0000b0 28 5a f1 bd 90 01 fd 3c d4 21 ae bd 9e 57 88 bd
       -0.11784774 0.030884534 -0.08502546 -0.06657337
0000c0 c0 99 82 bc 5e 05 83 3d 2c b8 7a 3d 40 c3 f1 3b
       -0.015942454 0.06397508 0.061210796 0.007378012
0000d0 4c ab 62 3d c8 ca d1 bd 4c a7 95 bd fc 13 78 bd
       0.055339143 -0.102437556 -0.073073 -0.060565934
0000e0 d0 24 72 bd 92 cf a4 3d 52 b8 c6 bd c2 84 f8 3d
       -0.05911714 0.080474034 -0.09703125 0.121346965
0000f0 a0 05 a1 3d 20 19 f1 bc 18 74 f2 bd ac e3 8e 3d
       0.07862401 -0.029430926 -0.118385494 0.06977019

model.4.weight f4 [8, 64]
000000 26 5f c3 bd 8c 37 64 bd 00 53 a9 3a d4 7b c0 bd
       -0.095396325 -0.055717036 0.0012918413 -0.09398618
000010 76 3a d9 3d d0 88 ac 3d 60 c3 a2 bb 92 d7 db 3d
       0.10606854 0.084245324 -0.004967138 0.10734476
000020 ae ba 8c bd 0c 85 a5 bd b0 dc 23 3c f4 38 a2 bd
       -0.06871544 -0.08082017 0.0100013465 -0.07921019
000030 60 a5 b8 3d 20 a9 3b bc 7c e5 14 bd 30 a3 ca bc
       0.09015918 -0.011453897 -0.036351666 -0.024736017
000040 48 03 74 3d d4 2c 25 bd ee 9d fc bd f0 40 8a bd
       0.05957344 -0.040325955 -0.1233481 -0.06750667
000050 1c 1f b3 3d 5e c9 be 3d 10 bd 8f 3c 5e 95 e3 bd
       0.08746168 0.093157515 0.017546207 -0.11112474
000060 00 d2 3d 3b 50 a5 78 3d 34 9e 95 bd a2 11 f9 bd
       0.002896428 0.06070453 -0.073055655 -0.12161566
000070 18 48 c9 3d 5e 56 b7 bd 78 5d 79 3d b2 89 b3 bd
       0.09828204 -0.0895202 0.060880154 -0.08766498
000080 e4 ae 3d 3d 00 0a c5 3a 98 5e 89 3d 9e 5b 9f bd
       0.046309367 0.0015032887 0.067074955 -0.077811465
000090 e0 e0 27 bd 28 e9 d4 3d 64 39 d2 3d 00 be 85 b9
       -0.040985942 0.103960335 0.10264853 -0.00025509298
0000a0 f0 e8 aa bc 44 d0 70 bd a4 74 5c 3d 54 45 2a bd
       -0.020863026 -0.058792368 0.053822175 -0.041570023
0000b0 44 a4 1c bd 94 24 8a 3d f0 b0 b2 3d e4 78 37 3d
       -0.038242593 0.06745258 0.087251544 0.044793025
0000c0 80 fc d1 bb 9a 5c 89 bd 50 85 3a 3d 40 af c7 bc
       -0.006408274 -0.067071155 0.045537293 -0.024375558
0000d0 aa 9b d4 bd fa 9a fc bd 40 f0 25 3b d0 2b b9 bc
       -0.10381253 -0.12334247 0.0025320202 -0.0226039
0000e0 82 f6 c1 bd 28 35 ff bd ce e6 c6 bd 70 da d7 3c
       -0.09470846 -0.124613106 -0.09711991 0.026349276
0000f0 bc c1 59 3d a8 17 3d 3d 4c 96 8e bd 68 43 c5 3c
       0.053163275 0.04616514 -0.069622606 0.024079993
000100 94 e2 30 3d ca 64 d6 3d c6 3c c9 3d 8e 7b f5 3d
       0.04318483 0.10468443 0.09826045 0.11986457
000110 b8 f2 d0 3c 80 da ac 3d c0 51 5e bc 98 02 29 3d
       0.025506362 0.08440113 -0.013569295 0.04126224
000120 18 54 84 3c a4 d2 6a 3d 30 2f 3d 3c f0 64 bb bd
       0.01615338 0.05732979 0.011546895 -0.09150112
000130 00 ef 48 bc f6 97 c8 3d 00 77 7b 3c d0 ab 21 bd
       -0.012264013 0.09794609 0.015348196 -0.039470494
000140 62 19 a6 3d 90 ac 61 bd f0 26 ed 3c 40 71 5a 3d
       0.0811031 -0.05509621 0.02894923 0.05333066
000150 54 02 47 3d a2 9b 94 3d d8 19 30 3d c0 a3 5c bc
       0.048586205 0.07256247 0.042993397 -0.013466775
000160 02 62 ca bd 60 2f f4 3d f4 52 c5 3d b0 1b b8 bd
       -0.09881975 0.119230986 0.09634963 -0.08989656
000170 ee 73 ce 3d 90 50 6d bd 2c 32 b4 bd 60 ec 54 bc
       0.100807056 -0.05793816 -0.08798632 -0.012995809
000180 00 30 74 3b c6 df 87 3d 98 78 a9 bd 7e 89 fd bd
       0.0037260056 0.06634478 -0.082749546 -0.1237974
000190 e6 98 c4 3d 26 dd c4 3d 7e 2f 8e bd 44 14 cc bd
       0.095994756 0.09612493 -0.06942652 -0.09964803
0001a0 e4 a4 08 bd 00 96 af bd 8c 85 82 3d 88 5b b0 bc
       -0.033360377 -0.08573532 0.06373128 -0.02152802
0001b0 50 91 17 bc 84 38 e0 3d 14 83 b2 3d 68 a1 91 bc
       -0.009250954 0.109482795 0.087164074 -0.01777716
0001c0 04 46 af bd 08 d7 ab 3d c8 e8 09 3d 36 4c 8e bd
       -0.08558276 0.08390623 0.033669263 -0.0694813
0001d0 c0 cc f5 3c b6 80 ec 3d b4 32 7d 3d cc e9 08 3d
       0.030004859 0.11547987 0.061815932 0.03342609
0001e0 6a d4 be 3d 18 0e ef bd c0 f4 88 bb 6e 26 a8 3d
       0.093178585 -0.1167261 -0.004179567 0.08210455
0001f0 6c 56 f3 3d 30 35 0f 3c 70 9f 00 bc 18 36 97 bd
       0.11881718 0.008740708 -0.007850513 -0.073833644
000200 08 82 aa bc 4c 92 7f 3d e8 99 6c bd be ec fc bd
       -0.020813957 0.06239538 -0.057763964 -0.123498425
000210 30 c6 ca 3d 0c d8 5a bd a4 b2 89 3d 6c f8 98 bd
       0.099010825 -0.053428695 0.06723526 -0.07469258
000220 d8 17 90 3c ca 61 d7 bd 4a d4 f6 3d 6e 3a a7 bd
       0.017589495 -0.10516699 0.1205221 -0.081654415
000230 a4 41 4a 3d c6 1d 9c bd ba 8f ab bd 80 9c 96 3d
       0.049379006 -0.07622866 -0.08377023 0.07354069
000240 80 1e f7 3c e4 e4 cf 3d e4 37 5b 3d 6a 4e 9b bd
       0.03016591 0.10151079 0.0535201 -0.07583316
000250 4c 9d e3 3d 4e 26 e2 3d d2 78 ea 3d 18 74 f9 bd
       0.111139864 0.11042462 0.11448826 -0.12180346
000260 e0 7a 48 3c 40 48 f1 bc ec 48 11 3d 58 3f bf bc
       0.012236327 -0.029453397 0.035469934 -0.023345634
000270 a0 a3 d4 bb 14 33 41 3d 50 48 a5 bd 50 b7 94 3c
       -0.006489232 0.047167853 -0.08070433 0.018153816
000280 a4 e6 bf bd 80 ed cb bb ce 3f a0 bd 48 26 38 3d
       -0.09370163 -0.0062233806 -0.0782467 0.044958383
000290 4c be c9 3d ec 24 99 3d 9c d1 97 3d 38 3d e2 3c
       0.098507494 0.074777454 0.07413027 0.027617082
0002a0 e6 b2 e0 bd 42 7d a0 3d 3a d6 ef 3d 18 a7 ef bd
       -0.10971622 0.07836391 0.11710782 -0.117017925
0002b0 04 30 79 bd 7c a8 8f 3d 52 d3 86 bd 20 1b 3d 3c
       -0.060836807 0.07014558 -0.06583275 0.011542112
0002c0 fc 14 44 3d c0 19 5f bb 38 bc 84 3d d2 08 d5 3d
       0.047871575 -0.0034042448 0.064812124 0.10402073
0002d0 70 e5 ff 3d a4 96 db 3d 28 c7 e0 bc d0 89 28 3d
       0.124949336 0.10722092 -0.027438715 0.041147053
0002e0 78 6a b7 3d a8 fb fa bc a2 cd ac bd 76 c5 9e bd
       0.08955854 -0.030637577 -0.08437659 -0.077525064
0002f0 be 89 d6 3d 96 e6 95 3d 02 0e a2 bd 7a 86 99 bd
       0.10475491 0.073193714 -0.07912828 -0.074963525
000300 d0 86 69 3d 90 c2 4b bd 60 a2 12 bd fe 73 d9 bd
       0.057013333 -0.049746096 -0.035799384 -0.10617827
000310 96 8c 83 3d c8 c2 08 bd 20 3f 4e bd 30 3b 3d bd
       0.06423299 -0.033388883 -0.05035317 -0.046199024
000320 fe 1f ee 3d 54 26 ee bd 6e 6a 8e bd 56 91 cd 3d
       0.11627196 -0.11628404 -0.069538936 0.10037486
000330 82 3f a6 bd 2e 58 84 bd ac cc f0 3d 70 0a 69 3d
       -0.08117582 -0.064621314 0.11757788 0.05689472
000340 98 4b 88 3c 24 e0 96 bd b0 02 f1 bc f8 25 06 3d
       0.016637608 -0.0736697 -0.029420227 0.032751054
000350 08 cf f8 bd c8 58 da 3c 38 f9 ec bd d0 07 1f 3d
       -0.12148863 0.026653662 -0.11570972 0.03882581
000360 76 87 92 bd 60 a8 d1 bc 30 52 67 bd 40 6b 7c 3d
       -0.071547434 -0.025592983 -0.056474864 0.06162572
000370 70 15 cc bc 0a c1 ec 3d cc 8a f9 3d 5e 39 ea bd
       -0.024912566 0.11560257 0.121846765 -0.11436723
000380 f2 18 e9 bd 60 cb 2b 3d c0 d0 87 3d c8 ce 6b bd
       -0.11381711 0.041942 0.06631613 -0.05757025
000390 6e 7c eb bd 08 26 ae 3c 0c a2 c0 bd 00 91 d0 bd
       -0.114983425 0.02125837 -0.09405908 -0.101839066
0003a0 08 6f b3 bc ae c5 d4 3d d4 af 0e bd 44 d5 d2 3d
       -0.02190353 0.10389267 -0.03483565 0.102945834
0003b0 00 9e e3 bc 58 09 7a bd a0 b4 af 3c 28 ce ed 3c
       -0.027785301 -0.061044067 0.021448433 0.029028967
0003c0 b8 71 55 bd 36 72 c7 bd c4 3d e6 3d 32 e0 c1 3d
       -0.052110404 -0.09738581 0.112422496 0.0946659
0003d0 24 e1 20 3d dc b7 b5 3d 0c 5b 62 bd b0 4c 36 3c
       0.03927721 0.08872959 -0.05526261 0.011126682
0003e0 88 c2 5e bd 58 bc e8 3d 00 0d 9f ba c8 43 d2 3d
       -0.05438474 0.11364049 -0.0012134612 0.102668345
0003f0 b0 0d ec 3c 40 36 bc 3b 70 5a 67 bc 52 f2 e5 bd
       0.02881512 0.005743772 -0.014120683 -0.112278596

model.4.bias f4 [8]
000000 00 8c 22 3a 68 8a 0a bd 90 c5 99 bd 10 1b 26 bc
       0.0006200671 -0.0338234 -0.07508385 -0.010138288
000010 ec 97 47 3d 02 67 e8 bd ea 3f b5 3d 68 c0 31 3d
       0.04872887 -0.11347772 0.08850081 0.043396384
