model/2.pth (torch, 23565 bytes, 6 tensors)

model.0.weight f4 [64, 8]
-0.32065356 0.16893902 0.15793577 -0.18807259 -0.050578028 0.062993824 0.30434212 -0.30830544
0.15593216 0.16609296 -0.080652386 -0.15620807 0.3082613 0.2734799 -0.3159608 -0.1574264
0.29544488 -0.32804298 -0.12011856 -0.31935856 -0.33320084 -0.2798457 -0.26057082 -0.1905575
0.2083722 0.14120778 0.040534526 0.2941636 -0.12054682 -0.031019568 0.14152727 0.19500843
0.2217612 0.115629256 0.055527925 0.31553927 -0.33458254 0.23287079 -0.10426393 -0.2786546
0.26300243 0.163537 -0.19050902 0.28924778 0.2693623 -0.15615748 -0.3497576 -0.25055438
-0.28256002 0.13247618 0.18545178 0.05589208 -0.044852287 -0.22939801 0.33099023 0.31061843
0.16217086 0.312346 -0.026125848 -0.07101756 -0.24890503 -0.11193162 0.16725865 0.34362808
-0.13158587 0.3278564 -0.15165026 0.068612844 -0.042248666 0.106269956 -0.23394805 -0.29323438
0.024278909 -0.26391613 -0.07342273 0.0015740991 0.27748707 0.30618557 0.14830926 0.19050464
0.20549473 0.21846113 0.11013609 0.15593562 0.32089242 -0.28464615 0.14820483 0.13703972
0.24959692 -0.3121069 -0.055437505 -0.06153649 0.27256384 0.08448589 -0.27216846 0.21615085
0.15443328 -0.32767248 -0.21853748 0.18802926 0.013832927 0.1862025 0.23679307 -0.034971893
-0.33211178 0.08769882 -0.13651246 -0.30380747 0.23129812 0.2369586 0.31326756 0.019386739
0.29781148 0.3362439 0.06704199 0.19055524 -0.066907704 0.22728595 -0.06711903 -0.32839286
0.10479629 0.32647207 -0.202301 0.32979956 -0.0838342 0.27864644 0.059417486 0.32158676
-0.34292898 -0.2132639 -0.18059991 0.13614663 0.22318801 -0.056018054 0.3518218 -0.27738628
0.036878437 0.3232011 0.0726189 -0.08911723 0.21139458 0.11116892 0.29599282 0.10912144
-0.24344781 -0.0137961805 -0.34970176 -0.08451584 0.06914532 -0.32468587 -0.29139173 -0.34306756
0.22007135 -0.24494947 -0.31097138 0.043469638 0.19684818 -0.353072 -0.17959957 -0.24905913
0.013600796 -0.13539763 -0.25910872 0.00822863 0.011534661 0.14521658 -0.11469312 0.17368224
0.34521785 -0.08430579 -0.3125149 -0.31255174 0.27639624 0.051367134 0.29301217 0.28883454
-0.19556352 -0.077344656 0.20640531 -0.019969553 0.092962176 0.117326826 0.18594906 -0.09119764
0.28613052 0.1316422 0.10200876 0.18673965 0.29861954 -0.025625229 0.24938497 0.04559636
0.31380627 0.16259614 -0.12724997 0.12987843 0.053361654 0.019009948 0.30973402 -0.21565501
0.26532766 -0.13049293 -0.29605603 -0.025325865 0.0021175742 -0.23820645 0.27720657 0.23215565
-0.18317698 -0.05516243 -0.24749012 -0.21922421 0.038929105 0.10275987 -0.13879749 0.089437544
-0.25933295 0.19289228 -0.14225063 0.09523597 0.32661316 -0.29232442 -0.2657565 0.06920853
0.0123209655 -0.33458325 0.25092056 -0.070340216 -0.1360214 0.107872635 0.22314802 -0.21816166
-0.081106305 0.108646065 -0.23333102 0.10819432 0.3494099 -0.16103207 -0.3072404 -0.15849073
-0.32538742 0.17704085 -0.0017057955 -0.22922626 -0.26961428 0.33319005 -0.32833862 -0.32570237
-0.18968716 -0.31013066 0.12516779 0.12115437 0.1248073 0.34609172 -0.039545447 0.18944815
00000000: b42c a4be 5afe 2c3e eab9 213e 1a96 40be
00000010: e82a 4fbd e802 813d bbd2 9b3e 36da 9dbe
00000020: aeac 1f3e 4614 2a3e 142d a5bd 02f5 1fbe
00000030: 6dd4 9d3e 8f05 8c3e 9dc5 a1be 6334 21be
00000040: 8d44 973e 40f5 a7be b800 f6bd f782 a3be
00000050: 4d99 aabe f047 8fbe 8a69 85be 8121 43be
00000060: 865f 553e c698 103e 8807 263d 9d9c 963e
00000070: 40e1 f6bd c01c febc 86ec 103e 4ab0 473e
00000080: 5e15 633e 08cf ec3d 4071 633d 5d8e a13e
00000090: 674e abbe ae75 6e3e 5488 d5bd d1ab 8ebe
000000a0: 41a8 863e 3e76 273e cc14 43be 4918 943e
000000b0: dbe9 893e bfe7 1fbe 6e13 b3be aa48 80be
000000c0: b5ab 90be d6a7 073e 12e7 3d3e 18ef 643d
000000d0: 08b7 37bd 50e7 6abe 8d77 a93e 6109 9f3e
000000e0: 1e10 263e d1eb 9f3e e005 d6bc a871 91bd
000000f0: f6e0 7ebe 683c e5bd da45 2b3e 05f0 af3e
00000100: 72be 06be cbdc a73e 354a 1bbe e484 8c3d
00000110: f00c 2dbd 10a4 d93d 1490 6fbe d122 96be
00000120: 90e4 c63c 0420 87be a85e 96bd 0052 ce3a
00000130: c912 8e3e 5bc4 9c3e 62de 173e a613 433e
00000140: 366d 523e 46b4 5f3e 088f e13d 96ad 1f3e
00000150: 034c a43e 24bd 91be 02c3 173e 2454 0c3e
00000160: 5696 7f3e 7acc 9fbe 7012 63bd b00d 7cbd
00000170: 7d8d 8b3e f006 ad3d aa59 8bbe a656 5d3e
00000180: c223 1e3e b0c4 a7be 4ac8 5fbe be8a 403e
00000190: 80a3 623c deab 3e3e e279 723e b03e 0fbd
000001a0: 8e0a aabe 709b b33d ecc9 0bbe a78c 9bbe
000001b0: 6ad9 6c3e 46a5 723e 9b64 a03e f0d0 9e3c
000001c0: bf7a 983e 2928 ac3e 504d 893d ea20 433e
000001d0: e806 89bd a6bd 683e b475 89bd 1c23 a8be
000001e0: 709f d63d 5927 a73e fe27 4fbe 7ddb a83e
000001f0: 44b1 abbd bfaa 8e3e c05f 733d 05a7 a43e
00000200: 6394 afbe da61 5abe 2fef 38be 066a 0b3e
00000210: 668b 643e 3073 65bd fd21 b43e 9305 8ebe
00000220: d80d 173d 9d7a a53e 38b9 943d 1883 b6bd
00000230: d277 583e 88ac e33d 5f8c 973e 107b df3d
00000240: 624a 79be 6009 62bc 1c0c b3be a416 adbd
00000250: 109c 8d3d 3a3d a6be 4c31 95be 8da6 afbe
00000260: 625a 613e 09d4 7abe a437 9fbe 380d 323d
00000270: 9292 493e dac5 b4be f3e8 37be 5b09 7fbe
00000280: e0d5 5e3c ada5 0abe e6a9 84be 60d1 063c
00000290: e0fb 3c3c a8b3 143e 3ae4 eabd c2d9 313e
000002a0: 65c0 b03e 84a8 acbd f401 a0be c806 a0be
000002b0: cf83 8d3e 5866 523d b105 963e 1fe2 933e
000002c0: ce41 48be e066 9ebd ea5b 533e 3097 a3bc
000002d0: f462 be3d 0c49 f03d 6e69 3e3e d4c5 babd
000002e0: b37f 923e 36cd 063e f8e9 d03d ae38 3f3e
000002f0: a9e4 983e 00ec d1bc c65e 7f3e 40c3 3a3d
00000300: 37ab a03e 9a7f 263e d14d 02be dafe 043e
00000310: c091 5a3d c0ba 9b3c 7595 9e3e abd4 5cbe
00000320: 07d9 873e f09f 05be a894 97be 3078 cfbc
00000330: 00c7 0a3b 64ec 73be 05ee 8d3e 36ba 6d3e
00000340: bf92 3bbe 00f2 61bd 0d6e 7dbe 507c 60be
00000350: 2074 1f3d c473 d23d ee20 0ebe 082b b73d
00000360: 4ac7 84be 8e85 453e 26aa 11be 140b c33d
00000370: d739 a73e 8cab 95be 3c11 88be 34bd 8d3d
00000380: e0dd 493c 7f4e abbe a978 803e 880e 90bd
00000390: 3249 0bbe 54ec dc3d ea80 643e c565 5fbe
000003a0: 101b a6bd d481 de3d 54ee 6ebe fc94 dd3d
000003b0: dbe5 b23e 97e5 24be 9d4e 9dbe 654b 22be
000003c0: 2e99 a6be 324a 353e 0095 dfba 4aba 6abe
000003d0: e20a 8abe e397 aa3e 001c a8be 76c2 a6be
000003e0: 5a3d 42be 72c9 9ebe fc2b 003e c81f f83d
000003f0: f89a ff3d ef32 b13e 68fa 21bd b2fe 413e

model.0.bias f4 [64]
0.26810405 -0.19837594 -0.2713292 -0.32803908 -0.004006475 0.12107819 -0.14138965 0.10928333
-0.17915651 0.24056074 -0.12112814 -0.11353947 0.14995381 -0.10256001 0.08749235 0.28121176
0.19047508 -0.010172278 -0.34846246 -0.2650224 0.30096903 -0.21497338 -0.08347848 -0.13590027
0.042924494 0.19983837 0.28057346 -0.28862953 -0.16169626 -0.2064157 0.0044371486 0.19178614
-0.07088244 -0.19446386 0.11479369 0.0070498884 -0.043091357 -0.2954679 -0.09774372 0.23402485
-0.13268279 -0.040270835 0.16103491 0.18229148 -0.27462676 0.23487946 -0.15461187 0.14952675
0.32089314 -0.2361238 0.22651073 -0.30290768 0.25509432 0.3211452 0.2910699 0.16647229
-0.11985771 0.025341839 0.29402444 0.1526055 -0.15889914 -0.29724535 -0.10870604 -0.14844516
00000000: ef44 893e 1023 4bbe a9eb 8abe bdf4 a7be
00000010: c048 83bb d8f7 f73d 73c8 10be f0cf df3d
00000020: ce74 37be 8e55 763e 0812 f8bd 6287 e8bd
00000030: 7e8d 193e fc0a d2bd 302f b33d fdfa 8f3e
00000040: e60b 433e a0a9 26bc ac69 b2be 04b1 87be
00000050: 9d18 9a3e fb21 5cbe c4f6 aabd 7129 0bbe
00000060: 98d1 2f3d 6ea2 4c3e 53a7 8f3e 40c7 93be
00000070: b493 25be a35e 53be 8065 913b 9663 443e
00000080: d02a 91bd 8921 47be f418 eb3d c002 e73b
00000090: 9080 30bd 9247 97be dc2d c8bd 36a4 6f3e
000000a0: ffdd 07be 08f3 24bd 56e6 243e 9eaa 3a3e
000000b0: e19b 8cbe 3e84 703e 9352 1ebe 8a1d 193e
000000c0: 1b4c a43e 70ca 71be 6ef2 673e b716 9bbe
000000d0: b99b 823e 256d a43e 1d07 953e b677 2a3e
000000e0: f677 f5bd b099 cf3c 5f8a 963e 9e44 1c3e
000000f0: 75b6 22be 8b30 98be 46a1 debd 0202 18be

model.2.weight f4 [64, 64]
-0.12187439 -0.08726546 -0.05189079 0.08878966 -0.09231083 -0.073203325 0.015446529 -0.0115177035
0.072853476 -0.09943077 -0.06256837 0.017551407 -0.06265901 0.08602022 -0.104127124 -0.050853044
-0.028440237 0.08542378 0.01211457 0.002997771 -0.034456775 -0.053892493 0.023063764 -0.022815377
0.019278884 0.054578036 0.0419946 -0.11352226 -0.013249531 0.014363036 -0.052765325 -0.026964411
-0.060149282 0.11036979 0.06832996 0.110847056 -0.022044852 0.06477821 -0.04323256 0.019451752
0.095728725 -0.097301304 0.0068964064 -0.006816834 -0.06573619 -0.058282763 0.0030184835 0.11383982
0.036442414 0.09422621 -0.08593696 -0.09346451 0.11988732 0.06434026 0.04743384 0.016477406
0.08296119 0.02458866 0.08867726 -0.053717718 0.07555014 -0.034502387 -0.013944268 0.09123969
0.084572375 -0.036830723 0.0048973113 -0.10140231 -0.061439082 -0.11514737 -0.043234035 0.117176294
-0.08764459 -0.05480613 0.06236574 -0.045023575 -0.03682348 -0.08733292 0.007673815 0.09233229
-0.055557907 0.037173316 -0.123833135 -0.1061406 -0.017912164 -0.061159 -0.07079303 -0.03200455
0.11154522 -0.060720265 0.038069427 -0.115113124 -0.109187916 0.03657703 -0.11483511 -0.08708806
0.037044257 0.02628167 0.039687738 -0.094927385 0.048649818 0.11792712 0.09511639 0.07074869
-0.027985394 -0.05189526 -0.07824072 -0.0055101067 0.02234225 -0.052474424 0.093998626 -0.051542446
-0.10070698 0.02204755 -0.036530018 0.085786685 0.05800733 -0.103080764 0.002479747 -0.08414757
0.07852702 0.053886637 -0.08498831 0.025746599 0.11550322 0.003407225 0.050352454 -0.07470243
0.02304338 0.0191167 -0.0658973 0.017991796 -0.053155765 0.10039896 0.1120536 0.09687129
0.021599025 0.012225494 0.109988734 -0.05731699 0.12261169 -0.083953634 0.11755122 -0.04264176
-0.086354226 0.017588183 -0.11161403 -0.05230698 0.07705279 -0.057466984 -0.06558289 0.080105856
0.028053671 0.024301142 0.09909767 -0.10112557 -0.08551453 0.123329505 0.022888646 -0.02078332
-0.056671217 -0.070574775 -0.0014716089 -0.12321092 -0.0104049 0.015529975 0.11849387 -0.12277706
-0.032318488 0.11904514 0.07197523 -0.059539348 -0.06407416 0.053334728 -0.07526936 0.05304551
0.08207275 -0.017391399 0.0066821575 -0.090523675 0.037748784 -0.078280315 0.100854084 0.005186349
-0.012369022 0.075378016 0.078581154 0.09193346 -0.018036857 -0.05733505 -0.029849425 0.0011342466
0.08421114 0.111961216 -0.051159382 -0.007251069 0.05854568 -0.040711507 0.043956295 -0.09994882
-0.034889564 -0.118914366 0.12442219 0.040324062 -0.06621738 -0.112657875 0.05983962 -0.009855777
-0.061351016 -0.02430439 0.10772075 0.11026673 0.028831407 -0.07281014 0.08545552 0.016679123
0.108564526 -0.028752804 0.10787587 0.12088102 0.0073500276 0.0857871 -0.11761615 -0.12429194
-0.1044531 0.06427503 -0.010216057 0.08198893 0.08817446 -0.06296292 -0.081008404 -0.06879258
-0.07339512 -0.11632709 0.07658997 0.069801286 -0.09799163 0.006321728 -0.005679548 -0.0724995
0.06452945 0.10839072 0.07225421 0.017713219 -0.121476516 0.06609048 0.08413488 0.10027608
-0.0626739 0.06843476 -0.03768353 0.056588694 -0.07087514 0.06305708 -0.003181383 -0.009220749
00000000: 4899 f9bd 3cb8 b2bd 708b 54bd 5ad7 b53d
00000010: 760d bdbd a0eb 95bd 7013 7d3c c0b4 3cbc
00000020: 3434 953d 5ca2 cbbd d823 80bd f8c7 8f3c
00000030: 5e53 80bd 5e2b b03d 9a40 d5bd 484b 50bd
00000040: 80fb e8bc aaf2 ae3d 307c 463c 4076 443b
00000050: 8c22 0dbd 60be 5cbd 38f0 bc3c 50e7 babc
00000060: c0ee 9d3c 388d 5f3d 8802 2c3d 5c7e e8bd
00000070: 9014 59bc f052 6b3c 7420 58bd 78e4 dcbc
00000080: 185f 76bd 8e09 e23d 94f0 8b3d c803 e33d
00000090: 6897 b4bc 70aa 843d a014 31bd 4859 9f3c
000000a0: 6c0d c43d e845 c7bd 40fb e13b c05f dfbb
000000b0: b2a0 86bd e8b9 6ebd c0d1 453b da24 e93d
000000c0: a444 153d acf9 c03d b8ff afbd 526a bfbd
000000d0: 7c87 f53d d4c4 833d fc49 423d a0fb 863c
000000e0: 8ee7 a93d 286e c93c 6c9c b53d 1c07 5cbd
000000f0: 08ba 9a3d 6052 0dbd 8076 64bc e0db ba3d
00000100: 4834 ad3d d0db 16bd a079 a03b 04ac cfbd
00000110: 8ca7 7bbd 62d2 ebbd 2c16 31bd 20fa ef3d
00000120: 027f b3bd 647c 60bd 3873 7f3d a46a 38bd
00000130: 38d4 16bd 9adb b2bd a074 fb3b b618 bd3d
00000140: b090 63bd 0c43 183d 3a9c fdbd 3e60 d9bd
00000150: 88bc 92bc dc81 7abd f0fb 90bd 3417 03bd
00000160: d271 e43d d0b5 78bd b0ee 1b3d 6ec0 ebbd
00000170: ea9d dfbd ccd1 153d ac2e ebbd 3a5b b2bd
00000180: b8bb 173d a84c d73c 9c8f 223d 4a69 c2bd
00000190: 0845 473d c683 f13d 62cc c23d b0e4 903d
000001a0: a041 e5bc 2090 54bd ac3c a0bd 208e b4bb
000001b0: 1807 b73c 6cef 56bd 5a82 c03d 2c1e 53bd
000001c0: 763f cebd 109d b43c 80a0 15bd eeb0 af3d
000001d0: 1899 6d3d 021c d3bd 4083 223b 9055 acbd
000001e0: c6d2 a03d 3cb8 5c3d 5a0e aebd 88ea d23c
000001f0: f48c ec3d c04b 5f3b 603e 4e3d 96fd 98bd
00000200: 78c5 bc3c a09a 9c3c 2af5 86bd 8863 933c
00000210: dcb9 59bd f89d cd3d 5c7c e53d 7464 c63d
00000220: 70f0 b03c 704d 483c c641 e13d 38c5 6abd
00000230: d61b fb3d e2ef abbd b2be f03d 20a9 2ebd
00000240: 7cda b0bd 1815 903c e695 e4bd d83f 56bd
00000250: dacd 9d3d 8062 6bbd 5250 86bd 8a0e a43d
00000260: d0d0 e53c 3013 c73c b8f3 ca3d ec1a cfbd
00000270: 3e22 afbd 2e94 fc3d f880 bb3c c841 aabc
00000280: 1420 68bd 8289 90bd 00e3 c0ba 0256 fcbd
00000290: 5079 2abc 7071 7e3c eaac f23d 8a72 fbbd
000002a0: 6460 04bd f0cd f33d c067 933d 88df 73bd
000002b0: 5039 83bd 8475 5a3d d226 9abd 4046 593d
000002c0: c215 a83d 6878 8ebc 00f6 da3b 7a64 b9bd
000002d0: 789e 1a3d 6e51 a0bd 968c ce3d 40f2 a93b
000002e0: 70a7 4abc ca5f 9a3d 28ef a03d 9c47 bc3d
000002f0: 08c2 93bc 28d8 6abd c886 f4bc 00ab 943a
00000300: e476 ac3d ec4b e53d 808c 51bd 609a edbb
00000310: 98cd 6f3d 1cc1 26bd 840b 343d f8b1 ccbd
00000320: 5ce8 0ebd 6089 f3bd 10d1 fe3d d82a 253d
00000330: fa9c 87bd 2cb9 e6bd 641a 753d 207a 21bc
00000340: 344b 7bbd 001a c7bc b29c dc3d 86d3 e13d
00000350: d82f ec3c 7c1d 95bd 4e03 af3d a8a2 883c
00000360: 1457 de3d 008b ebbc 06ee dc3d 7890 f73d
00000370: 80d8 f03b 26b1 af3d bce0 f0bd c68c febd
00000380: 82eb d5bd a0a2 833d 4061 27bc d0e9 a73d
00000390: d094 b43d b4f2 80bd bce7 a5bd 20e3 8cbd
000003a0: 2e50 96bd e63c eebd 34db 9c3d faf3 8e3d
000003b0: d6af c8bd 8026 cf3b 801b babb 9e7a 94bd
000003c0: 0428 843d f4fb dd3d 04fa 933d 501b 913c
000003d0: aec8 f8bd 725a 873d e84e ac3d 8c5d cd3d
000003e0: 2c5b 80bd 8627 8c3d 0c5a 1abd 8cc9 673d
000003f0: fc26 91bd 1224 813d c07e 50bb a012 17bc

model.2.bias f4 [64]
-0.0032536238 0.0355933 0.04702249 -0.11122014 -0.103490606 0.015641898 0.093476206 -0.0700122
-0.0011669993 0.029672489 -0.08564821 0.07731752 0.11460903 0.044820458 -0.06846012 0.07556218
0.10335033 0.037901074 -0.06718014 0.03910081 0.0035782158 0.06367718 0.03266129 -0.06389338
-0.065287605 0.107660905 0.11224973 0.030952662 0.021772519 0.11705044 -0.07487613 -0.015004978
-0.076107785 -0.031258762 -0.034933284 0.05614689 0.11726259 -0.07923439 0.06013809 0.08078581
0.061749145 -0.08394961 0.096915096 0.06406951 -0.06487261 0.11643778 0.09836063 -0.105982944
-0.08507824 -0.020924017 -0.114120975 -0.048898205 -0.1177903 0.06264168 0.028661788 -0.11245337
-0.0072975457 0.03872028 -0.06066796 -0.058588177 -0.0019162297 -0.011190981 0.09070945 -0.10350178
00000000: c03a 55bb 48ca 113d a89a 403d 62c7 e3bd
00000010: e2f2 d3bd 7023 803c 7470 bf3d 8e62 8fbd
00000020: 00f6 98ba b813 f33c 5468 afbd a658 9e3d
00000030: 24b8 ea3d a895 373d d234 8cbd 58c0 9a3d
00000040: 56a9 d33d 283e 1b3d be95 89bd 2c28 203d
00000050: 8080 6a3b 2e69 823d d8c7 053d 88da 82bd
00000060: 82b5 85bd 527d dc3d 30e3 e53d 7090 fd3c
00000070: 485c b23c 24b8 ef3d a858 99bd 70d7 75bc
00000080: 66de 9bbd 3009 00bd 3416 0fbd 48fa 653d
00000090: 5e27 f03d a445 a2bd 5c53 763d 0873 a53d
000000a0: acec 7c3d c6ed abbd 6c7b c63d e036 833d
000000b0: eedb 84bd ee76 ee3d 4c71 c93d 960d d9bd
000000c0: 803d aebd d868 abbc 42b8 e9bd 7c49 48bd
000000d0: 0a3c f1bd 484a 803d 20cc ea3c f44d e6bd
000000e0: 4020 efbb 2899 1e3d f87e 78bd 28fa 6fbd
000000f0: 002a fbba 605a 37bc e0c5 b93d bef8 d3bd

model.4.weight f4 [8, 64]
0.06458455 -0.0380816 -0.01848881 -0.026709914 0.105054185 0.01816465 -0.093707204 0.06792471
-0.032704383 -0.056469575 -0.014092699 -0.030648291 0.05777453 -0.09396501 -0.10708539 0.10394688
-0.10236965 -0.099746704 -0.013566837 0.017533123 -0.08188695 -0.07485537 -0.10675922 0.013769746
0.014465392 -0.092989966 0.023033366 0.11143203 -0.110559985 -0.111288354 -0.09251106 0.12209442
-0.0017161965 0.1175299 0.08395553 -0.052734956 0.04486242 0.09033948 0.033526674 0.12207043
0.0042927116 0.0067031235 0.029638156 0.003564924 0.09078391 0.079058245 -0.08723828 0.03877774
0.10079683 -0.02403757 -0.03148538 -0.007663369 0.010968566 -0.044948563 -0.05243683 -0.056168526
-0.01290147 -0.05426316 0.09572506 -0.10264182 -0.030913606 0.09780383 -0.037484452 0.090355605
-0.07759881 -0.016945332 0.083791405 0.043699533 0.106868684 0.044021904 -0.10995546 -0.07230684
-0.027910292 0.082809344 -0.06638348 0.05462259 -0.009697914 0.045446917 0.054767445 0.08285716
-0.11818634 0.022323623 -0.091997236 0.075150296 0.00555183 0.1119781 -0.09584157 -0.024026647
0.078048766 0.1082824 0.11150746 0.055502698 0.0005187392 0.07234208 -0.08973029 0.057055548
-0.11124228 -0.025073439 -0.020556018 0.095881835 -0.07339999 0.103899464 -0.11252412 0.027387112
-0.080719516 0.08123557 0.11937231 -0.121816844 0.08880271 -0.096086815 -0.0037029237 -0.09510894
-0.10841107 0.0028844476 -0.06583309 -0.08929637 -0.11696966 -0.10224676 0.010774389 -0.009535313
-0.011354059 -0.083582 0.06557 0.014204234 0.0063087046 0.012912124 0.026976049 0.116017506
-0.01872769 -0.08877899 -0.044392645 0.02076593 0.1239285 0.09742138 0.058551416 -0.07944083
-0.12496196 -0.08075003 -0.08632146 0.08907914 0.11037594 0.039746985 -0.063147604 0.11633034
0.087244585 0.09513833 0.017176181 0.10335554 -0.03573416 0.11718181 -0.030314207 -0.071381584
-0.05622615 0.07288234 -0.12128785 -0.02455914 -0.06539859 0.022049129 0.038900852 0.06599712
-0.020853445 0.11560021 0.017433211 -0.0606537 0.11702748 -0.0005072206 0.085066184 -0.005797729
0.021629497 -0.1200324 -0.0877804 -0.07602781 0.047308102 0.023151949 0.0776003 0.06317039
0.050111353 0.0038062334 -0.089800045 -0.036623523 0.05274269 0.07521492 0.049495533 -0.103720635
-0.0772509 0.10353571 0.08473678 -0.009194717 -0.06904857 -0.042264313 0.07769714 0.018559799
-0.0032039285 0.05503115 0.07515852 0.0838082 0.05712746 0.061125427 -0.08353235 -0.11172719
-0.017983481 0.006773025 0.07071976 -0.04265715 0.07836872 0.07882254 -0.12099899 -0.06936005
0.03854163 0.035018712 -0.029154658 0.034039304 0.023779407 -0.01628381 -0.046281964 0.07244162
0.06126751 -0.015361175 0.10189015 -0.082066834 0.11286916 -0.020491645 0.12305482 -0.069316104
-0.085142836 0.059536263 -0.10684469 -0.017273799 -0.025091127 0.012372151 0.08429214 -0.09595424
-0.022629961 -0.05074212 0.08397314 0.060635448 0.08589308 -0.0019604564 -0.11493084 0.060619026
0.01806058 -0.0052773803 -0.05967313 -0.03698781 0.08703081 -0.072344035 -0.082698494 -0.105532065
-0.11654672 -0.065191776 -0.09062879 -0.112379566 0.014785394 0.07521796 0.10878672 0.007634729
00000000: e844 843d 74fb 1bbd d875 97bc c0ce dabc
00000010: a626 d73d 08ce 943c 90e9 bfbd 1c1c 8b3d
00000020: 08f5 05bd a44c 67bd 10e5 66bc 2012 fbbc
00000030: fca4 6c3d ba70 c0bd 964f dbbd 1ae2 d43d
00000040: 2ea7 d1bd 0048 ccbd 7047 5ebc a0a1 8f3c
00000050: 58b4 a7bd c64d 99bd 94a4 dabd 809a 613c
00000060: 4000 6d3c 8671 bebd 78b0 bc3c 7a36 e43d
00000070: 466d e2bd 26eb e3bd 7076 bdbd a40c fa3d
00000080: 00f2 e0ba 84b3 f03d e0f0 ab3d 9c00 58bd
00000090: a8c1 373d e803 b93d 4453 093d 1000 fa3d
000000a0: e0a9 8c3b e0a5 db3b b8cb f23c 80a1 693b
000000b0: eaec b93d 4ae9 a13d fca9 b2bd 68d5 1e3d
000000c0: 926e ce3d 70ea c4bc d0f6 00bd 001d fbbb
000000d0: 80b5 333c fc1b 38bd 00c8 56bd f810 66bd
000000e0: b060 53bc 0c43 5ebd 800b c43d e035 d2bd
000000f0: 883e fdbc 604d c83d 4c89 19bd 5c0c b93d
00000100: 20ec 9ebd f0d0 8abc d49a ab3d 48fe 323d
00000110: f8dd da3d 5050 343d 5430 e1bd 9c15 94bd
00000120: 20a4 e4bc f297 a93d 10f4 87bd f0bb 5f3d
00000130: 00e4 1ebc 8c26 3a3d d453 603d 04b1 a93d
00000140: ae0b f2bd 08e0 b63c 0c69 bcbd 66e8 993d
00000150: 20ec b53b c654 e53d 9648 c4bd 88d3 c4bc
00000160: 08d8 9f3d 2ac3 dd3d 065e e43d cc56 633d
00000170: 00fc 073a 1628 943d 84c4 b7bd 14b3 693d
00000180: fed2 e3bd d066 cdbc 1865 a8bc b25d c43d
00000190: bc52 96bd 3ec9 d43d 0c73 e6bd f05a e03c
000001a0: 4650 a5bd d65e a63d 7879 f43d 1c7b f9bd
000001b0: 32de b53d 2ac9 c4bd c0ac 72bb 7ac8 c2bd
000001c0: a006 debd 0009 3d3b 80d3 86bd 04e1 b6bd
000001d0: ca8d efbd c066 d1bd 1087 303c 003a 1cbc
000001e0: 6006 3abc 0a2d abbd 9049 863d e0b8 683c
000001f0: 40b9 ce3b 608d 533c e0fc dc3c 969a ed3d
00000200: d06a 99bc c2d1 b5bd 10d5 35bd 501d aa3c
00000210: 3ace fd3d dc84 c73d 9cd3 6f3d e0b1 a2bd
00000220: 0eec ffbd 4660 a5bd 4ec9 b0bd 206f b63d
00000230: c80c e23d bccd 223d 8853 81bd 9a3e ee3d
00000240: 4aad b23d e2d7 c23d 10b5 8c3c 12ac d33d
00000250: fc5d 12bd 04fd ef3d 8055 f8bc 8230 92bd
00000260: 644d 66bd 5643 953d c465 f8bd 4030 c9bc
00000270: b2ef 85bd 60a0 b43c 8056 1f3d 8029 873d
00000280: d8d4 aabc cebf ec3d 18d0 8e3c 0470 78bd
00000290: 1aac ef3d 00f7 04ba 2e37 ae3d e0fa bdbb
000002a0: 5830 b13c 8cd3 f5bd 36c6 b3bd 78b4 9bbd
000002b0: 24c6 413d 28a9 bd3c e8ec 9e3d 7a5f 813d
000002c0: 9041 4d3d 0072 793b 16e9 b7bd 8c02 16bd
000002d0: b808 583d 480a 9a3d d4bb 4a3d 7c6b d4bd
000002e0: b835 9ebd 880a d43d 7a8a ad3d 70a5 16bc
000002f0: 5669 8dbd 581d 2dbd ae1f 9f3d b80a 983c
00000300: 00f9 51bb 5868 613d b6ec 993d a2a3 ab3d
00000310: 7cfe 693d a85e 7a3d 0213 abbd 3ad1 e4bd
00000320: 1852 93bc 40f0 dd3b 86d5 903d 44b9 2ebd
00000330: c87f a03d b66d a13d 52ce f7bd a40c 8ebd
00000340: d4dd 1d3d c86f 0f3d c0d5 eebc cc6c 0b3d
00000350: 08cd c23c a065 85bc 2892 3dbd 465c 943d
00000360: a4f3 7a3d 70ad 7bbc c8ab d03d a812 a8bd
00000370: f227 e73d 18de a7bc 2a04 fc3d 9af5 8dbd
00000380: 5e5f aebd 4cdc 733d 64d1 dabd c881 8dbc
00000390: e88b cdbc 90b4 4a3c 5ca1 ac3d a883 c4bd
000003a0: 7862 b9bc f8d6 4fbd 1cfa ab3d e05c 783d
000003b0: b6e8 af3d 007b 00bb dc60 ebbd a84b 783d
000003c0: c8f3 933c e0ed acbb d06b 74bd 8880 17bd
000003d0: 363d b23d 1c29 94bd d45d a9bd 3221 d8bd
000003e0: 0cb0 eebd 4483 85bd 969b b9bd 4227 e6bd
000003f0: 703e 723c e00b 9a3d 92cb de3d c02c fa3b

model.4.bias f4 [8]
0.100450635 -0.02329737 -0.079201266 0.10657321 0.018581137 0.092086256 -0.06981644 -0.07587485
00000000: 10b9 cd3d 20da bebc 4634 a2bd 0e43 da3d
00000010: 7837 983c b897 bc3d ecfb 8ebd 4664 9bbd
