model/2.pth (torch, 23565 bytes, 6 tensors)

model.0.weight f4 [64, 8]
00000000: d868 513d 205b a3be 9464 34be 12ce 85be
00000010: f46e bebd ad02 8c3e 6201 3e3e 6de2 843e
00000020: 52f0 343e e43a c6bd febd 43be c247 713e
00000030: f015 46bd 80d6 a83b b625 683e b5f4 98be
00000040: f21f 82be 18be 5a3d 73e3 60be f252 5c3e
00000050: eaeb 563e 7c38 f43d 74fe e2bd e5b1 50be
00000060: 76b5 7b3e a6a4 8bbe 9719 0dbe a0e9 353d
00000070: 2afe 15be 90d0 2d3d 9ea2 433e 80f4 4c3d
00000080: 566f 4d3e 7066 ae3c 9b7f 4bbe 11e9 6abe
00000090: e1d3 7abe ea93 713e 4bdd 50be d9f1 863e
000000a0: b4df a0bd 80f1 ce3d 26e4 753e 4031 313c
000000b0: b02e 833c 08f9 a9bd 140a ebbd 0679 703e
000000c0: a3f9 b2be e429 fd3d 7c11 bc3d 01b6 22be
000000d0: 53b8 853e 6b82 853e 2f49 59be 4fb5 afbe
000000e0: 4543 b23e e788 9b3e 2d7c 813e 2756 a73e
000000f0: c0e9 fe3b bee9 343e ea4f 0f3e c8e3 fb3d
00000100: 78ae 273d ba8e 663e 7814 a33d 8403 95be
00000110: 0a0b 69be 5e0a 213e c09f 8f3b f179 4abe
00000120: 2025 f4bd 9d14 b33e 4818 7bbe f8aa 59bd
00000130: 9668 88be bc72 f33d 4493 92bd dc18 1cbe
00000140: 1d78 b2be 2cb0 71be 50e6 db3d 8831 8dbd
00000150: 8d08 a63e e433 bb3d d219 733e 4202 b2be
00000160: 30f1 0dbe 2297 d8bd 9073 a8bd 6e81 093e
00000170: e5b7 06be 5453 4ebe a1aa a73e 00f9 af3c
00000180: 1cdc 153e d477 bb3d 12c6 193e 4127 8e3e
00000190: 7fad aabe 347c b13d cfa1 3fbe d038 75bd
000001a0: d2c0 083e f46e a9bd 944e b1bd 80a1 c6bd
000001b0: e844 fc3d 57c6 64be e2b5 283e dd71 b1be
000001c0: 323d 79be 6eeb 523e 906b 3a3d e619 a1be
000001d0: 5efc 183e 682a 5ebd 7a92 96be 4f87 8b3e
000001e0: 202b 913c 3878 85be d8e9 f93d c15c b23e
000001f0: 3b82 a4be 042f e1bd 8db6 0ebe c54a 30be
00000200: ebaf 83be e1b1 aa3e 7030 0c3d fe3a 543e
00000210: 0808 90bd e447 fabd 70c2 29bd 8d8f a9be
00000220: 8680 303e 504c e73c 52d9 4a3e 3a1d b4be
00000230: 6303 66be 6804 66bd c020 5abd 19b3 a43e
00000240: 06b8 673e 0468 afbe dab5 7e3e a15a 9bbe
00000250: e294 0e3e e484 f03d ba15 4a3e 8b78 803e
00000260: cc00 83bd 08e3 91bd 85fd 813e b14f 8e3e
00000270: 2d13 a2be 7018 c7bc aa9e abbe 906f cebc
00000280: 3889 c6bd 06a3 133e 0a62 82be 625d 5e3e
00000290: 8ba1 9f3e 0075 12bb 0c2d a3be 102e d33d
000002a0: b8e4 66bd 70d8 513d 20e9 fbbc f0b7 6bbe
000002b0: aad9 aabe 0cf1 9fbe c093 6fbd 70a4 de3c
000002c0: f4e0 ec3d e855 cc3d 4e2f 723e 599c b1be
000002d0: 00c2 d1bb a749 a53e 7052 88bc 4897 35bd
000002e0: 6710 8dbe e0f2 abbe 6a18 40be b7ac b13e
000002f0: d7ae 40be 46b8 313e 6899 3ebd 2818 be3d
00000300: 45e5 3fbe 5331 6fbe 102d d53d d0db a3bc
00000310: d160 af3e 1b45 8a3e 6d41 813e f21c d7bd
00000320: b42f 0ebe bc7c b13d 088e 0bbd 4c5a d1bd
00000330: 80e9 1abd d071 8d3d b41c 07be 756a 86be
00000340: 2a58 7a3e a09c 373c 0002 6cbb 6a9b 433e
00000350: d870 6f3d 286c 773d 3cad f93d f4ae 13be
00000360: c6f5 7e3e 38bb 1f3d a6dc 433e 566f 87be
00000370: 3ddf a53e 4061 8e3d a0c5 1b3d ee47 efbd
00000380: a92a 4ebe 0571 903e 8794 8c3e 250e 7ebe
00000390: c6c8 113e ee2d 3c3e bdd7 9abe af23 a23e
000003a0: f08b 8fbe cf13 18be 8740 933e 807a 953b
000003b0: 28b8 f9bd a593 00be c035 b63d c06f d53c
000003c0: f943 19be 85d2 b43e c06d 653d 5f26 853e
000003d0: f98b 9ebe e050 70be 1ccc 1abe 71bc abbe
000003e0: c072 073c 8efa 7e3e 3d6e b43e 08cd 26bd
000003f0: 76cc aebe 8088 74bc 5a21 4c3e b2ca 203e
0.051125377 -0.3190546 -0.17616493 -0.26133782 -0.092985064 0.2734579 0.18555215 0.25954
0.176698 -0.09679201 -0.19115445 0.2356253 -0.048360765 0.0051525235 0.22670636 -0.29874197
-0.25414997 0.053403944 -0.21961765 0.21516016 0.20988432 0.11924836 -0.11083689 -0.20380361
0.2458094 -0.27274054 -0.13779293 0.044412255 -0.14647737 0.04243523 0.19105002 0.05003786
0.20062003 0.02128908 -0.19872896 -0.2294047 -0.24494888 0.23591581 -0.20396917 0.2635639
-0.07855168 0.10104656 0.24012813 0.010814965 0.016013473 -0.08299452 -0.114765316 0.23483667
-0.34956083 0.12361506 0.091830224 -0.15889741 0.2611719 0.26076064 -0.21219324 -0.34318015
0.34816948 0.30377886 0.2529005 0.32682917 0.00777933 0.1766729 0.13995329 0.12299305
0.04093787 0.22515383 0.079628885 -0.29104245 -0.22758117 0.15726611 0.0043830574 -0.1977308
-0.119211435 0.34976664 -0.24520981 -0.053141564 -0.26642293 0.11887118 -0.07156995 -0.15243858
-0.34857264 -0.2360236 0.10737288 -0.06894213 0.324284 0.09140757 0.23740318 -0.34767348
-0.13861537 -0.10575701 -0.08225167 0.1342828 -0.13156088 -0.20148975 0.32747367 0.021481037
0.14634746 0.09153715 0.15016964 0.27764323 -0.33335492 0.08666268 -0.18714069 -0.059868634
0.13354805 -0.08273116 -0.08657566 -0.096987724 0.1231783 -0.22341286 0.16475633 -0.34657183
-0.2433975 0.20597622 0.045512736 -0.3146507 0.1494002 -0.05423966 -0.29408628 0.2725167
0.017720759 -0.26068282 0.12202805 0.3483639 -0.32130608 -0.10995296 -0.13936825 -0.17216022
-0.25720152 0.33338836 0.03422588 0.20725629 -0.07032782 -0.12220743 -0.041445196 -0.33117333
0.17236528 0.02823463 0.19809464 -0.35178548 -0.2246223 -0.056156546 -0.05325389 0.3216789
0.22628793 -0.34259045 0.24874058 -0.30342582 0.13923982 0.11744097 0.1973485 0.25091967
-0.06396636 -0.07123381 0.25388733 0.27795175 -0.31655255 -0.024303645 -0.3351949 -0.025199682
-0.09694141 0.14417657 -0.25465423 0.2171531 0.31177935 -0.002234757 -0.31870306 0.1031152
-0.056370467 0.0512318 -0.030750811 -0.23019385 -0.3336919 -0.31238592 -0.058490515 0.02717802
0.11566344 0.09977323 0.23650858 -0.34689596 -0.0064013004 0.32282755 -0.016640872 -0.044333726
-0.27551576 -0.33583736 -0.18759313 0.34702083 -0.18816696 0.17355451 -0.04653302 0.09281951
-0.18739803 -0.2335866 0.104089856 -0.020002276 0.34253553 0.27005848 0.25245228 -0.10503568
-0.13885385 0.08666369 -0.034071 -0.10222301 -0.03782034 0.06906474 -0.13194543 -0.26253095
0.24447694 0.011206776 -0.0036011934 0.19102255 0.058457226 0.06040588 0.12191245 -0.14422208
0.24898443 0.038996905 0.1912714 -0.2645213 0.3239688 0.06952143 0.038030267 -0.116836414
-0.20133461 0.28211227 0.27457067 -0.24810083 0.14236745 0.18376896 -0.3024272 0.3166785
-0.2803645 -0.14851306 0.28760168 0.0045617223 -0.12193328 -0.12556322 0.08896971 0.026054263
-0.14967336 0.35316864 0.05601287 0.26005837 -0.30966166 -0.23468351 -0.15116924 -0.33542207
0.008267105 0.24900267 0.35240355 -0.040722877 -0.34140366 -0.014925122 0.19934598 0.15702322

model.0.bias f4 [64]
00000000: f495 15be 68bf 3f3d 80ce 0d3d 8b5d 34be
00000010: 1302 ae3e 9abf 6b3e 6c61 71be e185 36be
00000020: 7646 013e bd2f 9b3e 1135 46be 6095 0cbc
00000030: 400b 91bb a530 9f3e 0ace 203e a2f6 1d3e
00000040: b99d b0be 6f00 933e 9f3f a03e f561 b03e
00000050: 8018 ce3c d8fe 62bd 0a96 5d3e f69f 713e
00000060: 2d2d 55be b874 4dbd 14a0 fbbd 9ca6 cebd
00000070: 5bc0 b33e 94e4 e23d 02e0 3a3e d07a 1e3d
00000080: c07b 81bb 1215 0dbe 14c6 a13d cff0 12be
00000090: f6a7 65be 3739 b13e 4346 21be b464 82be
000000a0: a784 19be 407d b9bd a71f 53be ae93 503e
000000b0: f247 6a3e 6393 5dbe 7b8e 57be 9460 2cbe
000000c0: a080 0e3d bfad 95be 72bc 7b3e 9250 2cbe
000000d0: 9219 1bbe f021 6abe a32d b03e 0eef 213e
000000e0: 7a2b d8bd 0003 9ebb 2a75 1e3e 96c8 213e
000000f0: e420 cfbd fc6d c0bd 7050 d9bc 342c 053e
-0.14607984 0.0468134 0.034620762 -0.17613809 0.33985958 0.23022309 -0.2357232 -0.17824508
0.12624535 0.3030986 -0.1935618 -0.008580536 -0.00442639 0.310918 0.15703598 0.15426114
-0.34495333 0.28711268 0.3129854 0.34449735 0.025158167 -0.05541882 0.21639267 0.23596177
-0.20818014 -0.05016014 -0.12286392 -0.10090372 0.35107693 0.11078754 0.18249515 0.038691342
-0.0039515197 -0.13777569 0.078991085 -0.14349674 -0.22427353 0.34613964 -0.15749459 -0.25467455
-0.14992009 -0.09057093 -0.20617543 0.20368835 0.22879007 -0.21638255 -0.21050446 -0.16833717
0.034790635 -0.2923412 0.24583605 -0.1682761 -0.15146473 -0.22864509 0.34409818 0.15813848
-0.105551675 -0.004822135 0.15474382 0.15799174 -0.10113695 -0.09395978 -0.026527613 0.13005143

model.2.weight f4 [64, 64]
00000000: 18ff 87bd a8b1 e83c 74fb 5f3d a86b e63c
00000010: da03 b1bd c029 3c3c 5882 263d fc2b 183d
00000020: f2ae ebbd 782a a4bc 4083 10bd 3445 f4bd
00000030: 90ba 8fbc a2f0 e7bd 8e35 de3d 0c1b b83d
00000040: 90ad b13c 3267 c7bd ca11 d43d 72a7 8bbd
00000050: e68b e0bd 7073 53bc c0e6 dfbd 0668 983d
00000060: 3c5c 9a3d 5c7d 8cbd 800e 95ba 04ef 0ebd
00000070: 3c62 113d 34db b7bd e456 063d 9637 b1bd
00000080: 0084 0ebc 60d2 ef3c dc15 1dbd 2eb2 833d
00000090: bce8 6f3d 90c0 b43c a898 70bd 105a 9b3c
000000a0: ac01 c63d 7848 9dbc 008d 5c3d c04e b7bd
000000b0: 602b e0bd 20d9 f23c 1e6a b83d a08a e4bb
000000c0: da03 cb3d c0ac 4c3d fe8e a83d 4280 8a3d
000000d0: 0048 96b9 f67c 88bd f04f 8c3d d072 583c
000000e0: aa4d f83d beda fc3d dad4 8b3d f2e2 efbd
000000f0: f418 913d 8c1a ac3d 8420 c13d 580f fbbc
00000100: 588d 36bd 3e3c 9fbd 5099 693d 8014 6c3d
00000110: a273 9c3d 2088 20bc 1891 823c 3273 903d
00000120: 68c8 b5bc c0ba ad3b cc25 7c3d 1058 793c
00000130: 50a1 2a3c 6c85 cfbd 4c68 02bd b00d 5c3c
00000140: 52e5 a7bd 12e1 903d d41e ddbd a0f9 0cbc
00000150: c0f4 87bb 2afb 94bd a8b6 613d 48a7 91bc
00000160: 50db e53d 46ab ae3d 1060 8fbd 84e3 16bd
00000170: 2296 813d d6d9 f13d 683d a03d 8432 6c3d
00000180: 8442 6f3d 4836 f2bc cad2 96bd 7889 a83d
00000190: e860 c43d 2832 28bd 4a1b 98bd 4079 62bd
000001a0: ea03 c2bd 8254 973d a020 073c 74ae 893d
000001b0: 76f7 cc3d a0e5 d1bc 4a6a d8bd 9ce6 04bd
000001c0: 0a5f 97bd 0039 37bb 3420 a13d e8c4 573d
000001d0: ccfa a9bd cca7 8c3d 601a ac3c fcb9 e83d
000001e0: 7059 58bd 5ede 8f3d 4438 38bd ee57 abbd
000001f0: 80b5 d6ba 68da c4bd 849d c5bd 3496 adbd
00000200: 340d 3a3d c8e5 e6bc 8e26 d9bd 56b7 bbbd
00000210: 5e64 ae3d 5c38 0e3d 4840 8a3c f089 423c
00000220: 0082 c93c 74d5 92bd bc60 30bd 0c88 9b3d
00000230: daf7 8b3d e45c ff3d dca0 ca3d f47a 1d3d
00000240: 5674 a53d 9283 a3bd 2475 c03d 0456 1fbd
00000250: e892 2c3d 6aee bfbd 1487 b43d b063 b2bc
00000260: 0c37 15bd dc09 f5bd 0066 ec39 ce81 dfbd
00000270: a456 2c3d c84d 6abd f87f 5c3d e4aa 60bd
00000280: f4e2 613d 200b b13d 9e12 e33d c015 20bb
00000290: 5c37 bfbd ec8e 10bd 483d c4bd bc08 733d
000002a0: e6a4 b13d fa04 a63d 8c3b e83d f469 0b3d
000002b0: dcdb 953d c048 e13c f038 73bc 02d8 99bd
000002c0: f8c5 bdbc 7c4d 39bd 4400 fcbd f879 d73d
000002d0: 00ab 8bbb bc7d a33d 40a2 55bb 640d 393d
000002e0: 6806 a7bd aeb2 fc3d 5c05 453d 1e35 a93d
000002f0: 40ea 0fbc 487a e73c a0a8 fd3b 1ea2 f3bd
00000300: 2285 94bd 1c86 9f3d b8b2 58bd f639 bd3d
00000310: 7ad9 cbbd a49f 4c3d 2882 d6bd 90a1 95bd
00000320: e288 f0bd 8cdd ecbd daf3 dc3d b885 71bd
00000330: 4446 c9bd 2474 0e3d 606a 503d 18f2 673d
00000340: 9810 f7bd 5cb0 a0bd 7006 5f3c f6e2 fe3d
00000350: 445f 923d 503d c3bc 78ae b2bc 7c27 25bd
00000360: b063 143d 50b6 31bc 6e14 b9bd 40c7 50bb
00000370: 4c55 3dbd 14df 27bd dc66 413d 00f2 cfb9
00000380: decf 99bd 8a53 ebbd ba0b fe3d e090 e23b
00000390: 622e f9bd 6285 ff3d 4c43 4cbd 342b 24bd
000003a0: 58b5 d13c 96a6 cdbd 2472 f6bd 6469 983d
000003b0: 5c88 e43d 863f a83d a41d 24bd 0ee9 c5bd
000003c0: acc5 2ebd d089 0cbc 9031 6ebd f4e1 e9bd
000003d0: f07a 2bbd fe6e 91bd 9ced 00bd ac8a 553d
000003e0: 7417 6ebd 0095 793b a830 a8bc 00f6 3cbc
000003f0: 602e a93c 90d2 8a3d c04f 503d 8425 a03d
-0.06640452 0.028405026 0.054683164 0.028127506 -0.08643313 0.011484563 0.04065165 0.03715132
-0.115079775 -0.020039782 -0.03528142 -0.11927262 -0.017545015 -0.11325194 0.108500585 0.08989534
0.021689206 -0.0973648 0.103549555 -0.06819047 -0.109641835 -0.01290594 -0.10932684 0.07441716
0.075371236 -0.06859848 -0.0011372119 -0.03489591 0.035494074 -0.089773566 0.03279771 -0.0865318
-0.008698463 0.02927512 -0.038350925 0.064304695 0.058571562 0.022064477 -0.058739334 0.018963844
0.09668288 -0.019199595 0.053845406 -0.08950567 -0.10945773 0.029644549 0.09004615 -0.006974533
0.09912844 0.049969435 0.082303986 0.067627445 -0.00028663874 -0.066644594 0.06851184 0.013210967
0.12124188 0.12346409 0.068277076 -0.11713208 0.070848376 0.08403501 0.0943003 -0.030646965
-0.04456839 -0.07775162 0.057030976 0.057636738 0.07639243 -0.00979808 0.015938327 0.07053222
-0.022190288 0.0053018034 0.061559483 0.01521875 0.010414436 -0.1013287 -0.031837747 0.013430998
-0.08198036 0.07074179 -0.107968956 -0.008604437 -0.0041490495 -0.07274468 0.055105835 -0.017779961
0.11223471 0.085287616 -0.07000744 -0.03683807 0.06327464 0.11809127 0.07824212 0.057665363
0.058413044 -0.029566899 -0.073644236 0.08229345 0.09588796 -0.041063458 -0.0742708 -0.055291414
-0.09473403 0.073891655 0.0082475245 0.067227274 0.10008137 -0.025622189 -0.10567148 -0.03244649
-0.07391174 -0.0027957559 0.078674704 0.05267802 -0.08299789 0.06867942 0.02100867 0.11363599
-0.05281967 0.07024835 -0.044975534 -0.08366381 -0.0016380996 -0.0961197 -0.09649184 -0.084759146
0.045422748 -0.02818574 -0.10603057 -0.09165828 0.08515237 0.034721717 0.016876355 0.011873707
0.024598122 -0.07169619 -0.043061003 0.07594308 0.06834383 0.12468889 0.09893963 0.038447335
0.0807883 -0.079840794 0.09397343 -0.03890039 0.04213229 -0.09371646 0.088148266 -0.02177605
-0.03642945 -0.11964771 0.00045089424 -0.1091343 0.042074814 -0.057203084 0.053832978 -0.054850474
0.05514808 0.086447 0.11087535 -0.0024427027 -0.09336731 -0.03529255 -0.09582001 0.0593345
0.0867403 0.08106418 0.11339483 0.03403659 0.073173255 0.02750051 -0.014845118 -0.07511903
-0.023165688 -0.04523991 -0.12304738 0.105213106 -0.004262328 0.07982966 -0.003259793 0.045178786
-0.08155519 0.12338768 0.048100814 0.082620844 -0.008783877 0.02825655 0.007741049 -0.11896156
-0.072519556 0.07789251 -0.052904814 0.09239571 -0.0995359 0.049956933 -0.10474044 -0.07306206
-0.11744858 -0.11565694 0.107886985 -0.058965415 -0.09827855 0.03477873 0.050882697 0.056627363
-0.12063712 -0.07846138 0.013612375 0.12445633 0.07147077 -0.023832947 -0.021811709 -0.04032086
0.036227882 -0.010846689 -0.090371 -0.0031857044 -0.046223924 -0.04098423 0.047217235 -0.0003966242
-0.07510351 -0.11490543 0.124045804 0.006914243 -0.1216705 0.12476613 -0.049868867 -0.040080264
0.025599167 -0.10041539 -0.12033489 0.07441977 0.11158821 0.08215241 -0.04006733 -0.09663592
-0.042668983 -0.008577779 -0.058152735 -0.1142005 -0.04186529 -0.07101248 -0.031476602 0.0521342
-0.058127835 0.0038083196 -0.020531014 -0.01153326 0.020651996 0.06778443 0.050857306 0.078196555

model.2.bias f4 [64]
00000000: 6872 c13d ec66 c7bd 90d0 c4bc 20ea b43d
00000010: 6e21 f7bd dca9 193d 5e47 8bbd 50c4 dabd
00000020: d871 f8bc c834 7ebd 2075 04bc 5638 ec3d
00000030: b89b 16bd ac84 51bd 7c52 2cbd 00eb 28ba
00000040: 10bd 423d 5cec f5bd e2fa dc3d a428 7fbd
00000050: 90f9 8e3c 883b f53d c4b8 963d 5c8a 3a3d
00000060: 169a 9dbd 9874 a43d 3c83 783d 80c2 e0bc
00000070: 1e66 f23d b039 9a3d 8098 e53b f0ae c7bd
00000080: 5a7a d83d 3eba d5bd 9429 a83d 1224 fdbd
00000090: 5429 e5bd a0f5 b33d f066 203c 8c16 4abd
000000a0: 205c 473d 3475 f8bd 2cc9 3d3d b0fa dc3d
000000b0: 5ebc c93d d45e 50bd 9cb6 e03d 2c39 a0bd
000000c0: a8bb a9bc 3c0a e33d 00f6 8bbd acc3 36bd
000000d0: acb0 4d3d c2f7 db3d 2890 95bd f012 473d
000000e0: c857 b53c 804f cd3a 981b f9bc 90f2 41bc
000000f0: 603d 103d 3057 0a3c a0e8 0bbc 3820 85bc
0.094456494 -0.09736428 -0.024025232 0.08833718 -0.12066923 0.037515506 -0.068007216 -0.10681975
-0.030327722 -0.062062055 -0.008084565 0.11534183 -0.0367696 -0.051151916 -0.04207085 -0.0006443709
0.047543585 -0.120079726 0.107900396 -0.062294617 0.017452985 0.11974245 0.0735946 0.045542106
-0.07695405 0.08030051 0.06067203 -0.027436495 0.118358836 0.07530534 0.007006705 -0.097501636
0.10570212 -0.104359135 0.082110554 -0.123603955 -0.11189523 0.087870836 0.009790167 -0.04933791
0.04867184 -0.1213173 0.04633443 0.10790002 0.09850381 -0.050871685 0.1097233 -0.07823405
-0.020719364 0.110859364 -0.0683403 -0.0446202 0.050217316 0.107406154 -0.07302886 0.048602045
0.022136584 0.0015663952 -0.030408666 -0.011837617 0.03521478 0.008443639 -0.008539349 -0.016250715

model.4.weight f4 [8, 64]
00000000: e07b b7bc e2e2 91bd babe ebbd ac19 063d
00000010: 2cf6 bd3d 7af7 ae3d 149e 0c3d 140b f8bd
00000020: 3498 8bbd 7096 eebd f465 363d c054 93bb
00000030: 8031 e6bc 0408 c5bd 4080 f23b f69e ecbd
00000040: 1c4e 0e3d 780c 0cbd 6cc6 533d 6ca1 8d3d
00000050: 245a 21bd 14e0 743d d092 0abc e86b 1c3d
00000060: 2ab7 c93d 0063 a33b 30bd 5dbc da4a a1bd
00000070: a0fe 8b3c 8e21 bfbd 8839 2bbd f833 9cbc
00000080: 0894 b2bd 70bf 17bd 4016 5c3c f467 06bd
00000090: 0098 2e3c 0c47 0b3d 28f7 81bd 489a dabd
000000a0: 68b7 213d 9827 d33d fc08 513d e00e f33d
000000b0: 58ad 933c 7217 9ebd a431 b5bd 68ef 913c
000000c0: e0eb 68bc 1820 9dbd be73 f43d 6c48 793d
000000d0: c044 b63b b849 1abd cad7 aebd a8df ed3d
000000e0: 00da a4b9 90f7 1c3d f0a2 933d ce2a e3bd
000000f0: d090 dd3d 426c 8f3d d0c8 b03c 080c fa3d
00000100: 6ead eabd 1811 023d 30dd 673c 703c f8bc
00000110: 40a5 253b 32e5 823d d07a a23d 80cb 603b
00000120: 700d edbc 5802 b7bd 58c7 e43c 40d3 43bc
00000130: 3042 da3d 30d0 15bc 70b8 ff3c a82d e1bc
00000140: 7c19 9d3d dc4e 7fbd 2646 9bbd 409b c33d
00000150: c0b7 df3b 48eb 8ebc 541c ee3d 6051 edbd
00000160: 2451 b9bd 208d 16bd b275 b3bd 807f 343b
00000170: d29a eabd 0011 843d ac20 c13d d018 3d3c
00000180: 426c abbd d08c 0ebc a81b 833d 06f1 93bd
00000190: d6d7 833d d05f 8d3c 9c82 e13d 10cc 6b3d
000001a0: caf5 a0bd 10f5 2f3c d849 7f3d 1819 b73c
000001b0: fc19 ccbd 90c4 ee3d c4dd fbbd 80e6 b93a
000001c0: 2437 3dbd fae8 8d3d 1c71 793d 2274 da3d
000001d0: 2a55 83bd 3eeb b6bd a8bb d13c a8a9 1dbd
000001e0: 76f9 9e3d 34eb f53d 6450 debd e43e 253d
000001f0: c023 243c 285a a7bd 6033 de3b 5660 87bd
00000200: 7afe b83d 26bc ddbd 484a 7ebd 48a3 bebc
00000210: 6472 4bbd a48a ba3d 9061 653c 904a 88bc
00000220: 0645 b7bd 28bc 2dbd 80a8 70bb 9882 fb3d
00000230: 5670 ab3d 28fe 57bd fa2b fabd 227f f2bd
00000240: e29e e4bd 88f3 c33d 5857 983c 909f bf3c
00000250: 8c5c d33d c039 223b 5c9b 52bd 8063 8e3c
00000260: 409b 34bb d605 d93d e823 7dbd 00af db3c
00000270: 10d6 26bd 0077 fdbd 4cdf 323d 22fb e8bd
00000280: fe4a af3d 305e 913d 9045 a0bc c0fe 87bc
00000290: 9ceb 6e3d 38df 5b3d 3406 1abd 90ef dabc
000002a0: 469f adbd cc97 e33d e45c 343d f0ed f13c
000002b0: f43c 18bd 3a2c 87bd 2012 8ebb 80fa 47bb
000002c0: 4c7a a03d 203c e3bc 8ee0 a2bd c6b5 cabd
000002d0: 2a30 d0bd 50ed 533c c869 5c3d 2867 5f3d
000002e0: dce6 ad3d 78db 113d 0048 c33b f4fc 2abd
000002f0: b8bb d23c c0ba 803d 80b4 f93a 8888 ea3c
00000300: c689 e7bd 4e73 8bbd b4ff 443d 561c a53d
00000310: c661 b63d 280b dfbd 704e 7e3c 922f b03d
00000320: 505a 8ebc 8a92 863d 8c54 a0bd 7234 fcbd
00000330: c270 c0bd a270 94bd e4d0 65bd a8eb 92bc
00000340: da9e 94bd 66eb d53d 7449 59bd 6cc2 353d
00000350: 7274 e73d f277 f93d 6670 eabd 14e1 aabd
00000360: d802 c1bd c01f 17bb 0e92 b4bd f424 8ebd
00000370: 8427 babd 3c32 9b3d 94a6 b53d 9006 373c
00000380: ea54 e0bd 8ef4 efbd 603b f03b 8006 b43c
00000390: e00b bdbd 5047 c5bc de6c a4bd 76f2 aa3d
000003a0: 107d fe3d 1452 f1bd c224 d03d 2064 343c
000003b0: 4072 b1bb 0621 a23d 0afb bebd b045 8dbc
000003c0: 706b b33d 186f 843c 6833 743d 0638 dabd
000003d0: 08ff b53d 8ea7 d33d 408a f53c 52dd 81bd
000003e0: 20a1 e9bc 1290 f2bd 1ae5 bebd d82d 5dbd
000003f0: a804 ef3c ece8 dbbd 3ce5 893d 808f 9aba
-0.022397935 -0.071233526 -0.115109876 0.032739326 0.09275469 0.08543296 0.034330443 -0.12111488
-0.0681614 -0.116497874 0.044530824 -0.004496187 -0.028099775 -0.096206695 0.0074005425 -0.11553757
0.03474246 -0.03419158 0.0517029 0.069155544 -0.039392605 0.05978401 -0.008457854 0.038188845
0.09849389 0.004986167 -0.013533875 -0.07875605 0.017089188 -0.09332572 -0.041802913 -0.01906775
-0.08719641 -0.037047803 0.013433039 -0.03281398 0.010656357 0.034003302 -0.063459694 -0.10673958
0.03948155 0.10310286 0.05103396 0.118680716 0.018026993 -0.077193156 -0.08847359 0.017814353
-0.014216393 -0.07672137 0.119361386 0.060860083 0.005562395 -0.03766796 -0.08537252 0.11614925
-0.0003144294 0.03832203 0.07208812 -0.11092149 0.108186364 0.070030704 0.02158013 0.12209326
-0.1145886 0.031754583 0.014151856 -0.030302256 0.0025275499 0.06391372 0.07933581 0.0034300983
-0.028937072 -0.08935994 0.027927086 -0.011952221 0.106571555 -0.009143874 0.031215876 -0.02748759
0.076708764 -0.062331066 -0.07581739 0.09551096 0.0068273246 -0.017446175 0.11626497 -0.11587787
-0.090486795 -0.03675568 -0.08762683 0.0027541816 -0.11455311 0.06448555 0.0943006 0.01154156
-0.08370258 -0.0087005645 0.064017594 -0.07223706 0.06437652 0.017257601 0.1101124 0.057567656
-0.078593805 0.01073958 0.062326282 0.022350833 -0.099658936 0.11658585 -0.12298158 0.0014183074
-0.046195164 0.069292024 0.060898885 0.10666682 -0.06412728 -0.08931588 0.025602177 -0.038491875
0.07762425 0.12007752 -0.10855177 0.04034318 0.010018289 -0.08171493 0.0067810267 -0.066101715
0.090329126 -0.10826902 -0.06208256 -0.023271218 -0.04966964 0.09108475 0.0140003115 -0.016637117
-0.08948712 -0.042415768 -0.0036721528 0.12280768 0.08371036 -0.052732617 -0.12215419 -0.11840655
-0.11163117 0.09567934 0.018596336 0.023391515 0.10320386 0.002475366 -0.051417693 0.01738143
-0.0027558357 0.10596816 -0.06180182 0.026816845 -0.04073149 -0.12376213 0.043669984 -0.11376025
0.085592255 0.07098043 -0.01956442 -0.016600966 0.058330163 0.053679675 -0.037603572 -0.02672556
-0.084776446 0.11112937 0.0440339 0.029532403 -0.037167504 -0.066002324 -0.0043356568 -0.00305143
0.07835826 -0.02773863 -0.07952987 -0.09897952 -0.101654366 0.012934998 0.05381182 0.054541737
0.084912986 0.035609692 0.005959511 -0.04174514 0.025724277 0.0628562 0.0019050986 0.028629556
-0.11305575 -0.06809102 0.04809542 0.08062045 0.089053676 -0.108908 0.015521631 0.08602823
-0.017377049 0.06570919 -0.07828626 -0.12314691 -0.09396507 -0.072480455 -0.056107417 -0.017934635
-0.07256861 0.10445289 -0.053048566 0.04437487 0.11301507 0.12181081 -0.114472196 -0.083437115
-0.094243705 -0.0023059696 -0.0881692 -0.06940642 -0.09089568 0.07577941 0.08869663 0.011170998
-0.10953696 -0.11716567 0.007331297 0.021975756 -0.092307806 -0.024081856 -0.08028577 0.08347027
0.124261975 -0.11783233 0.10163261 0.0110102 -0.005415231 0.07916455 -0.09325226 -0.017245144
0.087607265 0.016166255 0.059619337 -0.10655217 0.08886534 0.10334693 0.02997315 -0.063410416
-0.028519213 -0.118438855 -0.093210414 -0.053998798 0.029177025 -0.10737786 0.06733176 -0.0011792034

model.4.bias f4 [8]
00000000: e6ee e33d d42f b7bd b496 aa3d f601 8d3d
00000010: aa26 dabd 300b c83c b044 dd3c e002 5fbd
0.11129551 -0.08944669 0.083295256 0.0688514 -0.10651906 0.024419397 0.027010292 -0.0544461
