model/2.pth (torch, 23565 bytes, 6 tensors)

model.0.weight f4 [64, 8]
00000000: bd1c 78be a64b 4ebe 4d30 b43e 80c5 3f3d
00000010: 3050 fe3c 7aaa 5a3e c7fb a53e 188e 6d3d
00000020: 3096 3abe 053e 34be 8424 043e 8d62 96be
00000030: 7acf 7c3e a515 4cbe 9eeb 553e 1da5 88be
00000040: de1e 503e b252 373e 257c 85be c1e9 65be
00000050: ca98 643e c0b3 8abb 740f df3d 1ae6 0cbe
00000060: 23fa a93e 3e2f 1a3e ca91 163e 4a4e 243e
00000070: dc32 c6bd 8ac8 8cbe 7a1e 08be b09c 95bd
00000080: af81 9c3e 338b 35be fffc 8a3e a0e7 2b3c
00000090: 8efe e8bd ccc5 b4bd c4f3 993d f389 903e
000000a0: 9131 6bbe af8e 19be 11df abbe 4d5c 803e
000000b0: 39af 9f3e 2c80 9e3d 2427 973d da9a 6a3e
000000c0: e087 46be 005e 3bbb 4084 9e3c ce92 4b3e
000000d0: 049c ed3d 6409 f33d b8c7 92be 3503 5abe
000000e0: cc2d 81be 9837 99be 7258 92be 805b 2fbe
000000f0: bcd4 a83d ba83 3f3e e019 1bbc ca94 293e
00000100: 2eb7 753e 4c1c a2be 60b3 55bc ec92 8cbd
00000110: f09e ccbc 2124 28be 4015 f93d d403 0cbe
00000120: 5d24 9a3e 44ff 9dbd a22e 713e 4a8a 3ebe
00000130: 6bed 14be 949b 98be 37d8 a53e 2ea4 1f3e
00000140: 2c38 93be affa 06be b49d fc3d c0e8 88bb
00000150: 9050 c83c c0bd 11bc 2deb 44be 592d 5cbe
00000160: e9d2 32be fc95 0dbe 070b 973e 7c3d 98be
00000170: 379c b4be 22aa 503e 8845 71be a632 dbbd
00000180: d5cc 9bbe 10f5 e7bc 5d61 8f3e 80ce 1e3d
00000190: 108f 9dbc f671 8ebe e263 08be 7c63 15be
000001a0: b632 97be fa5d 363e 08b2 7bbd d0d3 e43c
000001b0: 2195 8a3e fabf 5a3e d19c 6dbe 29fd 0ebe
000001c0: a8a7 02bd 4085 f83d 5891 b73d 7096 f0bd
000001d0: e061 813c 0e89 5c3e cc7f 68be aa36 e8bd
000001e0: a25b 423e c0e7 b03b a8ea bc3d 84da 9b3d
000001f0: c4a3 983d fa67 363e 39b3 8abe 00b3 bb3b
00000200: c9fe 943e d246 713e 0f88 b23e 56b3 783e
00000210: 1a9d 69be 6ac8 363e d0d0 323d 86d1 593e
00000220: 1807 5bbd c239 2fbe 16c2 3f3e 888d 7fbe
00000230: a60c 713e 987a 023e 98d0 3abd b450 8fbd
00000240: 4fed 84be 24b8 953d f4f2 7dbe 203e d6bc
00000250: 1db2 863e 1e80 093e 48e0 353d e848 09be
00000260: 64b1 943d ad18 9a3e 982b 2bbe de0b 1b3e
00000270: 7d3a 803e 06a0 8dbe 5efe 553e a0b7 973d
00000280: 50da 9f3c 541c afbe 203f e53d 00b7 dc3a
00000290: 407e b03b 861d a6be 3b85 933e 21f6 63be
000002a0: f8d4 b0be 255a 863e 3433 86be 64b3 51be
000002b0: 0001 d8ba 04fa b4bd 9b5c a43e f4ee 8c3d
000002c0: 4f1b a8be f68c afbe 8d57 82be 34ca f6bd
000002d0: b680 173e 5ec5 dfbd 0b5b 9dbe 4675 5b3e
000002e0: 2c54 a3be b067 09bd 3ce5 9ebe 3151 a6be
000002f0: 7022 ddbc be46 74be c008 833d 2190 a83e
00000300: 1136 60be c7d2 943e bea8 0dbe c0bd abbb
00000310: 2ed8 3f3e 6ca5 ce3d 1bad abbe fe9a 7d3e
00000320: f92e ab3e 10d3 08be b07a 9abe f4af a63d
00000330: a0ae 4e3c 0ce6 133e de59 423e c6b4 0c3e
00000340: 88a0 d3bd bc6b a9be ddc6 ad3e 6801 5bbd
00000350: e161 a23e bc83 7abe 54bf 7ebe 5835 153e
00000360: 1879 043e 3fd0 08be 6eb0 673e 9ecf 7a3e
00000370: 673e 78be f0c7 8bbd fbde 8dbe 7e4c 8cbe
00000380: 3d19 85be a076 793d 3510 883e 6beb b33e
00000390: 8032 5dbb 7f7a af3e 00dc 6e3c a057 96bc
000003a0: e01a 39bc 5195 60be 9ffe 9f3e f008 88be
000003b0: e271 a6be 809c 21bd e087 6abd 6f61 25be
000003c0: b9e1 af3e 0c6f c13d 631d abbe 3a01 5fbe
000003d0: fe84 453e 9f78 0cbe a92d abbe ad55 a6be
000003e0: 34e5 b4bd dbc5 22be bea8 543e d3a5 ad3e
000003f0: 9003 bd3d a981 8ebe 1c9f ef3d dedb 4d3e
-0.24229713 -0.20146045 0.351931 0.04681921 0.031044096 0.21354094 0.32418653 0.05799684
-0.18221354 -0.17601784 0.12904555 -0.29372063 0.24688521 -0.19930132 0.20890662 -0.2668847
0.20324275 0.1790264 -0.26071277 -0.22452451 0.2232391 -0.0042328537 0.10891619 -0.13759652
0.33198652 0.15057084 0.14704052 0.1604549 -0.096776694 -0.2749675 -0.13292876 -0.073052764
0.3056769 -0.17728882 0.27146146 0.010492235 -0.113766775 -0.08826789 0.07517198 0.28230247
-0.22968127 -0.14995836 -0.33568624 0.2507042 0.31188372 0.077392906 0.07380512 0.22910634
-0.1938777 -0.0028589964 0.019350171 0.1988022 0.11602023 0.118670255 -0.28667998 -0.21290286
-0.25230253 -0.29925227 -0.28583103 -0.17124748 0.08243701 0.18702593 -0.009466618 0.16560665
0.23995659 -0.31662214 -0.013043255 -0.068639606 -0.024978131 -0.16420032 0.12162256 -0.13673335
0.30105868 -0.07714704 0.23552945 -0.1860744 -0.14543693 -0.29806197 0.3239152 0.15589973
-0.28753793 -0.13181566 0.12334767 -0.0041781366 0.024452478 -0.008895338 -0.19230337 -0.21501674
-0.17463268 -0.13826746 0.295006 -0.2973441 -0.35275432 0.203774 -0.2356168 -0.1070302
-0.30429712 -0.028315097 0.2800397 0.038771152 -0.019233257 -0.2782132 -0.13319352 -0.14588732
-0.29530877 0.17809287 -0.06144908 0.027933031 0.270669 0.21362296 -0.23204352 -0.1396376
-0.03189817 0.121347904 0.08963269 -0.11747444 0.01579374 0.21536657 -0.22705 -0.11338551
0.18980268 0.0053987205 0.09224445 0.07610038 0.07453111 0.17813101 -0.2708986 0.0057281256
0.29100636 0.23562172 0.3486943 0.24287161 -0.22813836 0.1784989 0.04365617 0.21271333
-0.053473562 -0.17111877 0.18726382 -0.24956334 0.23539981 0.12742078 -0.045609087 -0.06997815
-0.25962302 0.07310513 -0.2479971 -0.02615267 0.26307765 0.13427779 0.044403344 -0.13406718
0.07260397 0.3009695 -0.16715848 0.15141246 0.25044623 -0.2766115 0.20897815 0.074080706
0.01951328 -0.342013 0.11193681 0.0016839206 0.005386144 -0.324444 0.28812584 -0.2226186
-0.34537482 0.2624065 -0.2621094 -0.20478588 -0.001647979 -0.08836749 0.32101902 0.06881514
-0.32833335 -0.34287232 -0.2545742 -0.12050286 0.14795193 -0.10926317 -0.30733523 0.21431455
-0.31900156 -0.03354615 -0.31034267 -0.3248382 -0.02699396 -0.23855111 0.06398153 0.32922462
-0.21895625 0.2906706 -0.13833901 -0.005241126 0.1873481 0.100901455 -0.33530506 0.24766156
0.33434275 -0.13361764 -0.30171728 0.08139029 0.012614876 0.14443225 0.18979594 0.13740835
-0.10333353 -0.33090007 0.33940783 -0.053468138 0.317153 -0.24464315 -0.24877673 0.1457113
0.12936819 -0.1336069 0.22625896 0.24493262 -0.24242555 -0.068252444 -0.27709183 -0.2740211
-0.25995818 0.060904145 0.26574865 0.35140547 -0.0033752024 0.34273145 0.014578819 -0.01835233
-0.011297911 -0.2193196 0.31248948 -0.2656932 -0.3250876 -0.03945589 -0.057258487 -0.16150449
0.343519 0.09445009 -0.33420858 -0.21777812 0.19289014 -0.13717888 -0.33433273 -0.3248724
-0.088327795 -0.15895788 0.20767495 0.33915576 0.09229195 -0.27833298 0.117002696 0.20103404

model.0.bias f4 [64]
00000000: a509 b03e bea4 33be c818 32bd 6e87 7dbe
00000010: 5859 693d 4c08 4ebe 71f6 0abe 3036 06bd
00000020: d750 1cbe 840a 55be 4622 a0be 6c0d 68be
00000030: 8007 c3bb 202d 11bd a7c0 8b3e 7ce9 ac3d
00000040: e606 5ebe 806e 41bb d89f 88bd 791e a43e
00000050: 95ac 83be 21d0 44be ac3d ce3d ee88 563e
00000060: bf60 9b3e fffe 79be a04b d93c 8604 79be
00000070: a2fb 7a3e 40de adbe daa0 2d3e 2857 503d
00000080: 40f3 b1bc fb3f 963e 7ed9 aabe 7845 0ebe
00000090: df2e 56be e6dd ebbd 776b 3abe f8b7 0fbe
000000a0: c2b5 3a3e 9414 96be 8d83 943e 026b dcbd
000000b0: f73a afbe 4aa3 233e 810e 8f3e f26c 2d3e
000000c0: fb45 913e 82f1 35be 92e0 543e b0df 76be
000000d0: 77b4 29be 8710 a73e 7929 38be a1d8 923e
000000e0: 56be afbe c5a0 aabe f8be f23d 3d08 36be
000000f0: cad0 9ebe ccbc f53d c3e7 01be 508c e33c
0.34382358 -0.17543313 -0.043480664 -0.24758694 0.05696997 -0.20120353 -0.13570572 -0.03276652
-0.15265213 -0.20804793 -0.3127615 -0.2266137 -0.005951822 -0.035443425 0.2729542 0.08442971
-0.21682319 -0.0029515326 -0.06671113 0.320545 -0.25717607 -0.1922002 0.10070357 0.20950672
0.3034725 -0.2441368 0.026525319 -0.24318132 0.24510053 -0.33958626 0.16955891 0.05086437
-0.021722436 0.29345688 -0.33369058 -0.13893688 -0.20916317 -0.11516933 -0.18205057 -0.14035022
0.18233398 -0.29312575 0.29006615 -0.107625976 -0.34224674 0.15980259 0.27940753 0.1693609
0.28373703 -0.17767909 0.20788792 -0.24108768 -0.16572748 0.32629797 -0.1798457 0.286809
-0.34324902 -0.33325782 0.11852831 -0.1777658 -0.31018668 0.11998901 -0.12686066 0.027776867

model.2.weight f4 [64, 64]
00000000: a823 f23d 4400 9e3d e054 70bc 88a6 5c3d
00000010: 7c64 5a3d 200c 10bc 0858 ff3c bac4 a2bd
00000020: a474 543d d82f aa3d 2666 933d d84f c2bd
00000030: d2f3 d2bd 9c50 ccbd 480b cfbd 266b 923d
00000040: 0088 4aba eaa7 813d ce01 e83d 4ce3 a4bd
00000050: 5c26 abbd a092 5ebd 2641 f33d 9048 ecbc
00000060: 9085 283c c897 de3c e88c b6bc 301d a03c
00000070: 6e78 fabd 2061 6e3c 92d7 b23d 8e9b c43d
00000080: 38f7 8ebc 1455 f83d 18e5 a93c 5cd5 d13d
00000090: d8d1 d03d e8b9 703d 7861 f93d f0cf 98bd
000000a0: 9691 8dbd 3c13 bebd 2c3f 18bd 4012 0dbd
000000b0: ae5e ac3d 5068 05bd 7c3a e53d 1cc5 54bd
000000c0: 7ef9 cdbd c48b 5fbd 7449 81bd 88df aabd
000000d0: 1823 713d 6ed5 abbd a04d de3b c011 c13d
000000e0: b88a 46bd 0069 043d 20e4 983c 52c5 b9bd
000000f0: acd8 193d 9a82 f5bd 180f dd3c 36ec 96bd
00000100: dc9a 053d e2c0 9e3d 3a59 c8bd 3008 bd3d
00000110: a44b 93bd e633 9dbd 40d8 72bd ba7d 813d
00000120: c42f 82bd 5422 96bd 6882 fabc 58dc 6ebd
00000130: 2497 2abd bac2 b73d dc79 f4bd 009d aa3b
00000140: 34a2 a53d 0c37 c8bd 1806 8f3c ec34 2c3d
00000150: 80af 743c 88c7 eebc 00de 963c ba55 c53d
00000160: 38ff 3a3d f0dc cabc 586e 983c 30fd bf3c
00000170: c45c ce3d 0474 493d 743c 72bd dc13 e1bd
00000180: 307e f9bc 3a58 9cbd c0ea 2bbc 3a7c d53d
00000190: a252 d2bd c0e7 633c a43e f83d 726c be3d
000001a0: 507a 6d3c d6cb e43d c040 cc3b 428d 823d
000001b0: 8a06 fcbd a805 2f3d c03e cd3c ae52 943d
000001c0: 9897 9ebd d8dd 96bc 40b8 c1bd 2897 d23c
000001d0: ec8a dfbd d8b4 febd b0d2 c53d 5825 813d
000001e0: 9a8e be3d 302c 783d 6c0b e13d 90c8 afbc
000001f0: c089 323d 90a0 45bd 9eeb d2bd 00ad dc3b
00000200: d8b4 d03d a86f eebd 5010 943d 4872 2b3d
00000210: 146d 9bbd c0a0 d3bd c006 a13d c6af c9bd
00000220: f8f0 4f3d 0427 de3d f8e0 e8bc 48dd d8bd
00000230: 604e 8a3d 6056 f53d a6c9 9d3d 9493 533d
00000240: b673 d13d acd9 53bd a4f2 70bd 70b4 0c3c
00000250: 505d ddbd c278 9d3d 3844 0d3d 7e63 a43d
00000260: ae6b 83bd 6864 2bbd 26af f13d 5ac2 eebd
00000270: 7881 bcbd 0096 773c 10f7 723d 4255 e4bd
00000280: 34be a6bd d897 cd3d cc3e 9dbd 5876 72bd
00000290: ee36 94bd 6446 14bd d250 a13d 30c0 f03c
000002a0: c00e 09bc a00f e23b 86c6 f13d c0a0 ef3c
000002b0: ece5 c73d 749d 8abd 3663 8b3d acb4 a7bd
000002c0: 389a ac3d 1c03 d7bd f60e ddbd f8fe fdbc
000002d0: d673 8f3d 58d3 803c e6c0 cf3d fc0e 05bd
000002e0: 4c86 15bd 70c0 373c 869e c8bd 08d9 e63c
000002f0: a889 0cbd 102e 72bc 508b 5cbd 0013 37bb
00000300: 0a8d ef3d cea1 d8bd f8f7 52bd eccd 343d
00000310: 0084 eeba aec5 88bd 9ab6 aa3d a050 18bc
00000320: 082f ca3d fe90 d13d a2f8 bd3d 6a41 953d
00000330: 2ca6 83bd 123d b0bd c073 4ebc 4ccc 523d
00000340: 3c41 52bd 8091 efbc be9c cdbd e0f2 5ebd
00000350: c072 85bd 148c cf3d 1467 7dbd a094 7cbd
00000360: 40f6 1b3c c0d6 9c3b dc3d a5bd 2054 9a3b
00000370: c88e b03d 8084 133d 8a3a 8a3d 0435 f53d
00000380: 80c3 943b 2e0b a23d 30fa a73c 764f 99bd
00000390: fcd2 073d a445 b2bd 00fc 4a3a c0af fcbc
000003a0: 5cbf 3ebd 7884 a23c 1ed0 f83d 308d 23bc
000003b0: 0056 e43a 6492 ff3d 6008 173d 08db 2f3d
000003c0: 706f 493c 24eb 653d d8dc 58bd 04ad b83d
000003d0: a8bd e4bd c864 5d3d d896 d9bc f638 fabd
000003e0: 8070 073b 94a7 14bd ccd1 f43d f063 44bc
000003f0: be07 b13d 5e38 ec3d 9c1a c93d e832 e6bd
0.11823207 0.077148944 -0.014668673 0.053869754 0.053318486 -0.008791953 0.031169906 -0.07947679
0.05186905 0.08309907 0.07197218 -0.09487885 -0.10300411 -0.099763125 -0.101095736 0.07149343
-0.0007725954 0.06330855 0.11328469 -0.08051166 -0.08356926 -0.05433905 0.118776605 -0.028843194
0.01028575 0.027171984 -0.022283986 0.019545168 -0.122300014 0.014549524 0.08732523 0.09599982
-0.017451867 0.12125602 0.020739123 0.10245773 0.101962745 0.058771044 0.12176794 -0.07461536
-0.06912534 -0.092810124 -0.03716962 -0.034441233 0.08416496 -0.032570183 0.11192796 -0.05194579
-0.100573525 -0.05457665 -0.06312838 -0.083434165 0.05887136 -0.08390318 0.006784156 0.09427214
-0.048472136 0.0323267 0.018663466 -0.09070839 0.03756015 -0.11987801 0.026984736 -0.073692724
0.03261839 0.07751633 -0.097826436 0.09230077 -0.07192162 -0.076759145 -0.059288263 0.063228086
-0.06356767 -0.07330766 -0.03057976 -0.058315605 -0.041648045 0.08972688 -0.11937305 0.005206704
0.080875784 -0.09776124 0.01745896 0.042042658 0.014934421 -0.029147878 0.018416405 0.09635492
0.04565355 -0.024763554 0.018607304 0.023436159 0.100762874 0.049182907 -0.059139684 -0.10990116
-0.030455679 -0.076340154 -0.0104929805 0.10424085 -0.10269667 0.013910234 0.12121323 0.09298028
0.014494494 0.11171691 0.0062333047 0.06374599 -0.12305935 0.042730004 0.025054336 0.072423324
-0.07743758 -0.01841633 -0.09458971 0.025706843 -0.10915169 -0.12436837 0.09659326 0.06305951
0.09304543 0.060589015 0.10988507 -0.02145794 0.0435884 -0.048248827 -0.10298847 0.0067344904
0.10190743 -0.116423905 0.07229674 0.041857034 -0.075891644 -0.10333395 0.078626156 -0.09847979
0.050766915 0.108472854 -0.028427586 -0.10589081 0.0675323 0.11979365 0.07704477 0.051654413
0.10227148 -0.05172126 -0.05882515 0.0085879415 -0.108088136 0.07689048 0.034488887 0.08026789
-0.06417023 -0.0418438 0.11800985 -0.11658163 -0.09204382 0.015111446 0.05931765 -0.11149074
-0.08141747 0.100387275 -0.07677993 -0.059194893 -0.072370395 -0.036199942 0.078767434 0.029388517
-0.008365333 0.0068988353 0.118054435 0.029251456 0.09760651 -0.06768313 0.06806032 -0.08188757
0.084278524 -0.1049864 -0.10793869 -0.031005368 0.07004516 0.015725777 0.10144214 -0.032484993
-0.03650503 0.011215314 -0.09795861 0.02817966 -0.034310967 -0.01478149 -0.053843796 -0.002793491
0.11696823 -0.10577737 -0.051506013 0.044141695 -0.0018197298 -0.066783294 0.0833561 -0.009296566
0.09872252 0.10232733 0.092759386 0.07287867 -0.06428179 -0.08605398 -0.012600839 0.051464364
-0.051331744 -0.029244184 -0.10039662 -0.054430842 -0.065160275 0.1013414 -0.06186588 -0.061665177
0.00951916 0.0047863424 -0.08068439 0.0047097355 0.08620983 0.036015034 0.06749447 0.119730026
0.004539907 0.079122886 0.02050504 -0.07485859 0.033160195 -0.08704689 0.00077432394 -0.030845523
-0.046569213 0.019838557 0.1214907 -0.009982392 0.001742065 0.12479094 0.03687322 0.042933494
0.012294635 0.05613245 -0.052944988 0.09017375 -0.111689866 0.05405119 -0.026561186 -0.12217896
0.002066642 -0.036292627 0.11954078 -0.011986718 0.08644055 0.11534189 0.098195285 -0.11240178

model.2.bias f4 [64]
00000000: c84d e53c 005f e9bb e075 303d 3e9c bbbd
00000010: 1212 e4bd 9e14 b73d 8014 f83d 0c6e c0bd
00000020: 70d7 1bbd 2074 e53c d8c7 f43c e0b7 9cbb
00000030: 2e24 dcbd 3a1c fe3d e087 f63d d884 96bc
00000040: 78c7 debd 8c0e babd c48b 0b3d 6c22 ac3d
00000050: b0ba 433d b0fb 5abd 006b 423c b0c5 0d3c
00000060: b42b 373d c40f 20bd 1cef 813d fedf bd3d
00000070: 50eb 19bd 54fc 253d c880 b2bc f028 a23d
00000080: 1415 ecbd 6619 abbd fe82 813d b82b ddbd
00000090: a64a b83d 7cbf afbd 5056 463d f6c7 c7bd
000000a0: 6649 e13d 6693 cbbd 4a69 fc3d 38a0 f43c
000000b0: aab9 8ebd d854 fd3d 8828 1c3d 7c70 17bd
000000c0: c027 aabb 0820 e73d f8fe a63c d89a e4bc
000000d0: 46df f6bd 0040 31b7 5894 57bd 7460 28bd
000000e0: 54e3 bc3d 8215 dc3d 50b3 f5bc c0b3 fabc
000000f0: 8074 ebbb 2663 dc3d acf7 e8bd 9037 eebc
0.02799119 -0.0071219206 0.043081164 -0.0916066 -0.11136259 0.08939479 0.12113285 -0.0939599
-0.038047254 0.028009474 0.02988045 -0.004782662 -0.10749088 0.124077275 0.12037635 -0.018373892
-0.108778894 -0.09084806 0.034068838 0.08405003 0.04778546 -0.053462684 0.011866331 0.008653089
0.044719413 -0.039077535 0.063444346 0.09271239 -0.037577927 0.040523842 -0.021789923 0.079179645
-0.11527458 -0.08354454 0.06323813 -0.10799354 0.08998613 -0.085814446 0.048422158 -0.097549364
0.11000328 -0.099402234 0.1232477 0.029861555 -0.06969006 0.12369698 0.03812459 -0.036972508
-0.005192727 0.11285406 0.02038525 -0.027905867 -0.12054305 -1.0564923e-05 -0.052631706 -0.04110761
0.09223047 0.1074629 -0.02999273 -0.03060329 -0.0071855187 0.107610986 -0.11375365 -0.029079229

model.4.weight f4 [8, 64]
00000000: 8e7e 81bd f8c3 8b3d c4d0 d6bd 7869 1fbd
00000010: 205b d4bb e86c 62bd 30d2 13bc 4835 9bbd
00000020: 1217 a6bd 40dc 3b3b e081 44bd e05c c1bc
00000030: 5e2e f63d a086 51bc 606d 10bc a0e6 e2bd
00000040: 10ac ba3c 3e90 cc3d b4de 3d3d c8f6 993d
00000050: b8c5 3abd 7854 83bc a037 ebbd 54c3 ebbd
00000060: 48c9 ebbc c0b6 543b fe4f f8bd 34a4 a2bd
00000070: 6406 c0bd 7243 e43d d891 eebd 4640 f73d
00000080: a8c6 88bd 3cdc 8dbd 2069 42bd c001 f83b
00000090: 541b 513d e090 96bb 0012 043b a67d 88bd
000000a0: e699 e73d 309e 16bd 6660 c3bd 4057 1f3d
000000b0: e0ac 4ebc e016 1dbc e0be db3b 0091 0fbd
000000c0: a0f2 55bc 40e9 fcbb c818 6abd 1ee5 cebd
000000d0: 3044 58bc 80aa afbc e246 c5bd f489 ea3d
000000e0: c4f7 8b3d 308b 9c3d de8b f5bd 1415 cdbd
000000f0: 74dd 39bd 682e dabd f827 d43d 283e aa3c
00000100: 6843 b3bd 88cc 14bd fe5b bb3d 146f d03d
00000110: 0019 243d dc0e 15bd 0014 b03b 746c f5bd
00000120: 28e4 fc3d 7453 e9bd 18e6 2ebd 847b d5bd
00000130: 1a17 cabd 4080 a43b 5e43 d1bd 3cc2 e1bd
00000140: 7218 c23d 008b 143c 603a 0d3d 8007 27bd
00000150: d008 8bbd 6a5e d03d 6e5e f53d 7689 ae3d
00000160: b857 e13d 7c32 1ebd da41 cdbd 8c98 c63d
00000170: a003 573c d882 cfbc 26de e23d 002e 02bc
00000180: 769d ecbd 0ed2 d9bd da5a b83d e0b0 413d
00000190: 20b5 09bc 06d6 97bd 2403 81bd 2445 e13d
000001a0: b42f debd ec19 533d f620 b8bd 98ed f8bd
000001b0: baf5 b03d 9866 5ebd 30cb 49bd 561e f73d
000001c0: d8f8 b6bd 1810 623d 1439 9ebd 8052 f43a
000001d0: e0a9 02bd 22c8 febd 7853 d0bc 381b 7c3d
000001e0: 9094 423d 208b 5c3d 4c4a 953d a097 2a3d
000001f0: 4032 c5bc b053 90bc a076 e8bb 3834 eb3c
00000200: 0e97 f8bd d09f eb3c 6e63 ef3d 5835 b13c
00000210: 5299 9bbd b462 623d 64e4 cbbd 405b ca3c
00000220: 941d 87bd e8d6 b03c 440b f5bd 3cc3 d23d
00000230: 9a3a 86bd 3e8f bebd 2c5f 583d fe64 c63d
00000240: 300f 2abd 2ca1 b1bd 7aed 873d 3247 e83d
00000250: 66dd 893d d84f 44bd daa9 dc3d a46c 15bd
00000260: 2aaf c7bd cedc 8f3d 48e9 d7bd 4048 12bb
00000270: 087b b7bc 905e 0d3d 80be 953a e886 dbbc
00000280: 80ef 1c3c 5a2d bf3d 1861 e93d ece6 eb3d
00000290: 94d9 323d 82ff d03d 02f7 983d c04c 48bc
000002a0: ecd6 76bd 70b2 52bc 066b f83d 905f 88bc
000002b0: 741a 8fbd 38d4 313d 903d b3bc dc89 ca3d
000002c0: 4481 b9bd d0ac 0dbd b467 e23d 6ec7 9ebd
000002d0: 5202 93bd 7044 d53d cc79 6d3d 6823 e2bd
000002e0: 588d e2bc 0a95 c83d a048 903d 98ba babc
000002f0: 243e 7fbd 0046 ea3d 0c59 4c3d 80a5 7fbd
00000300: 32d5 963d 4c4d 94bd 7c9a 393d 00f0 08bd
00000310: e2f9 843d ace1 013d 9e12 ef3d a0f7 203c
00000320: 4015 9a3c 304d 713d 80a7 a03b 6e60 b93d
00000330: 6edf a73d 70f5 1bbd b838 25bd 622f 893d
00000340: c01c 00bc b478 ab3d 38ee 78bd a01d dbbc
00000350: 0e56 fdbd 70c4 a0bd f408 7bbd 5812 6dbd
00000360: 3e95 b7bd 7ed6 843d d41c 7bbd 66bd 8c3d
00000370: 8abc e1bd 184b da3d 44c9 10bd eac5 b93d
00000380: 4825 ef3d 9878 063d 82fc b73d e421 b13d
00000390: 9e1d 813d d4bc 8cbd 8068 c4ba f49a fabd
000003a0: 62a5 fabd ac82 7fbd 5473 063d 1e4f f9bd
000003b0: a264 b4bd b054 8f3d 3cda ecbd 461a c93d
000003c0: be54 86bd d6b7 f63d e0dc 1f3c 84a3 7abd
000003d0: 9436 00bd 18f6 ad3c 2a5d dcbd 003b 833c
000003e0: d484 813d 02b4 dcbd f050 67bc 60ad 0cbd
000003f0: 0848 d83d 6474 503d 4cf5 4c3d be5d d03d
-0.063229665 0.068244874 -0.10489038 -0.038918942 -0.0064805895 -0.055279642 -0.009022281 -0.07578522
-0.08109869 0.0028665215 -0.04797542 -0.023603857 0.120205626 -0.012788445 -0.0088151395 -0.110791445
0.022787124 0.099884495 0.046354964 0.07517773 -0.045598716 -0.016031489 -0.11485219 -0.11511865
-0.028782502 0.003245756 -0.12124632 -0.079414755 -0.09376219 0.11145677 -0.11648911 0.12072806
-0.06678516 -0.06926772 -0.047463536 0.007568568 0.051051453 -0.004594907 0.002015233 -0.066645905
0.11308651 -0.036771953 -0.09539871 0.038901567 -0.012614459 -0.009587973 0.0067061037 -0.035050392
-0.013058335 -0.0077182353 -0.05715254 -0.101022944 -0.013199851 -0.021443605 -0.096326604 0.11452094
0.06834367 0.076437354 -0.11989568 -0.10013786 -0.04537721 -0.106533825 0.10359186 0.020781592
-0.08753091 -0.03632787 0.091484055 0.101774365 0.040062904 -0.036391124 0.005373478 -0.119835764
0.12348205 -0.113928705 -0.042699903 -0.10423949 -0.098676875 0.0050201714 -0.102179274 -0.110233754
0.09477319 0.009066343 0.0344795 -0.040778637 -0.0678879 0.10174258 0.11980902 0.08522312
0.11003059 -0.038622364 -0.10022326 0.09697065 0.013123423 -0.025330946 0.11077528 -0.007945538
-0.11553471 -0.10635768 0.090017036 0.04728782 -0.008405 -0.074138686 -0.06299427 0.10999516
-0.108489424 0.051538393 -0.08990662 -0.121546924 0.086406186 -0.05429706 -0.04926604 0.12066333
-0.08934182 0.05519113 -0.077257305 0.001864031 -0.031900287 -0.12440516 -0.025430426 0.061549395
0.04750496 0.053843617 0.07289562 0.041648507 -0.024071813 -0.01761803 -0.0070942193 0.028711423
-0.121381864 0.028762728 0.116888866 0.021631882 -0.07597603 0.055269912 -0.099556714 0.024701715
-0.065974385 0.02158685 -0.11965039 0.10291144 -0.06554146 -0.09304665 0.052825138 0.096872315
-0.04151839 -0.08673319 0.06637092 0.113417044 0.067316815 -0.047927707 0.10774584 -0.03648056
-0.09750207 0.07024537 -0.10542542 -0.0022320896 -0.022397533 0.03451401 0.0011424571 -0.026797727
0.009578586 0.09334822 0.11395472 0.11518654 0.04366453 0.10204984 0.07468988 -0.01222533
-0.06026356 -0.012859926 0.12129788 -0.01664713 -0.069874674 0.04341528 -0.021879941 0.09889576
-0.090578586 -0.034588635 0.11054936 -0.07752882 -0.07178177 0.10413444 0.057977483 -0.110419095
-0.027655289 0.09794052 0.07045102 -0.022794053 -0.06231512 0.11439133 0.04988961 -0.062413692
0.073648825 -0.07241306 0.045313343 -0.033432007 0.06492974 0.031709358 0.11673473 0.009824663
0.01880896 0.058911502 0.00490278 0.09051596 0.08196913 -0.038075864 -0.040337294 0.06698491
-0.0078193545 0.08372632 -0.060774058 -0.026747525 -0.12369929 -0.078499675 -0.061287835 -0.057878822
-0.089640126 0.06486224 -0.06130679 0.068720624 -0.11022289 0.10658854 -0.03534819 0.09070952
0.11677033 0.03282985 0.08983709 0.08649042 0.06304477 -0.068719536 -0.0014984757 -0.12236586
-0.122385755 -0.062380478 0.03282483 -0.121732935 -0.08808257 0.06998575 -0.115650624 0.098194644
-0.06559132 0.12046783 0.009757251 -0.061191097 -0.03130205 0.02123551 -0.10759957 0.016019344
0.06324163 -0.10776521 -0.014118418 -0.03434503 0.10560614 0.05089225 0.05003862 0.1017413

model.4.bias f4 [8]
00000000: 78f5 cebc 6c73 f3bd ec2a 8bbd 30ee 923c
00000010: 9ec1 c43d 60ae 233d 8465 0cbd d6b4 dcbd
-0.025263533 -0.11887249 -0.06795296 0.017935842 0.09607242 0.03996122 -0.0342765 -0.10776679
