model/2.pth (torch, 23565 bytes, 6 tensors)

model.0.weight f4 [64, 8]
000000 e2 60 7a 3e c0 18 97 3d 2a 6e 93 be c3 8e aa be
       0.2445102 0.073777676 -0.28794986 -0.33312044
000010 c9 37 a8 be 67 df ac 3e 70 55 72 3d e0 26 0d 3d
       -0.3285506 0.33764192 0.05916351 0.034460902
000020 0e c6 a4 be e3 a3 b0 be c8 c6 cf 3d 57 cf 6d be
       -0.32182354 -0.34500036 0.101453364 -0.23223625
000030 ca ce 8c be b1 45 b3 3e 97 86 9d 3e 93 70 90 be
       -0.27501518 0.35014108 0.30766746 -0.28210887
000040 de e2 38 3e 10 35 68 be cf 87 4e be b0 67 9b be
       0.18055293 -0.22676492 -0.20168994 -0.30352545
000050 20 57 b5 3d 29 06 16 be 40 28 03 bc 1a 9b 4e 3e
       0.088545084 -0.14650787 -0.008005202 0.20176354
000060 e3 47 99 3e 82 a8 65 3e 8c 4a 7a be 10 ba 3e bd
       0.29937658 0.22427562 -0.244425 -0.04656416
000070 b5 67 b0 3e 84 3a ba 3d da 1f 7b 3e f7 f6 8b 3e
       0.34454122 0.09093192 0.24523869 0.27336857
000080 84 fc bc 3d 00 6c 89 3d dc 71 5c be 57 11 21 be
       0.09227851 0.067100525 -0.21527809 -0.15729271
000090 80 4b 75 bc 27 f2 8b 3e fa e5 1d 3e d0 88 03 be
       -0.014971614 0.27333185 0.1541976 -0.12845159
0000a0 80 d4 44 3b 85 97 86 3e d5 b5 34 be 0f e0 ac 3e
       0.0030033886 0.26287475 -0.17647488 0.33764693
0000b0 e5 69 a5 be e1 77 41 be 6e bc 46 3e 28 ab 00 3d
       -0.32307354 -0.18893386 0.19407818 0.031413227
0000c0 e4 a0 90 3d 63 5a ae 3e 95 18 4e be e8 2b b4 bd
       0.070619375 0.34053335 -0.20126565 -0.08797437
0000d0 27 42 5c be 4a ea 42 3e fb 90 82 be 3a c4 29 3e
       -0.2150961 0.19034687 -0.25501236 0.1657876
0000e0 4c 50 10 3e c8 f6 a3 3d 7e 9a 2b 3e d4 95 ff bd
       0.14093131 0.08006054 0.16758153 -0.12479749
0000f0 fd f1 a7 3e 62 9b 7f 3e 58 69 01 3e 18 01 5e 3d
       0.3280181 0.24961618 0.12637842 0.05420026
000100 0c a2 d8 3d d0 f2 d6 bc 7b 16 b1 be a6 db 3d be
       0.10577783 -0.026238829 -0.34587464 -0.1854082
000110 3f 07 ad be 86 db 25 3e cc 45 65 be 2e 08 22 3e
       -0.3379459 0.16197023 -0.22389907 0.15823433
000120 cf 2f 8c 3e b0 4b 15 bd 60 f9 ca 3c c0 71 d8 bc
       0.27380225 -0.036449134 0.024777114 -0.026421428
000130 57 ad 5d be 48 bb e3 3d 4a 44 4f 3e 6a d2 59 3e
       -0.21648155 0.111197054 0.20240894 0.21271673
000140 eb 1a 80 3e 8f 75 83 3e c1 b0 89 be 24 9b b6 3d
       0.25020537 0.25675628 -0.26892665 0.089163095
000150 91 99 9e 3e 3c 50 dc 3d 78 5a 81 be 2d e5 2d be
       0.30976537 0.10757491 -0.25264335 -0.16981955
000160 e5 26 9f be 25 53 9c be 14 3c 88 bd 3c 20 e4 3d
       -0.31084362 -0.30532184 -0.06652084 0.11138961
000170 94 ec 95 be 0b 5a 84 3e 94 62 97 bd 64 f6 88 3d
       -0.29282057 0.25849947 -0.07391849 0.0668762
000180 64 e4 0c 3e 80 f9 21 3d 28 17 ac bd 70 f1 4f bd
       0.13758999 0.039544582 -0.08402854 -0.050767362
000190 74 ab e0 3d 8e cc 55 3e 16 00 61 3e 60 7b 14 bc
       0.10970202 0.20878813 0.21972689 -0.009062618
0001a0 7a 05 6c 3e bb 62 a6 3e 8b b3 08 be 9a fa ac be
       0.23048964 0.324972 -0.1334974 -0.33784944
0001b0 22 36 e4 bd 90 94 84 be e8 29 eb 3d 90 45 71 3d
       -0.111431375 -0.25894594 0.11482602 0.05890423
0001c0 5d 98 9c 3e 56 0b 30 3e 98 d7 78 bd d8 58 24 3d
       0.30584994 0.17191824 -0.06075248 0.04012379
0001d0 06 5b 6e 3e b8 fc a5 3d 58 72 0e 3d cc af 8d bd
       0.2327691 0.08104843 0.034777015 -0.06918296
0001e0 98 39 66 be cc fc eb 3d 98 18 61 3d 1d 83 5d be
       -0.22482908 0.115228266 0.054955095 -0.21632047
0001f0 8d 99 a9 3e b0 6a 92 bc 30 48 df bc ed 7d 9d be
       0.33124962 -0.017873138 -0.027256101 -0.30760136
000200 61 2a 7b be 64 c4 78 be 6f 93 9d 3e 16 eb 6b 3e
       -0.24527885 -0.24293667 0.30776545 0.23038897
000210 44 52 8e 3d 88 c4 8e 3d 97 25 a3 3e d6 7d f9 bd
       0.06949285 0.06971079 0.31864616 -0.121822044
000220 72 00 95 be d6 9e 71 be 22 0f 9d be ea b0 5b 3e
       -0.29101902 -0.23595747 -0.30675608 0.21454206
000230 84 6d c0 bd 97 4e 95 3e 6c eb 8f 3d d8 d7 0d bd
       -0.093958884 0.29161522 0.07027325 -0.034629673
000240 81 9a 24 be 1f a4 95 3e 7e 3e 9c be a6 2f 0e be
       -0.16074564 0.29226777 -0.30516428 -0.13885364
000250 6b 95 5b be c0 44 50 3c 00 43 3f 3d 7c 5d e6 3d
       -0.21443717 0.012711704 0.046694756 0.112482995
000260 c5 07 88 be c0 c3 af be 9d 6a 93 be 34 66 e3 3d
       -0.26568428 -0.34329033 -0.28792277 0.11103478
000270 89 01 37 be 8e a6 3c 3e 52 31 47 3e d0 d8 ac bd
       -0.1787168 0.1842291 0.19452408 -0.08439791
000280 37 46 69 be b4 01 cd bd 6e 71 6d be 01 9f 87 3e
       -0.22780691 -0.100100905 -0.23187801 0.26488498
000290 00 dd 7c 3c 80 76 aa 3c a6 47 19 3e 66 e9 17 3e
       0.01543355 0.020808458 0.14968738 0.14835128
0002a0 99 cd 3a be b4 42 fe bd 76 ca 5d 3e b1 41 87 3e
       -0.18242492 -0.12415066 0.21659264 0.26417306
0002b0 0b 6a 2f be 7d c1 aa 3e 4d 97 a0 3e e6 e3 24 be
       -0.17130296 0.33350745 0.31365433 -0.16102561
0002c0 40 71 6e bd b2 1a 4e 3e 31 62 85 3e 19 a0 82 3e
       -0.058213472 0.20127371 0.26051477 0.2551277
0002d0 9a 61 7c 3e 70 f8 88 be 39 62 97 3e fc 4e 10 3e
       0.24646607 -0.26752043 0.29567125 0.1409263
0002e0 d6 df 5e be d5 49 b2 be 25 3b 86 3e 06 6d 19 3e
       -0.21765074 -0.34821954 0.26217 0.14982995
0002f0 f4 34 a3 3d 90 70 9c be bc 47 e2 3d 3c 49 8d 3d
       0.079690844 -0.30554628 0.110488385 0.06898734
000300 4d 73 6e be b6 d7 4b 3e 78 4a 3d bd 40 37 97 be
       -0.23286171 0.19906506 -0.046213597 -0.2953434
000310 c5 79 a1 be 67 41 a0 3e f3 62 84 be 53 f2 05 be
       -0.31538215 0.31299898 -0.25856742 -0.1308072
000320 12 e6 3b 3e 40 56 71 bc c4 8f 9a 3d b9 bd b1 be
       0.18349484 -0.014730036 0.07546952 -0.3471506
000330 52 21 19 3e d5 b3 aa be 58 b8 7f bd 34 93 cf 3d
       0.14954117 -0.33340326 -0.062431663 0.10135499
000340 16 a6 7a be ec 85 a7 bd 4d 94 4b be 3b e3 ab 3e
       -0.2447742 -0.081798404 -0.19880791 0.335718
000350 b6 1a 37 3e b8 58 9f bd a9 52 82 3e 06 e2 78 be
       0.17881283 -0.07780594 0.2545369 -0.24304971
000360 00 b2 fb 3a 8c 6e 84 be b6 b9 43 3e 50 05 79 bd
       0.0019202828 -0.2586559 0.19113812 -0.060796082
000370 c5 54 b0 3e 90 02 2d 3d 5a 21 5e 3e f8 ac e6 3d
       0.34439674 0.042238772 0.2169241 0.1126346
000380 47 e9 81 3e 00 f5 29 3c 08 64 a7 be 2e ac 68 3e
       0.2537329 0.010373354 -0.32693505 0.22721931
000390 fe 16 76 3e a4 56 8e 3d f0 bc fd bc fd 73 97 3e
       0.24032208 0.06950119 -0.030973881 0.2958068
0003a0 8a 6a 4e 3e f6 6d 7d be 82 bc 3c be 60 16 74 3d
       0.20157829 -0.24748978 -0.18431285 0.05959165
0003b0 90 14 0f 3d d0 06 16 be 20 91 92 bc f3 78 84 3e
       0.03493172 -0.14651036 -0.017891467 0.25873527
0003c0 74 1a e4 3d cf d2 5a be ad 6a 8f 3e 8b 10 99 be
       0.11137858 -0.2136948 0.28011075 -0.29895434
0003d0 e0 72 bf 3d 8e 0d 8c be 02 19 28 3e 10 ce cb bc
       0.093480825 -0.2735409 0.1641579 -0.024878532
0003e0 c0 37 aa bc 8e e2 38 be 28 10 17 be 48 ce 4c 3d
       -0.020778537 -0.18055174 -0.14752257 0.050001413
0003f0 80 c3 10 bd e3 6d 6a be 68 67 c0 bd 62 eb 0a be
       -0.035342693 -0.22893481 -0.09394723 -0.13566354

model.0.bias f4 [64]
000000 e5 7d ae 3e 29 c5 61 be e8 4a a4 bd 73 55 8e be
       0.34080425 -0.22047867 -0.080221 -0.27799568
000010 3a 3a 50 3e 94 00 d1 3d 48 00 f1 bd b7 ec ac 3e
       0.20334712 0.102051884 -0.11767632 0.3377435
000020 71 e4 84 be 40 89 47 be fe c4 7f 3e 95 3b 66 be
       -0.25955537 -0.1948595 0.2497749 -0.22483666
000030 e8 b1 12 3d f4 58 ff 3d 0c da ad 3d 5f 41 93 3e
       0.035814196 0.12468138 0.08488855 0.28760812
000040 c2 7c 59 3e c8 f1 bb bd 40 76 0f 3d 3a 6b 45 3e
       0.21238998 -0.091769755 0.03502488 0.19279185
000050 5a 10 89 be b4 31 16 be 00 b7 31 bb a5 e6 9e 3e
       -0.26770288 -0.14667398 -0.0027117133 0.31035343
000060 76 b7 3c 3e 5f 48 88 be bc 94 6a be 9a 06 f5 bd
       0.1842936 -0.26617715 -0.229083 -0.1196415
000070 2f 3f 8b 3e f0 9c f4 bc 71 82 8c 3e 23 6b a6 3e
       0.27196643 -0.02985999 0.2744327 0.32503614
000080 2a 5e 41 3e c0 11 90 3b 09 36 84 be 33 fc a4 be
       0.18883577 0.004396647 -0.25822476 -0.32223663
000090 a4 56 8a 3d 70 3b 16 bd d0 bc e8 3d 45 d8 b4 3e
       0.06754807 -0.036677778 0.11364138 0.3532125
0000a0 51 b0 ab be 04 9c 96 bd d8 33 02 3e b0 7b 24 bd
       -0.33532956 -0.07353976 0.1271509 -0.04015702
0000b0 a7 94 a3 be f0 13 a0 bc 10 1b b7 bd 30 44 03 bd
       -0.3194935 -0.019540757 -0.08940709 -0.03204745
0000c0 ba 23 8d be 46 65 7b 3e c0 94 41 3c 43 83 a1 be
       -0.2756632 0.24550352 0.01181525 -0.31545457
0000d0 c2 c8 29 3e 4f d9 85 3e 34 e7 a4 be f2 c3 80 be
       0.1658049 0.26142356 -0.32207644 -0.25149494
0000e0 ee 65 22 3e 98 28 92 3d c0 ec b0 bd 49 fa b1 be
       0.15859196 0.07136649 -0.086389065 -0.34761265
0000f0 05 7f 88 3e 47 0a 80 3e b0 d9 69 bd dc b1 8a 3d
       0.26659408 0.2500784 -0.05709237 0.06772205

model.2.weight f4 [64, 64]
000000 72 c7 8c bd 28 22 a7 bc fc bb d3 3d 98 03 ad 3d
       -0.06873979 -0.02040203 0.103385895 0.08447951
000010 74 70 f3 bd 40 b5 e5 bc ba dc ca bd e0 34 d4 3d
       -0.11886683 -0.028040528 -0.099053815 0.103616476
000020 70 61 01 3d 74 ae 8b 3d ca 78 db 3d 30 62 34 bd
       0.031587064 0.06820384 0.10716398 -0.04403895
000030 64 c0 49 bd e0 eb e5 bc 18 21 a3 3c ea 77 a5 3d
       -0.049255744 -0.028066576 0.019913241 0.080795124
000040 88 73 c5 3c c8 99 e2 3c 08 ba 04 3d 5e dc c2 bd
       0.024102941 0.02766122 0.032403976 -0.09514688
000050 4e 06 b3 bd ac a7 17 3d 3c a4 2f 3d fc dd 8d 3d
       -0.08741437 0.03702514 0.042881235 0.06927106
000060 cc 7d 7c 3d 20 d7 f9 bb b6 56 d5 3d b6 36 e6 bd
       0.061643407 -0.007624522 0.104169294 -0.11240904
000070 00 c0 90 b8 c0 59 57 bd d8 9a 7e 3d b4 82 83 bd
       -6.902218e-05 -0.052575827 0.06215939 -0.06421414
000080 fe a3 92 bd 6a 9c db bd 00 80 31 b9 78 58 ef bc
       -0.07160185 -0.10723193 -0.00016927719 -0.02921699
000090 08 a5 72 bd 80 98 0a 3b 1c ba fa bd f4 e3 de 3d
       -0.059239417 0.0021148026 -0.12242529 0.10883322
0000a0 9c 3d 36 bd 90 c3 ed 3d 64 33 53 bd 0a 53 ca 3d
       -0.04449235 0.11609566 -0.05156268 0.0987912
0000b0 04 ea e6 3d 3c f7 40 bd 9e ac c5 3d 50 45 15 3c
       0.11275104 -0.04711078 0.09652065 0.009110764
0000c0 ca 00 a8 bd 90 f4 76 bc 80 8c b0 ba bc 07 88 bd
       -0.082032755 -0.015072957 -0.0013469607 -0.066421
0000d0 04 9d d2 bd 92 3e 9b bd 1c 4d 06 3d 34 06 2f 3d
       -0.102838546 -0.07580294 0.03278838 0.042730525
0000e0 e4 a1 29 3d a2 d9 b5 bd 88 b5 e1 bd 00 3a 91 bc
       0.041414157 -0.08879401 -0.110209525 -0.017727852
0000f0 d0 ad 01 3d e8 ed 9b 3d 98 66 d5 bc b4 3f bc bd
       0.0316599 0.076137364 -0.026049897 -0.09191838
000100 84 53 e0 3d 60 ce 69 bc 8c bf 3b bd 00 00 13 ba
       0.10953429 -0.014270395 -0.04583697 -0.0005607605
000110 30 71 07 bc d0 6b 79 3d 40 5c e8 bb 32 e5 b6 bd
       -0.008266732 0.060893834 -0.007091075 -0.08930434
000120 80 3b 9d bb 04 03 3b bd 00 3e f2 3d 8a c4 eb bd
       -0.0047983527 -0.045657173 0.11828232 -0.11512096
000130 e8 8d 88 bd 1e 1c c7 bd f0 1c 87 bc 12 f8 a9 3d
       -0.066676915 -0.0972216 -0.01649329 0.08299269
000140 80 45 92 ba 52 32 cd 3d 78 23 f5 bd c8 35 91 bc
       -0.0011159629 0.100193635 -0.11969656 -0.01772584
000150 6c 8d 42 bd 00 12 ac 39 e4 af 84 3d e8 5d dd 3d
       -0.04749815 0.00032819808 0.06478861 0.10808927
000160 e8 dd f7 bd 70 3a 5e bd f0 19 cd 3d c0 39 db 3b
       -0.12102872 -0.05425495 0.10014713 0.006690234
000170 80 23 36 bd 00 ac c6 3a e0 e0 87 3c 00 7c d3 bc
       -0.04446745 0.0015157461 0.016586721 -0.025815964
000180 74 1b 0d 3d ac c7 4b 3d 40 0e 06 bb f6 27 f8 bd
       0.03445001 0.04975097 -0.002045527 -0.12116997
000190 00 6d 12 bb 0c 97 48 3d 58 b5 36 bd d8 04 4f 3d
       -0.00223428 0.048972175 -0.044606537 0.05054173
0001a0 24 f6 67 3d 90 d0 3a 3c 00 30 a0 b8 58 dc e2 bc
       0.056631222 0.011402264 -7.638335e-05 -0.027692959
0001b0 00 52 64 3a 54 5a da 3d 4c 5c a3 3d bc 77 a4 3d
       0.0008709729 0.1066176 0.079765886 0.0803065
0001c0 18 14 bf bd c0 d7 cb bc 90 b6 0d 3d 08 38 ca bc
       -0.093300045 -0.024883151 0.034597933 -0.02468492
0001d0 d0 2a 19 3c c4 c1 3a bd 48 81 a6 bc ac 48 79 3d
       0.009348586 -0.045594946 -0.020325318 0.06086032
0001e0 c8 39 0b bd 20 64 0b bd dc b8 d5 bd ba a1 ee bd
       -0.03399065 -0.034031034 -0.1043565 -0.11651941
0001f0 f2 ad 83 3d 66 0b f8 bd a2 bf c9 3d a0 d1 b7 bd
       0.06429662 -0.12111549 0.09851004 -0.0897553
000200 16 e8 b6 3d 7c 7c 83 bd 38 73 d5 bd 80 71 b0 bd
       0.08930986 -0.06420228 -0.10422367 -0.086153984
000210 7e 4e fd bd 4e 79 f3 3d a0 ce b1 3b d0 5e 57 bd
       -0.12368487 0.118883714 0.005426243 -0.052580655
000220 d4 7c 77 3d 2a 2a cc 3d 08 29 23 3d fc 7d f6 bd
       0.06042178 0.0996898 0.039834052 -0.12035748
000230 5c 4d de bd 22 fa 94 bd 60 39 f6 3b 0c 20 02 bd
       -0.10854599 -0.072742715 0.007514164 -0.031768844
000240 16 5a 91 3d 40 98 b3 bb e8 43 4a bd 1c 34 05 3d
       0.07097261 -0.005480796 -0.049381167 0.0325204
000250 60 19 23 3c 58 46 fd bd 48 ab c6 bc 08 03 b1 bc
       0.00995478 -0.12366933 -0.024251595 -0.02160789
000260 20 3c 5e bc 98 92 75 3d 78 aa 89 bc 9a 44 a5 3d
       -0.01356414 0.059954256 -0.016804919 0.08069725
000270 c4 48 63 bd 06 0f eb 3d 50 47 93 bd 4a 0c 8a bd
       -0.055489317 0.11477475 -0.07191336 -0.06740625
000280 ec 3b d8 bd 90 be 71 3d e8 20 15 bd 30 bb 4b 3c
       -0.10558304 0.059019625 -0.036408335 0.012434766
000290 52 40 a8 bd 72 a0 b1 bd bc 8b f6 3d c8 85 24 bd
       -0.08215393 -0.08673181 0.12038371 -0.040166646
0002a0 2a 00 e8 3d f8 ef c8 bd ba f4 9c bd 0c 27 fe 3d
       0.11328156 -0.098113954 -0.076638654 0.12409791
0002b0 64 e1 28 bd a8 25 37 3d 30 c1 bd bd 80 f7 8f 3d
       -0.041230574 0.044713646 -0.09265363 0.07029629
0002c0 c0 38 93 3b 48 63 ca 3d b4 75 4d bd 78 25 fb 3c
       0.004492849 0.09882218 -0.05016108 0.030657515
0002d0 70 89 d0 3c 30 aa 5d bd e6 a3 bb 3d 7e 5c f7 3d
       0.02545616 -0.05411738 0.091621205 0.12078188
0002e0 ea 54 84 3d a8 48 a3 3c 9e 87 de bd 3e 45 c7 3d
       0.064615086 0.019932106 -0.10865711 0.09730004
0002f0 70 27 69 3d 04 25 98 3d 10 18 d6 bc 64 d0 9d bd
       0.056922376 0.07428935 -0.02613452 -0.07705763
000300 d6 8a 8d bd 6a 7c ce bd 38 61 1c 3d 4a e1 e5 bd
       -0.069112465 -0.10082324 0.038178653 -0.11224611
000310 4a f3 d5 3d 80 80 70 3d 48 8a 03 bd 28 36 a6 3d
       0.10446794 0.058716297 -0.032114297 0.08115798
000320 b0 64 ce bd 00 df 23 3d e0 bf 89 3b 58 99 bc 3d
       -0.10077798 0.04000759 0.0042037815 0.092089355
000330 3c 1e ee bd 98 8b 6e bd 56 27 ee bd f0 1b e8 3d
       -0.116268605 -0.058238596 -0.116285965 0.11333454
000340 10 3e 70 3c 76 f9 c4 3d 7c 55 f9 bd 78 27 e4 bc
       0.014663234 0.096178934 -0.12174508 -0.027850851
000350 d0 b7 c6 3c 18 c0 ea bd 90 2e ef bd 90 92 dd 3c
       0.02425757 -0.1146242 -0.11678803 0.027047426
000360 00 9d 18 3c 80 95 75 3b 68 85 8b bd 10 64 9c bd
       0.0093147755 0.0037473142 -0.068125546 -0.07636273
000370 de f2 cd 3d ac 37 e0 bd d0 b1 97 3d a0 01 1b bc
       0.10056089 -0.109481186 0.07406962 -0.009460837
000380 98 73 18 3d 90 1b 36 bc e0 ce 41 3d 24 46 2e 3d
       0.037219614 -0.01111497 0.047316432 0.04254736
000390 9e f3 a7 3d 40 98 16 bb 62 3e bb bd 90 32 91 3d
       0.08200763 -0.0022978932 -0.09142758 0.07089722
0003a0 6c 3c 8f bd 66 a9 c5 3d 06 5a e2 3d dc d8 38 bd
       -0.069939464 0.09651451 0.11052327 -0.04512869
0003b0 40 06 91 3d 20 43 bb 3c 10 dc 17 bd 20 fb fd 3d
       0.0708127 0.022859156 -0.037075102 0.12401414
0003c0 4c c6 34 3d 20 c7 85 3c 80 80 4c 3c 1e 32 e8 3d
       0.044134423 0.016330302 0.012481809 0.11337684
0003d0 68 71 c2 bd 40 9f d7 3d 80 08 f8 ba 64 02 36 3d
       -0.09494287 0.105284214 -0.0018923432 0.044435874
0003e0 62 c0 8f bd aa 34 b5 bd 00 72 73 bd f0 f2 aa bd
       -0.07019116 -0.088479355 -0.05943489 -0.08347118
0003f0 e4 a8 6b bd f8 d5 22 bd d8 11 60 3d 88 81 98 bc
       -0.057534114 -0.039754838 0.054704517 -0.018616453

model.2.bias f4 [64]
000000 d8 31 aa bc a0 24 a8 3d c0 8b 3a bc e8 2d 00 bd
       -0.02077572 0.08210111 -0.011385858 -0.03129378
000010 86 fa 93 bd a2 e5 f8 3d ec 2b fe bd dc 8e 8b bd
       -0.07225518 0.12153174 -0.12410721 -0.06814358
000020 dc 28 9e 3d 00 57 da 3a 0c 91 91 bd 6c 7c f2 bd
       0.07722637 0.0016658008 -0.071077436 -0.11840138
000030 60 99 2d 3c 10 77 fe bd 0e d4 a1 bd 10 e4 d3 3d
       0.0105956495 -0.12425053 -0.07901774 0.10346234
000040 88 86 33 3d 48 b6 a4 bc 44 c2 bd bd 7c 82 1c 3d
       0.04382947 -0.02010645 -0.09265569 0.038210377
000050 c2 ea b6 bd 80 0b f0 bc 88 7a 8d 3c 9c a5 ab bd
       -0.08931495 -0.029302359 0.017270342 -0.08381197
000060 20 db c4 bc 8c 14 6d bd 48 01 10 bd 94 89 a9 bd
       -0.024030268 -0.057880923 -0.035157472 -0.08278194
000070 7a 6b f6 bd 90 54 9f 3d 48 a2 47 3d 74 fb 43 bd
       -0.12032218 0.07779801 0.048738748 -0.047847226
000080 4c 4a fc bd 90 fd 4e 3c b4 e6 68 3d dc ac ef 3d
       -0.123188585 0.012633696 0.05686064 0.11702892
000090 9c 08 60 bd d4 5c fe bd 64 15 cb 3d 84 a9 1b 3d
       -0.05469571 -0.12420049 0.09916189 0.03800346
0000a0 d4 67 56 3d 20 d3 62 3c 78 f9 46 3d 70 1e 4e 3c
       0.052345112 0.013844281 0.048577756 0.012580499
0000b0 24 f1 2b bd aa 0b a0 bd 18 07 a5 bd be 07 85 bd
       -0.041978016 -0.07814725 -0.08057994 -0.06495617
0000c0 bc 6c 87 3d 28 93 ee 3c 30 84 6b 3d d8 43 e0 bc
       0.06612536 0.029122904 0.05749911 -0.0273761
0000d0 f6 de cd bd 6c 8c b4 bd 14 77 a6 3d 00 5d 39 3c
       -0.10052292 -0.08815846 0.08128181 0.011313677
0000e0 9c f4 0c bd f6 22 e6 bd 98 1b e3 3c 74 cf f0 bd
       -0.034412965 -0.11237137 0.027723119 -0.117583185
0000f0 20 ae db 3b 16 1d c7 bd f4 c5 30 3d 6e 2d ed 3d
       0.006704107 -0.097223446 0.043157533 0.11580931

model.4.weight f4 [8, 64]
000000 78 2f cf bd 18 af cd 3d 86 9e c2 3d 08 a6 c2 3c
       -0.10116476 0.10043162 0.09502892 0.02376081
000010 ba 28 8b bd 3c 77 2b 3d e6 d1 e1 bd 78 69 3d 3d
       -0.06794877 0.041861758 -0.11026363 0.04624316
000020 e4 12 c2 bd 44 32 cb 3d 4a 26 eb bd 6e 2d a7 bd
       -0.09476259 0.09921697 -0.114819124 -0.08162962
000030 aa 5a e3 3d e4 ed 26 bd 80 75 f1 bd 08 a0 53 3d
       0.11101277 -0.040754214 -0.117899895 0.05166629
000040 c8 5a ef 3d 00 7a 71 3b 42 98 9d 3d cc 27 68 bd
       0.11687237 0.00368464 0.076950565 -0.05667858
000050 c0 be 2a bc 3c c6 f9 bd 38 2e 3a 3d ca 2a 8d 3d
       -0.010421455 -0.12196013 0.045454234 0.06892927
000060 de 1a 9e 3d 40 90 c4 bd 00 d3 a8 bd 50 fa 64 bc
       0.07719968 -0.09597826 -0.0824337 -0.013975695
000070 dc 12 41 3d 3c b7 1d bd d4 77 d5 3d c8 b5 e8 3d
       0.047137126 -0.038504824 0.10423246 0.11362797
000080 de 1a bf 3d 22 48 be 3d e8 bf fe bd 0c ae 28 bd
       0.093312964 0.09291102 -0.12438947 -0.04118161
000090 34 b0 df 3d 18 a6 88 bc c4 f6 db bd 50 5b a3 3d
       0.1092228 -0.016680762 -0.10740426 0.07976401
0000a0 44 f0 7f 3d 00 b6 82 b9 2a a5 f7 3d e8 8c 9f bc
       0.062484995 -0.00024931133 0.120920494 -0.019476369
0000b0 00 e2 33 3c 30 7d 9e bc c0 fc 96 bc 20 04 4c bc
       0.010979176 -0.019346803 -0.018431067 -0.012452155
0000c0 00 e6 f3 ba 0a 64 ff 3d 34 c8 5a bd 96 09 f1 3d
       -0.0018607974 0.12470253 -0.053413585 0.117694065
0000d0 d6 35 c0 3d f0 73 bf 3d f0 98 a1 3d e0 81 ae bd
       0.093852684 0.09348285 0.07890499 -0.085208654
0000e0 48 e5 19 3d 6c 80 f4 bd 2a b4 9a 3d 00 63 db bc
       0.037572175 -0.11938557 0.07553895 -0.026780605
0000f0 0c 25 65 3d ec 20 b9 3d 10 08 1a 3c a8 2e 44 bd
       0.055943534 0.090394825 0.009401336 -0.047896057
000100 c0 6a 23 3b 38 fc b9 3d 20 49 cc bb 98 16 d5 3c
       0.0024935454 0.0908131 -0.006234303 0.02601175
000110 00 ba d3 3c 7a 03 c0 bd 06 b7 9b 3d cc a0 ef bd
       0.025845528 -0.09375663 0.07603268 -0.117005914
000120 dc 4d a7 3d 1e 95 a1 bd 2c 32 44 bd 18 9d 4d bd
       0.08169147 -0.0788977 -0.04789941 -0.050198644
000130 20 aa fe 3b 84 c9 cb 3d 1c f8 59 3d 2e 0a 8d bd
       0.0077717453 0.099505454 0.05321513 -0.06886707
000140 44 51 8f 3d 0a 3d ac 3d e4 71 b1 3d 00 2a 21 bb
       0.06997922 0.0841008 0.08664301 -0.0024591684
000150 4e 93 e6 3d 70 41 9a 3c 00 2d 36 3d e2 36 f9 3d
       0.11258565 0.018830031 0.04447651 0.12168671
000160 d0 53 4f bc f4 b6 24 3d a0 01 3d 3c 04 ef d2 bd
       -0.01265426 0.04021354 0.011536032 -0.10299495
000170 30 93 50 bd c0 71 2b bb 62 4b d6 bd a4 42 a8 3d
       -0.05092162 -0.002616033 -0.10463597 0.08215836
000180 e0 09 93 bc 3c e5 f9 3d fa f7 cd 3d f4 93 49 bd
       -0.017949045 0.12201926 0.100570634 -0.049213365
000190 08 07 81 3d 96 8f cc bd 50 09 85 bd de 85 fc 3d
       0.06300169 -0.09988324 -0.06495917 0.12330221
0001a0 b2 a6 89 3d 20 ac 3b 3d c6 02 a1 3d 4e 1a c3 bd
       0.06721248 0.045818448 0.07861857 -0.095265016
0001b0 f8 c2 cb bc 18 4f 3d bd 5e 09 d7 3d 14 a3 03 bd
       -0.024873242 -0.046218008 0.104998335 -0.032137945
0001c0 8e 74 f0 3d 18 4c 6b bd 5e fe 8a bd fa 9f 82 bd
       0.11740981 -0.057445616 -0.06786798 -0.06378169
0001d0 56 58 d1 bd 28 a4 9e bd 40 7d a8 3b f0 32 1a bc
       -0.10221927 -0.07746154 0.005141884 -0.0094115585
0001e0 00 3f a9 ba 02 8e cc 3d 72 66 d0 3d a0 a6 b6 bb
       -0.0012912452 0.09988023 0.1017579 -0.0055740625
0001f0 48 07 72 3d 00 9b bc 3b 52 3a f6 bd 7c a1 fd bd
       0.059088975 0.005755782 -0.120228425 -0.12384316
000200 f8 84 cf bc ca 29 86 3d a4 8b 32 3d fc 06 e4 bd
       -0.02533196 0.065509394 0.043590203 -0.11134145
000210 3e 79 e9 bd 80 7b df bc 90 ec 94 bd 84 73 4e 3d
       -0.11400078 -0.02728057 -0.07271683 0.050403133
000220 80 09 d3 3c 60 60 7e 3c 34 d9 6c 3d b0 5e 54 3d
       0.025761366 0.015525907 0.05782433 0.051848114
000230 e0 54 a2 3d c4 e8 7a 3d c0 19 91 3b 54 a6 ba 3d
       0.07926345 0.06125714 0.0044281185 0.09113756
000240 b0 b8 a4 bc 30 bd 4e bc c0 66 47 bc 00 f3 c2 3b
       -0.020107597 -0.012618348 -0.012170494 0.005949378
000250 d8 d3 b5 bd 90 f8 ec 3c 80 3d 9b ba 06 58 ff 3d
       -0.088782966 0.028927118 -0.001184389 0.12467961
000260 28 60 83 3d fa 54 a7 3d 28 ff dc bd b4 8a 16 3d
       0.06414825 0.08170505 -0.10790855 0.03675337
000270 20 9c b4 3c 0c a5 1d 3d 70 12 6d 3c 04 d1 07 3d
       0.022047102 0.03848748 0.014469728 0.033158317
000280 b4 07 93 3d 08 86 81 bc a6 73 a7 3d c8 50 e9 3d
       0.07179204 -0.015810981 0.08176355 0.11392361
000290 44 64 83 3d 30 38 e0 bd 76 3d cf bd 70 0a 9e 3d
       0.064156085 -0.10948217 -0.101191446 0.077168345
0002a0 70 7f bc bd 18 24 c7 3c 40 50 0d bb 58 dd f9 bc
       -0.09203994 0.024309203 -0.0021562725 -0.030501053
0002b0 18 f3 ce bd c2 f7 ae 3d 78 03 67 bd ac b4 8c bd
       -0.1010496 0.0854335 -0.056399792 -0.06870398
0002c0 58 e2 ca 3c 90 38 c2 3c d6 2d a8 3d ba 0a b2 3d
       0.024766132 0.023708612 0.082118675 0.08693452
0002d0 8e 1c f0 bd 90 a3 11 bc 3a 65 a3 3d be e7 bf bd
       -0.117241964 -0.008889094 0.07978292 -0.09370373
0002e0 e6 ee 93 3d 1e eb c7 3d c8 1a 83 bc 10 07 c9 bd
       0.07223301 0.09761642 -0.016003981 -0.098158
0002f0 68 34 de 3d 3e 08 9d 3d 30 ce b3 3d 90 28 49 bd
       0.108498394 0.07667588 0.087795615 -0.04911095
000300 10 f1 65 3c 5c 7b 06 bd f2 99 99 bd 80 46 53 3c
       0.014034525 -0.03283249 -0.07500066 0.0128952265
000310 70 32 0a bd d2 2d ef bd c0 ea b7 3d 9a 7f f2 3d
       -0.033739507 -0.116786614 0.08980322 0.11840744
000320 52 81 85 bd 56 94 fb bd d2 fc 8f bd 64 0c db 3d
       -0.065188065 -0.12284152 -0.070306435 0.10695723
000330 50 76 db bd a8 79 81 3c 64 6a 50 bd 84 27 7b 3d
       -0.10715926 0.01580508 -0.050882712 0.061316982
000340 00 1f c0 3b c4 75 53 3d 58 5c 70 3d 74 cd 62 3d
       0.0058630705 0.051625982 0.058681816 0.055371717
000350 a0 16 83 3d 38 81 d6 3d 04 40 30 bd 90 3e 7a bc
       0.064008 0.10473865 -0.0430298 -0.015273705
000360 88 e8 eb 3c 20 73 4b bd 28 7c 25 bd 48 2f 6c bd
       0.028797403 -0.04967034 -0.040401608 -0.05766228
000370 ec dd 6e 3d e8 f8 9b 3d 9c 56 24 3d 14 8a 74 bd
       0.05831711 0.076158345 0.04012166 -0.059701994
000380 62 be a3 bd 80 fe 04 3d 48 1b f4 3d d0 71 36 3d
       -0.07995297 0.032469273 0.11919266 0.044542134
000390 f8 4b cd bc 90 22 40 3c 62 fe cf 3d 2e 3d b5 3d
       -0.025060639 0.01172699 0.101559415 0.0884956
0003a0 cc 25 88 3d 66 aa f3 bd 8c ec 0b bd 3a 19 86 3d
       0.06647834 -0.11897735 -0.034161136 0.0654778
0003b0 74 17 14 3d d0 6c 53 bc 06 c5 87 3d ac ab 1f bd
       0.03615518 -0.012904361 0.06629376 -0.03898208
0003c0 00 21 4c 3a 66 9a b5 3d 50 e3 8f bc 8c 0c 7c bd
       0.00077869 0.0886734 -0.017564446 -0.061535403
0003d0 90 d8 08 3c fa 8e dc 3d 44 cf e0 bd 20 7b 8a bc
       0.008352414 0.10769458 -0.10977033 -0.016904414
0003e0 5a 03 d0 bd 68 06 91 bd 10 14 76 3c 52 37 d8 3d
       -0.10156889 -0.070813 0.015019432 0.105574265
0003f0 60 23 0d 3c d4 d6 1c bd 20 c3 44 bc 90 92 19 bd
       0.008614391 -0.038290814 -0.012009412 -0.03749329

model.4.bias f4 [8]
000000 96 73 97 3d 20 d0 d6 bc e0 1c b0 3d 18 d3 da 3d
       0.07395093 -0.026222289 0.085992575 0.10684794
000010 40 d1 57 3d c0 5b 7b 3d 60 a9 3c bc cc 30 ad bd
       0.05268979 0.061366796 -0.0115149915 -0.08456573
