train_pygame/stored/20250712fourth_0000.pth (torch, 30373 bytes, 6 tensors)

model.0.weight f4 [64, 32]
00000000: 1b72 2fbd 8bec 11bd 786a 7b3d 7ebe 44be
00000010: 5fbd 093e cc59 833d aa49 62bc a885 dc3d
00000020: bc9d ba3d 4d09 3fbd 474c 123e b4bc c4b8
00000030: d1fe 0ebe ae12 efbd 3b75 843d 71f1 383e
00000040: e26b 1bbd 388e 3f3e 7921 11be ac28 04bd
00000050: 8bb6 0e3e 17f8 adbd be6f 3abd 2a75 1dbe
00000060: 3590 1fbd f28e 5a3c 4265 033e 37b6 1b3e
00000070: e1a9 ccbd fde2 293e 53b9 833d 24ae f33d
00000080: c4d2 97bd 4819 83bc 589c 8d3d 287a bfbc
00000090: cc74 643d 485d 763d 2965 1cbe 56e1 0dbe
000000a0: 8f8a 043e a013 28bd 900c 143c c0df 4abc
000000b0: 6ddd 043e 30ed 673c 0049 b63b ffc3 f3bd
000000c0: 1667 8a3d 7f5f 31be 76b6 debd 0664 e23d
000000d0: a96d 283e 5a28 95bd 0488 e8bd a3de 2fbe
000000e0: f8c4 703d 1f62 013e 9584 003e 02bf f63d
000000f0: 6215 34be c81e 1cbe fac9 81bd e01b 9f3c
00000100: a2b0 4cbd 6685 88bd d5e0 d23d 7b64 cf3d
00000110: 276f 3abe 4f3b 81bd 13db 15bd 7e3e c6bd
00000120: a05a 1c3d 570a 77bd 170c 91bd 968d 953c
00000130: 4640 01be 686a b2bd d2ac 003e fc5f 013e
00000140: dd89 343d cf12 d53d 1f48 153c 76c8 823d
00000150: 8461 61bc 093a 60bc c178 0ebe a991 c73c
00000160: 6a39 833d 8722 ea3d 825e 5abc 3eef 143e
00000170: ba19 c53d 19ce 38bd 6e6a 36bc 665d ddbd
00000180: 4ff9 5dbd dce2 1d3c 62a2 963d 92b5 e03d
00000190: 655f b9bc 0f12 25be 9099 20bd 5eb4 f33d
000001a0: 6b51 23be 1137 2c3d 4c01 103e 29fa 37be
000001b0: 606f 373d 5c93 3bbd 14c3 183e 4b61 853c
000001c0: 16d3 10bd 96e4 b13b d8b6 023c 14ad 063e
000001d0: 5578 063e c83b 163e 7c52 29be 4b8f b03d
000001e0: b0ea 15be 562a c83d 19b0 ed3d b736 4abe
000001f0: 102c f63d 92ac 213e bfda ee3b caaf c7bd
00000200: 8b0f cfbd 2aa3 d8bc b472 013e f980 46be
00000210: 769d 533d 0f39 30be 0a0b e5bd a7cc 02bc
00000220: 8702 b53d 36c3 443d c22f 67bd cad0 aa3d
00000230: dc1e 9dbd f7b6 fabd e805 40bd f331 40be
00000240: 62d4 973d 2557 06be db99 933d d2df b03d
00000250: 14b0 173e 21f6 9fbd 5c92 bebd 7aec a83d
00000260: 2ea7 ed3d aa31 9c3d c3a0 a13d 24a6 f13c
00000270: d9e0 84bd 28a3 c6bd e192 9b3d 099e cbbd
00000280: 30a5 27be 17f5 11be 6ef2 f4bd 0047 6fbb
00000290: 2098 2e3d 122a 1bbe 8198 313e 3095 66bc
000002a0: 96af fb3d 1c00 283d c0bc 7ebc a035 60bd
000002b0: 168c 20be 756b 9cbd 540e c8bd bc96 7f3d
000002c0: 8427 12bd 80f8 bfbb dc43 3ebd 15b1 bcbd
000002d0: db5c debd 1eae dd3d b0af edbd 62c2 d13d
000002e0: e0e8 373c 01aa bbbd 508f 06bc c829 edbc
000002f0: a88c 82bc 8c72 1cbd 5033 893c 2e10 12be
00000300: 5502 ad3d 07ee c83d 3bb3 6dbc 37d9 15be
00000310: 35f6 2d3d 7eb3 b83c e05a d2bd 1807 e23d
00000320: 63ab 3d3e 3443 62bd f7e4 0e3e 40fe a83c
00000330: 1d83 ef3d d01d e0bb 97b5 4b3c 3216 e7bd
00000340: 0835 a83c 1c81 5d3d 3329 dfbd 2c22 cbbd
00000350: b69e 57be 4004 1fbe 5457 bfbb 4cc5 5bbe
00000360: c514 f73d 90dd 963c 447c 69be 3a04 0f3e
00000370: 2adb fcbd e682 8abe 8199 093e ecb9 ad3b
00000380: a514 4a3d 870a 09bd d5e3 6e3d d9fe 4f3d
00000390: 4eff 99bd 7866 32bd 2c0e cb3d 64e0 063e
000003a0: c054 103e b55d c03d 504d 493d 803e 093e
000003b0: 6e34 e2bd d4cc 19bd 9913 d3bd 4d8a 903d
000003c0: ef18 afbc cc92 5f3d 0047 f43d a8e1 dcbb
000003d0: 3207 673d 9390 80bd ef2b 2b3e 35bd a6bb
000003e0: 1125 3c3e c564 0a3e 65c7 8ebd c742 28be
000003f0: 1429 d83d ec4e e63d 0af6 b83c 7c07 93bd
-0.04283343 -0.035625976 0.061380833 -0.19213292 0.13451146 0.06413612 -0.013811508 0.107676804
0.09112117 -0.04663973 0.1428691 -9.381157e-05 -0.13964392 -0.11673485 0.064676724 0.18060853
-0.037944682 0.18706596 -0.14172925 -0.03226535 0.13936822 -0.08494585 -0.045516722 -0.15376726
-0.038955886 0.013339745 0.12831596 0.15206228 -0.09993339 0.16590495 0.06431832 0.11898449
-0.07413247 -0.016003266 0.06914586 -0.023373678 0.05577545 0.060147554 -0.15272965 -0.1385549
0.12943481 -0.04103434 0.009036198 -0.012382448 0.12975092 0.014155671 0.0055629015 -0.11902618
0.06757943 -0.17321585 -0.108746454 0.11054234 0.16448082 -0.07283087 -0.11354068 -0.17174773
0.058781594 0.12635086 0.12550576 0.120481506 -0.17586282 -0.15246117 -0.06337352 0.019422472
-0.049973138 -0.06666069 0.102967896 0.10126587 -0.18206464 -0.0631014 -0.03658588 -0.09679888
0.038172364 -0.060312595 -0.07082384 0.01825599 -0.12622175 -0.08711702 0.12565926 0.12634271
0.04407679 0.10403978 0.009111433 0.06385891 -0.01375616 -0.013685712 -0.13913251 0.024361448
0.06407435 0.11432367 -0.0133281965 0.14544389 0.096240476 -0.045118425 -0.011133773 -0.1080883
-0.054192837 0.009636607 0.07355191 0.10972132 -0.022628495 -0.1612017 -0.03920895 0.11899637
-0.15949027 0.042044703 0.14062995 -0.17966522 0.04478395 -0.04579483 0.14918166 0.016281744
-0.035357557 0.005428861 0.007978164 0.13151962 0.1313184 0.14671242 -0.16535372 0.08621081
-0.14640307 0.097737 0.116058536 -0.19747435 0.12020123 0.15788487 0.00728926 -0.09750326
-0.101103865 -0.02644499 0.12641412 -0.19385137 0.05166384 -0.17209266 -0.11183746 -0.007983363
0.08838373 0.04803773 -0.05644203 0.083406046 -0.076719016 -0.12241929 -0.046880633 -0.18769054
0.07413556 -0.1311918 0.0720708 0.0863644 0.14813262 -0.07810617 -0.093052596 0.08248229
0.116041526 0.0762666 0.07891991 0.029498167 -0.06488199 -0.09699088 0.07596374 -0.09942252
-0.16371608 -0.1425365 -0.11960302 -0.0036510825 0.042625546 -0.15152767 0.17343332 -0.014073655
0.1228935 0.04101573 -0.015547931 -0.05473864 -0.15678439 -0.07637683 -0.09768358 0.06239961
-0.035682216 -0.005858481 -0.046451434 -0.09213463 -0.108575545 0.10824226 -0.11605775 0.10242154
0.011224955 -0.09163285 -0.008212879 -0.028950587 -0.01593621 -0.038195178 0.0167481 -0.14263985
0.084477104 0.09811025 -0.014508064 -0.14633642 0.04247113 0.022546526 -0.10271239 0.11036509
0.1852241 -0.05523987 0.1395453 0.020629048 0.1169493 -0.0068394914 0.012433431 -0.1128353
0.0205331 0.054078206 -0.1089653 -0.09918627 -0.21056637 -0.15528965 -0.0058392677 -0.21461982
0.12064508 0.018416196 -0.2280131 0.13966456 -0.1234649 -0.27052993 0.13437463 0.0053017046
0.049336094 -0.033457305 0.058322746 0.05078015 -0.07519399 -0.043554753 0.099148124 0.13171536
0.1409483 0.09392873 0.049145997 0.13402748 -0.110451564 -0.037548855 -0.10306472 0.07057629
-0.021374194 0.054583356 0.11927605 -0.0067407675 0.056403346 -0.06277575 0.16715978 -0.005088473
0.18373515 0.13515003 -0.06971625 -0.16431724 0.1055471 0.11245522 0.022578258 -0.07179162

model.0.bias f4 [64]
00000000: 9f78 0c3e e018 f33c 22ba d23d 346b 0b3e
00000010: 1498 0a3e 3153 0f3e 47b7 d53d 9ba5 aebd
00000020: 2c19 273e 5fac 9dbd a600 e73c 3b2f c63d
00000030: 8ba7 2abe 2d9e 13be 4e42 8a3d 2324 d9bc
00000040: 2065 d83d b444 313e 232e a9bd 1ec5 febd
00000050: 0c33 18bd 0780 19be 142e 663d 09bf 133e
00000060: 0be3 483d 07f5 2a3e dfaa 063e cef0 703d
00000070: bf45 20be b8c3 1b3e 9951 bc3a c24f 913c
00000080: 50c7 733c b502 1fbe 3fab c63d e0c5 cabd
00000090: 609a 0d3d a9c3 7c3d c31e 70bd 379f 11be
000000a0: 0677 e33d 6075 473d 07e3 0c3e 4989 f7bd
000000b0: 134b 963c 3db8 2b3e 108f 7bbd 85fa b03c
000000c0: e5e3 933d 95bb 9cbd dfa8 febd fe44 edbd
000000d0: fc93 24be 62c2 1d3e 7cb9 b9bd 21e5 163e
000000e0: 4c77 26be be13 07be 5316 2dbe 8648 1fbe
000000f0: a8a1 033e d45a f4bd 504a 203e 9cb0 30bd
0.13717888 0.029674947 0.10289408 0.13615113 0.13534576 0.13996579 0.10435348 -0.085276805
0.16318196 -0.07698893 0.028198551 0.09676977 -0.16665475 -0.14415808 0.06750928 -0.02650649
0.10566163 0.17311364 -0.08260753 -0.12439941 -0.037158057 -0.14990245 0.056196287 0.14428343
0.04904465 0.16695033 0.1315112 0.0588234 -0.15651606 0.1521138 0.001436758 0.017738227
0.014879063 -0.15528376 0.09700631 -0.09901023 0.03457105 0.061710034 -0.058623087 -0.14220892
0.11106686 0.048695922 0.13758479 -0.12086732 0.018346345 0.167695 -0.061415732 0.021603832
0.07221202 -0.07652966 -0.12434553 -0.11585425 -0.16072077 0.15406182 -0.090685815 0.14735843
-0.16256446 -0.13191125 -0.16903047 -0.15555009 0.12854636 -0.119313866 0.15653348 -0.043137178

model.2.weight f4 [64, 64]
00000000: b520 ecbd 309b 453c 680b 39bd 548a 6d3d
00000010: 0dac 76bd c620 a1bd 97d3 8abd 0c65 3c3d
00000020: d3a5 913c 0090 a239 a6b0 93bc 3be4 e03d
00000030: 3872 c13c 1a54 863d 708a d6bc 145c 2b3c
00000040: 38cd b43d 94b8 853d 6453 d9bd 0410 413d
00000050: b863 c6bc 286e febc 2020 bcbb ae47 fbbd
00000060: 0c76 82bd 00be ea3a 3a63 a13d 2dc6 fb3d
00000070: da1b 803c ae71 c43d 2ed6 09be 6115 98ba
00000080: 8024 14bb 4dc0 cd3d cbe7 f13d 367d 54bd
00000090: 0e87 ed3d 8206 a63d c34e b03d 6053 5c3d
000000a0: a866 2f3d 8835 a83d d4be 803d 18c8 a9bd
000000b0: c6a1 ed3d edb2 8d3c 2002 1abd 54fb e63c
000000c0: bd1c 4c3d dc02 903d 61bf f83c 4b3c 37bd
000000d0: 4a3f 1abe 250e ea3d 917a 0e3d 6011 b33d
000000e0: 08c0 403d f231 bebd 0df1 e0bd 0817 aa3d
000000f0: 2068 b63d a0bb d83b 8726 b03d 1efc 583e
00000100: 59ad c13d cc67 22bd afa0 cb3c c4a0 0a3c
00000110: 251a 493c c4b1 d4bd 53da dbba 1c34 79bd
00000120: 35cc da3d fe73 a83d a60b b63d 7275 ea3d
00000130: 7a3f 8d3d ef4e c0bd c095 483c 8ba9 aa3c
00000140: 1440 2fbb 755b 1bbd 3fd3 d13b a0c5 debc
00000150: f850 b1bc 0a74 9dbd d8b0 e23c 8418 21bd
00000160: d231 77bd 740f 58bd e5e6 963d 2792 503d
00000170: c578 bf3d 08b2 2fbe 3e4d 943d 5792 c8bd
00000180: 3a86 a9bd f4ff 18bd d4b0 76ba 38c0 d83d
00000190: 60dd e9bd 1f7b 383c b2f5 61bd c0c2 c83b
000001a0: 401f 5b3b 9c40 9bbd c0df d4bb 188a a3bc
000001b0: 113a 4ebc 1c8f 8d3d ee24 d23d 8a2f 863d
000001c0: ed62 2bbe 5d15 0e3c 2702 9abd 6d14 d13d
000001d0: 0309 80bb 10f3 5e3d 8c6f 7d3d 2a63 80bd
000001e0: f49c a53d 70ec 383c 504d 05bd a179 b03d
000001f0: 3a7e ba3c 4600 863d 1582 733d c29a 46bc
00000200: 9baa b9bd 70d4 a13c 03ac dc3c f17a 863d
00000210: bdf9 243d 2a72 adbd 49b6 bdbd 7a41 07be
00000220: 2809 533d a49f 27bd 1155 b1bd 628e e53b
00000230: 0020 afb8 f324 b13d b8cf df3d 796d 733c
00000240: 0c16 fabd 6e0f 4d3d 5d5f df3d 36f1 82bd
00000250: 586d 4e3d 6c73 983d de06 af3d 38ab 123d
00000260: 97d6 bcbd dca3 c9bd 4daf aebd 813e 36bd
00000270: 70d5 01be d731 dc3c 1961 9b3d 9486 cd3d
00000280: 00e3 97ba 76c0 03be 412d c63d 88e5 023d
00000290: 06b3 c13d e618 4f3d 052e 28bd 2882 fdbd
000002a0: ee5f febd a7a6 bfbd 80a1 90bb dcf5 fabd
000002b0: eacf 20bb bca1 99bd d20d cd3d 8c73 93bd
000002c0: c9a4 5fbd adb5 a2bd 9cb3 a73d ef8e e43d
000002d0: 3807 cc3d abf8 c83d 5886 e0bd f0b6 743c
000002e0: 38da a13d b092 e2bd 9aec 523d c6d9 eb3d
000002f0: 1183 573d b44a 893d beab 8ebc 95e7 01be
00000300: ac44 c5bd c019 f9bd 1484 053d 5408 17bd
00000310: 0252 c1bd 1c8f 4e3d 24ba 383d b8c2 14bd
00000320: 04bf d63d 060a db3d 741f bfbd b04c 05bd
00000330: 9e3d 86bd 949f adbd 6030 da3d 58be d73d
00000340: cc26 2abd 00ba 6c3d 88c5 5e3d 3e7b 973d
00000350: b0d3 cebc 66d5 ec3d e895 673d 401d 363b
00000360: 482c cf3c 0061 aaba 5432 173d 3a84 8cbd
00000370: d280 94bd b478 a13d dc19 f7bd 5ca4 383d
00000380: 64cc fabd 8665 8b3d 9877 bf3d 806a 1dbb
00000390: e8de 97bd 2ce8 6e3d 1e3a c1bd d4e4 70bd
000003a0: 0465 ab3d b84b 2c3d 1842 143d 6056 7e3d
000003b0: 584e ce3c 40c9 c83c 3417 85bd c823 99bd
000003c0: c42e 903d 64f8 f8bd 80b8 1ebc 641c 933d
000003d0: 0af6 893d 84c5 08bd 4029 6b3b d0f4 a73c
000003e0: 40d8 803b 6027 b9bd 3066 e1bd b0ce afbc
000003f0: c456 fdbd 30e8 10bc f094 d3bc 64c6 b6bd
-0.11529676 0.012060925 -0.045176893 0.057993248 -0.060222674 -0.07867579 -0.06778639 0.045994803
0.017779266 0.00031006336 -0.018028568 0.109810315 0.023614034 0.0655901 -0.026189059 0.010458965
0.08828205 0.06529346 -0.106116086 0.047134414 -0.024217471 -0.031058386 -0.0057411343 -0.12269531
-0.06370172 0.0017909408 0.07880254 0.122936584 0.01563828 0.09591995 -0.1346061 -0.0011603051
-0.0022604764 0.10046444 0.11811789 -0.051877223 0.11598025 0.0810671 0.086087726 0.05379045
0.04282251 0.08213335 0.062863976 -0.08290118 0.116031215 0.017297233 -0.037599683 0.028196014
0.049832094 0.070317954 0.030364694 -0.044735234 -0.15063205 0.11428479 0.034784857 0.087435484
0.047058135 -0.0928687 -0.10983477 0.08305174 0.08906579 0.0066141635 0.086010985 0.21189925
0.094568916 -0.03964977 0.024856893 0.008461181 0.0122743 -0.103854686 -0.001677344 -0.06084071
0.10683481 0.08225249 0.088889405 0.11448182 0.06896873 -0.093900554 0.012242734 0.020832798
-0.0026741074 -0.037929017 0.0064033563 -0.027193844 -0.021645054 -0.07688148 0.027672216 -0.03933002
-0.060350247 -0.052749112 0.073682584 0.05092063 0.09349207 -0.17157757 0.07241295 -0.09793537
-0.08277555 -0.03735347 -0.0009410505 0.10583538 -0.11419177 0.011259823 -0.055165954 0.0061267316
0.0033435374 -0.07580683 -0.0064963996 -0.01996331 -0.012587086 0.069120616 0.1026095 0.06552036
-0.16736956 0.008672086 -0.07519942 0.10208974 -0.0039073243 0.05443102 0.061873958 -0.06268914
0.08086577 0.01128684 -0.032544434 0.08616949 0.022765268 0.06543021 0.059450228 -0.012121858
-0.090657435 0.019754618 0.02693749 0.06566418 0.04027723 -0.08469041 -0.09263284 -0.13208571
0.051522404 -0.04092373 -0.08658803 0.0070054987 -8.350611e-05 0.08649626 0.10928291 0.014857643
-0.12211236 0.050063543 0.10906861 -0.063936636 0.050397247 0.0744389 0.08546232 0.03580782
-0.09220617 -0.09845707 -0.0852953 -0.044493202 -0.12679076 0.026879234 0.07586879 0.10035434
-0.0011588037 -0.12866387 0.096766 0.03195718 0.09457974 0.050560854 -0.041059513 -0.12378341
-0.12420641 -0.09357958 -0.0044137836 -0.12253925 -0.002453799 -0.075015515 0.10012402 -0.07199773
-0.05460051 -0.07944808 0.08188555 0.11160075 0.09962314 0.09813055 -0.10963124 0.014936194
0.0790295 -0.11063135 0.051495172 0.11516146 0.05261523 0.067037016 -0.017415877 -0.12685998
-0.09632239 -0.121631145 0.032596663 -0.036873177 -0.0943947 0.05042945 0.045099393 -0.03631851
0.10485652 0.10695271 -0.09332171 -0.032543838 -0.06554721 -0.08477703 0.10653758 0.10534352
-0.041540906 0.05779457 0.0543876 0.073965535 -0.025247425 0.1156414 0.056539446 0.002778843
0.02528967 -0.0012998879 0.03691323 -0.06861158 -0.07251133 0.078843504 -0.12065479 0.04507862
-0.12246016 0.068064734 0.093489826 -0.0024019778 -0.07415563 0.058326885 -0.09434913 -0.058811978
0.083688766 0.0420644 0.036195844 0.062094092 0.025183842 0.024510026 -0.06498566 -0.07477528
0.0704017 -0.12156752 -0.009687543 0.071831495 0.06736381 -0.03339149 0.0035882741 0.020502478
0.003932029 -0.09040713 -0.11005819 -0.021460861 -0.12370065 -0.00884442 -0.025827855 -0.08924559

model.2.bias f4 [64]
00000000: c37c fb3b f374 7c3d f6a3 69bd 2610 8ebd
00000010: c677 efbd 310e ddbc 11b1 eabb 9807 cf3c
00000020: f3eb ec3c 1d33 e6bc fefc c43d 881a 90bd
00000030: 20b3 bebd 522b 85bd 89ec d8bd 34e7 87bd
00000040: d3ca 3ebd c2b4 31bd 494a 253d 35bb ae3d
00000050: 1c1f 153d 98e9 cf3c a511 e8bd 059e bfbd
00000060: 40e1 9abd 1164 86bd 9faf 85bd b174 d43d
00000070: c3f4 99bd 3487 a2bd 3f52 de3d c1e6 d0bd
00000080: 44df b33d 1198 8b3c 4585 473d 34bc 19bd
00000090: fa8e c4bd 7157 4abd 6119 57bd db6b b23d
000000a0: cdc6 793d c918 9a3d 6c07 9b3d 8b30 ab3d
000000b0: a297 25bd 421b 6e3d 85b7 2fbb 5a1d f3bd
000000c0: a29d debd 4617 423d 2e3f 19bd cae4 f43b
000000d0: 7450 72bd e06f 4abc 64af e6bd d814 3bbd
000000e0: e334 dc3d 3520 8a3d 0f10 0cbe c385 8e3d
000000f0: c429 213d bc86 363a e4d3 8fbd 8943 f6bd
0.007674785 0.06163497 -0.05704113 -0.06936674 -0.11692767 -0.026984306 -0.0071622212 0.025272176
0.028921103 -0.028100545 0.09618567 -0.070363104 -0.09311509 -0.06502403 -0.105919905 -0.06635895
-0.046580147 -0.043385275 0.040354047 0.08531801 0.03640662 0.02537994 -0.113314904 -0.09356312
-0.07562494 -0.06562055 -0.06527638 0.103738196 -0.07517388 -0.07935944 0.10855531 -0.10200263
0.08782819 0.017040284 0.04871108 -0.037533 -0.09597583 -0.049399797 -0.052514438 0.08711978
0.060980607 0.07524259 0.07569775 0.08358868 -0.04042781 0.058131464 -0.0026812267 -0.11870833
-0.1086991 0.047385477 -0.03741377 0.007473563 -0.059158757 -0.012355775 -0.11263922 -0.045674175
0.10752275 0.06744424 -0.13678001 0.06959107 0.03934647 0.0006962826 -0.07022837 -0.120246

model.4.weight f4 [8, 64]
00000000: a18d bc3d ac26 143c b637 a7bb e8a4 41bd
00000010: 7e2f f7bd 624c cfbc 28ab d7bd 0897 d2bc
00000020: fddf c53d 28a2 5fbd 4dc3 68bd f45d 9cbd
00000030: c88f 84bc d8f6 e23c 580f 12bd 417c 903c
00000040: 5ce6 103d 73a6 9ebe 5968 073e b40f 383d
00000050: 2037 653d c262 703c 5a6f 033e 60ff ac3c
00000060: 1c4f ad3d d0a2 023e f7a2 f13c 4684 303d
00000070: b79d a4bd 26f9 f33d d888 243b 79a6 8a3d
00000080: c924 173d 5cf0 01ba e374 c1bd 6c34 58bd
00000090: ec77 9dbd 3497 8f3d 55be 68bc f1cf b73d
000000a0: 7a56 973d 514c 033e 163c 113e 578b 38bd
000000b0: 94ef 30bd 49b6 7b3b 6123 6c3d 0cd6 bfbd
000000c0: dc18 01bd e54e cbbd 68fb 49bd 3a94 0abd
000000d0: 94e6 49bd e02e 08bc c8c7 45bd 8ea2 3c3d
000000e0: 934e 7b3d 8b23 8fbc 1fb8 54bd b39c 39bd
000000f0: c0b5 39bd edee fabc d04c d33d 1069 8bbc
00000100: 5ac4 27bd 2ddf 6a3d 2e41 b2bd a8c6 bebd
00000110: d04c 66bc 7b2e 9c3d 77ca 923d e04e b1bb
00000120: a1d0 c9bd 1c05 d3bc ab26 e43d 189e d4bd
00000130: 308d a9bc 40a5 c93b 58f8 ef3d b620 71bd
00000140: c638 ddbc eb24 94be 745f b2bb a351 5d3e
00000150: 91a2 cbbd c04a 253d 17ae 83bd 1b30 ae3c
00000160: 1c4e f7bd 2b80 263d 155d 4bbd 3723 223c
00000170: 92d4 b3bd c3f7 abbc 3d5b b73c 8708 a3bd
00000180: 1446 6fbd 08aa e03d f902 aa3d 4157 a6bd
00000190: 1566 5d3d 7926 d23d f04f 2b3d 9f22 acbd
000001a0: c227 68bd 6871 af3d 7ead d03d d7a1 083e
000001b0: dd73 5b3d dcd4 1b3d f405 e43d 16cb e3bd
000001c0: fe79 dabd 1adf ab3c 0480 42bd 3d1f 21bd
000001d0: 24ef 16bd e2bf 943d 343f 213d f66d a6bd
000001e0: d3c8 84bd cbce f53d fc9a d83d 49a3 bdbd
000001f0: 60d9 ca3c 7bf4 603d 7827 7ebd 80d6 81bb
00000200: 20eb b3bd 0f5f c7bd 4b22 b63d 0eb6 a7bd
00000210: 765a a43d f16d 9fbc 575a 4e3d 2e8a a63d
00000220: 0caa 92bd b55c 0e3e ef9f 183c 588e 96bc
00000230: c076 85bb 34b8 b03d f8ff 403d 0d7d f73c
00000240: a21b 8c3d db52 833d 9724 ef3d 0bd1 233e
00000250: 975b e0bd 13f6 b93d f703 c9bd 3d3c b7bd
00000260: 2cb8 66bd 2c95 923d 120c 4d3d 0858 933d
00000270: a270 abbd 98ed d5bd b405 203d 3ed1 8abc
00000280: 1131 663e d908 c33d 1fc8 9f3d 041e f0bd
00000290: 2dd8 d83c 30b0 ebbd dc7a 763d e224 2c3c
000002a0: bb4e af3d f34a d03d bbdc ae3c e636 4cbc
000002b0: c890 12be a2de 83bd 968e bd3d 70a1 7abc
000002c0: fc31 653d 9a47 09bd 94ab 8bbd 251b 463d
000002d0: 20d0 123c 806f 8f3c f8fc bbbc 7d66 2b3d
000002e0: 69c6 0b3e 7c05 b1bd a59c e93d af0e 76bd
000002f0: a8e0 a73d 5c6b b33d ac0d d3bd f018 7e3d
00000300: 9416 9c3d 3f56 00be 4c88 b0bd 363d a5bd
00000310: 0a54 8f3d ef99 b13d 89fa 353d 18ad 273d
00000320: 654e 253c 5065 803d 6289 b73d 4ce6 9cbd
00000330: c012 3b3b c844 f8bc d484 81bd 0b86 29bd
00000340: 48fc e6bc 1232 723e 688c f0bc acf5 5cbd
00000350: 6bda 3d3d b7ed 833d b3a4 4cbd 20b0 193d
00000360: e434 803d afce 6d3d d8a5 df3d d8a3 8e3d
00000370: 1db5 423d 98e9 0e3d 2c8b 903d 21c5 a73d
00000380: 98bb 03bd 13c5 a53d 93de b53d 2b3c 4c3d
00000390: 17a0 853d 5c83 42bd 8f4c debd 24d1 8d3d
000003a0: b06e c53d f16c 433d fb2d be3d 9ed8 8abd
000003b0: daff b63c 32ac 2cbd dada d73d 4032 76bd
000003c0: f05f 8f3d 7156 f63c 0d63 9abb c9d4 2fbc
000003d0: a00e 963d 24da 8bbd 90eb d1bc d6cc ed3d
000003e0: 4292 a23d cce3 c33d 0adb d33d 3034 19bd
000003f0: ac5b 37bd 62de d13d 20c4 2cbd 4511 84bd
0.09206701 0.009042423 -0.005103077 -0.047276407 -0.12069605 -0.025304977 -0.10530692 -0.025706783
0.09661863 -0.054598004 -0.05682688 -0.07635108 -0.016181841 0.027705595 -0.035659164 0.017637374
0.035375938 -0.30986366 0.13223399 0.04493685 0.055960774 0.014671983 0.12835446 0.021117866
0.084623545 0.1275742 0.029496653 0.043094896 -0.08037894 0.11912756 0.002510598 0.067700334
0.036900315 -0.0004956776 -0.094461225 -0.05278437 -0.07688889 0.070112616 -0.014205535 0.089752086
0.07389541 0.12822081 0.14183077 -0.04505476 -0.04319723 0.003840821 0.057650927 -0.09366998
-0.03151785 -0.09927157 -0.049312025 -0.033832766 -0.049292162 -0.008311957 -0.04828623 0.04605346
0.06135423 -0.017473003 -0.051933404 -0.045315456 -0.045339346 -0.030631507 0.10317385 -0.017017871
-0.04095874 0.057341743 -0.08703838 -0.093152344 -0.014056399 0.07626053 0.07167523 -0.005411014
-0.09854246 -0.025759272 0.11140188 -0.103817165 -0.020697206 0.0061537325 0.1171729 -0.058869086
-0.02700461 -0.28934416 -0.005443508 0.21613173 -0.099431165 0.04035449 -0.064296894 0.021263173
-0.12075445 0.040649574 -0.049649317 0.009896091 -0.08780779 -0.020992165 0.022382373 -0.07960611
-0.05841644 0.10969931 0.08301348 -0.08122111 0.05405243 0.10261244 0.04182428 -0.08405041
-0.05667854 0.085665524 0.10189341 0.13342987 0.053577293 0.038044795 0.11133948 -0.1112272
-0.106677994 0.020980407 -0.047485366 -0.03933643 -0.036849156 0.07263161 0.039366916 -0.08126442
-0.06483617 0.12002333 0.10576436 -0.0925966 0.024761856 0.054920655 -0.06204936 -0.003962338
-0.08785081 -0.09734928 0.088932596 -0.08189021 0.080250666 -0.019461604 0.050379124 0.081318244
-0.0716134 0.13902552 0.009315475 -0.018378422 -0.004072994 0.08628884 0.04711911 0.030210996
0.06841208 0.06412288 0.11676901 0.15997712 -0.109549694 0.09080138 -0.09815209 -0.089470364
-0.056327984 0.071573585 0.05006034 0.07194525 -0.083710924 -0.10445708 0.03906794 -0.016945478
0.22479655 0.09523172 0.07801842 -0.11724475 0.026470268 -0.115082145 0.06017576 0.01050684
0.085599385 0.101705454 0.021345487 -0.012464261 -0.14313042 -0.06438948 0.09255712 -0.015297279
0.055955872 -0.03351555 -0.06819835 0.04836573 0.008960754 0.017509222 -0.022947773 0.041845787
0.13649906 -0.08643624 0.11406831 -0.060072597 0.08197147 0.087607116 -0.10305342 0.0620355
0.07621494 -0.125329 -0.086197466 -0.08068316 0.06998451 0.08671939 0.044428382 0.04093656
0.0100894915 0.06269324 0.089617506 -0.07661113 0.0028545111 -0.030306235 -0.06324163 -0.0413876
-0.028196469 0.23651913 -0.029363826 -0.05394523 0.046350878 0.06441825 -0.049961757 0.03752148
0.06260088 0.058058437 0.10920304 0.069648445 0.047536004 0.03489074 0.07057795 0.08191896
-0.032161325 0.080942295 0.08880343 0.04986207 0.06524675 -0.047488555 -0.10854446 0.06924656
0.096402526 0.047711316 0.09286114 -0.06779598 0.022338796 -0.042156406 0.105397895 -0.060106516
0.070007205 0.030070515 -0.004711515 -0.010731884 0.07327008 -0.068287164 -0.02562502 0.11611335
0.07938053 0.09564933 0.10344513 -0.037403286 -0.04476516 0.10247494 -0.042179227 -0.064486064

model.4.bias f4 [8]
00000000: 34d8 16bc 0306 0cbd 4c60 70bd 6f4c bebd
00000010: 6dbf fbbc ca25 b7bd eaf4 ccbc 0fed cb3d
-0.00920682 -0.03418542 -0.058685586 -0.09291922 -0.030730927 -0.089427546 -0.025019128 0.09957325
