train_pygame/stored/20250712fourth_0040.pth (torch, 30373 bytes, 6 tensors)

model.0.weight f4 [64, 32]
0	0xbf0f6b9e	-0.56023586
1	0xbec5683a	-0.3855608
2	0xbda5a23c	-0.080875844
3	0xbf848382	-1.0352633
4	0x3dcef8c0	0.10106039
5	0x3f1a5686	0.60288274
6	0xbe43ac5a	-0.19108716
7	0x3d980394	0.074225575
8	0x3ef5c47d	0.4800147
9	0xbe9ef569	-0.31046608
10	0x3de01644	0.10941747
11	0x3f0980b7	0.5371203
12	0xbe0f699d	-0.14005132
13	0xbe19cb05	-0.15018852
14	0x3d5178d6	0.05114063
15	0x3ec2a612	0.38017327
16	0xbd923800	-0.071395874
17	0x3e3cae4c	0.18425864
18	0x3e34915b	0.17633574
19	0xbd86966b	-0.06571659
20	0x3e828310	0.25490618
21	0xbea6cacf	-0.32576606
22	0xbda1b9f8	-0.07896799
23	0x3e5b497e	0.21414754
24	0xbe741209	-0.23835005
25	0xbba35905	-0.004984977
26	0x3ef33989	0.47504833
27	0xbdfb82d5	-0.122808136
28	0x3d52e962	0.051492102
29	0x3f2d4ee4	0.676985
30	0x3da5267d	0.08063982
31	0x3deb8878	0.11500639
32	0xbdd06bce	-0.10176812
33	0xbd2a8dce	-0.04163914
34	0x3d244cb2	0.040112205
35	0xbca3a2d7	-0.019975109
36	0x3d124b34	0.03571625
37	0x3d2eea06	0.04270365
38	0xbe48cbc6	-0.19608983
39	0xbe226bb7	-0.15861402
40	0x3df26ab7	0.118367605
41	0xbd41fc15	-0.047359545
42	0xbc3499cc	-0.011022996
43	0xbcf74a37	-0.030186756
44	0x3dbf64d0	0.093454
45	0xbbc17251	-0.00590352
46	0x3bc00384	0.005859794
47	0xbdf707e1	-0.1206205
48	0x3d42a48e	0.047520213
49	0xbe551f0a	-0.20812622
50	0xbe08c7e5	-0.13357504
51	0x3db94f38	0.09048313
52	0x3e1c2ba9	0.1525103
53	0xbde7bcaa	-0.11315282
54	0xbe08ce61	-0.13359977
55	0xbe1e0174	-0.15430242
56	0x3cbdd1a2	0.02317125
57	0x3dd9af6e	0.10629164
58	0x3e1045bb	0.140891
59	0x3dfde9ca	0.12398107
60	0xbe489fc3	-0.19592194
61	0xbe26c302	-0.16285327
62	0xbdc3fc5d	-0.09569619
63	0xba26e9bd	-0.0006367227
64	0xbda6f2ea	-0.08151801
65	0xbdd2b3f8	-0.102882326
66	0x3d528f8b	0.051406424
67	0x3d23d6e3	0.039999854
68	0xbe5553c2	-0.20832732
69	0xbd954694	-0.07288852
70	0xbd81b429	-0.06333191
71	0xbdfc0788	-0.12306124
72	0x3d6e4d03	0.058178913
73	0xbc431902	-0.011907818
74	0xbdc6d530	-0.09708631
75	0x3c5e506a	0.013568977
76	0xbe7742c8	-0.24146569
77	0xbde83374	-0.11337939
78	0x3db54e36	0.08852808
79	0x3e03bd43	0.12865166
80	0x3c91ef3b	0.01781427
81	0xbcbd0117	-0.023071809
82	0xbd1133d4	-0.035449818
83	0x3d19fec8	0.037596494
84	0xbd97dfbd	-0.074157216
85	0xbd75aea6	-0.05998101
86	0xbe295d58	-0.16539514
87	0xbd23fe26	-0.040037297
88	0x3e2bf80f	0.16793846
89	0x3db45974	0.08806124
90	0x3d943c09	0.07238013
91	0x3e3f88f2	0.18704584
92	0x3d8f87e1	0.07008339
93	0xbd14a900	-0.036293983
94	0xbd43998a	-0.047753848
95	0xbdedf788	-0.116194785
96	0xbe098c22	-0.13432363
97	0x3cfca438	0.030840024
98	0x3e0ca056	0.13733038
99	0x3dbb818f	0.09155571
100	0xbd9453a2	-0.07242514
101	0xbe70d119	-0.23517264
102	0xbdb41d8f	-0.087947
103	0x3d8db8a0	0.0691998
104	0xbe8a9c78	-0.270725
105	0x3d12c056	0.035827957
106	0x3dba06d6	0.09083335
107	0xbe9c8468	-0.30569768
108	0xbd9ae89a	-0.075638965
109	0xbdc3c566	-0.09559135
110	0x3df10f69	0.117705174
111	0xbe1f4ff3	-0.15557842
112	0xbdae6546	-0.0851541
113	0xbde17826	-0.110092446
114	0x3d7c7425	0.0616342
115	0x3da75e48	0.081722796
116	0x3e291060	0.16510153
117	0x3da500e3	0.0805681
118	0xbe5c5060	-0.21515036
119	0x3bb0e086	0.005397859
120	0xbe472f4d	-0.19451638
121	0x3d445d1c	0.04794036
122	0x3cc7b066	0.024376106
123	0xbe975c03	-0.29562387
124	0x3d92547f	0.071450226
125	0x3e10f824	0.14157158
126	0x3d819c83	0.0632868
127	0xbe0a4dea	-0.13506284
128	0xbdf40e72	-0.11916818
129	0xbd290285	-0.04126217
130	0x3de46035	0.111511625
131	0xbe56f706	-0.2099267
132	0x3d134d68	0.035962492
133	0xbe3d7da4	-0.1850496
134	0xbdfb3505	-0.12265972
135	0xbcc2066d	-0.023684705
136	0x3d92310b	0.071382605
137	0x3d0ccc68	0.034374624
138	0xbd93bfe4	-0.072143346
139	0x3d919b9b	0.071097575
140	0xbda14c89	-0.07875926
141	0xbe0d6f79	-0.13812055
142	0xbd84c6a8	-0.06483203
143	0xbe5b02c9	-0.21387781
144	0x3d6f58ba	0.058434226
145	0xbe1dd91a	-0.15414849
146	0x3d7c9541	0.061665777
147	0x3d90b7d2	0.07066311
148	0x3e0cb0c3	0.13739304
149	0xbdae495d	-0.08510087
150	0xbddeba5c	-0.10875389
151	0x3d8d6389	0.069037504
152	0x3db0c063	0.08630445
153	0x3d78134a	0.06056527
154	0x3d97bb73	0.074088
155	0x3c259d10	0.010108247
156	0xbdbbaa8f	-0.09163391
157	0xbde9a41a	-0.11408253
158	0x3d7edbc6	0.06222131
159	0xbe00ea92	-0.12589481
160	0xbe27a530	-0.16371608
161	0xbe11f517	-0.1425365
162	0xbdf4f26e	-0.11960302
163	0xbb6f4700	-0.0036510825
164	0x3d2e9820	0.042625546
165	0xbe1b2a12	-0.15152767
166	0x3e319881	0.17343332
167	0xbc669530	-0.014073655
168	0x3dfbaf96	0.1228935
169	0x3d28001c	0.04101573
170	0xbc7ebcc0	-0.015547931
171	0xbd6035a0	-0.05473864
172	0xbe208c16	-0.15678439
173	0xbd9c6b75	-0.07637683
174	0xbdc80e54	-0.09768358
175	0x3d7f96bc	0.06239961
176	0xbd122784	-0.035682216
177	0xbbbff880	-0.005858481
178	0xbd3e43dc	-0.046451434
179	0xbdbcb115	-0.09213463
180	0xbdde5cdb	-0.108575545
181	0x3dddae1e	0.10824226
182	0xbdedafb0	-0.11605775
183	0x3dd1c262	0.10242154
184	0x3c37e8e0	0.011224955
185	0xbdbbaa01	-0.09163285
186	0xbc068f50	-0.008212879
187	0xbced29c8	-0.028950587
188	0xbc828ca8	-0.01593621
189	0xbd1c728c	-0.038195178
190	0x3c893350	0.0167481
191	0xbe12102e	-0.14263985
192	0x3f15ada7	0.584681
193	0xbead3f4f	-0.33837363
194	0xbee6b967	-0.45063326
195	0xbeae5aa8	-0.3405354
196	0x3dbcba31	0.09215201
197	0x3ef023bd	0.46902266
198	0xbe80cb50	-0.25155115
199	0x3e23e332	0.16004637
200	0x3e1e5f92	0.15466145
201	0x3e95bc68	0.29245305
202	0x3e41c494	0.18922645
203	0x3da68b5d	0.0813205
204	0x3f05874b	0.52159566
205	0x3d2f7b0b	0.042841952
206	0xbf81f708	-1.0153513
207	0x3ec295a0	0.3800478
208	0x3d8fcc57	0.070213966
209	0xbcdccf68	-0.026954368
210	0xbdf4f5ef	-0.119609706
211	0xbd4ac5bf	-0.04950499
212	0xbed486ad	-0.41509
213	0xbe69c6c0	-0.22829723
214	0x3d3393ed	0.043842245
215	0xbf609d75	-0.8774026
216	0x3cdf549b	0.027262023
217	0x3da127f3	0.07868948
218	0xbe53c698	-0.20681226
219	0x3f2ac24d	0.6670273
220	0xbe8fd918	-0.28095317
221	0xbe16043e	-0.14650056
222	0x3dc95b6d	0.09831891
223	0x3d78aa2d	0.060709167
224	0xbbd1d64d	-0.0064037205
225	0xbdc2c9da	-0.095111564
226	0x3b91d897	0.0044508683
227	0x3c8dea59	0.01732366
228	0xbe111600	-0.14168549
229	0xbe0fe51c	-0.14052242
230	0x3ccc47b6	0.024936538
231	0x3d859409	0.06522376
232	0x3db13820	0.08653283
233	0x3c261b7d	0.01013839
234	0xbc8e183b	-0.017345538
235	0x3d1dc612	0.038518973
236	0xbe45fb98	-0.19334257
237	0xbdd5131d	-0.10404036
238	0xbe2b6c7b	-0.16740601
239	0xbbc26e29	-0.0059335423
240	0xbdb3f2ed	-0.08786569
241	0xbcf1c2c6	-0.02951182
242	0x3d51c8e7	0.051216986
243	0xbd95facb	-0.073232256
244	0xbb95778e	-0.004561371
245	0xbe01d1dd	-0.12677713
246	0x3dce2b27	0.100668244
247	0xbdbfdadd	-0.09367917
248	0x3e011738	0.12606514
249	0x3d8c9cc9	0.06865842
250	0xbe0b147f	-0.13582037
251	0xbe7a256d	-0.2442834
252	0x3d1ff8c8	0.039055616
253	0x3d1eb755	0.038749058
254	0xbd1b4f0e	-0.03791719
255	0xbdda32ea	-0.10654242

model.0.bias f4 [64]
0	0x3dd46f28	0.10372764
1	0x3c1d8b70	0.009615764
2	0x3d9cf120	0.076631784
3	0x3db0da78	0.086354196
4	0x3df5082d	0.1196445
5	0x3e0f5331	0.13996579
6	0x3e1dbb28	0.15403426
7	0xbe1b6925	-0.15176828
8	0x3e12e2c8	0.14344323
9	0xbdd29e3b	-0.10284086
10	0x3c0c2b6c	0.008555274
11	0x3daa4f6b	0.08315929
12	0xbe4a8739	-0.19778146
13	0xbe38770a	-0.1801416
14	0x3d8a424e	0.06750928
15	0xbd4fd1d3	-0.050737213
16	0xbc3323ab	-0.010933797
17	0x3e0357e8	0.12826502
18	0xbe006eaa	-0.12542215
19	0xbdfec51e	-0.12439941
20	0xbd18330c	-0.037158057
21	0xbe39c74d	-0.18142433
22	0x3d662e14	0.056196287
23	0x3e13bf09	0.14428343
24	0xbc6bbdf3	-0.014388549
25	0x3e0acc32	0.13554457
26	0x3dac38bf	0.08409261
27	0x3d3d7f53	0.046264004
28	0xbe443804	-0.19161993
29	0x3dc6b4b8	0.09702438
30	0xbdc3f42e	-0.09568058
31	0x3c914fc2	0.017738227
32	0xbc639622	-0.013890775
33	0xbe21fd18	-0.15819204
34	0x3da19fd6	0.078918144
35	0xbe3dfda3	-0.18553786
36	0x3d0d9a60	0.03457105
37	0x3c4ec3b3	0.0126199005
38	0xbd934715	-0.07191292
39	0xbe119f37	-0.14220892
40	0x3de37706	0.11106686
41	0x3da518b1	0.0806135
42	0x3dd9013d	0.10595939
43	0xbe1b567e	-0.15169713
44	0xbd146c73	-0.036236238
45	0x3e071ef7	0.13195406
46	0xbd986aef	-0.07442271
47	0x3a61bebd	0.0008611491
48	0x3cb85071	0.022499295
49	0xbdb099d1	-0.08623088
50	0xbe23a285	-0.15979965
51	0xbe0f710d	-0.14007969
52	0xbdcccd14	-0.10000053
53	0x3d998a47	0.074970774
54	0xbe13e169	-0.14441456
55	0x3dfdda7f	0.123951904
56	0xbe26774c	-0.16256446
57	0xbe15d6df	-0.14632748
58	0xbe49597e	-0.19663045
59	0xbe2740af	-0.16333269
60	0x3d852aa4	0.06502274
61	0xbdf45ad4	-0.119313866
62	0x3e06eb0a	0.13175598
63	0xbd22d069	-0.039749537

model.2.weight f4 [64, 64]
0	0xbe8643be	-0.26223558
1	0x3ca6e06f	0.02037069
2	0xbc0d1b5a	-0.008612478
3	0x3d945418	0.07242602
4	0xbd078c66	-0.03309288
5	0xbda120c6	-0.07867579
6	0xbe1dd2c1	-0.15412427
7	0x3d7f1b1d	0.062281717
8	0xbd6d126e	-0.057878904
9	0x39a29000	0.00031006336
10	0xbd5e1538	-0.054219455
11	0x3d9069f8	0.07051462
12	0x3cc17238	0.023614034
13	0x3d95aa09	0.07307822
14	0xbcd68a70	-0.026189059
15	0xbc186b5a	-0.009302938
16	0xbc9d89e0	-0.019230783
17	0x3d69b9ee	0.057062082
18	0xbe5f0aec	-0.2178151
19	0x3d411004	0.047134414
20	0xbcc663b8	-0.024217471
21	0xbcfe6e28	-0.031058386
22	0xbbbc2020	-0.0057411343
23	0xbdfb47ae	-0.12269531
24	0xbcbd72b4	-0.023125984
25	0x3aeabe00	0.0017909408
26	0x3d9b10ca	0.07571562
27	0x3dfbad47	0.122889094
28	0xbcbb3658	-0.022853062
29	0x3ddfdf38	0.109312475
30	0xbe83e16a	-0.25757915
31	0xba981561	-0.0011603051
32	0xbb142480	-0.0022604764
33	0x3dcdc04d	0.10046444
34	0x3d6f48b3	0.05841894
35	0xbdbd21aa	-0.092349365
36	0x3ded870e	0.11598025
37	0x3d0edb3a	0.03487704
38	0x3dd4eb5b	0.10396453
39	0x3d5c5360	0.05379045
40	0x3d2f66a8	0.04282251
41	0x3d645d67	0.055753138
42	0x3d80bed4	0.062863976
43	0xbda9c818	-0.08290118
44	0x3de244c2	0.11048271
45	0x3cce4810	0.025180846
46	0xbd8179f5	-0.063220896
47	0x3d24e70f	0.040259417
48	0x3d64b4c4	0.055836454
49	0x3dab3603	0.08359911
50	0x3d4c556e	0.04988616
51	0xbd373c4b	-0.044735234
52	0xbe8424cc	-0.25809324
53	0x3df77173	0.120821856
54	0x3d81f910	0.06346333
55	0x3db31160	0.087435484
56	0x3d40c008	0.047058135
57	0xbdbe31f2	-0.0928687
58	0xbddf9fe9	-0.10919172
59	0x3daa1708	0.08305174
60	0x3dc0fd9e	0.09423374
61	0x3bd8bba0	0.0066141635
62	0x3ddd5173	0.10806551
63	0x3e3a7ad6	0.1821092
64	0xbeef8366	-0.46779937
65	0xbd4705fb	-0.048589688
66	0xbd843c6f	-0.06456839
67	0xbcbd1e98	-0.023085877
68	0xbdcdecf2	-0.10054959
69	0xbdd4b1c4	-0.103854686
70	0xbecf90eb	-0.4054025
71	0xbd91d31a	-0.071203426
72	0x3dad32f2	0.08456983
73	0x3da873fe	0.08225249
74	0x3dabe5b5	0.083934225
75	0x3d8dd003	0.06924441
76	0x3dc9ba9b	0.09850045
77	0xbd8cae35	-0.06869165
78	0x3c4895c0	0.012242734
79	0x3c814ba0	0.015783131
80	0xbe910762	-0.28325945
81	0xbd303195	-0.043016035
82	0x3c660a5e	0.014040558
83	0xbcdec5a0	-0.027193844
84	0xbcb150f8	-0.021645054
85	0xbd9d740a	-0.07688148
86	0x3ce2b0d8	0.027672216
87	0xbd211884	-0.03933002
88	0xbea5e0ef	-0.32398173
89	0xbcb135fc	-0.021632187
90	0x3d95052d	0.07276378
91	0x3d4a4b48	0.0493882
92	0x3d629dc1	0.055326227
93	0xbe4c748b	-0.19966333
94	0xbf4236f0	-0.7586508
95	0xbdc89257	-0.09793537
96	0xbda9863a	-0.08277555
97	0xbd18bb7f	-0.037288185
98	0xbd51551b	-0.051106554
99	0x3c984876	0.01858924
100	0xbde9dd60	-0.11419177
101	0x3ea6b245	0.32557884
102	0xbd8c6796	-0.06855695
103	0x3bc8c2c0	0.0061267316
104	0x3b5b1f40	0.0033435374
105	0xbe924dc0	-0.28574944
106	0x3cbda33e	0.023149129
107	0xbca38a18	-0.01996331
108	0x3c49ef02	0.01232505
109	0x3d91c5ee	0.0711783
110	0x3da43c50	0.08019316
111	0x3d5e55f1	0.05428118
112	0xbe51759a	-0.20455018
113	0xbd0639e3	-0.03277005
114	0xbd4f06a4	-0.050543442
115	0x3dd1146d	0.10208974
116	0xbce85245	-0.028359542
117	0x3d1b4f4a	0.037917413
118	0x3d6d97f0	0.058006227
119	0xbda2d29d	-0.079503275
120	0x3da59cf4	0.08086577
121	0x3c38ec70	0.01128684
122	0xbd03fbb5	-0.03222247
123	0x3db079a1	0.08616949
124	0xbd0ac06e	-0.03387492
125	0x3d860046	0.06543021
126	0x3d2e580c	0.042564437
127	0xbdf7712d	-0.120821334
128	0xbe071c2d	-0.13194342
129	0x3ca1d470	0.019754618
130	0xbc3fd9ff	-0.011709689
131	0x3d734b0f	0.059397753
132	0x3d24f9bd	0.04027723
133	0xbdad722a	-0.08469041
134	0xbdcb1803	-0.09916689
135	0xbe07417a	-0.13208571
136	0xbc114d9c	-0.008868601
137	0xbd279fa4	-0.04092373
138	0xbdb15511	-0.08658803
139	0x3be58e62	0.0070054987
140	0xb8af2000	-8.350611e-05
141	0x3db124f3	0.08649626
142	0x3ddfcfb8	0.10928291
143	0x3c736d79	0.014857643
144	0xbe32ed3a	-0.17473307
145	0x3d4d0f6e	0.050063543
146	0x3ddf5f5d	0.10906861
147	0xbd82f136	-0.063936636
148	0x3d4e6d58	0.050397247
149	0x3d98736c	0.0744389
150	0x3daf06de	0.08546232
151	0x3d12ab38	0.03580782
152	0xbdfc6a08	-0.12324911
153	0xbdc9a3dc	-0.09845707
154	0xbdaeaf4d	-0.0852953
155	0xbd363e81	-0.044493202
156	0xbe01d570	-0.12679076
157	0x3cdc31d7	0.026879234
158	0x3d3672c6	0.04454305
159	0x3dcd8694	0.10035434
160	0xba97e300	-0.0011588037
161	0xbe03c076	-0.12866387
162	0x3dc62d41	0.096766
163	0xbcaf5148	-0.021401063
164	0x3dc1b306	0.09457974
165	0xbcc3a58e	-0.023882654
166	0xbd282e05	-0.041059513
167	0xbdfd8228	-0.12378341
168	0xbdfe5fee	-0.12420641
169	0xbe3b9670	-0.18319106
170	0xbb90a180	-0.0044137836
171	0xbdfaf5dc	-0.12253925
172	0xbb20cfea	-0.002453799
173	0xbd99a1bc	-0.075015515
174	0x3dcd0dd2	0.10012402
175	0xbd93738c	-0.07199773
176	0xbd5fa4c9	-0.05460051
177	0xbda2b5ad	-0.07944808
178	0x3da7b39c	0.08188555
179	0x3de48eef	0.11160075
180	0x3c5a702f	0.013332411
181	0x3d53e373	0.051730584
182	0xbde08658	-0.10963124
183	0x3c74b6f0	0.014936194
184	0x3da1da38	0.0790295
185	0xbde292b0	-0.11063135
186	0x3d52ec9a	0.051495172
187	0x3debd9c6	0.11516146
188	0x3d429146	0.047501825
189	0x3d894ab4	0.067037016
190	0xbc8eabbe	-0.017415877
191	0xbe01e795	-0.12685998
192	0xbdff6697	-0.12470739
193	0xbdf919c0	-0.121631145
194	0x3d058414	0.032596663
195	0xbd866ff8	-0.06564325
196	0xbdc15202	-0.0943947
197	0x3d4e8f1c	0.05042945
198	0x3c82ca4b	0.015965601
199	0xbd14c2b8	-0.03631851
200	0x3d9a5d16	0.07537286
201	0x3ddb0a06	0.10695271
202	0xbdbf1f74	-0.09332171
203	0xbd054cb0	-0.032543838
204	0xbd863d9e	-0.06554721
205	0xbdad9f94	-0.08477703
206	0x3dda3060	0.10653758
207	0x3dd7be58	0.10534352
208	0xbd911cf0	-0.070855975
209	0x3d6cba00	0.05779457
210	0x3d5ec588	0.0543876
211	0x3d977b3e	0.073965535
212	0xbcced3b0	-0.025247425
213	0x3decd566	0.1156414
214	0x3d6795e8	0.056539446
215	0x3b361d40	0.002778843
216	0xbb7cc16e	-0.0038567442
217	0xbaaa6100	-0.0012998879
218	0x3d173254	0.03691323
219	0xbd8c843a	-0.06861158
220	0xbd9480d2	-0.07251133
221	0x3da178b4	0.078843504
222	0xbe147d28	-0.14500868
223	0x3d38a45c	0.04507862
224	0xbdfacc64	-0.12246016
225	0x3d8b6586	0.068064734
226	0x3dbf7798	0.093489826
227	0xbd0200f9	-0.03173921
228	0xbd97dee8	-0.07415563
229	0x3cec6ae3	0.028859561
230	0xbdc13a1e	-0.09434913
231	0xbd70e4d4	-0.058811978
232	0x3dab6504	0.083688766
233	0x3c4f9c70	0.012671575
234	0x3d144218	0.036195844
235	0x3d7e5660	0.062094092
236	0x3cce4e58	0.025183842
237	0x3cc8c940	0.024510026
238	0xbd851734	-0.06498566
239	0xbd9923c8	-0.07477528
240	0x3d902ec4	0.0704017
241	0xbdf8f864	-0.12156752
242	0xbc1eb880	-0.009687543
243	0x3d931c64	0.071831495
244	0x3d1b3fb6	0.037902556
245	0xbd08c584	-0.03339149
246	0x3b6b2940	0.0035882741
247	0x3ca7f4d0	0.020502478
248	0x3b80d840	0.003932029
249	0xbdb92760	-0.09040713
250	0xbde16630	-0.11005819
251	0xbcafceb0	-0.021460861
252	0xbe1b5d5e	-0.15172336
253	0xbc10e830	-0.00884442
254	0xbcd394f0	-0.025827855
255	0xbdb6c664	-0.08924559

model.2.bias f4 [64]
0	0xbdb10959	-0.08644361
1	0xbd29656a	-0.04135648
2	0xbdf5a7bc	-0.119948834
3	0xbdcac077	-0.09899991
4	0xbe0156d7	-0.12630783
5	0xbe27f380	-0.16401482
6	0xbd5e28f6	-0.054238282
7	0xbd0d2eaf	-0.03446835
8	0xbd7770fd	-0.06041049
9	0xbd5bb91b	-0.053643327
10	0xbcd69636	-0.026194673
11	0xbe129bc7	-0.14317237
12	0xbe1c63f3	-0.15272503
13	0xbe3146e6	-0.17312202
14	0xbe20bbf6	-0.15696701
15	0xbd71329d	-0.05888616
16	0xbdb245fd	-0.087047555
17	0x3e29b6d9	0.16573657
18	0xbd8180fe	-0.063234314
19	0xbe086cbc	-0.13322729
20	0xbdef42d2	-0.11682667
21	0x3e12e142	0.14343742
22	0xbe0fa363	-0.14027171
23	0xbe11ecd7	-0.14250503
24	0xbe0613ef	-0.13093542
25	0xbc2a2a5a	-0.010386074
26	0xbdbc3f2b	-0.09191736
27	0xbcae1c28	-0.02125366
28	0xbda58d5e	-0.08083604
29	0xbdda9fc3	-0.106750034
30	0x3e13aef8	0.14422214
31	0xbdce2dda	-0.10067339
32	0xbd93197b	-0.071825944
33	0x3d24c098	0.040222734
34	0xbd318f9c	-0.043349847
35	0xbda6b3d9	-0.08139772
36	0xbe33db35	-0.1756409
37	0xbe0b7340	-0.13618183
38	0xbe8fc8e7	-0.28082964
39	0x3d2c4d67	0.042066004
40	0x3d87de0c	0.06634149
41	0x3b5c3e24	0.0033606375
42	0xbdcfd48d	-0.10147963
43	0xbca7169b	-0.020396521
44	0xbda0218b	-0.07818898
45	0x3db3ab8d	0.08772955
46	0xbcd7d630	-0.02634725
47	0xbe1e64f6	-0.15468201
48	0xbdf84b7a	-0.12123771
49	0xbb05561d	-0.0020345517
50	0xbec1e76c	-0.37871873
51	0xbd69315a	-0.05693183
52	0x3e1369bf	0.14395808
53	0xbd06505b	-0.032791477
54	0xbde6af64	-0.11263922
55	0xbdfbe619	-0.12299747
56	0x3e5b9103	0.21442036
57	0x3e271209	0.16315474
58	0xbe1da104	-0.15393454
59	0xbc67980c	-0.014135372
60	0xbd02c8aa	-0.03192965
61	0xbe2ab4bb	-0.16670506
62	0xbd8fd3e4	-0.07022837
63	0xbe2aa199	-0.16663207

model.4.weight f4 [8, 64]
0	0x3dbd55ad	0.09244857
1	0xbd9efc94	-0.07763019
2	0x3d0bafb1	0.0341031
3	0xbd41a4e8	-0.047276407
4	0xbdb5dc12	-0.08879866
5	0xbebb44c0	-0.3657589
6	0xbe257904	-0.16159445
7	0xbcd29708	-0.025706783
8	0x3dc252d2	0.09488453
9	0xbd17e0ba	-0.03707955
10	0xbe240956	-0.16019186
11	0xbd2565e5	-0.040380377
12	0x3da4fa80	0.080555916
13	0x3e60533e	0.21906754
14	0x3e789185	0.24274261
15	0xbe9fefe4	-0.3123771
16	0x3d076d35	0.033063132
17	0xbea53443	-0.32266435
18	0x3dbec89d	0.09315608
19	0xbd4870ad	-0.04893558
20	0x3e132745	0.14370449
21	0xbc6c06ef	-0.01440595
22	0x3dcb97ba	0.09941049
23	0x3cd3aa65	0.025838086
24	0x3d316242	0.043306597
25	0x3f15f75a	0.58580554
26	0x3c8ee3d5	0.017442623
27	0x3ec46e61	0.38365462
28	0xbda61c9c	-0.081109256
29	0x3dc80530	0.097666144
30	0xbcbee5c0	-0.023302913
31	0x3d9f3191	0.07773126
32	0x3da9c2ad	0.082890846
33	0x3dc7f252	0.09763016
34	0xbda7d319	-0.081945606
35	0x3cc43c83	0.023954635
36	0xbeb6edb8	-0.3572824
37	0x3e758f14	0.23980361
38	0x3e01d8c9	0.12680353
39	0x3f8e7021	1.1127969
40	0x3dc1a6de	0.094556555
41	0x3eb4804f	0.35254142
42	0x3e457588	0.19283116
43	0x3cc055a6	0.02347834
44	0x3cbdef26	0.023185324
45	0x3dbd062b	0.09229692
46	0x3ef5c030	0.4799819
47	0xbdc2ecf4	-0.095178515
48	0xbd982cb5	-0.07430402
49	0xbdb0c9e0	-0.086322546
50	0x3f0298d4	0.5101445
51	0xbb21aa18	-0.0024668034
52	0x3ec74520	0.38919926
53	0x3e2aed65	0.16692121
54	0xbd45c7c8	-0.04828623
55	0x3d4019f5	0.046899755
56	0x3e0ec14a	0.13940921
57	0x3d6f3118	0.05839643
58	0xbd54b81f	-0.051933404
59	0xbd9873b6	-0.07443945
60	0xbc957dab	-0.0182484
61	0x3ec7c7a6	0.39019507
62	0x3dd34cd0	0.10317385
63	0x3c9da3e7	0.019243194
64	0xbd5fbf52	-0.054625817
65	0xbe5d9c92	-0.21641758
66	0xbd5ba8f6	-0.05362793
67	0xbd84da58	-0.06486958
68	0xbd6e3e80	-0.058165073
69	0xbdd5d96c	-0.104418606
70	0x3da0181a	0.07817097
71	0xbbb14ee0	-0.005411014
72	0xbdad3c69	-0.08458788
73	0xbbd09ceb	-0.0063663623
74	0xbe85cd9b	-0.26133427
75	0xbd8834d9	-0.06650705
76	0x3d05b68b	0.03264479
77	0x3de5b995	0.112170376
78	0x3e2e0150	0.16992688
79	0xbe902715	-0.28154817
80	0xbd128441	-0.03577066
81	0x3e599a62	0.21250299
82	0x3d0ce0f4	0.03439422
83	0x3d3e07ab	0.04639403
84	0x3eea04d4	0.4570681
85	0x3e1516bb	0.14559452
86	0x3cf89b90	0.030347615
87	0x3c84b1ed	0.016198123
88	0xbe0f8ec6	-0.14019307
89	0x3f13d659	0.57748944
90	0xbd88c39f	-0.06677937
91	0x3e79f51b	0.24409907
92	0xbdae9f31	-0.08526457
93	0xbd929925	-0.07158116
94	0x3da30181	0.07959271
95	0xbd80c681	-0.062878616
96	0xbd86f9f2	-0.06590642
97	0xbddb98c6	-0.107224986
98	0x3d745e39	0.05966017
99	0xbd757edf	-0.059935447
100	0xbec4b4f7	-0.38419315
101	0x3e76d438	0.24104393
102	0x3d8c844e	0.068611726
103	0x3ee50531	0.44730523
104	0x3ed75c3a	0.4206255
105	0x3e047b00	0.12937546
106	0xbda03585	-0.07822708
107	0x3c89b7c3	0.016811257
108	0xbe95abf7	-0.2923276
109	0xbe7e18bd	-0.24814124
110	0x3eb026c0	0.34404564
111	0xbcfec88d	-0.03110149
112	0xbda2edad	-0.07955489
113	0x3d92b8d4	0.071641594
114	0x3f21d6b3	0.6321823
115	0x3b12135a	0.0022289366
116	0x3e80c9f7	0.25154087
117	0x3cbbf742	0.02294505
118	0x3d213f34	0.039366916
119	0xbc02cc4c	-0.0079832785
120	0x3e851a56	0.25996655
121	0x3d2f55a8	0.042806298
122	0x3dc71707	0.09721189
123	0xbd5d6cbf	-0.054058786
124	0x3ccad960	0.024761856
125	0x3e219ecf	0.15783237
126	0xbd7e2778	-0.06204936
127	0xbd0aafb7	-0.03385898
128	0xbd54a07e	-0.05191087
129	0xbe84b479	-0.2591894
130	0x3db6224b	0.088932596
131	0xbda7b60e	-0.08189021
132	0x3dea6cd9	0.11446542
133	0xbe2e0a22	-0.16996053
134	0xbccbac88	-0.024862543
135	0x3d61085a	0.054939605
136	0xbd542f58	-0.051802963
137	0x3e28c475	0.16481192
138	0xbe856bb0	-0.26058722
139	0x3c2c1377	0.010502688
140	0x3dd0d01f	0.10195946
141	0x3db0af19	0.08627147
142	0x3df9a8f6	0.1219043
143	0x3e9c59b8	0.305372
144	0x3d8e82cd	0.06958542
145	0x3e101fac	0.14074582
146	0x3dc252b9	0.09488434
147	0xbe48fd0d	-0.19627781
148	0x3edc66c8	0.43047166
149	0x3f14a445	0.58063155
150	0xbdf218bc	-0.11821124
151	0xbdaf810d	-0.08569536
152	0xbbaed530	-0.0053354725
153	0x3e86ff99	0.2636688
154	0x3e455741	0.19271566
155	0x3f0af291	0.54276377
156	0xbda03e44	-0.07824376
157	0xbd96944a	-0.07352503
158	0x3ef0825a	0.4697445
159	0x3d180f33	0.03712387
160	0x3d28ad15	0.04118069
161	0xbe79ead6	-0.24405989
162	0x3d9a477a	0.07533164
163	0xbe10373b	-0.14083569
164	0x3f212834	0.6295197
165	0x3eae1a80	0.34004593
166	0xbf02ae45	-0.51047164
167	0xbe186e23	-0.14885764
168	0x3f1150da	0.56763995
169	0x3e8fd9c0	0.28095818
170	0x3dda6c71	0.10665215
171	0xbd363093	-0.044479918
172	0xbeaff22f	-0.3436446
173	0x3e300fa1	0.17193462
174	0xbe08a384	-0.13343626
175	0xbc8c128d	-0.01709869
176	0x3e005662	0.12532952
177	0xbd1d2cc9	-0.03837279
178	0x3ef69d3a	0.4816683
179	0x3d7e18a2	0.06203521
180	0xbe37ec15	-0.17961152
181	0x3c9dd97d	0.019268746
182	0xbcbbfcf8	-0.022947773
183	0x3e182cc0	0.14860821
184	0x3f6e9d58	0.9320884
185	0xbf04baef	-0.5184774
186	0x3de34aa3	0.1109822
187	0xbdb34d0b	-0.08754929
188	0x3da7e0a8	0.08197147
189	0x3e59c6f5	0.21267302
190	0xbdd30dac	-0.10305342
191	0x3dd04e35	0.10171167
192	0x3dad894c	0.08473453
193	0xbe5e15e4	-0.21688038
194	0xbd61d417	-0.055133905
195	0xbda53d36	-0.08068316
196	0x3ce50f8e	0.027961519
197	0x3e9334dd	0.2875127
198	0xbc8a6cd9	-0.016897606
199	0x3d27ad18	0.04093656
200	0x3d4becc7	0.049786355
201	0x3d24e0e7	0.040253546
202	0xbdba6a5b	-0.09102317
203	0xbe026d26	-0.1273695
204	0xbdac8ecb	-0.08425673
205	0xbd4b730a	-0.049670257
206	0x3aeeedf2	0.0018228872
207	0x3ed073e8	0.4071343
208	0xbce637d0	-0.028102785
209	0x3ebd8039	0.3701189
210	0x3b3a6bed	0.0028445676
211	0xbeaed86a	-0.34149486
212	0x3ec78ec0	0.38976097
213	0x3ec517f4	0.38494837
214	0xbc97f1d4	-0.01854793
215	0x3d16fad1	0.03686029
216	0xbb821729	-0.003970046
217	0x3ee057c4	0.4381696
218	0x3e2a1e29	0.16613068
219	0x3ec830a5	0.39099613
220	0x3cd2d910	0.02573827
221	0xbdb51eb4	-0.08843747
222	0x3f108c16	0.56463754
223	0x3d8ce1ff	0.06879043
224	0xbd4ce090	-0.050018847
225	0x3eab7a8b	0.3349193
226	0x3defe982	0.1171446
227	0x399f66dd	0.00030403482
228	0x3f3dc730	0.7413206
229	0x3ed8d41b	0.42349324
230	0xbf266cb3	-0.6500961
231	0x3e57f6f0	0.21090293
232	0x3e616f7b	0.22015183
233	0x3ef8d9f4	0.48603785
234	0x3ea6d192	0.32581764
235	0xbdbed33f	-0.09317636
236	0xbe42bb69	-0.19016804
237	0x3ed78852	0.42096192
238	0xbf12c87b	-0.5733716
239	0xbdedd1e1	-0.11612297
240	0x3de1c531	0.110239394
241	0x3d7c6830	0.0616228
242	0x3f188207	0.59573406
243	0xbd655efe	-0.055998795
244	0xbe8cb3fe	-0.27481073
245	0xbd285e96	-0.04110583
246	0xbcd1eb90	-0.02562502
247	0x3d9bcbce	0.07607232
248	0x3f766864	0.9625304
249	0xbf0b94dd	-0.5452402
250	0x3dcbc857	0.09950321
251	0x3b841860	0.004031226
252	0xbd375bac	-0.04476516
253	0x3ec82ac2	0.39095122
254	0xbd2cc420	-0.042179227
255	0xbe00f3d3	-0.12593012

model.4.bias f4 [8]
0	0xbc5cb5ff	-0.013471126
1	0xbd53f84d	-0.05175047
2	0xbd954278	-0.072880685
3	0xbddb2c3d	-0.10701797
4	0xbdcd6544	-0.100290805
5	0x3c9e4e3b	0.019324413
6	0xbd83ffec	-0.064452976
7	0xbcad0586	-0.021120798
