train_pygame/stored/20250712fourth_0010.pth (torch, 30373 bytes, 6 tensors)

model.0.weight f4 [64, 32]
00000000: 35ba dbbd a91f e7bd 1d93 e3bd d4aa 09bf
00000010: 3e70 003e 5b2f 8c3e 785b 9c3d 69eb c93d
00000020: 4a59 7f3e 3953 d8bd 0aff 083e 1c14 a63e
00000030: 2cec 303e bcd6 00be 2e5e c7bd d0a7 193e
00000040: 80a0 40bd 83a1 003e fbce c4bd 4d5d 29bd
00000050: 8fc5 953e c39d 40be 64a4 5fbd 7830 adbe
00000060: c1c6 c83d 8fdc 9e3c a823 9d3e 3d9c 863c
00000070: 391c 46be fef7 083f 8233 c4bc 829d 1c3e
00000080: ce6b d0bd ce8d 2abd b24c 243d d7a2 a3bc
00000090: 344b 123d 06ea 2e3d c6cb 48be b76b 22be
000000a0: b76a f23d 15fc 41bd cc99 34bc 374a f7bc
000000b0: d064 bf3d 5172 c1bb 8403 c03b e107 f7bd
000000c0: 8ea4 423d 0a1f 55be e5c7 08be 384f b93d
000000d0: a92b 1c3e aabc e7bd 61ce 08be 7401 1ebe
000000e0: a2d1 bd3c 6eaf d93d bb45 103e cae9 fd3d
000000f0: c39f 48be 02c3 26be 5dfc c3bd bde9 26ba
00000100: eaf2 a6bd f8b3 d2bd 8b8f 523d e3d6 233d
00000110: c253 55be 9446 95bd 29b4 81bd 8807 fcbd
00000120: 034d 6e3d 0219 43bc 30d5 c6bd 6a50 5e3c
00000130: c842 77be 7433 e8bd 364e b53d 43bd 033e
00000140: 3bef 913c 1701 bdbc d433 11bd c8fe 193d
00000150: bddf 97bd a6ae 75bd 585d 29be 26fe 23bd
00000160: 0ff8 2b3e 7459 b43d 093c 943d f288 3f3e
00000170: e187 8f3d 00a9 14bd 8a99 43bd 88f7 edbd
00000180: 228c 09be 38a4 fc3c 56a0 0c3e 8f81 bb3d
00000190: a253 94bd 19d1 70be 8f1d b4bd a0b8 8d3d
000001a0: 789c 8abe 56c0 123d d606 ba3d 6884 9cbe
000001b0: 9ae8 9abd 66c5 c3bd 690f f13d f34f 1fbe
000001c0: 4665 aebd 2678 e1bd 2574 7c3d 485e a73d
000001d0: 6010 293e e300 a53d 6050 5cbe 86e0 b03b
000001e0: 4d2f 47be 1c5d 443d 66b0 c73c 035c 97be
000001f0: 7f54 923d 24f8 103e 839c 813d ea4d 0abe
00000200: 720e f4bd 8502 29bd 3560 e43d 06f7 56be
00000210: 684d 133d a47d 3dbe 0535 fbbd 6d06 c2bc
00000220: 0b31 923d 68cc 0c3d e4bf 93bd 9b9b 913d
00000230: 894c a1bd 796f 0dbe a8c6 84bd c902 5bbe
00000240: ba58 6f3d 1ad9 1dbe 4195 7c3d d2b7 903d
00000250: c3b0 0c3e 5d49 aebd 5cba debd 8963 8d3d
00000260: 63c0 b03d 4a13 783d 73bb 973d 109d 253c
00000270: 8faa bbbd 1aa4 e9bd c6db 7e3d 92ea 00be
00000280: 30a5 27be 17f5 11be 6ef2 f4bd 0047 6fbb
00000290: 2098 2e3d 122a 1bbe 8198 313e 3095 66bc
000002a0: 96af fb3d 1c00 283d c0bc 7ebc a035 60bd
000002b0: 168c 20be 756b 9cbd 540e c8bd bc96 7f3d
000002c0: 8427 12bd 80f8 bfbb dc43 3ebd 15b1 bcbd
000002d0: db5c debd 1eae dd3d b0af edbd 62c2 d13d
000002e0: e0e8 373c 01aa bbbd 508f 06bc c829 edbc
000002f0: a88c 82bc 8c72 1cbd 5033 893c 2e10 12be
00000300: 2330 793e cb51 093e 390a 8dbe 5ab4 68be
00000310: f0f9 a63d dd39 213e 9a35 5bbe 0503 193e
00000320: 703a 903e e392 ab3d 67e4 363e 9562 0d3e
00000330: a5aa a53e 96f9 033d 4902 c2be d920 0b3e
00000340: f017 743d a735 55be 4b09 7ebe df46 76bd
00000350: 9f75 15be aff1 3fbe 6812 083d 8239 ffbe
00000360: a9a0 bc3e 9c67 8b3d 7344 51be c5a4 e13e
00000370: c866 0ebe bedc b8bb f2d3 0b3c c7f9 3d3d
00000380: 5a60 cf3c 37da 81bd c61b 143d 3edc 483d
00000390: bc2a e1bd 76d4 debd 9414 683d 4c95 c63d
000003a0: cf31 f23d ad6e 2b3d b1d9 6b3c 1bdc 8f3d
000003b0: c883 25be d911 94bd fbf3 0abe bd10 d33c
000003c0: 54e3 65bd 3231 113b 21d9 a93d 12f3 29bd
000003d0: 6d53 de3c 20b6 c2bd 3596 073e d2bf 7dbd
000003e0: 1b91 213e 0c9e cd3d a13d d5bd d6af 59be
000003f0: a6fd 903d c14e 903d 0343 cbbb ea32 dabd
-0.107288755 -0.112853356 -0.11112044 -0.5377629 0.12542817 0.2737988 0.07634634 0.09859354
0.24936405 -0.105627485 0.1337854 0.32437217 0.17277592 -0.12581915 -0.0973476 0.15005422
-0.047028065 0.12561612 -0.09609791 -0.041348744 0.29252288 -0.18810181 -0.054600134 -0.3382604
0.09803534 0.01939228 0.30691266 0.016431922 -0.19346704 0.53503406 -0.023950342 0.1529446
-0.10176812 -0.04163914 0.040112205 -0.019975109 0.03571625 0.04270365 -0.19608983 -0.15861402
0.118367605 -0.047359545 -0.011022996 -0.030186756 0.093454 -0.00590352 0.005859794 -0.1206205
0.047520213 -0.20812622 -0.13357504 0.09048313 0.1525103 -0.11315282 -0.13359977 -0.15430242
0.02317125 0.10629164 0.140891 0.12398107 -0.19592194 -0.16285327 -0.09569619 -0.0006367227
-0.08151801 -0.102882326 0.051406424 0.039999854 -0.20832732 -0.07288852 -0.06333191 -0.12306124
0.058178913 -0.011907818 -0.09708631 0.013568977 -0.24146569 -0.11337939 0.08852808 0.12865166
0.01781427 -0.023071809 -0.035449818 0.037596494 -0.074157216 -0.05998101 -0.16539514 -0.040037297
0.16793846 0.08806124 0.07238013 0.18704584 0.07008339 -0.036293983 -0.047753848 -0.116194785
-0.13432363 0.030840024 0.13733038 0.09155571 -0.07242514 -0.23517264 -0.087947 0.0691998
-0.270725 0.035827957 0.09083335 -0.30569768 -0.075638965 -0.09559135 0.117705174 -0.15557842
-0.0851541 -0.110092446 0.0616342 0.081722796 0.16510153 0.0805681 -0.21515036 0.005397859
-0.19451638 0.04794036 0.024376106 -0.29562387 0.071450226 0.14157158 0.0632868 -0.13506284
-0.11916818 -0.04126217 0.111511625 -0.2099267 0.035962492 -0.1850496 -0.12265972 -0.023684705
0.071382605 0.034374624 -0.072143346 0.071097575 -0.07875926 -0.13812055 -0.06483203 -0.21387781
0.058434226 -0.15414849 0.061665777 0.07066311 0.13739304 -0.08510087 -0.10875389 0.069037504
0.08630445 0.06056527 0.074088 0.010108247 -0.09163391 -0.11408253 0.06222131 -0.12589481
-0.16371608 -0.1425365 -0.11960302 -0.0036510825 0.042625546 -0.15152767 0.17343332 -0.014073655
0.1228935 0.04101573 -0.015547931 -0.05473864 -0.15678439 -0.07637683 -0.09768358 0.06239961
-0.035682216 -0.005858481 -0.046451434 -0.09213463 -0.108575545 0.10824226 -0.11605775 0.10242154
0.011224955 -0.09163285 -0.008212879 -0.028950587 -0.01593621 -0.038195178 0.0167481 -0.14263985
0.24334769 0.13410108 -0.27546862 -0.22725049 0.081531405 0.1574473 -0.21407166 0.14942558
0.28169584 0.08377626 0.17860566 0.13807137 0.32356754 0.032220446 -0.37892368 0.13586749
0.05959314 -0.20821248 -0.24808232 -0.06012618 -0.1459565 -0.18744539 0.03322068 -0.49848562
0.36841324 0.06806871 -0.20436268 0.44071022 -0.13906395 -0.005641549 0.008534418 0.046380784
0.025314499 -0.06340449 0.0361593 0.049038164 -0.10994479 -0.108803675 0.05666025 0.09696445
0.118259065 0.041853596 0.014395163 0.07024404 -0.16163552 -0.07229967 -0.13569634 0.025764817
-0.056125 0.0022154567 0.08293367 -0.041491576 0.02713939 -0.09507394 0.13240893 -0.061950512
0.1577801 0.10039911 -0.104121454 -0.21258482 0.070796296 0.07046271 -0.006203057 -0.10654242

model.0.bias f4 [64]
00000000: 702b 033e 708b 1d3c 20f1 9c3d 78da b03d
00000010: 2d08 f53d 3153 0f3e fada 123e 08d1 f5bd
00000020: 5ac2 2e3e 5fac 9dbd 6c2b 0c3c 6b4f aa3d
00000030: 3987 4abe 0a77 38be 4e42 8a3d d3d1 4fbd
00000040: f925 8c3d e857 033e aa6e 00be 1ec5 febd
00000050: 0c33 18bd 0780 19be 142e 663d 09bf 133e
00000060: 5bbe cd3c 32cc 0a3e bf38 ac3d 537f 3d3d
00000070: 0438 44be 79b3 033e 0e0c 7abc c24f 913c
00000080: 50c7 733c 18fd 21be d69f a13d 09ee e5bd
00000090: 609a 0d3d 26c8 353d 1547 93bd 379f 11be
000000a0: 0677 e33d ac04 933d 3d01 d93d 7e56 1bbe
000000b0: 736c 14bd f71e 073e ef6a 98bd bdbe 613a
000000c0: d0b4 5d3d d199 b0bd 85a2 23be fe44 edbd
000000d0: 2133 14be 50c3 d83d 564f ffbd 7fda fd3d
000000e0: 4c77 26be be13 07be 7e59 49be af40 27be
000000f0: 2c0f cd3d d45a f4bd 0aeb 063e 69d0 22bd
0.12809539 0.009615764 0.076631784 0.086354196 0.1196445 0.13996579 0.14341345 -0.1200276
0.17066327 -0.07698893 0.008555274 0.08315929 -0.19778146 -0.1801416 0.06750928 -0.050737213
0.0684318 0.12826502 -0.12542215 -0.12439941 -0.037158057 -0.14990245 0.056196287 0.14428343
0.025115183 0.13554457 0.08409261 0.046264004 -0.19161993 0.12861432 -0.015261663 0.017738227
0.014879063 -0.15819204 0.078918144 -0.11227042 0.03457105 0.04438033 -0.07191292 -0.14220892
0.11106686 0.071786255 0.10595939 -0.15169713 -0.036236238 0.13195406 -0.07442271 0.0008611491
0.054127514 -0.08623088 -0.15979965 -0.11585425 -0.14472629 0.10584128 -0.12466304 0.123951904
-0.16256446 -0.13191125 -0.19663045 -0.16333269 0.100126594 -0.119313866 0.13175598 -0.039749537

model.2.weight f4 [64, 64]
00000000: ed85 71be 6fe0 a63c 5a1b 0dbc 1854 943d
00000010: 668c 07bd c620 a1bd c1d2 1dbe 1d1b 7f3d
00000020: 6e12 6dbd 0090 a239 3815 5ebd f869 903d
00000030: 3872 c13c 09aa 953d 708a d6bc 5a6b 18bc
00000040: e089 9dbc eeb9 693d ec0a 5fbe 0410 413d
00000050: b863 c6bc 286e febc 2020 bcbb ae47 fbbd
00000060: b472 bdbc 00be ea3a ca10 9b3d 47ad fb3d
00000070: 5836 bbbc 38df df3d 6ae1 83be 6115 98ba
00000080: 8024 14bb 4dc0 cd3d b348 6f3d b9d5 78bd
00000090: 0e87 ed3d 3adb 0e3d 5beb d43d 6053 5c3d
000000a0: a866 2f3d d529 b33d d4be 803d 18c8 a9bd
000000b0: c244 e23d 1048 ce3c f579 81bd 0fe7 243d
000000c0: c4b4 643d 0336 ab3d 6e55 4c3d 4b3c 37bd
000000d0: ecb8 68be 7371 f73d 10f9 813d 6011 b33d
000000e0: 08c0 403d f231 bebd e99f dfbd 0817 aa3d
000000f0: 9efd c03d a0bb d83b 7351 dd3d d67a 3a3e
00000100: b515 afbe fb05 47bd 6f3c 84bd 981e bdbc
00000110: f2ec cdbd c4b1 d4bd 3f37 c1be 1ad3 91bd
00000120: 28d1 153e fe73 a83d b5e5 ab3d 03d0 8d3d
00000130: 9bba c93d 35ae 8cbd c095 483c a04b 813c
00000140: d2e0 21be 9531 30bd 5e0a 663c a0c5 debc
00000150: f850 b1bc 0a74 9dbd d8b0 e23c 8418 21bd
00000160: efe0 a5be fc35 b1bc 2d05 953d 484b 4a3d
00000170: c19d 623d 8b74 4cbe f0f2 39bf 5792 c8bd
00000180: 3a86 a9bd 7fbb 18bd 1b55 51bd 2fa8 333e
00000190: 60dd e9bd 2d88 a43e 9667 8cbd c0c2 c83b
000001a0: 401f 5b3b 0cad f2bd 3ea3 bd3c 188a a3bc
000001b0: 02ef 493c eec5 913d 503c a43d f155 5e3d
000001c0: 9a75 51be e339 06bd a406 4fbd 6d14 d13d
000001d0: d8c2 dd3d 4a4f 1b3d f097 6d3d 9dd2 a2bd
000001e0: f49c a53d 70ec 383c b5fb 03bd a179 b03d
000001f0: 99f1 83bc 4600 863d 0c58 2e3d 2d71 f7bd
00000200: 2d1c 07be 70d4 a13c ffd9 3fbc 0f4b 733d
00000210: bdf9 243d 2a72 adbd 0318 cbbd 7a41 07be
00000220: 9c4d 11bc a49f 27bd 1155 b1bd 628e e53b
00000230: 0020 afb8 f324 b13d b8cf df3d 796d 733c
00000240: 3aed 32be 6e0f 4d3d 5d5f df3d 36f1 82bd
00000250: 586d 4e3d 6c73 983d de06 af3d 38ab 123d
00000260: 086a fcbd dca3 c9bd 4daf aebd 813e 36bd
00000270: 70d5 01be d731 dc3c c672 363d 9486 cd3d
00000280: 00e3 97ba 76c0 03be 412d c63d 4851 afbc
00000290: 06b3 c13d 8ea5 c3bc 052e 28bd 2882 fdbd
000002a0: ee5f febd 7096 3bbe 80a1 90bb dcf5 fabd
000002b0: eacf 20bb bca1 99bd d20d cd3d 8c73 93bd
000002c0: c9a4 5fbd adb5 a2bd 9cb3 a73d ef8e e43d
000002d0: 2f70 5a3c 73e3 533d 5886 e0bd f0b6 743c
000002e0: 38da a13d b092 e2bd 9aec 523d c6d9 eb3d
000002f0: 4691 423d b44a 893d beab 8ebc 95e7 01be
00000300: 9766 ffbd c019 f9bd 1484 053d f86f 86bd
00000310: 0252 c1bd 1c8f 4e3d 4bca 823c b8c2 14bd
00000320: 165d 9a3d 060a db3d 741f bfbd b04c 05bd
00000330: 9e3d 86bd 949f adbd 6030 da3d 58be d73d
00000340: f01c 91bd 00ba 6c3d 88c5 5e3d 3e7b 973d
00000350: b0d3 cebc 66d5 ec3d e895 673d 401d 363b
00000360: 6ec1 7cbb 0061 aaba 5432 173d 3a84 8cbd
00000370: d280 94bd b478 a13d 287d 14be 5ca4 383d
00000380: 64cc fabd 8665 8b3d 9877 bf3d f900 02bd
00000390: e8de 97bd e36a ec3c 1e3a c1bd d4e4 70bd
000003a0: 0465 ab3d 709c 4f3c 1842 143d 6056 7e3d
000003b0: 584e ce3c 40c9 c83c 3417 85bd c823 99bd
000003c0: c42e 903d 64f8 f8bd 80b8 1ebc 641c 933d
000003d0: b63f 1b3d 84c5 08bd 4029 6b3b d0f4 a73c
000003e0: 40d8 803b 6027 b9bd 3066 e1bd b0ce afbc
000003f0: 5e5d 1bbe 30e8 10bc f094 d3bc 64c6 b6bd
-0.23586245 0.02037069 -0.008612478 0.07242602 -0.03309288 -0.07867579 -0.15412427 0.062281717
-0.057878904 0.00031006336 -0.054219455 0.07051462 0.023614034 0.07307822 -0.026189059 -0.009302938
-0.019230783 0.057062082 -0.2178151 0.047134414 -0.024217471 -0.031058386 -0.0057411343 -0.12269531
-0.023125984 0.0017909408 0.07571562 0.122889094 -0.022853062 0.109312475 -0.25757915 -0.0011603051
-0.0022604764 0.10046444 0.05841894 -0.060750697 0.11598025 0.03487704 0.10396453 0.05379045
0.04282251 0.08748213 0.062863976 -0.08290118 0.11048271 0.025180846 -0.063220896 0.040259417
0.055836454 0.08359911 0.04988616 -0.044735234 -0.22726792 0.120821856 0.06346333 0.087435484
0.047058135 -0.0928687 -0.10919172 0.08305174 0.09423374 0.0066141635 0.10806551 0.1821092
-0.3419625 -0.048589688 -0.06456839 -0.023085877 -0.10054959 -0.103854686 -0.37737462 -0.071203426
0.14630568 0.08225249 0.083934225 0.06924441 0.09850045 -0.06869165 0.012242734 0.015783131
-0.15808418 -0.043016035 0.014040558 -0.027193844 -0.021645054 -0.07688148 0.027672216 -0.03933002
-0.32398173 -0.021632187 0.07276378 0.0493882 0.055326227 -0.19966333 -0.7263632 -0.09793537
-0.08277555 -0.037288185 -0.051106554 0.17544626 -0.11419177 0.32135144 -0.06855695 0.0061267316
0.0033435374 -0.11849412 0.023149129 -0.01996331 0.01232505 0.0711783 0.08019316 0.05428118
-0.20455018 -0.03277005 -0.050543442 0.10208974 0.10828179 0.037917413 0.058006227 -0.079503275
0.08086577 0.01128684 -0.03222247 0.08616949 -0.016106414 0.06543021 0.042564437 -0.120821334
-0.13194342 0.019754618 -0.011709689 0.059397753 0.04027723 -0.08469041 -0.09916689 -0.13208571
-0.008868601 -0.04092373 -0.08658803 0.0070054987 -8.350611e-05 0.08649626 0.10928291 0.014857643
-0.17473307 0.050063543 0.10906861 -0.063936636 0.050397247 0.0744389 0.08546232 0.03580782
-0.12324911 -0.09845707 -0.0852953 -0.044493202 -0.12679076 0.026879234 0.04454305 0.10035434
-0.0011588037 -0.12866387 0.096766 -0.021401063 0.09457974 -0.023882654 -0.041059513 -0.12378341
-0.12420641 -0.18319106 -0.0044137836 -0.12253925 -0.002453799 -0.075015515 0.10012402 -0.07199773
-0.05460051 -0.07944808 0.08188555 0.11160075 0.013332411 0.051730584 -0.10963124 0.014936194
0.0790295 -0.11063135 0.051495172 0.11516146 0.047501825 0.067037016 -0.017415877 -0.12685998
-0.12470739 -0.121631145 0.032596663 -0.06564325 -0.0943947 0.05042945 0.015965601 -0.03631851
0.07537286 0.10695271 -0.09332171 -0.032543838 -0.06554721 -0.08477703 0.10653758 0.10534352
-0.070855975 0.05779457 0.0543876 0.073965535 -0.025247425 0.1156414 0.056539446 0.002778843
-0.0038567442 -0.0012998879 0.03691323 -0.06861158 -0.07251133 0.078843504 -0.14500868 0.04507862
-0.12246016 0.068064734 0.093489826 -0.03173921 -0.07415563 0.028859561 -0.09434913 -0.058811978
0.083688766 0.012671575 0.036195844 0.062094092 0.025183842 0.024510026 -0.06498566 -0.07477528
0.0704017 -0.12156752 -0.009687543 0.071831495 0.037902556 -0.03339149 0.0035882741 0.020502478
0.003932029 -0.09040713 -0.11005819 -0.021460861 -0.15172336 -0.00884442 -0.025827855 -0.08924559

model.2.bias f4 [64]
00000000: d419 60bd a28b e43d bca7 f5bd 77c0 cabd
00000010: d756 01be 248f d5bc f628 5ebd af2e 0dbd
00000020: fd70 77bd 1bb9 5bbd fa85 423e 4b70 e4bd
00000030: f363 1cbe e646 31be 2ebc 02be cc99 d63d
00000040: fd45 b2bd dfd5 413d 8568 0ebd c0c1 5c3e
00000050: 2c01 8a3d 1165 873d a45d e6bd d7ec 11be
00000060: f2c5 cebd b7d9 0fbe 2b3f bcbd b172 463e
00000070: 5e8d a5bd 5322 c3bd d4a1 b73d da2d cebd
00000080: f150 223c 151a 8f3d 0f48 3ebc d9b3 a6bd
00000090: d672 18be 9471 a4bd f01d 233d 825c f53d
000000a0: 32f4 033e 6007 673d 2f68 a73d 9b16 a7bc
000000b0: 8f86 6a3d 7c23 733d 73fe 7f3b f664 1ebe
000000c0: a29d debd 1d56 05bb faad fa3d 5a31 69bd
000000d0: c283 febd 5b50 06bd 64af e6bd e6f5 babd
000000e0: 4a05 133e 0fa7 623e 04a1 1dbe d263 053c
000000f0: aac8 02bd 1587 30bd e4d3 8fbd 99a1 2abe
-0.05471213 0.11159445 -0.119948834 -0.09899991 -0.12630783 -0.026069231 -0.054238282 -0.03446835
-0.06041049 -0.053643327 0.1899642 -0.11154231 -0.15272503 -0.17312202 -0.12767097 0.10478553
-0.087047555 0.047323104 -0.034767646 0.21558285 0.06738505 0.06611074 -0.11248329 -0.14250503
-0.10096349 -0.14047895 -0.09191736 0.19379689 -0.08083604 -0.09528031 0.08966413 -0.10067339
0.009906993 0.06987397 -0.01161386 -0.08139772 -0.14887556 -0.08029476 0.039823472 0.11980535
0.12886122 0.056403518 0.08174168 -0.020396521 0.05725723 0.059360012 0.0039061576 -0.15468201
-0.1086991 -0.0020345517 0.12240215 -0.05693183 -0.124274746 -0.032791477 -0.11263922 -0.09128933
0.14357486 0.2213404 -0.15393454 0.008141475 -0.03192965 -0.043097574 -0.07022837 -0.16663207

model.4.weight f4 [8, 64]
00000000: ad55 bd3d 47c3 7bbd b1af 0b3d e8a4 41bd
00000010: 12dc b5bd 7dc6 d93d 0479 25be 0897 d2bc
00000020: d252 c23d bae0 17bd 40c2 22be e565 25bd
00000030: 80fa a43d 3e53 603e 799c c6bc 9589 82be
00000040: 356d 073d c184 b43d 239d 043e 748f e0bd
00000050: caa1 c03e 950d 4d3d c4a9 dc3d 65aa d33c
00000060: eb33 e63d 34f0 62be d5e3 8e3c 5e77 5e3e
00000070: 9c1c a6bd 3005 c83d 8637 693e 9131 9f3d
00000080: 3aee 0d3f 9e2c 6d3d 19d3 a7bd 833c c43c
00000090: 2e8e 2fbd ced5 823e 91fb f4bd ed72 053e
000000a0: 059d ff3d afae ce3e ce74 9a3e a655 c03c
000000b0: 3188 ec3c 7e5b 8bbd 50ff cbbc f4ec c2bd
000000c0: dc18 01bd e0c9 b0bd 7b4e 73bd 18aa 21bb
000000d0: 9a4a 3c3d 65ed 2a3e c8c7 45bd f519 403d
000000e0: 8b50 1bbd aaa9 39be 1fb8 54bd 637d 0dbd
000000f0: ab7d 95bc d545 0e3d d04c d33d e7a3 9d3c
00000100: 52bf 5fbd fe79 5dbe f6a8 5bbd 58da 84bd
00000110: 803e 6ebd a7ea 2a3d 1a18 a03d e04e b1bb
00000120: 693c adbd eb9c d0bb f98a 8bbe d934 88bd
00000130: 8bb6 053d 95b9 e53d 7c05 d93d ff2a cdbe
00000140: 4184 12bd 9008 3abe 44d8 5a3b 6771 463e
00000150: 9725 193e edca a13d 909b f83c edb1 843c
00000160: d0e9 bdbd 10d2 e03c 9fc3 88bd 5a8b 2d3d
00000170: 319f aebd 3591 90bd 47a8 813c 81c6 80bd
00000180: 26bf 663e 2363 e33d 395e 743d df7e 75bd
00000190: 2d12 d63d 1622 c83d 1104 78bb 7916 38be
000001a0: 9465 063f ca47 463e 4a5d 6fbd c3b7 893c
000001b0: 4fb9 98be 91a8 ca3c 22e7 4e3e 8dc8 febc
000001c0: fe79 dabd d4b8 923d 1c0a 10be 5a13 123b
000001d0: 8dc2 e23d 42f7 bb3c 343f 213d 9023 0abd
000001e0: 6600 b23c f64f 28be 0717 c73d 3cd4 b7bd
000001f0: 60d9 ca3c 683e 84bd 7827 7ebd b7af 0abd
00000200: 7ea0 54bd bcae 88be 4b22 b63d 0eb6 a7bd
00000210: d96c ea3d 1b3b 38bc 88ac cbbc 5a08 613d
00000220: 582f 54bd 75c4 283e 6b87 8cbe 7713 2c3c
00000230: 1fd0 d03d 19af b03d 1dba 0f3e 3c05 a2be
00000240: cd82 8e3d 4791 453e 4d03 013e d478 563c
00000250: e61e 7d3e 1c0e 003e bc18 f2bd 0d81 afbd
00000260: 2cb8 66bd 2e26 ddba 4157 453e 5c83 773e
00000270: 443e a0bd 4a94 96bd db60 8d3e 330f 183d
00000280: 6ae2 ab3e aa1b da3d 7a47 9a3d 3b37 10be
00000290: e1e6 0e3c de62 36be 7b4d ddbd 28ef a3be
000002a0: bf3d 243e 8b95 a53e dc54 5f3c 9330 36bd
000002b0: a06d b0be a828 9b3e 2010 b83d 8d12 8cbc
000002c0: fc31 653d c92c 1dbd 0cc5 143d a218 7e3d
000002d0: f086 fdbb 7dd9 9d3c f8fc bbbc c02c 183e
000002e0: 54f8 563e 9678 bdbe a34a e33d 9ce6 61bd
000002f0: a8e0 a73d 0ed3 243d ac0d d3bd 354e d03d
00000300: 4c89 ad3d daf4 67be 17d4 61bd 363d a5bd
00000310: 8e0f e53c 0fd8 8c3e d96c 8abc 18ad 273d
00000320: c7ec 4b3d e7e0 243d 4c83 cbbd 266d 02be
00000330: cb8e acbd 0a73 4bbd 2a43 a53d 5b28 8ebe
00000340: d037 e6bc 4e12 343f ed6b 3a3b d0db a7be
00000350: 1ab9 dc3e bba2 5f3e d4f1 97bc d1fa 163d
00000360: 3077 153d 9a09 d2bd 291e 2a3e 8266 de3e
00000370: 10d9 d23c 3a51 bfbd 6f7d c63e ffe1 8c3d
00000380: 2b1f 983e 9b4f c53e 82e9 ef3d dd66 9f39
00000390: 18cb 153d f88d 5ebe 036d e6be 3411 e5be
000003a0: 0a61 503e d591 0b3e 1bab b83e 3fd3 bebd
000003b0: 28f0 42be 7a16 bf3e 8ec1 9c3d e1d1 edbd
000003c0: f05f 8f3d 3068 7c3d 32e3 cfbd fe5e 65bd
000003d0: 3803 d3bb 965e 28bd 90eb d1bc cecb 9b3d
000003e0: ed8e 0b3e b50b a0be 57c8 cb3d 22cb e0bc
000003f0: ac5b 37bd 3cb0 4d3e 20c4 2cbd d3f3 00be
0.09244857 -0.061465528 0.0341031 -0.047276407 -0.08879866 0.10633562 -0.16159445 -0.025706783
0.09488453 -0.03707955 -0.15894413 -0.040380377 0.080555916 0.21906754 -0.024244534 -0.25495592
0.033063132 0.08814383 0.12950568 -0.109648615 0.37623435 0.05006178 0.10774568 0.025838086
0.11240371 -0.22161943 0.017442623 0.21725222 -0.081109256 0.097666144 0.22775087 0.07773126
0.5544163 0.05790388 -0.081945606 0.023954635 -0.042860202 0.25553745 -0.11962045 0.13032122
0.12481121 0.40367648 0.3016724 0.02347834 0.028873535 -0.0680456 -0.024902016 -0.095178515
-0.03151785 -0.086322546 -0.059401017 -0.0024668034 0.045969583 0.16692121 -0.04828623 0.046899755
-0.03791861 -0.18131128 -0.051933404 -0.034543406 -0.0182484 0.034734566 0.10317385 0.019243194
-0.054625817 -0.21628568 -0.05362793 -0.06486958 -0.058165073 0.04172769 0.07817097 -0.005411014
-0.08458788 -0.0063663623 -0.27254465 -0.06650705 0.03264479 0.112170376 0.10596749 -0.40071866
-0.03577066 -0.18167329 0.0033393065 0.19379197 0.14955746 0.07900033 0.030347615 0.016198123
-0.09273112 0.027443916 -0.06677937 0.042369224 -0.08526457 -0.07058946 0.015827311 -0.062878616
0.22533855 0.11102893 0.05966017 -0.059935447 0.104526855 0.097721264 -0.003784422 -0.17977323
0.52498746 0.19363323 -0.058438577 0.016811257 -0.2982888 0.024738582 0.20205358 -0.03110149
-0.106677994 0.071641594 -0.14066356 0.0022289366 0.11072264 0.02294505 0.039366916 -0.03372532
0.021728706 -0.16436753 0.09721189 -0.08976027 0.024761856 -0.064572155 -0.06204936 -0.03385898
-0.05191087 -0.26695812 0.088932596 -0.08189021 0.11446542 -0.011244561 -0.024862543 0.054939605
-0.051802963 0.16481192 -0.27447066 0.010502688 0.10195946 0.08627147 0.1403584 -0.3164462
0.06958542 0.192937 0.12598915 0.013090331 0.24718818 0.12505382 -0.11821124 -0.08569536
-0.056327984 -0.001687234 0.19271566 0.24171203 -0.07824376 -0.07352503 0.27612957 0.03712387
0.33571178 0.10649808 0.07533164 -0.14083569 0.008722038 -0.17811152 -0.10805794 -0.320184
0.1603918 0.32340655 0.013631072 -0.044479918 -0.34458637 0.30304456 0.089874506 -0.01709869
0.055955872 -0.03837279 0.03632073 0.06203521 -0.007737033 0.019268746 -0.022947773 0.14860821
0.20993167 -0.37006062 0.1109822 -0.055151567 0.08197147 0.04024034 -0.10305342 0.10171167
0.08473453 -0.22651997 -0.055133905 -0.08068316 0.027961519 0.2750859 -0.016897606 0.04093656
0.049786355 0.040253546 -0.09937152 -0.1273695 -0.08425673 -0.049670257 0.08069451 -0.27765164
-0.028102785 0.7034043 0.0028445676 -0.3278489 0.4310997 0.2183942 -0.01854793 0.03686029
0.03649062 -0.102557376 0.16613068 0.43437582 0.02573827 -0.093416646 0.38767573 0.06879043
0.2971128 0.38537297 0.1171446 0.00030403482 0.03657064 -0.21733844 -0.45005044 -0.44739687
0.20349517 0.1362985 0.36068043 -0.09317636 -0.19036925 0.37321836 0.07654105 -0.11612297
0.070007205 0.0616228 -0.10150756 -0.055998795 -0.0064395927 -0.04110583 -0.02562502 0.07607232
0.1362874 -0.31258932 0.09950321 -0.027440611 -0.04476516 0.2008676 -0.042179227 -0.12593012

model.4.bias f4 [8]
00000000: ce01 7abd b940 6bbd 85a1 8abd 2133 bcbd
00000010: 05a0 b1bd b248 3f3d 51a1 11bd ac22 8d3d
-0.061036877 -0.05743477 -0.06769089 -0.091894396 -0.086730994 0.046700187 -0.035554234 0.06891379
