train_pygame/stored/20250712fifth_0080.pth (torch, 30361 bytes, 6 tensors)

model.0.weight f4 [64, 32]
00000000: 0b2f 743e 4a7f 8cbe e67f 58be 0721 a13e
00000010: 35cb 793d 5db7 efbe ad42 5fbe 36df 13bd
00000020: 60cf cebe 4574 473e b30b 913d 3d55 0bbe
00000030: 17ac 4ebe db4e d5bd 1f7b 0c3e ae6b 933e
00000040: ff8f a93d 9ba6 22be fd5e 3c3f 65c1 a83c
00000050: 772e 13bf a58f 003e 9978 cdbd f438 c0be
00000060: 567d 1dbe a709 38be ec96 e3be dab7 abbd
00000070: 7bf7 d2bd a867 87be fbf8 533e c906 953e
00000080: b0e2 56bc 3532 c63d fa93 afbd 48f5 55be
00000090: fd19 d63c 4bb7 7fbe 93a6 06be 3d9d 653c
000000a0: 1698 1dbe 083b d03c 76ce 45bd 60c4 e43d
000000b0: 0595 3b3c c76b 16bc 5821 e7bd 1479 f2bd
000000c0: c2f5 963d e13a b63d f32c 35be 9c82 dfbd
000000d0: 9c13 0ebe 7a2f d8bd 948c 59be 997a b83b
000000e0: c7b4 4bbe 437b 99bc dffe 1cbe c9bb 66bd
000000f0: d943 8bbc b6e5 bfbc 977c a83c feda c93b
00000100: 68f1 d5bd 1474 bbbd 9092 f0bc 53ee 10be
00000110: c942 d9bd d7c4 19be 7c20 603d 2595 b3bd
00000120: 0694 d43d b8ad 3abd a82a 3fbd 3ff4 03be
00000130: 40ad d03b ae81 08be f438 363d da97 b23d
00000140: 8d44 1c3e a0f2 143d dc3e 633d 429c eebd
00000150: 9d28 0ebe c0ee 583d c846 5ebd 40c5 433b
00000160: 10c4 a3bc a885 9bbc 40ed 76bb 9e73 fdbd
00000170: 0fd7 06be 6410 373d 8a6e 2abe 519e 93bd
00000180: bcb6 33be 204a 903c 374e 92bc ebb7 0a3d
00000190: eede 2abd 67af 163c dbcd 14be 7a91 f0bd
000001a0: 8a9d 713c 5b68 773d 4859 e03d ba99 4c3d
000001b0: dd5d 0bbe 850e 113e 6928 febd 5076 33be
000001c0: ada1 053e e074 f1bc 89f1 0cbd 8ee5 0cbc
000001d0: f53b 2fbd d967 f7bd 183b e93d 7d7e ff3c
000001e0: 98f5 32be b12b 3abe c82f 7b3d b5bf 063e
000001f0: bf24 36be 3e32 31bd c2fb cb3d 2598 f0bd
00000200: aaa0 c1bd 62f4 38be 8cca 35be 1f50 a43d
00000210: a6ff ab3c ade1 ffbd 0037 5ebd 7ae4 8a3d
00000220: 7c10 99bd c9eb e23d 533d 133e 2d1a 47be
00000230: 4dc6 a2bd e47e e3ba dae1 20be 047a 00be
00000240: 7fd9 103e 5b7f 52be d3bb a3bc 0313 103e
00000250: 4e36 0a3e 976b c7bd d509 96bd 9e78 4cbd
00000260: c112 54be 9f6c 013e 685b b6bd 47c0 fe3b
00000270: 85fb 44be 5451 3abe e06a 1bbe 807e 14be
00000280: c78c 86bd 3c3f 38be 7e12 6a3b 3d81 07be
00000290: 3ae5 00be 31a1 dfbd 1fd2 24bd 7906 f03d
000002a0: 12d2 24be fda9 39be bd83 94bd dafa 0cbe
000002b0: 0e1a bb3d eeaf a4bd 2e98 e93b 78aa f03d
000002c0: a025 153e 7427 393d 6512 733d 2cbb 20be
000002d0: 6345 633d 1d7f 673c bcf6 703b 8756 df3d
000002e0: 8aaf 03be cc19 fe3d 3fff 8a3b d51e 2a3d
000002f0: 96d6 c5bd f614 09bd 93ef 1f3e c093 26bc
00000300: 5531 133e 6493 0cbe f5dc f8bb 8fc4 d03c
00000310: 4f52 46be d939 d0bd 87da 0ebe 61ba 12be
00000320: 1065 29be edac 4c3b fde2 933c 3eb8 86bd
00000330: c8a0 25be 5492 8f3d c31c d23c 9a20 b6bb
00000340: edaf 913c f287 c3bc e556 85bc c654 39be
00000350: b0c1 2abe a4b8 a83d 4f97 54bb 9827 b13d
00000360: 09c9 f9bd b812 113e 6ea1 ac3c 310f 063e
00000370: 99c5 4cbe 55d2 1fbe 0a85 9c3d 586f c83d
00000380: 4424 b7bd 7496 473d f178 be3d 3b66 733e
00000390: a45e 20bd 0e6b 2dbc 7a90 e9bc 4bfa 34bc
000003a0: e474 2ebe fc6e 95bd c220 77be 65a4 bf3b
000003b0: 9b11 e2bd e99f d3bd 1c2c ec3d 764b 26be
000003c0: d3dd 1a3c 5d42 183c 8ce3 18be 8264 80be
000003d0: 8253 b73d af63 d53d dc24 b73d 99a7 61bd
000003e0: 1fc0 543c a370 053c 8858 223c eab9 b43d
000003f0: e11e 6abe 6e97 f3bd da80 50bc 59ab 2c3e
0.2384607 -0.27440864 -0.2114254 0.3147051 0.06098481 -0.46819583 -0.21802779 -0.036101542
-0.4039259 0.19477947 0.070823096 -0.13606735 -0.20182835 -0.10415431 0.13718842 0.2879309
0.08279418 -0.15883867 0.7358244 0.02060003 -0.57492775 0.12554796 -0.10032768 -0.37543452
-0.15379843 -0.17972432 -0.44451082 -0.08384676 -0.103011094 -0.2644627 0.20700447 0.2910674
-0.01311557 0.09677545 -0.08573146 -0.20894349 0.026135439 -0.24972264 -0.1314948 0.014014539
-0.15390047 0.025418773 -0.0482926 0.11170268 0.011449103 -0.00918097 -0.11285657 -0.118395
0.07371093 0.08897949 -0.17692928 -0.10913584 -0.13874668 -0.105559304 -0.21245033 0.005629849
-0.1989318 -0.018735534 -0.153316 -0.05633143 -0.017000126 -0.023424964 0.020567222 0.006160139
-0.10446435 -0.091529995 -0.029366761 -0.14153413 -0.106084414 -0.15016495 0.05471848 -0.087686814
0.10379796 -0.045575827 -0.04667154 -0.12886141 0.0063683093 -0.13330719 0.04448791 0.0872037
0.15260525 0.036364198 0.05547987 -0.116508976 -0.1388268 0.052962065 -0.05426672 0.0029872209
-0.01999095 -0.01898463 -0.0037678033 -0.12375568 -0.13167976 0.044693366 -0.1664373 -0.07207931
-0.17550176 0.01761347 -0.017859561 0.033866804 -0.04171651 0.009197093 -0.14531653 -0.117464975
0.014747033 0.060402256 0.10954529 0.049951293 -0.13610025 0.14165695 -0.124100514 -0.17525601
0.13049956 -0.029474676 -0.034410033 -0.008599652 -0.04278179 -0.12080354 0.11388224 0.031188244
-0.17476499 -0.1818073 0.061324865 0.13159068 -0.17787455 -0.043260805 0.09960128 -0.11747769
-0.09454472 -0.18061975 -0.17753047 0.080230944 0.020995926 -0.12494216 -0.05425167 0.0678186
-0.07473847 0.11080129 0.14378862 -0.19443579 -0.07947979 -0.0017356542 -0.15711156 -0.12546545
0.14145468 -0.20556395 -0.019987023 0.14069752 0.13497278 -0.09737318 -0.07326094 -0.049919717
-0.20710279 0.12639092 -0.08904153 0.007774386 -0.19236572 -0.18195087 -0.15177488 -0.14501381
-0.0656982 -0.17992872 0.0035716589 -0.13232894 -0.12587443 -0.10919417 -0.04023945 0.117199846
-0.1609576 -0.18131252 -0.072516896 -0.13767567 0.09135829 -0.080413684 0.007128737 0.11751264
0.14565134 0.04520364 0.059343714 -0.156964 0.055486094 0.014129427 0.003676816 0.10905176
-0.12859932 0.12407264 0.0042418535 0.04153331 -0.0966007 -0.033467256 0.15618734 -0.010167062
0.14374287 -0.137281 -0.0075946995 0.025484351 -0.19367336 -0.101672836 -0.13950549 -0.1432891
-0.16542459 0.0031231001 0.018052572 -0.0657811 -0.16174614 0.07010332 0.02564848 -0.0055580856
0.017784083 -0.023868535 -0.016276786 -0.18098745 -0.16675448 0.082383424 -0.003243882 0.0865013
-0.121965475 0.14167297 0.02107307 0.13091733 -0.19997253 -0.15607579 0.07642563 0.09786862
-0.08942464 0.048727468 0.093004115 0.23769467 -0.039152756 -0.010584606 -0.028511275 -0.011046003
-0.17036778 -0.07296559 -0.2413359 0.005848455 -0.11038514 -0.10333235 0.11531851 -0.16239724
0.009452301 0.009293166 -0.14930552 -0.2507668 0.08951475 0.10419404 0.08942577 -0.055091474
0.012985258 0.0081445305 0.009908803 0.08824523 -0.22863342 -0.11894117 -0.012726033 0.16862239

model.0.bias f4 [64]
00000000: 12c8 73be aa81 e33d 00d8 283d d3dc 3bbe
00000010: ada0 16be 4063 483b 4073 943d 6789 14be
00000020: 57d6 98bd ee50 293e 8b9b d93d a32a 913c
00000030: c0d9 73bc 6e54 eabd 005b 083a cca5 53bd
00000040: 6ff7 e5bd c6f4 b63d e511 973d d489 c23c
00000050: a4d2 d5bd 16ba 1cbe e755 0cbd 233a 30be
00000060: fa00 aebd 40b6 363e 0092 02bc b97c cbbd
00000070: cca1 843d b39d 283e 3e99 0c3e 3eca 16be
00000080: 99a5 76bd c7ac 83bd 5e72 3cbe c83d e33d
00000090: 7a06 933d 0c1d 9c3d 6001 4dbc fbcd b0bd
000000a0: b0cd 1bbd d604 e33d 0f7c af3d b1ec 19be
000000b0: 0acd fe3d afe0 1c3e 628c 1abe 88ab f53d
000000c0: 678d 003d e028 003e 52ff 83bd ea87 13be
000000d0: 1aa1 b03d 90ee 533c d502 b03d c463 c0bd
000000e0: 3895 0d3d 86bf 29be c3dd d1bd 5bc4 ccbd
000000f0: 9dd8 eebd 44bb 09be f195 b13d 84a1 f73d
-0.2380679 0.11108716 0.04122162 -0.18345957 -0.1470973 0.0030576736 0.07248545 -0.1450554
-0.07462757 0.16534778 0.106253706 0.017720526 -0.014883459 -0.11441885 0.00052015483 -0.051671788
-0.11228835 0.089334056 0.0737646 0.023747362 -0.10440567 -0.15305361 -0.03426161 -0.17209677
-0.0849628 0.1784296 -0.007969379 -0.09935898 0.06476173 0.16466407 0.13730332 -0.14725587
-0.06021652 -0.06429439 -0.18403003 0.11095768 0.0717897 0.07622728 -0.012512535 -0.08633038
-0.038037956 0.11084907 0.08568584 -0.15031697 0.12441452 0.15320085 -0.15092614 0.119956076
0.03138485 0.12515593 -0.06445183 -0.14407316 0.08624478 0.012935296 0.0859429 -0.09394029
0.034566134 -0.16576967 -0.10247376 -0.09998389 -0.116624095 -0.13450342 0.08671177 0.120913535

model.2.weight f4 [64, 64]
00000000: 7309 6abd a802 02bd 220e ac3d 161f ae3d
00000010: c084 4a3b 280f 71bd a27b ebbd 0a8b 9e3d
00000020: fee6 ea3d 7a55 5f3d 7017 e5bd eeec ecbd
00000030: 5249 e43d ba20 3bbe dcae 2fbd 86c9 823d
00000040: 959b c9bc 9419 da3d 5725 27be 1e92 a83d
00000050: 572f d6bd c89b 003d 78fa 87bd 426c b13d
00000060: 721d 05be 7489 2fbd bed6 a23d 24aa 55bd
00000070: 7aff b1bd bcc2 c7bd f885 3c3d d221 de3d
00000080: 103d 5c3c b430 dabd aa30 b03d 3fed 16be
00000090: 776d 0bbe 9c05 613d 58e3 e1bc 8c42 c4bd
000000a0: 2c58 9b3d 89c1 8ebd b954 edbb 096a 0ebc
000000b0: cf8c cd3c f6e5 bb3d 6216 a23c f0e5 e83c
000000c0: 3fe8 bbbd 0289 a3bd 5940 dfbd 1af3 63bb
000000d0: c6ef ff3d 1851 6d3d 2e5e 90bd 18c0 5f3d
000000e0: bd14 82bd fca3 b5bd 4110 463d 7aba 803d
000000f0: ec27 df3d 60cd 9d3d 1d19 243d e693 a73d
00000100: 5e36 abbc 1bfb 51ba 144d b8bd ca7c 58bc
00000110: c400 573d 1c35 773d c46d 4f3d 7711 b2bd
00000120: 5058 c83c 7b0a 223e f877 e3bd 2670 55be
00000130: a0e1 623c 52f6 e9bd c432 4b3d daea 8ebd
00000140: b9d8 1bbe c8d2 b13d 472c cc3d f071 bcbd
00000150: e90b b83c 53bb 5e3e 89f0 12be 1052 123c
00000160: 4b7e f2be bc46 41be 6085 8a3d a0ff 953c
00000170: 8ed6 e0bd 7077 403c 9a20 bdbd 19c2 ee3d
00000180: 9bb3 ff3d ae79 813d 15bd 88bb ff18 cebd
00000190: c280 87bd 0ef8 83bc 6e92 eebd 5459 0b3d
000001a0: 6279 ab3d e9a9 883d 4ac4 8abd 49e0 acbd
000001b0: 33cc 8abd 9c97 e8bd 9809 593e fad3 89bd
000001c0: d610 a23e d066 573d 90a8 f53c 8fed 0c3d
000001d0: 2ae1 b2bd f86e cd3d 51f9 cc3d 66a8 c0bd
000001e0: 2f8d fc3d a869 ecbd 48d1 a3bd ebf2 1dbe
000001f0: 54a1 5dbd a81a 993c 9c9f 1bbd f82c 8d3c
00000200: 2730 3bbd 61b0 e33d a298 e1bd 70e1 cd3d
00000210: 3226 963d 9088 f0bc 6033 803b 1a66 d13d
00000220: 6455 5abd acbc 4abd d227 f73c cc95 883c
00000230: b0ce eb3c 78ea 4dbd 2c12 12bd deac 0f3d
00000240: 1361 4bbd eb17 09be 1ad8 8fbd d9ad 1cbc
00000250: eda6 8c3c 366d 9f3d 709f 833d 9c84 89bd
00000260: 8ea9 3cbc a041 a9bd e2ac 02be 766f 95bd
00000270: 5abe 8dbd 8abc fcbd 7bfa b53d f6d5 533d
00000280: d813 dbbc 9c11 173b 6f4a d6bd 586a 513d
00000290: e6dd b1bd 4715 f73d e886 923c f8c9 db3d
000002a0: 6c9e a1bd 6d2b c13d 8cdb e83c 077e 3abd
000002b0: 4b8c a4bd d025 22bd 3364 2cbc 8024 fcba
000002c0: bb7a 7c3d a37e 65bd abbc 86bd 46db b43d
000002d0: d43f 083d 9039 b53d 822d 02bd 42c0 823d
000002e0: 3a77 4bbc 408c 873c 0b97 a63c 8419 533d
000002f0: d486 f63d 28b5 04bd 0b96 bf3c 8d3b ee3d
00000300: fcd0 adbe 6484 99bd 7816 7abd 2038 bfbd
00000310: 74ea 403d ec57 d13d bac4 b0bd 6c9f 24be
00000320: a442 3ebd 06e9 b83c 09e6 513d 51de c4bd
00000330: 0050 58bc ed6b 94bd 8cd5 56bd 1fc5 433e
00000340: bbc8 c33d 3950 ba3d 55b8 dcbd c0fd 64bb
00000350: 32c5 863b 2ee0 ecbd 2a9c 57bd 4633 d2bd
00000360: 9c02 53bd 5041 353c 3866 9f3c 604a 373c
00000370: 7d5e 8a3d 801f 5b3d 81c6 7d3c 23b8 34be
00000380: 468b c3bd 4bff 3d3d e042 8cbc 9982 94bc
00000390: 9379 a5be 3937 de3d 9c11 0f3d 301f 49bc
000003a0: e832 463d 59b2 a7bd 9dbb 5e3c 2357 15bd
000003b0: e374 c8bd 5ca5 49bd f20c 7bbe 10e0 54bd
000003c0: 843c 243d 9d31 e03d 92b5 7bbc 5842 983d
000003d0: 405a 4abc f05e a93c b71a b33d e608 823d
000003e0: abb2 d5bd 92f1 e43d f413 ba3d 9eef b6bd
000003f0: 0066 28bd 165a a53d fc99 953c 251c 5abc
-0.057137918 -0.031740814 0.08401133 0.08502023 0.003090188 -0.058852345 -0.114981905 0.07741363
0.114698395 0.054524876 -0.11186111 -0.11568628 0.11146797 -0.18274203 -0.04289137 0.06386094
-0.02461032 0.1064941 -0.16322838 0.08230995 -0.10458248 0.031398565 -0.0663957 0.08663227
-0.12999514 -0.042855695 0.07951115 -0.052164212 -0.086913064 -0.097539395 0.0460262 0.108462945
0.013442293 -0.10653821 0.08603032 -0.1473894 -0.13615976 0.05493699 -0.027574226 -0.09583005
0.07585177 -0.06970508 -0.0072427657 -0.008692273 0.025091557 0.09174721 0.019786064 0.028429955
-0.09175157 -0.079851165 -0.10900945 -0.003478235 0.12496905 0.057938665 -0.07049213 0.054626554
-0.06351612 -0.08869168 0.048355345 0.062855676 0.10896286 0.07705188 0.040063012 0.08182506
-0.020899948 -0.0008010135 -0.089990765 -0.013213346 0.052490965 0.060353383 0.05064179 -0.086947374
0.024456173 0.1582431 -0.111068666 -0.20843562 0.0138477385 -0.11423935 0.04960896 -0.06978388
-0.15219392 0.086827815 0.09969383 -0.09201419 0.022466617 0.21751146 -0.1434957 0.008930698
-0.4736198 -0.1887464 0.067637205 0.018310368 -0.10978423 0.011747226 -0.09234734 0.11658115
0.12485429 0.06322037 -0.004172931 -0.100633614 -0.066163555 -0.016109493 -0.11649023 0.034020737
0.08372761 0.06673033 -0.067757204 -0.084412165 -0.06777229 -0.11357042 0.21195066 -0.067298844
0.3165347 0.052588284 0.029987603 0.03440624 -0.08734353 0.10030931 0.10008491 -0.094071195
0.12331616 -0.1154359 -0.079989016 -0.15424697 -0.054108933 0.018689469 -0.037994012 0.017233357
-0.04570022 0.11117626 -0.110154405 0.100527644 0.07331504 -0.029361993 0.0039123744 0.102245525
-0.05330409 -0.049496338 0.030170355 0.016672991 0.02878508 -0.050272435 -0.03566186 0.03507697
-0.049653124 -0.1338803 -0.0702364 -0.009562933 0.01716944 0.07784502 0.06426895 -0.06714746
-0.011515034 -0.0826447 -0.12761262 -0.0729665 -0.06921072 -0.123406485 0.08885666 0.05171772
-0.02674286 0.0023051267 -0.10463416 0.051126808 -0.08684902 0.12064605 0.017886594 0.10731882
-0.07891545 0.09432111 0.028425 -0.045530345 -0.08034571 -0.039586842 -0.010521936 -0.0019236952
0.061640482 -0.056028973 -0.06578954 0.088308856 0.033263996 0.0884887 -0.03178168 0.063843265
-0.012418563 0.016546369 0.020335695 0.051538005 0.12037435 -0.032399327 0.023386976 0.11632452
-0.33948505 -0.07495955 -0.061056584 -0.09336877 0.047098592 0.10221848 -0.086312726 -0.1607644
-0.046450272 0.022572052 0.05124477 -0.09612716 -0.013202667 -0.07247148 -0.052449748 0.19118164
0.09559771 0.090973325 -0.10777346 -0.0034941286 0.004112863 -0.115661964 -0.052639164 -0.10263686
-0.05151616 0.011062935 0.019457921 0.011187166 0.067563035 0.053496838 0.015489222 -0.17648368
-0.09548049 0.046386044 -0.017121732 -0.01812868 -0.32319316 0.10850377 0.034928903 -0.012275502
0.04838839 -0.08188314 0.013594535 -0.036460053 -0.09787919 -0.049229965 -0.24516657 -0.051971495
0.040096775 0.10946963 -0.015363114 0.07434529 -0.012350619 0.020675153 0.0874533 0.063493535
-0.10434469 0.111788884 0.09085837 -0.08932422 -0.0411129 0.08073823 0.018261902 -0.013312374

model.2.bias f4 [64]
00000000: 1093 bbbd ad04 973d 0b1b 01be feae 46bd
00000010: a3f9 5cbe eb18 abbe deb7 4d3e 9d60 22be
00000020: dc05 4a3d 93d2 90bb 0c14 683e 4077 ecbd
00000030: 72cf 5e3e 1a03 2dbd 6975 833e 1d6c c2bd
00000040: 8f6d 01bd cac9 e13d 6da4 1abe ae63 77bd
00000050: 7388 90bd 45dc 17bd cb53 c5bd d4d6 97bd
00000060: 0af1 b4bd 7b88 b0bc 83bb 32bd 1b66 9f3c
00000070: 9460 66bd aaf2 5a3e 207f 003d 108d 8bbd
00000080: 416f f0bd b488 863d 0554 86be 4c2c fabd
00000090: 6e64 f4bd 8690 76bd f556 d7bd e7d9 cc3d
000000a0: dc73 11be 8708 90bd 7b7a a8be 5e06 62be
000000b0: 9edc d9bd 43f1 47bd 76e5 783e 3c36 5cbd
000000c0: 310b 0bbe 5414 f2bd e115 2cbe 918f f1bd
000000d0: a16b 9abd 8b95 79bd 8132 523e fd7b 053e
000000e0: d82d 18be 4181 a53d 7a78 89be 82d6 223e
000000f0: 1cd7 94bc 6e1c 0dbe a7dd 7abe dc71 46be
-0.09158909 0.07373939 -0.12607972 -0.04850673 -0.21579604 -0.33417448 0.20089671 -0.15857168
0.049321994 -0.0044196337 0.22663897 -0.11546183 0.21758822 -0.042239286 0.25675514 -0.09493277
-0.031598624 0.11024816 -0.15101786 -0.060397796 -0.070572756 -0.0370753 -0.09635123 -0.07414022
-0.08835037 -0.021549454 -0.043635856 0.019457867 -0.056244448 0.21381631 0.031371236 -0.06814015
-0.1173997 0.06569043 -0.26235977 -0.1221548 -0.11933218 -0.060196422 -0.105146326 0.10002499
-0.14204353 -0.070328765 -0.32905945 -0.22072741 -0.106377825 -0.04881407 0.24306282 -0.05376266
-0.13578488 -0.118202835 -0.16805221 -0.11794961 -0.0754006 -0.06093363 0.20527078 0.13035579
-0.14861238 0.08081294 -0.2684973 0.1590214 -0.018168978 -0.13780376 -0.24498616 -0.19379371

model.4.weight f4 [8, 64]
00000000: d390 b73d 314b 32bd 3dff 813d 724c 9a3e
00000010: 2abc 27bd 380f 03be 4e38 703f 6084 dc3c
00000020: 03c8 1b3e a505 b63d 1b48 a53f d42c 49bd
00000030: c460 223f 851e 3abb 3cbe 13bf c37c 383e
00000040: e4f3 4c3f 3493 7abe 6655 493d 4bb1 cfbd
00000050: 1d8b 65bd 9eae a1bd b84e 15bd 8d8f 563c
00000060: 9b0d c6bd 282f ab3c 318a 713d 3b37 2d3f
00000070: 368d 32be 3c47 c6be d419 08bd c478 b63c
00000080: 0cfb 2f3c 84fe 143f fcc3 d53d 6aaa 063e
00000090: ca17 93bc f2c8 2fbd 98fb 84bd 14f8 ce3c
000000a0: 76bf 1e3a 8b92 30bd 9588 e93e f9a7 8cbe
000000b0: cfad 9e3c 9df6 3ebe 8971 85be d9b8 623f
000000c0: 7e86 b23d 49e6 f73e 3ba1 0b3d 3a63 623e
000000d0: 6a33 acbc 5370 803b f39a 3c3f 370f 153f
000000e0: 2e38 71b8 a9fc e13e 2980 c3bd ca7d 95be
000000f0: 6a6d 213e 6f15 b4bd a6af 1bbf 0d18 0e3e
00000100: 631d 1fbd 8a26 2a3f f7ab 183e 3ec8 433e
00000110: 34d9 813d acf4 87be 8111 863f 82e1 e4bd
00000120: 9fcd d53d b559 c5be e017 a73f 6d68 84bd
00000130: 578a 403f 0095 d33d 93e8 c4be 8267 89bd
00000140: 32ad bb3e 5b8d 8ebe 3756 383d f5d8 133d
00000150: 3f50 383e 62a7 753d 4075 a83d ff4d f13b
00000160: 37ff 4c3e 0641 edbb 3acd bbbd e2e3 ab3f
00000170: 62bf 9d3f 08f6 4ebf b266 553e fd50 573d
00000180: 6283 85bd a62c 173f 536c 2d3f 1e88 953e
00000190: f7f7 3abe e591 153e e404 0c3e 19f0 1bbe
000001a0: dc7c bbbd dffb 3e3d be40 ae3e d666 433d
000001b0: d948 b73d 1692 9dbb 4788 523b 70d7 2c3f
000001c0: 715b 9b3d 66da c93e e4c9 de3d 821b 283f
000001d0: 2c48 be3b d3a3 4dbd 9c83 873f 5254 a53e
000001e0: 341f fbbd 3d7d 043f 5305 1dbe c305 72be
000001f0: 82f2 94bc 8155 1b3d b192 77bf 919b 76be
00000200: c789 af3c e2c2 293f 1da4 7a3d 857f 283d
00000210: dd3a 0b3d a270 c33f 87d5 8a3e 408f f33b
00000220: a001 eb3e 4449 e4bd 1b39 543f a3e4 29bd
00000230: 51f2 043f 3f07 92bd b0f8 8fbe 3182 2bbe
00000240: 01ac 333e 1be7 bbbe 4bc7 78bd 1690 b7bc
00000250: c4e1 213e 3051 6e3c 355b 73be 8d61 5b3e
00000260: 9444 f13e 0b60 973d 571e bfbd 503c 903e
00000270: 47a7 6e3e db1b d1be 92cc 6d3e cdbb 89bc
00000280: 8806 473d b1e6 983e 2312 253f 5ce7 9cbd
00000290: db3d f53c 424a a83c 36ab 653d 778b 7fbe
000002a0: a4ec 453d d955 37bd 9b2b 403e 9e48 e6be
000002b0: f08e 06be e23c 67bd 04df 213f 216a 943e
000002c0: 87db 12be 7447 9c3e 062d d9bd 4179 103f
000002d0: 9304 b8bb 7ffe 1f3d 8458 423f f701 20bd
000002e0: 4092 adbb cbf6 383f edfc 56be 79ef abbe
000002f0: 7811 3fbe 99e9 c83d 85a0 64be c693 6fbd
00000300: 3874 87bb 701b 013f f4c2 e6bd f0b0 8c3d
00000310: 2dce a73d d1f9 b93e 7143 7cbe 06e1 9b3d
00000320: 57ca 893f e230 eebd a2aa ee3e 1ca6 40bd
00000330: 45fe 413f b979 b83d 3dbf 8d3e 95c5 b7bd
00000340: c4f0 a83e aec9 54be 8f34 943d fff7 8e3c
00000350: fcdd 15be 9db6 30bd caff 48bd f436 45be
00000360: e4cf f93e a3d6 a23c 1e7c 923d 551a 323f
00000370: 3e42 353f 1eba 49bf b39a aa3e 8815 f4bd
00000380: 384b 1f3e 280f 253f 2d60 2b3f cddb ab3e
00000390: 23d7 483d 0c46 cd3d 80f8 ffbd 488d f8be
000003a0: 9b7b 543d 06bb ae3d 7172 ad3f 2646 4bbe
000003b0: f8fa b2bd 9a93 8b3f c104 0abf 9c77 8a3e
000003c0: 847a 583c 8032 0bbe 1fba 58bc c019 183f
000003d0: ad8f f6bd c4eb 0fbd 5997 973f 83d9 2abf
000003e0: 7082 9b3c a8e6 d93f 0d6d 5d3e bef0 e2be
000003f0: bcfc 113c bc3a a6bd ff08 a5bf 3793 25be
0.0896317 -0.04352874 0.06347511 0.30136448 -0.04095093 -0.12798774 0.93835914 0.02691859
0.15213017 0.08887795 1.291263 -0.049115017 0.634289 -0.0028399539 -0.5771215 0.18016343
0.8005965 -0.24470216 0.049153708 -0.10141238 -0.056040872 -0.07894634 -0.036452025 0.013095749
-0.09670564 0.02089651 0.05896968 0.676624 -0.1743668 -0.38726223 -0.033227757 0.022274382
0.010741007 0.5820086 0.10437772 0.13150945 -0.01795568 -0.042916246 -0.064933 0.025264777
0.00060557516 -0.043108504 0.45612016 -0.27471903 0.019369988 -0.18648763 -0.26063183 0.88563305
0.087170586 0.4841788 0.03408931 0.22108164 -0.02102061 0.00391964 0.73673934 0.5822634
-5.75112e-05 0.44138077 -0.09545929 -0.29197532 0.15764394 -0.08793151 -0.60814893 0.13876362
-0.038846385 0.66465056 0.1490935 0.19119355 0.06340256 -0.26553857 1.0474092 -0.11175825
0.1043961 -0.38545004 1.3054161 -0.0646523 0.7521109 0.10331154 -0.3845869 -0.06709196
0.36655575 -0.2784222 0.045004096 0.03609558 0.17999361 0.05997408 0.08225489 0.007364034
0.20019232 -0.0072404174 -0.09170003 1.3428919 1.232403 -0.80844164 0.20839956 0.05256747
-0.065192 0.59052503 0.67743415 0.29205412 -0.18258654 0.14606436 0.1367374 -0.15228309
-0.091546744 0.04662692 0.3403377 0.047705494 0.089494415 -0.0048086746 0.0032124685 0.6751623
0.075858004 0.39424437 0.10878351 0.65666974 0.0058069434 -0.050205063 1.0587039 0.32290894
-0.12261811 0.517536 -0.15334062 -0.2363501 -0.018182043 0.03792334 -0.9670821 -0.24082781
0.021428002 0.6631299 0.061191667 0.041137237 0.033991683 1.5268748 0.27116033 0.007432848
0.45899677 -0.11146787 0.82899636 -0.04147781 0.51932245 -0.07130288 -0.2811942 -0.16748883
0.17546083 -0.36699757 -0.060736936 -0.022407573 0.15808779 0.014545724 -0.23765261 0.21423931
0.47122633 0.073913656 -0.09331959 0.28171015 0.23305999 -0.40841565 0.23222569 -0.016813183
0.048590213 0.29863504 0.644808 -0.07661316 0.029936722 0.020543221 0.056071483 -0.24955545
0.04832138 -0.044759605 0.18766634 -0.44977278 -0.13140464 -0.056454547 0.6323092 0.2898722
-0.14341556 0.30523264 -0.10604291 0.5643502 -0.0056157797 0.039061066 0.75916314 -0.039064374
-0.0052969754 0.72251576 -0.20994921 -0.3358114 -0.18659008 0.0981018 -0.22326858 -0.058490537
-0.0041337274 0.5043249 -0.11267653 0.06869686 0.08193622 0.36323407 -0.24635102 0.07611279
1.0764874 -0.116304174 0.46614558 -0.047033414 0.7577861 0.09007592 0.27684966 -0.08973233
0.3299619 -0.2078006 0.07236587 0.017452238 -0.14635462 -0.043142904 -0.049072064 -0.19259244
0.4879142 0.019877737 0.0715258 0.6957143 0.708042 -0.7879962 0.3332115 -0.11918169
0.15556037 0.6447625 0.6694363 0.33566132 0.049033295 0.10023126 -0.124985695 -0.4854529
0.05187569 0.08531766 1.355055 -0.19850978 -0.08739275 1.090442 -0.53913504 0.2704438
0.013212804 -0.13593483 -0.0132279685 0.5941429 -0.12039123 -0.035136953 1.1843063 -0.66738147
0.018983096 1.7023516 0.21623631 -0.44324297 0.008910354 -0.081166714 -1.289337 -0.1616944

model.4.bias f4 [8]
00000000: b0e5 d0bd 807b 6fbe 6300 a93d b4bf 57be
00000010: 3ff9 b8be f046 8fbb 42e0 503d 0f91 a8bd
-0.102000594 -0.23386955 0.08252027 -0.21069223 -0.3612766 -0.00437247 0.05099512 -0.08230793
