train_pygame/stored/20250712second_0060.pth (torch, 30373 bytes, 6 tensors)

model.0.weight f4 [64, 32]
0	0x3dd9eb69	0.10640604
1	0xbde26d62	-0.11056019
2	0x3f446d9f	0.7672977
3	0x3fa6f219	1.3042632
4	0xbd4ab8cb	-0.04949264
5	0xbe77cfa5	-0.24200304
6	0x3c6c843f	0.014435827
7	0x3c65e7b4	0.014032293
8	0xbebe9157	-0.3722026
9	0x3de4637b	0.11151787
10	0xbe382f7e	-0.17986867
11	0xbde2d921	-0.1107657
12	0x3d98bab6	0.07457487
13	0x3d2db0f2	0.042405076
14	0x3e0a4144	0.1350146
15	0xbd42df1a	-0.047576047
16	0xbdd3d271	-0.10342873
17	0x3defa0f8	0.11700624
18	0x3cba6437	0.022752864
19	0xbd6a708e	-0.057236247
20	0xbcb504f7	-0.022097094
21	0xbdeaf748	-0.114729464
22	0xbc3dc5ca	-0.011582801
23	0xbdc93020	-0.09823632
24	0xbe3736bc	-0.17891973
25	0x3d1adeb9	0.03781006
26	0xbe6de444	-0.23231608
27	0xbd8bb36b	-0.06821331
28	0x3d91d0c5	0.07119898
29	0xbd6f01c3	-0.05835129
30	0xbdfe6a06	-0.12422566
31	0xbd3e31e8	-0.046434313
32	0xbe5cb1dd	-0.21552224
33	0x3e0bbb9d	0.13645788
34	0x3fbd3a0d	1.4783341
35	0xbe36d7cc	-0.17855757
36	0xbd4388f3	-0.047738027
37	0x3e25ee23	0.16204123
38	0x3d11d0d3	0.03559954
39	0x3c8b4486	0.017000448
40	0x3e1346bf	0.14382456
41	0x3e09308a	0.13397422
42	0x3d420710	0.047370017
43	0xbd808201	-0.06274796
44	0x3e2bbbd3	0.16770868
45	0xbe8b9da2	-0.27268702
46	0x3c7743e6	0.015091872
47	0x3c8e9d65	0.017409036
48	0xbe070608	-0.13185894
49	0x3cc753a3	0.024331873
50	0x3d3ce46c	0.046116278
51	0xbd6b0267	-0.057375338
52	0xbe21bcba	-0.1579465
53	0x3e053f6f	0.13012479
54	0x3cc1a25a	0.023636986
55	0xbebb9f4d	-0.36644974
56	0x3d0bf182	0.034165867
57	0xbe3ec8b7	-0.18631254
58	0xbe0f0a90	-0.13968873
59	0xbebf6073	-0.37378272
60	0x3cfd995b	0.030956915
61	0x3dd9f1da	0.10641833
62	0xbe29301b	-0.16522257
63	0x3de4df17	0.111753635
64	0x3d97eaae	0.074178085
65	0x3c709160	0.014683098
66	0x3d449e90	0.04800278
67	0x3d861020	0.06546044
68	0xbdc6985e	-0.096970305
69	0x3e0c5e9d	0.13707967
70	0x3cca5608	0.024699226
71	0xbbfc83c0	-0.0077061355
72	0x3e209a73	0.15683918
73	0xbc8918d0	-0.016735464
74	0xbe1dc1a3	-0.15405898
75	0xbdfe5cbe	-0.12420033
76	0xbe241f28	-0.1602751
77	0xbcf5d4f0	-0.030008763
78	0x3c816e60	0.015799701
79	0x3dfdab2e	0.123861656
80	0x3de06602	0.109569564
81	0xbe162b40	-0.14664936
82	0xbddb070f	-0.10694706
83	0xbe28d009	-0.16485609
84	0x3c269bd0	0.0101689845
85	0xbddb6104	-0.10711864
86	0x3db5735a	0.08859892
87	0x3da04f1a	0.078275874
88	0xbcfc5e88	-0.030806795
89	0xbd5d8022	-0.054077275
90	0x3d72b748	0.059256822
91	0x3e2319a7	0.15927754
92	0x3e2f32f5	0.17109282
93	0xbe212f85	-0.15740784
94	0xbe1bb52f	-0.15205835
95	0x3cd244a0	0.025667489
96	0x3e217858	0.15768564
97	0x3e86c15f	0.26319405
98	0x3fa36289	1.2764446
99	0xbf2e3061	-0.6804257
100	0xbe2a9d83	-0.16661648
101	0xbea7b71b	-0.32756886
102	0xbdf703f9	-0.120613046
103	0xbd886401	-0.06659699
104	0x3dd182c8	0.10230023
105	0x3de84ecd	0.11343155
106	0x3d2e43e6	0.04254522
107	0x3d783864	0.060600653
108	0xbe34acd1	-0.17644049
109	0x3da63d2b	0.081171356
110	0x3e8cdc6f	0.27511927
111	0xbe480b0e	-0.19535467
112	0x3b53295f	0.0032220704
113	0x3e90b473	0.28262672
114	0xbea19825	-0.3156139
115	0xbde33c76	-0.110955164
116	0x3dae3619	0.08506412
117	0xbe5ec18f	-0.21753524
118	0x3c2955fc	0.010335442
119	0x3e8b49ce	0.27204746
120	0xbd9675a6	-0.073466584
121	0x3ea8e57b	0.3298758
122	0xbe7d664c	-0.24746054
123	0x3d9a3204	0.07529071
124	0x3dd1d60f	0.102459066
125	0xbebc5c03	-0.3678895
126	0xbe99ba61	-0.30025008
127	0xbdc0bcbc	-0.09410998
128	0xbd79568b	-0.06087355
129	0xbe097dde	-0.13426921
130	0x3f9f54ce	1.2447755
131	0x3ed69dcb	0.4191726
132	0xbd69a9ca	-0.05704669
133	0x3d14d450	0.03633529
134	0xbd5045ae	-0.0508477
135	0xbd8c0d23	-0.06838443
136	0x3d2657d4	0.040611103
137	0xbdf4c595	-0.11951748
138	0xbd3eed02	-0.046612747
139	0xbd8c74ca	-0.06858213
140	0xbe5749b5	-0.21024211
141	0xbdb2a77b	-0.087233506
142	0x3e0430c7	0.12909232
143	0xbe2b1b07	-0.16709529
144	0x3e0c6cd5	0.13713391
145	0x3d15c997	0.036569204
146	0xbd612f35	-0.05497666
147	0x3c6909a1	0.014223487
148	0xbeaae5f7	-0.33378574
149	0xbea52481	-0.32254413
150	0x3e2a8cc1	0.16655256
151	0xbc915e61	-0.017745199
152	0xbe3ccd57	-0.18437706
153	0xbea6f66a	-0.32609874
154	0x3d8b451b	0.0680029
155	0x3ee3edc5	0.4451734
156	0xbef91d15	-0.48655
157	0xbe36a85a	-0.17837659
158	0x3e9e5636	0.3092515
159	0xbdcfb8e8	-0.1014269
160	0x3c2974d9	0.0103428
161	0xbe2ce5c4	-0.16884524
162	0xbdbfa21d	-0.093570925
163	0x3c47bfec	0.012191754
164	0x3e009d2d	0.12559958
165	0xbddd7236	-0.108128
166	0x3d6b985c	0.057518348
167	0x3d0372c3	0.032091867
168	0xbde181f9	-0.110111184
169	0xbda3d56f	-0.079996936
170	0xbe15ef0c	-0.1464197
171	0x3d87b846	0.06626944
172	0xbdd490a9	-0.10379154
173	0x3daf8b82	0.08571531
174	0xbd81a443	-0.063301586
175	0x3c9a6cbd	0.018850679
176	0x3e033653	0.12813692
177	0xbe53bc77	-0.20677362
178	0xbc9cc864	-0.019138522
179	0xbd76894d	-0.060189534
180	0xbd90b2bd	-0.070653416
181	0x3dd44788	0.10365206
182	0xbe5fa80b	-0.21841447
183	0x3c907799	0.017635154
184	0xbd1231a5	-0.035691876
185	0xbe3c9624	-0.18416649
186	0x3da3372d	0.07969508
187	0xbd88a8cd	-0.06672821
188	0xbd83cf39	-0.06436009
189	0xbe25b0d3	-0.16180734
190	0xbdfbd8ea	-0.122972324
191	0x3dd99aee	0.106252536
192	0xbef76ee0	-0.48326778
193	0xbcd9366e	-0.026515212
194	0xbf925f4d	-1.1435333
195	0xbe278a3b	-0.16361324
196	0x3da4e185	0.08050827
197	0x3e8f94eb	0.28043303
198	0xbe47ab7c	-0.1949901
199	0x3d15b8de	0.036553256
200	0xbd99bda0	-0.07506871
201	0x3e85a292	0.26100594
202	0x3e2eabc7	0.17057715
203	0x399c2d91	0.00029788588
204	0x3cb74851	0.02237335
205	0xbcb1eb5d	-0.021718675
206	0xbe4957e4	-0.19662434
207	0xbe43afc1	-0.19110014
208	0xbccde02f	-0.025131313
209	0xbe86fa05	-0.26362625
210	0x3daf51b5	0.08560506
211	0xbe17e244	-0.14832407
212	0x3d992e66	0.07479553
213	0x3e1d0542	0.15334037
214	0x3e414d2e	0.18877098
215	0xbec5ca43	-0.38630876
216	0x3db1d2f7	0.086828165
217	0xbb8ce6d7	-0.004299979
218	0x3cff373a	0.031154264
219	0x3e8d521a	0.276017
220	0xbe46d60e	-0.19417593
221	0x3e08d7dc	0.13363594
222	0x3e19e7df	0.15029858
223	0xbec8ea49	-0.39241245
224	0x3e548419	0.20753516
225	0x3d0a5983	0.03377677
226	0xbfa5bad9	-1.2947646
227	0x3dcb8f9e	0.09939502
228	0x3dbd2614	0.092357785
229	0x3c7eeb6a	0.015559057
230	0xbe459818	-0.192963
231	0x3dbdf666	0.092755124
232	0x3cb45ac3	0.022015935
233	0xbe57c06b	-0.21069495
234	0x3d47b23f	0.048753973
235	0xbec102a9	-0.37697342
236	0x3e22b140	0.15887928
237	0x3e5179c2	0.20456603
238	0xbe83baf6	-0.25728577
239	0x3e81ce64	0.25352776
240	0x3d9793b6	0.074012205
241	0xbe39d4be	-0.18147561
242	0x3e83db4a	0.25753242
243	0xbdcbb7f5	-0.099471964
244	0x3ddafa90	0.10692322
245	0x3d290d78	0.04127261
246	0x3e698d22	0.22807744
247	0x3d936c42	0.07198383
248	0xbc72bacc	-0.014815044
249	0xbde4083e	-0.111343846
250	0xbe13f93e	-0.14450547
251	0xbe14959b	-0.14510195
252	0x3e07e070	0.1326921
253	0xbe8ad204	-0.27113354
254	0xbdb0667f	-0.086132996
255	0xbeb8bd50	-0.36081934

model.0.bias f4 [64]
0	0x3d0196b3	0.03163786
1	0x3c726305	0.014794116
2	0xbdabbc30	-0.08385503
3	0xbdb883d8	-0.09009522
4	0xbdb5319d	-0.088473536
5	0xbd9a3e40	-0.075314045
6	0xbde34e65	-0.11098937
7	0x3e594da1	0.2122102
8	0xbc55e370	-0.013054714
9	0xbdbdc5d3	-0.092662476
10	0xbda290de	-0.079377875
11	0x3e4a8678	0.19777858
12	0xbd753fec	-0.059875414
13	0xbd478f2f	-0.048720535
14	0xbe1db3c6	-0.1540061
15	0x3dd7cd4a	0.10537203
16	0xbde04651	-0.10950912
17	0x3ce5ae2d	0.028037155
18	0xbe039be3	-0.12852435
19	0xbd2dc4c9	-0.042423997
20	0xbd8a04ec	-0.0673922
21	0x3d213b36	0.03936311
22	0xbe2c4d69	-0.16826405
23	0xbe0fe462	-0.14051965
24	0xbaa817e6	-0.0012824505
25	0x3d899b35	0.067190565
26	0x3e233810	0.15939355
27	0x3db86c6c	0.09005055
28	0xbdd3ae90	-0.103360295
29	0x3b102140	0.0021992475
30	0xbd6951d0	-0.056962788
31	0x3deafbae	0.11473785
32	0xbe8043c2	-0.25051695
33	0x3e82a317	0.25515053
34	0xbda7c2e6	-0.08191471
35	0xbe2a6570	-0.16640258
36	0xbdf59a25	-0.11992291
37	0x3e1a472a	0.1506621
38	0xbe170780	-0.14748955
39	0xbe407bc5	-0.18797214
40	0xbe0ee412	-0.1395419
41	0xbde2c990	-0.11073601
42	0x3d97606a	0.073914364
43	0xbe560a1a	-0.20902291
44	0xbdb54470	-0.08850944
45	0xbe4a6efa	-0.19768897
46	0x3e1481c5	0.14502628
47	0xbe40fb5c	-0.18845886
48	0xbc773fb6	-0.015090873
49	0xbd6151ef	-0.05500978
50	0xbd5aa8e5	-0.053383727
51	0x3e23033f	0.15919207
52	0xbd73d836	-0.059532367
53	0x3d568db0	0.052381217
54	0xbd377b1a	-0.044795133
55	0xbdd5127c	-0.10403916
56	0xbcefecb8	-0.029287681
57	0xbcd82ed9	-0.026389526
58	0x3c83cdcb	0.01608934
59	0x3d1fcc5d	0.039013255
60	0xbe11dcf8	-0.14244449
61	0x3e89e5d5	0.2693316
62	0x3d873184	0.06601241
63	0xbe30df0d	-0.17272587

model.2.weight f4 [64, 64]
0	0x3c450777	0.012025706
1	0xbdbc09c5	-0.09181551
2	0x3c387840	0.011259139
3	0xbe0bfaf9	-0.13669957
4	0xbdd51137	-0.10403674
5	0x3dd4db73	0.10393419
6	0xbda54f45	-0.0807176
7	0xba326ce6	-0.0006806388
8	0x3ce43058	0.027855083
9	0xbdb73c94	-0.08947101
10	0x3cc0a838	0.023517713
11	0x3cd1a2e6	0.025590371
12	0x3d3a93ad	0.04555099
13	0x3d86370e	0.065534696
14	0x3db857a0	0.09001088
15	0xbd8be86c	-0.0683144
16	0x3d228551	0.03967792
17	0xbca4dbfa	-0.020124424
18	0x3dd8ab68	0.10579568
19	0xbd366d81	-0.044538025
20	0xbc93c208	-0.018036857
21	0x3d6cd138	0.057816714
22	0x3c793480	0.015210271
23	0x3bfcef27	0.007718939
24	0xbcc0e60a	-0.023547191
25	0xbda99e61	-0.082821615
26	0xbdcceea3	-0.10006454
27	0x3dc1886c	0.094498485
28	0x3beee240	0.0072901547
29	0x3d2b58ec	0.04183285
30	0x3d6ccf08	0.057814628
31	0xbd35fadb	-0.044428688
32	0xbdef5d30	-0.11687696
33	0x3d48953d	0.04897045
34	0xbe034c6d	-0.12822123
35	0xbde63259	-0.11240072
36	0x3df46a82	0.11934377
37	0x3d515ab4	0.051111892
38	0xbd864316	-0.065557644
39	0x3be6da60	0.0070450753
40	0xbe2e8d02	-0.17045978
41	0x3d25f4a8	0.040516526
42	0x3d09e04c	0.03366117
43	0x3d98a8d2	0.07454075
44	0xbe2dff05	-0.16991813
45	0x3d92c34c	0.07166156
46	0x3d2393b7	0.039935794
47	0x3d183f9f	0.03717005
48	0xbe40675c	-0.18789428
49	0x3d8388e3	0.064225934
50	0xbd188607	-0.037237193
51	0xbdd4abd4	-0.10384336
52	0x3dabae4c	0.08382854
53	0xbd8e72e1	-0.06955505
54	0xbdf94ab8	-0.121724546
55	0xbdb94ad8	-0.090474784
56	0xbddf3a8c	-0.10899839
57	0xbdd0b6ce	-0.10191117
58	0xbd257088	-0.04039052
59	0x3cddd773	0.027080273
60	0xb9d7982c	-0.00041121372
61	0x3d95407f	0.07287692
62	0xbd7011e4	-0.05861081
63	0x3c67f940	0.014158547
64	0x3d11ac73	0.03556485
65	0x3cf9c7ab	0.030490717
66	0xbd871adc	-0.0659692
67	0xbdefc5ab	-0.11707624
68	0x3d897f91	0.067137845
69	0xbc8490b3	-0.01618228
70	0x3cb442e9	0.022004561
71	0x3d55df09	0.052214656
72	0xbdcaede6	-0.09908657
73	0x3d92ffa8	0.07177669
74	0xbd3f9dcc	-0.046781346
75	0x3d3089e8	0.043100268
76	0x3da87077	0.08224576
77	0xbd0f2428	-0.03494659
78	0xbcc26930	-0.023731798
79	0xbd8627f8	-0.06550592
80	0x3af6f724	0.0018841964
81	0xbdd30872	-0.10304345
82	0x3dc404d8	0.09571236
83	0x3de542c4	0.11194375
84	0x3cb96f70	0.022636145
85	0x3d9fbb97	0.07799452
86	0x3d668cb0	0.056286514
87	0x3d2d70c9	0.04234389
88	0x3d643307	0.055712726
89	0xbe0526b5	-0.13003047
90	0xbdcf7723	-0.101301454
91	0xbccf686c	-0.025318347
92	0xbdd8774e	-0.105696306
93	0x3ddd5b3c	0.10808417
94	0xbd08232a	-0.03323666
95	0xbe136502	-0.14394
96	0xbd2ac33b	-0.041690093
97	0xbcb63f61	-0.022247018
98	0xbd9289d9	-0.071551986
99	0xbd66834a	-0.05627755
100	0xbded6df8	-0.115932405
101	0xbd1bce46	-0.038038515
102	0xbdc1a734	-0.094557196
103	0x3d922afa	0.071371034
104	0xbb030d46	-0.0019996925
105	0x3d749398	0.05971107
106	0xbda5e05c	-0.08099434
107	0x3d7ee68e	0.062231593
108	0xbe1a9d11	-0.15098979
109	0xbd6e9740	-0.058249712
110	0x3d512dd2	0.05106909
111	0xbdd3e4af	-0.10346352
112	0xbdac4d66	-0.084132
113	0x3cbc529b	0.022988608
114	0xbdccfeee	-0.100095615
115	0xbc941d40	-0.018080354
116	0x3dc91d80	0.0982008
117	0xbddf329c	-0.10898325
118	0xbb5a11c0	-0.003327474
119	0x3d9746a3	0.0738652
120	0x3d4df7a4	0.050284997
121	0x3d824e46	0.06362586
122	0x3d02bc3c	0.031917796
123	0xbd9668c8	-0.07344204
124	0x3d3d39c9	0.046197686
125	0xbc007007	-0.007839209
126	0xbde72be6	-0.1128767
127	0xbd897674	-0.06712046
128	0xbde40f78	-0.11135763
129	0x3ccd66db	0.02507346
130	0xbd0fcb88	-0.035106212
131	0xbe0b0d29	-0.13579239
132	0xbd73661d	-0.059423555
133	0x3db8a697	0.090161495
134	0xbdb38f0b	-0.08767518
135	0x3d332b1f	0.043742295
136	0x3dd2cb3a	0.10292669
137	0xbdda4f6c	-0.1065968
138	0x3dc3bc66	0.095574185
139	0xbdfdd0ae	-0.12393318
140	0xbd69b80c	-0.057060286
141	0xbda222d6	-0.07916801
142	0xbdab908a	-0.08377178
143	0xbde2a620	-0.11066842
144	0x3d4b900c	0.04969792
145	0x3d7dcb43	0.061961424
146	0xbd7c962c	-0.061666653
147	0x3ca806a2	0.020510975
148	0xbdcdc2d2	-0.10046925
149	0xbcc04295	-0.023469249
150	0x3d34facc	0.04418449
151	0xbdaf38fa	-0.08555789
152	0x3d7292bc	0.059221968
153	0xbd80ef26	-0.06295614
154	0xbdbf6b09	-0.09346587
155	0xbd682a68	-0.056681067
156	0x3dbb3cb8	0.091424406
157	0x3bcb7820	0.0062093884
158	0xbdd8d270	-0.10587013
159	0x3d3be4b0	0.04587239
160	0x3c91dc21	0.017805161
161	0xbd8771e3	-0.06613519
162	0xbdac8d27	-0.0842536
163	0x3ad577cb	0.0016286311
164	0xbc543290	-0.012951508
165	0x3dc5a14b	0.09649905
166	0x3dc8532e	0.0978149
167	0xbdb56be0	-0.08858466
168	0x3d239036	0.039932452
169	0xbdcec2ae	-0.10095726
170	0xbdee750c	-0.11643419
171	0xbd6b7407	-0.0574837
172	0x3d13b942	0.036065347
173	0xbdaa5f14	-0.08318916
174	0x3daaf8c0	0.083482265
175	0x3ddddf75	0.10833637
176	0x3d3fa5e3	0.04678906
177	0xbd7addb4	-0.06124659
178	0xbd3c6100	-0.045990944
179	0x3dc801fc	0.097660035
180	0x3d4ea0b0	0.050446212
181	0xbe004731	-0.12527157
182	0xbdd0e0fa	-0.10199161
183	0x3ba21e1d	0.0049474374
184	0xbce40d78	-0.027838454
185	0x3dbb5e62	0.091488615
186	0x3d762bec	0.06010048
187	0xbdc35a07	-0.09538656
188	0x3d9bbdef	0.07604586
189	0xbda93773	-0.08262529
190	0x3d72fcdc	0.059323177
191	0xbbdc6b80	-0.006726682
192	0xbf30afe5	-0.69018394
193	0x3d8bfae7	0.06834965
194	0xbcf1f5d8	-0.029536173
195	0xba1fa04e	-0.0006089256
196	0xbebc1f94	-0.36742842
197	0x3c20e3a4	0.009819899
198	0xbd05065d	-0.03247677
199	0xbddfc054	-0.109253556
200	0xbc8afdf8	-0.016966805
201	0xbdfc3d3a	-0.123163655
202	0x3dad6676	0.084668085
203	0xbd59a751	-0.05313808
204	0xbcc912ba	-0.024545062
205	0xbdafed1d	-0.08590148
206	0xbd164d98	-0.036695093
207	0x3dc4caf8	0.09609026
208	0xbe030645	-0.1279536
209	0x3e9c74d0	0.3055787
210	0x3d95d300	0.07315636
211	0xbda9876c	-0.08277783
212	0xbdc820a1	-0.097718485
213	0xbdcfd07d	-0.10147188
214	0xbc5c3b00	-0.013441801
215	0xbe792250	-0.24329495
216	0xbebd8c56	-0.3702113
217	0xbf90e5a2	-1.1320078
218	0x3ecad05a	0.39612085
219	0x3dc5acee	0.09652124
220	0x3caf0158	0.021362945
221	0x3ca26b60	0.019826591
222	0x3eaac199	0.33350828
223	0xbd9e77e0	-0.07737708
224	0xbe6c04a2	-0.23048642
225	0x3ecff1ef	0.40614268
226	0xbd8a93d2	-0.06766476
227	0xbeeec4c0	-0.46634483
228	0x3d1b8457	0.037968006
229	0x3efbb9ca	0.49165183
230	0x3d8933b8	0.06699318
231	0x3df6cc82	0.120507255
232	0x3ef0ee46	0.47056788
233	0x3d3219f5	0.043481786
234	0x3c859ea0	0.01631099
235	0xbcb32d29	-0.02187212
236	0xbe3cda3d	-0.18442626
237	0xbd64dd39	-0.055875037
238	0x3d95ec95	0.07320515
239	0x3d2ea943	0.04264189
240	0xbe832fef	-0.25622508
241	0x3e22d0a5	0.15899904
242	0xbe106af6	-0.14103302
243	0x3dd8adc8	0.10580021
244	0x3e5ccf3f	0.21563433
245	0x3d658467	0.05603447
246	0xbda5797e	-0.080798134
247	0xbdcb1dc9	-0.099177904
248	0xbd53065c	-0.051519737
249	0x3dedea2a	0.11616929
250	0x3d91ddeb	0.071224056
251	0xbde573e3	-0.11203744
252	0x3dbd7968	0.09251672
253	0x3cca3b1c	0.024686389
254	0x3d5afdbc	0.053464636
255	0x3d73a2f4	0.059481576

model.2.bias f4 [64]
0	0xbdb3af45	-0.087736644
1	0xbdfff3e0	-0.12497687
2	0xbe1783f9	-0.14796437
3	0x3df719de	0.12065481
4	0xbd099fde	-0.033599727
5	0xbd1ff96c	-0.039056227
6	0x3d4565e3	0.04819287
7	0x3de331fa	0.11093517
8	0xbd75ac42	-0.05997873
9	0xbdf8039a	-0.12110062
10	0xbde5d94d	-0.112230875
11	0xbd59cf1f	-0.05317604
12	0xbe02595c	-0.127294
13	0xbe038124	-0.12842232
14	0x3bd452af	0.006479583
15	0xbe4cdac7	-0.20005332
16	0xbde33a4e	-0.11095105
17	0xbd921341	-0.07132579
18	0xbd0dc701	-0.034613613
19	0x3c39b9bb	0.0113357855
20	0xbdff10ee	-0.12454401
21	0xbe4fad67	-0.20280991
22	0xbdb4009d	-0.087891795
23	0x3d9607da	0.07325716
24	0x3e3eaa33	0.18619613
25	0x3dddc17c	0.1082792
26	0x3e8f1592	0.27946144
27	0x3ecfd5f8	0.40592933
28	0x3dddc6c2	0.10828926
29	0x3d750970	0.059823453
30	0x3cb05ab8	0.021527633
31	0x3e44e669	0.1922852
32	0x3e99e5cc	0.30058134
33	0x3e8e696d	0.27814808
34	0xbe0d85fd	-0.13820644
35	0x3e8a1da1	0.2697573
36	0xbdc13a63	-0.094349645
37	0x3ba977eb	0.005171766
38	0xbe465382	-0.19367793
39	0xbdfd5d3e	-0.123713
40	0x3d6e3e2e	0.058164768
41	0xbe107e03	-0.1411057
42	0xbd2b7862	-0.041862853
43	0x3e15c91b	0.14627497
44	0xbe17ca51	-0.14823271
45	0xbda091d6	-0.07840316
46	0xbe06b14e	-0.13153574
47	0xbdc67318	-0.09689921
48	0x3dcfe975	0.1015195
49	0xbcdda1b6	-0.027054649
50	0xbe0e6182	-0.13904384
51	0x3dd6040e	0.10449992
52	0xbe197495	-0.14985879
53	0xbe1f28ef	-0.15542959
54	0xbd8219dc	-0.063525885
55	0xbdec30d9	-0.115327545
56	0xbe0bc9cf	-0.13651203
57	0x3e1d5f0c	0.15368289
58	0xbeb901d4	-0.36134207
59	0xbd8e6f3b	-0.06954809
60	0xbddcc91d	-0.10780547
61	0xbd3df48c	-0.046375796
62	0xbe1c348b	-0.15254419
63	0xbe1366d8	-0.143947

model.4.weight f4 [8, 64]
0	0xbdb4dda8	-0.0883134
1	0xbc3b2d7e	-0.01142442
2	0xbd0e640c	-0.03476338
3	0x3e1f0e3c	0.15532774
4	0x3ccf07e0	0.02527231
5	0x3dbaac40	0.09114885
6	0x3dad162a	0.08451493
7	0x3ee0f28f	0.43935058
8	0x3dbc4c4a	0.091942385
9	0x3dcde5ba	0.100535825
10	0xbc1675e0	-0.009183377
11	0x3e6e84ca	0.23292843
12	0xbc7cf5a8	-0.015439428
13	0xbb510b17	-0.003189748
14	0x3e29278a	0.16518989
15	0x3c182482	0.009286048
16	0x3cd2ffd2	0.02575675
17	0xbd6f677d	-0.058448303
18	0xbd9a2ac2	-0.07527687
19	0xbebd398b	-0.36957964
20	0xbda071db	-0.07834216
21	0xbe39e392	-0.18153217
22	0xbe1d5521	-0.15364505
23	0xbeb88a40	-0.36042976
24	0xbe264c69	-0.16240086
25	0xbf5c702b	-0.86108655
26	0x3eedc853	0.46441898
27	0x3eb566db	0.35430035
28	0x3e3a55e7	0.18196832
29	0x3e243c7b	0.16038696
30	0x3dc3f21c	0.09567663
31	0x3ed6d48c	0.41959035
32	0x3e63b3d6	0.2223657
33	0x3ec0cee2	0.3765784
34	0xbace0000	-0.0015716553
35	0x3d9d22e2	0.07672669
36	0xbcae9228	-0.021309927
37	0xbe8a783c	-0.27044857
38	0x3d678194	0.05652006
39	0x3c49c533	0.012315082
40	0x3e5e8488	0.21730244
41	0xbec3892b	-0.38190588
42	0xbd8015bd	-0.06254146
43	0x3ea0b015	0.3138434
44	0x3da38225	0.079838075
45	0xbc1e92d0	-0.0096785575
46	0x3c8e6580	0.017382383
47	0xbd378c7c	-0.04481171
48	0xbcfa81eb	-0.030579528
49	0x3f983f73	1.1894363
50	0xbdc2e262	-0.09515835
51	0x3e82378a	0.25432998
52	0xbd254560	-0.040349364
53	0xbc2a6020	-0.010398895
54	0xbd3adbb1	-0.04561967
55	0x3ece2f15	0.40270296
56	0xbd9fe826	-0.07807951
57	0x3e2e2ea2	0.17009977
58	0xbd8848fe	-0.06654547
59	0xbe59388d	-0.21212979
60	0x3ddd1840	0.10795641
61	0xbe896d8b	-0.26841387
62	0x3da4b1d0	0.080417275
63	0xbc8de040	-0.017318845
64	0xbdcac176	-0.09900181
65	0xbd4c6a16	-0.04990586
66	0x3db552cd	0.088536836
67	0x3e70c9f2	0.23514536
68	0xbe1cbd2d	-0.1530654
69	0xbd464d1c	-0.04841338
70	0x3f24df98	0.64403677
71	0x3dae8c20	0.085228205
72	0xb8d779f1	-0.00010274712
73	0xba8ee780	-0.0010902733
74	0xbd2ea5a0	-0.04263842
75	0x3dda40f0	0.10656917
76	0xbdb1e47a	-0.086861566
77	0xbe9b9c6c	-0.30392778
78	0x3e493a9a	0.19651261
79	0x3ec8374c	0.39104688
80	0x3cabf3c6	0.020990264
81	0xbdc58eff	-0.09646415
82	0x3daecdb7	0.08535331
83	0x3dd74628	0.10511428
84	0x3d778851	0.060432736
85	0xbe47c330	-0.19508052
86	0x3db2e231	0.08734549
87	0xbe8198f4	-0.25312006
88	0xbf50954f	-0.81477827
89	0xbecc1bca	-0.3986495
90	0x3eedac50	0.46420527
91	0x3ec42868	0.38312078
92	0x3dbb0de3	0.09133508
93	0x3ee71ce0	0.45139217
94	0xbe210432	-0.15724257
95	0x3ee7bf0e	0.4526295
96	0x3df98435	0.121834196
97	0x3ec136e5	0.37737194
98	0x3dc5a013	0.09649672
99	0x3e1edd8b	0.155142
100	0x3ddc33a2	0.10752036
101	0xbe8368ac	-0.25665796
102	0x3eca1655	0.39470163
103	0x3d3dd5fc	0.04634665
104	0x3ea651d7	0.32484314
105	0xbe2cedfb	-0.16887657
106	0xbd129a2a	-0.035791554
107	0x3f03b53a	0.51448405
108	0x3eaa4092	0.33252388
109	0x3d9e8430	0.077400565
110	0xbc1206fa	-0.008912796
111	0x3d5b61d0	0.05356008
112	0x3f1e1672	0.61753
113	0x3f2ad37c	0.6672895
114	0xbba5757d	-0.005049406
115	0x3edbedea	0.42954952
116	0x3d6dd460	0.058063865
117	0xbdb3903b	-0.08767744
118	0xbdc07de0	-0.09399009
119	0x3eee4b9a	0.46542054
120	0xbb5a3e00	-0.0033301115
121	0x3d46a449	0.04849652
122	0xbf5670d5	-0.8376592
123	0xbe3d7dc6	-0.1850501
124	0xbcebbd80	-0.028776884
125	0xbe4003ca	-0.18751445
126	0xbd7744b4	-0.060368255
127	0xbd67bb10	-0.05657488
128	0x3c6c516a	0.0144237075
129	0xbdf78a03	-0.120868705
130	0xbcf628b3	-0.030048704
131	0x3e62908e	0.22125456
132	0xbca9cfca	-0.020728964
133	0x3d898c1b	0.06716176
134	0x3eb07af5	0.3446881
135	0xbe0ca0a0	-0.13733149
136	0xbdc589b0	-0.096454024
137	0x3df15738	0.11784214
138	0x3d7d0a90	0.06177765
139	0x3da66f78	0.0812673
140	0x3c6604d0	0.014039233
141	0xbee7e344	-0.45290577
142	0x3eaa5f3e	0.3327579
143	0x3d0b3bbe	0.03399252
144	0xbd55bb8c	-0.05218081
145	0xbba3c150	-0.00499741
146	0xbdd27706	-0.10276608
147	0x3e8daf89	0.27672985
148	0x3de3362b	0.11094316
149	0xbed0df4e	-0.40795368
150	0xbe7772d2	-0.24164894
151	0xbee87dfc	-0.45408618
152	0xbe70f50d	-0.2353098
153	0x3d11bfad	0.035583187
154	0x3edafd45	0.42771354
155	0x3ec5fea0	0.38670826
156	0x3e09d67d	0.13460727
157	0x3f58a434	0.84625554
158	0x3da0bc57	0.07848423
159	0x3eb880a9	0.3603566
160	0x3c8c826e	0.017152037
161	0x3e86f800	0.26361084
162	0x3e0fc64c	0.14040488
163	0x3e86221b	0.26197895
164	0x3dede042	0.116150394
165	0xbe6d373c	-0.23165601
166	0x3e9cd400	0.30630493
167	0xbd1fe120	-0.039033055
168	0x3e5cfada	0.21580067
169	0xbe82b737	-0.25530407
170	0xbd6d2c30	-0.05790347
171	0x3eac7856	0.3368556
172	0x3ee62481	0.44949725
173	0x3d914f24	0.07095173
174	0x3db139f4	0.08653632
175	0x3da8280e	0.08210765
176	0x3e0d2547	0.13783751
177	0x3e63bcef	0.22240041
178	0x3db988d8	0.09059304
179	0x3ec64a88	0.38728738
180	0x3c6df4db	0.01452371
181	0x3da03588	0.0782271
182	0x3d89da70	0.06731117
183	0x3e95d519	0.29264143
184	0x3cbbec60	0.02293986
185	0x3e13995f	0.14413975
186	0xbf4ce9ee	-0.8004445
187	0xbde33441	-0.11093951
188	0xbdfe1ed0	-0.12408221
189	0x3e0fd53b	0.14046185
190	0xbd14a614	-0.036291197
191	0xbd56acec	-0.052411005
192	0x3d960c9f	0.07326626
193	0x3a9ddf69	0.0012044731
194	0xbd58fadd	-0.052973617
195	0x3db939c7	0.09044223
196	0x3cacfb45	0.021115908
197	0x3d249515	0.04018124
198	0x3e629b19	0.22129478
199	0xbf661bfa	-0.8988644
200	0x3bca7f63	0.0061797365
201	0x3c20a0f0	0.0098039955
202	0xbc1b9c00	-0.0094976425
203	0xbd535927	-0.051598694
204	0x3cc3fc61	0.023924055
205	0xbe5b893c	-0.2143907
206	0x3ee54a49	0.44783238
207	0xbe8222a8	-0.25417066
208	0xbddd7e84	-0.108151466
209	0x3dd21aaf	0.10258996
210	0xbc171baf	-0.009222909
211	0x3eda44e2	0.42630678
212	0xbc915e9f	-0.017745314
213	0xbe990003	-0.2988282
214	0xbeeaac88	-0.45834756
215	0xbe970f42	-0.29503828
216	0xbde928bf	-0.11384725
217	0x3eb36bd9	0.3504322
218	0x3ef5feed	0.48046055
219	0x3eae4de4	0.340438
220	0x3e5c0e8a	0.21489921
221	0x3eae6d6a	0.3406785
222	0x3e989a10	0.2980504
223	0x3eca0258	0.39454913
224	0x3e527432	0.20552137
225	0x3e7fcefb	0.249813
226	0x3c704a90	0.014666215
227	0x3e9fffa0	0.31249714
228	0x3d925e7c	0.07146928
229	0xbe4a1179	-0.19733228
230	0x3e0a1c78	0.13487422
231	0x3d844a4a	0.06459482
232	0x3e0889de	0.13333842
233	0xbe7d071f	-0.24709748
234	0x3dc227d2	0.09480251
235	0x3e988432	0.29788357
236	0x3d2e7704	0.04259397
237	0xbd1eba1c	-0.038751706
238	0x3d801444	0.06253865
239	0x3c99a858	0.01875703
240	0xbd39ef33	-0.045394134
241	0xbd0b0050	-0.033935845
242	0xbd13c61a	-0.036077596
243	0x3e8a284c	0.2698387
244	0xbded7294	-0.1159412
245	0x3de3973c	0.1111283
246	0xbc338f00	-0.010959387
247	0x3eaae2fb	0.33376297
248	0x3d8cd380	0.06876278
249	0x3e44d5b2	0.19222143
250	0xbf0f9607	-0.560883
251	0xbe20df87	-0.15710269
252	0xbca9fcd0	-0.020750433
253	0x3f66524d	0.8996933
254	0xbd979918	-0.07402247
255	0xbc24541d	-0.01002982

model.4.bias f4 [8]
0	0x3ec2e5dc	0.38065994
1	0x3ece987a	0.40350705
2	0x3ec0781f	0.37591645
3	0x3ecdb778	0.40179038
4	0x3eae4a30	0.34040976
5	0x3eb30de9	0.3497155
6	0x3ed0d9ae	0.40791076
7	0x3ec727f0	0.38897657
