train_pygame/stored/20250712fifth_0020.pth (torch, 30361 bytes, 6 tensors)

model.0.weight f4 [64, 32]
0	0x3e8a938e	0.270657
1	0xbe780992	-0.24222401
2	0xbe378605	-0.17922218
3	0x3eb1afed	0.34704533
4	0x3dbf0fcf	0.09329187
5	0xbedf3b61	-0.4359999
6	0xbe3e2825	-0.18570001
7	0xbb78ad47	-0.0037945078
8	0xbebe52f6	-0.3717267
9	0x3e68a94f	0.22720836
10	0x3dd335e9	0.10313017
11	0xbdd4839a	-0.103766635
12	0xbe2dc9f6	-0.16971573
13	0xbd9324a5	-0.07184724
14	0x3e2d8ffe	0.1694946
15	0x3ea3f37a	0.32021695
16	0x3debba35	0.115101255
17	0xbe0161d5	-0.12634976
18	0x3f44a117	0.76808304
19	0x3d58b519	0.052907083
20	0xbf0aea65	-0.5426391
21	0x3e21b5e9	0.1579205
22	0xbd8b4e64	-0.06802061
23	0xbeafcac8	-0.34334397
24	0xbdf8b8dc	-0.12144634
25	0xbe16f492	-0.14741734
26	0xbed30b64	-0.41219628
27	0xbd4f71f8	-0.0506458
28	0xbd90ccc5	-0.07070307
29	0xbe6d304a	-0.23162952
30	0x3e75dc04	0.2400971
31	0x3ea59178	0.32337546
32	0x3c98a261	0.018632116
33	0x3e039b32	0.12852171
34	0xbd5d34f2	-0.05400557
35	0xbe357855	-0.17721684
36	0x3d6d17ef	0.057884153
37	0xbe5f3b6e	-0.21800014
38	0xbdcc59a4	-0.09978035
39	0x3d3b7240	0.045763254
40	0xbdfa3f06	-0.12219052
41	0x3d6a0e23	0.057142388
42	0xbc878712	-0.016543899
43	0x3e12d701	0.1433983
44	0x3d30d60c	0.04317288
45	0x3cb8dfff	0.022567747
46	0xbda64789	-0.08119113
47	0xbdb1809a	-0.08667107
48	0x3dd7fb39	0.10545964
49	0x3df732b8	0.12070221
50	0xbe14ca78	-0.1453036
51	0xbd9e7d25	-0.07738713
52	0xbddb9b1b	-0.107229434
53	0xbd97360b	-0.07383355
54	0xbe3909e0	-0.18070173
55	0x3d18b644	0.037283197
56	0xbe2b4179	-0.16724195
57	0x3c553537	0.013013176
58	0xbdf950a4	-0.12173584
59	0xbcca1fd2	-0.024673376
60	0x3c71a409	0.014748582
61	0x3c080dd6	0.00830408
62	0x3d56374e	0.052298836
63	0x3bc9dafe	0.006160139
64	0xbdd5f168	-0.10446435
65	0xbdbb7414	-0.091529995
66	0xbcf09290	-0.029366761
67	0xbe10ee53	-0.14153413
68	0xbdd942c9	-0.106084414
69	0xbe19c4d7	-0.15016495
70	0x3d60207c	0.05471848
71	0xbdb39525	-0.087686814
72	0x3dd49406	0.10379796
73	0xbd3aadb8	-0.045575827
74	0xbd3f2aa8	-0.04667154
75	0xbe03f43f	-0.12886141
76	0x3bd0ad40	0.0063683093
77	0xbe0881ae	-0.13330719
78	0x3d3638f4	0.04448791
79	0x3db297da	0.0872037
80	0x3e1c448d	0.15260525
81	0x3d14f2a0	0.036364198
82	0x3d633edc	0.05547987
83	0xbdee9c42	-0.116508976
84	0xbe0e289d	-0.1388268
85	0x3d58eec0	0.052962065
86	0xbd5e46c8	-0.05426672
87	0x3b43c540	0.0029872209
88	0xbca3c410	-0.01999095
89	0xbc9b85a8	-0.01898463
90	0xbb76ed40	-0.0037678033
91	0xbdfd739e	-0.12375568
92	0xbe06d70f	-0.13167976
93	0x3d371064	0.044693366
94	0xbe2a6e8a	-0.1664373
95	0xbd939e51	-0.07207931
96	0xbe33b6bc	-0.17550176
97	0x3c904a20	0.01761347
98	0xbc924e37	-0.017859561
99	0x3d0ab7eb	0.033866804
100	0xbd2adeee	-0.04171651
101	0x3c16af67	0.009197093
102	0xbe14cddb	-0.14531653
103	0xbdf0917a	-0.117464975
104	0x3c719d8a	0.014747033
105	0x3d77685b	0.060402256
106	0x3de05948	0.10954529
107	0x3d4c99ba	0.049951293
108	0xbe0b5ddd	-0.13610025
109	0x3e110e85	0.14165695
110	0xbdfe2869	-0.124100514
111	0xbe337650	-0.17525601
112	0x3e05a1ad	0.13049956
113	0xbcf174e0	-0.029474676
114	0xbd0cf189	-0.034410033
115	0xbc0ce58e	-0.008599652
116	0xbd2f3bf5	-0.04278179
117	0xbdf767d9	-0.12080354
118	0x3de93b18	0.11388224
119	0x3cff7e7d	0.031188244
120	0xbe32f598	-0.17476499
121	0xbe3a2bb1	-0.1818073
122	0x3d7b2fc8	0.061324865
123	0x3e06bfb5	0.13159068
124	0xbe3624bf	-0.17787455
125	0xbd31323e	-0.043260805
126	0x3dcbfbc2	0.09960128
127	0xbdf09825	-0.11747769
128	0xbdc1a0aa	-0.09454472
129	0xbe38f462	-0.18061975
130	0xbe35ca8c	-0.17753047
131	0x3da4501f	0.080230944
132	0x3cabffa6	0.020995926
133	0xbdffe1ad	-0.12494216
134	0xbd5e3700	-0.05425167
135	0x3d8ae47a	0.0678186
136	0xbd99107c	-0.07473847
137	0x3de2ebc9	0.11080129
138	0x3e133d53	0.14378862
139	0xbe471a2d	-0.19443579
140	0xbda2c64d	-0.07947979
141	0xbae37ee4	-0.0017356542
142	0xbe20e1da	-0.15711156
143	0xbe007a04	-0.12546545
144	0x3e10d97f	0.14145468
145	0xbe527f5b	-0.20556395
146	0xbca3bbd3	-0.019987023
147	0x3e101303	0.14069752
148	0x3e0a364e	0.13497278
149	0xbdc76b97	-0.09737318
150	0xbd9609d5	-0.07326094
151	0xbd4c789e	-0.049919717
152	0xbe5412c1	-0.20710279
153	0x3e016c9f	0.12639092
154	0xbdb65b68	-0.08904153
155	0x3bfec047	0.007774386
156	0xbe44fb85	-0.19236572
157	0xbe3a5154	-0.18195087
158	0xbe1b6ae0	-0.15177488
159	0xbe147e80	-0.14501381
160	0xbd868cc7	-0.0656982
161	0xbe383f3c	-0.17992872
162	0x3b6a127e	0.0035716589
163	0xbe07813d	-0.13232894
164	0xbe00e53a	-0.12587443
165	0xbddfa131	-0.10919417
166	0xbd24d21f	-0.04023945
167	0x3df00679	0.117199846
168	0xbe24d212	-0.1609576
169	0xbe39a9fd	-0.18131252
170	0xbd9483bd	-0.072516896
171	0xbe0cfada	-0.13767567
172	0x3dbb1a0e	0.09135829
173	0xbda4afee	-0.080413684
174	0x3be9982e	0.007128737
175	0x3df0aa78	0.11751264
176	0x3e1525a0	0.14565134
177	0x3d392774	0.04520364
178	0x3d731265	0.059343714
179	0xbe20bb2c	-0.156964
180	0x3d634563	0.055486094
181	0x3c677f1d	0.014129427
182	0x3b70f6bc	0.003676816
183	0x3ddf5687	0.10905176
184	0xbe03af8a	-0.12859932
185	0x3dfe19cc	0.12407264
186	0x3b8aff3f	0.0042418535
187	0x3d2a1ed5	0.04153331
188	0xbdc5d696	-0.0966007
189	0xbd0914f6	-0.033467256
190	0x3e1fef93	0.15618734
191	0xbc2693c0	-0.010167062
192	0x3e133155	0.14374287
193	0xbe0c9364	-0.137281
194	0xbbf8dcf5	-0.0075946995
195	0x3cd0c48f	0.025484351
196	0xbe46524f	-0.19367336
197	0xbdd039d9	-0.101672836
198	0xbe0eda87	-0.13950549
199	0xbe12ba61	-0.1432891
200	0xbe296510	-0.16542459
201	0x3b4caced	0.0031231001
202	0x3c93e2fd	0.018052572
203	0xbd86b83e	-0.0657811
204	0xbe25a0c8	-0.16174614
205	0x3d8f9254	0.07010332
206	0x3cd21cc3	0.02564848
207	0xbbb6209a	-0.0055580856
208	0x3c91afed	0.017784083
209	0xbcc387f2	-0.023868535
210	0xbc8556e5	-0.016276786
211	0xbe3954c6	-0.18098745
212	0xbe2ac1b0	-0.16675448
213	0x3da8b8a4	0.082383424
214	0xbb54974f	-0.003243882
215	0x3db12798	0.0865013
216	0xbdf9c909	-0.121965475
217	0x3e1112b8	0.14167297
218	0x3caca16e	0.02107307
219	0x3e060f31	0.13091733
220	0xbe4cc599	-0.19997253
221	0xbe1fd255	-0.15607579
222	0x3d9c850a	0.07642563
223	0x3dc86f58	0.09786862
224	0xbd6c4ce1	-0.057690505
225	0x3da4d4f5	0.08048431
226	0x3dff81ac	0.12475905
227	0x3e89f569	0.26945046
228	0xbbf23c6f	-0.007392458
229	0x3cad6f12	0.021171127
230	0x3b547c96	0.0032422892
231	0x3ca9b11b	0.020714333
232	0xbe0defb3	-0.13860969
233	0xbd28cc80	-0.04121065
234	0xbe569af7	-0.20957552
235	0x3d1a07b0	0.037604988
236	0xbda10ea1	-0.07864118
237	0xbd929461	-0.07157207
238	0x3e169b6d	0.14707728
239	0xbe05c813	-0.13064604
240	0x3d28ce94	0.041212633
241	0x3d28263a	0.04105208
242	0xbdf0c0a0	-0.1175549
243	0xbe60433f	-0.21900652
244	0x3df85e51	0.121273644
245	0x3e0b36c9	0.13595118
246	0x3df83064	0.12118605
247	0xbcbf23a6	-0.023332428
248	0x3d373daf	0.04473656
249	0x3d237348	0.039904863
250	0x3d2aa7e6	0.041664027
251	0x3df5c28c	0.119999975
252	0xbe6a1ee1	-0.22863342
253	0xbdb28e76	-0.087185785
254	0x3c9be309	0.019029157
255	0x3e2cab59	0.16862239

model.0.bias f4 [64]
0	0xbe52b2fd	-0.20576091
1	0x3e124390	0.14283586
2	0x3d28d800	0.04122162
3	0xbe3bdcd3	-0.18345957
4	0xbe16a0ad	-0.1470973
5	0x3b486340	0.0030576736
6	0x3d947340	0.07248545
7	0xbde80737	-0.11329501
8	0xbd98d657	-0.07462757
9	0x3e153ba8	0.14573538
10	0x3dd99b8b	0.106253706
11	0x3c912aa3	0.017720526
12	0xbc73d9c0	-0.014883459
13	0xbe008043	-0.12548928
14	0x3a085b00	0.00052015483
15	0xbd320116	-0.043458067
16	0xbdca670a	-0.098829344
17	0x3db6f4c6	0.089334056
18	0x3dd92954	0.10603586
19	0x3cc289d4	0.023747362
20	0xbd94d7fb	-0.072677575
21	0xbdcb4cd8	-0.09926766
22	0xbdfac72d	-0.12245021
23	0xbe303a23	-0.17209677
24	0x3d96a1c6	0.073550746
25	0x3dfc920c	0.12332544
26	0xbc029200	-0.007969379
27	0xbdcb7cb9	-0.09935898
28	0x3d84a1cc	0.06476173
29	0x3e289db3	0.16466407
30	0x3e0c993e	0.13730332
31	0xbe16ca3e	-0.14725587
32	0xbd76a599	-0.06021652
33	0xbd83acc7	-0.06429439
34	0xbe3c725e	-0.18403003
35	0x3e11c3ba	0.1423482
36	0x3dd3c439	0.10340161
37	0x3ddd17eb	0.107955776
38	0xbc4d0160	-0.012512535
39	0xbdb0cdfb	-0.08633038
40	0xbcd2f2c0	-0.025750518
41	0x3e12071e	0.14260527
42	0x3daf7c0f	0.08568584
43	0xbe19ecb1	-0.15031697
44	0x3e15d614	0.14632446
45	0x3e1ce0af	0.15320085
46	0xbc90fffa	-0.017700184
47	0x3df5ab88	0.119956076
48	0x3d008d67	0.03138485
49	0x3e0028e0	0.12515593
50	0xbd52bd03	-0.051449787
51	0xbe1387ea	-0.14407316
52	0x3db0a11a	0.08624478
53	0x3c53ee90	0.012935296
54	0x3dda172f	0.10648953
55	0xbdc063c4	-0.09394029
56	0x3d0d9538	0.034566134
57	0xbe29bf86	-0.16576967
58	0xbd90e2d5	-0.07074515
59	0xbdccc45b	-0.09998389
60	0xbdadce13	-0.08486571
61	0xbe09bb44	-0.13450342
62	0x3de98d87	0.11403947
63	0x3e1c1c12	0.15245083

model.2.weight f4 [64, 64]
0	0xbd6a0973	-0.057137918
1	0xbd0202a8	-0.031740814
2	0x3dac0e22	0.08401133
3	0x3dae1f16	0.08502023
4	0x3b4a84c0	0.003090188
5	0xbd710f28	-0.058852345
6	0xbdeb7ba2	-0.114981905
7	0x3d9e8b0a	0.07741363
8	0x3deae6fe	0.114698395
9	0x3d94ce9b	0.07265969
10	0xbde51770	-0.11186111
11	0xbdececee	-0.11568628
12	0x3de44952	0.11146797
13	0xbe081240	-0.13288212
14	0xbd2faedc	-0.04289137
15	0x3d82c986	0.06386094
16	0xbcc99b95	-0.02461032
17	0x3dda1994	0.1064941
18	0xbe272557	-0.16322838
19	0x3da8921e	0.08230995
20	0xbdd62f57	-0.10458248
21	0x3d009bc8	0.031398565
22	0xbd1a1681	-0.037619118
23	0x3db16c42	0.08663227
24	0xbe051d72	-0.12999514
25	0xbd2f8974	-0.042855695
26	0x3da2d6be	0.07951115
27	0xbd55aa24	-0.052164212
28	0xbdb1ff7a	-0.086913064
29	0xbdc7c2bc	-0.097539395
30	0x3d3c85f8	0.0460262
31	0x3dde21d2	0.108462945
32	0x3c5c3d10	0.013442293
33	0xbdda30b4	-0.10653821
34	0x3db030aa	0.08603032
35	0xbe16ed3f	-0.1473894
36	0xbe0b6d77	-0.13615976
37	0x3d61059c	0.05493699
38	0xbce1e358	-0.027574226
39	0xbdc4428c	-0.09583005
40	0x3d9b582c	0.07585177
41	0xbd8ec189	-0.06970508
42	0xbbed54b9	-0.0072427657
43	0xbc0e6a09	-0.008692273
44	0x3ccd8ccf	0.025091557
45	0x3dbbe5f6	0.09174721
46	0x3ca21662	0.019786064
47	0x3ce8e5f0	0.028429955
48	0xbdbbe83f	-0.09175157
49	0xbda38902	-0.079851165
50	0xbddf4059	-0.10900945
51	0xbb63f31a	-0.003478235
52	0x3dffefc6	0.12496905
53	0x3d6d5118	0.057938665
54	0xbd905e2e	-0.07049213
55	0x3d5fc018	0.054626554
56	0xbd8214bd	-0.06351612
57	0xbdb5a3fc	-0.08869168
58	0x3d461041	0.048355345
59	0x3d80ba7a	0.062855676
60	0x3ddf27ec	0.10896286
61	0x3d9dcd60	0.07705188
62	0x3d24191d	0.040063012
63	0x3da793e6	0.08182506
64	0xbd5786e9	-0.052618895
65	0xba51fb1b	-0.0008010135
66	0xbdb84d14	-0.089990765
67	0xbc587cca	-0.013213346
68	0x3d5700c4	0.052490965
69	0x3d77351c	0.060353383
70	0x3d4f6dc4	0.05064179
71	0xbdf2f260	-0.118626356
72	0x3cc85850	0.024456173
73	0xbe50b290	-0.20380616
74	0xbde377f8	-0.111068666
75	0xbe557026	-0.20843562
76	0x3c62e1a0	0.0138477385
77	0xbd6b011d	-0.05737411
78	0x3d4b32c4	0.04960896
79	0xbd8eeada	-0.06978388
80	0xbd79d97c	-0.060998425
81	0x3db1d2c8	0.086827815
82	0x3e0fd67a	0.1404666
83	0xbdbc71f0	-0.09201419
84	0xbc103aea	-0.008803109
85	0x3e155c28	0.14585936
86	0x3d956f8e	0.07296668
87	0x3c125210	0.008930698
88	0xbc899331	-0.01679382
89	0xbd26acdd	-0.0406922
90	0x3d8a8560	0.067637205
91	0x3c95ffa0	0.018310368
92	0xbde0d68e	-0.10978423
93	0x3c407770	0.011747226
94	0xbdbd209a	-0.09234734
95	0x3deec219	0.11658115
96	0x3dffb39b	0.12485429
97	0x3d8179ae	0.06322037
98	0xbb88bd15	-0.004172931
99	0xbdce18ff	-0.100633614
100	0xbd8b9857	-0.06816166
101	0xbc83f80e	-0.016109493
102	0xbdee926e	-0.11649023
103	0x3d0b5954	0.034020737
104	0x3dc8ed36	0.098108694
105	0x3dc0f47c	0.09421632
106	0xbd8ac44a	-0.067757204
107	0xbdace049	-0.084412165
108	0xbd1f28f4	-0.038857415
109	0xbde8979c	-0.11357042
110	0xbf16900b	-0.5881354
111	0xbd89d3fa	-0.067298844
112	0x3ea210d6	0.3165347
113	0x3d5766d0	0.052588284
114	0xbd2721a3	-0.040803563
115	0x3d0ced8f	0.03440624
116	0xbdb2e12a	-0.08734353
117	0x3dcd6ef8	0.10030931
118	0x3df563ae	0.11981903
119	0xbdc0a866	-0.094071195
120	0x3dfc8d2f	0.12331616
121	0xbdec69a8	-0.1154359
122	0xbda3d148	-0.079989016
123	0xbe1df2eb	-0.15424697
124	0xbd5da154	-0.054108933
125	0x3c991aa8	0.018689469
126	0xbd3448dc	-0.044014797
127	0x3c8d2cf8	0.017233357
128	0xbd3b3027	-0.04570022
129	0x3de3b061	0.11117626
130	0xbde198a2	-0.110154405
131	0x3dcde170	0.100527644
132	0x3d962632	0.07331504
133	0xbcf08890	-0.029361993
134	0x3b803360	0.0039123744
135	0x3dd1661a	0.102245525
136	0xbd5a5564	-0.05330409
137	0xbd4abcac	-0.049496338
138	0x3cf727d2	0.030170355
139	0x3c8895cc	0.016672991
140	0x3cebceb0	0.02878508
141	0xbd4dea78	-0.050272435
142	0xbd12122c	-0.03566186
143	0x3d0facde	0.03507697
144	0xbd4b6113	-0.049653124
145	0xbe0917eb	-0.1338803
146	0xbd8fd81a	-0.0702364
147	0xbc1cadd9	-0.009562933
148	0x3c8ca6ed	0.01716944
149	0x3d9f6d36	0.07784502
150	0x3d839f70	0.06426895
151	0xbd89849c	-0.06714746
152	0xbc3ca98e	-0.011515034
153	0xbda941a0	-0.0826447
154	0xbe02ace2	-0.12761262
155	0xbd956f76	-0.0729665
156	0xbd8dbe5a	-0.06921072
157	0xbdfcbc8a	-0.123406485
158	0x3db5fa7b	0.08885666
159	0x3d53d5f6	0.05171772
160	0xbcdb13d8	-0.02674286
161	0x3b17119c	0.0023051267
162	0xbdd64a6f	-0.10463416
163	0x3d516a58	0.051126808
164	0xbdb1dde6	-0.08684902
165	0x3df71547	0.12064605
166	0x3c9286e8	0.017886594
167	0x3ddbc9f8	0.10731882
168	0xbda19e6c	-0.07891545
169	0x3dc12b6d	0.09432111
170	0x3ce8db8c	0.028425
171	0xbd3a7e07	-0.045530345
172	0xbda48c4b	-0.08034571
173	0xbd2225d0	-0.039586842
174	0xbc2c6433	-0.010521936
175	0xbafc2480	-0.0019236952
176	0x3d7c7abb	0.061640482
177	0xbd657ea3	-0.056028973
178	0xbd86bcab	-0.06578954
179	0x3db4db46	0.088308856
180	0x3d083fd4	0.033263996
181	0x3db53990	0.0884887
182	0xbd022d82	-0.03178168
183	0x3d82c042	0.063843265
184	0xbc4b773a	-0.012418563
185	0x3c878c40	0.016546369
186	0x3ca6970b	0.020335695
187	0x3d531984	0.051538005
188	0x3df686d4	0.12037435
189	0xbd04b528	-0.032399327
190	0x3cbf960b	0.023386976
191	0x3dee3b8d	0.11632452
192	0xbeadd0fc	-0.33948505
193	0xbd998464	-0.07495955
194	0xbd7a1678	-0.061056584
195	0xbdbf3820	-0.09336877
196	0x3d40ea74	0.047098592
197	0x3dd157ec	0.10221848
198	0xbdb0c4ba	-0.086312726
199	0xbe249f6c	-0.1607644
200	0xbd3e42a4	-0.046450272
201	0x3cb8e906	0.022572052
202	0x3d51e609	0.05124477
203	0xbdc4de51	-0.09612716
204	0xbc585000	-0.013202667
205	0xbd946bed	-0.07247148
206	0xbd56d58c	-0.052449748
207	0x3e43c51f	0.19118164
208	0x3dc3c8bb	0.09559771
209	0x3dba5039	0.090973325
210	0xbddcb855	-0.10777346
211	0xbb64fdc0	-0.0034941286
212	0x3b86c532	0.004112863
213	0xbdece02e	-0.115661964
214	0xbd579c2a	-0.052639164
215	0xbdd23346	-0.10263686
216	0xbd53029c	-0.05151616
217	0x3c354150	0.011062935
218	0x3c9f6638	0.019457921
219	0x3c374a60	0.011187166
220	0x3d8a5e7d	0.067563035
221	0x3d5b1f80	0.053496838
222	0x3c7dc681	0.015489222
223	0xbe34b823	-0.17648368
224	0xbdc38b46	-0.09548049
225	0x3d3dff4b	0.046386044
226	0xbc8c42e0	-0.017121732
227	0xbc948299	-0.01812868
228	0xbea57993	-0.32319316
229	0x3dde3739	0.10850377
230	0x3d0f119c	0.034928903
231	0xbc491f30	-0.012275502
232	0x3d4632e8	0.04838839
233	0xbda7b259	-0.08188314
234	0x3c5ebb9d	0.013594535
235	0xbd155723	-0.036460053
236	0xbdc874e3	-0.09787919
237	0xbd49a55c	-0.049229965
238	0xbe7b0cf2	-0.24516657
239	0xbd54e010	-0.051971495
240	0x3d243c84	0.040096775
241	0x3de0319d	0.10946963
242	0xbc7bb592	-0.015363114
243	0x3d984258	0.07434529
244	0xbc4a5a40	-0.012350619
245	0x3ca95ef0	0.020675153
246	0x3db31ab7	0.0874533
247	0x3d8208e6	0.063493535
248	0xbdd5b2ab	-0.10434469
249	0x3de4f192	0.111788884
250	0x3dba13f4	0.09085837
251	0xbdb6ef9e	-0.08932422
252	0xbd286600	-0.0411129
253	0x3da55a16	0.08073823
254	0x3c9599fc	0.018261902
255	0xbc5a1c25	-0.013312374

model.2.bias f4 [64]
0	0xbda29c90	-0.07940018
1	0x3e35c411	0.17750575
2	0xbe011b0b	-0.12607972
3	0xbd46aefe	-0.04850673
4	0xbe3c7b79	-0.18406476
5	0x3d9cb994	0.07652584
6	0x3dad0a7f	0.084492676
7	0xbe22609d	-0.15857168
8	0x3e1d033a	0.15333262
9	0x3d845f5e	0.06463502
10	0x3d666df6	0.05625721
11	0xbd9c45f6	-0.076305315
12	0x3e593c4a	0.21214405
13	0xbd2d031a	-0.042239286
14	0x3dbd54e8	0.0924471
15	0xbd816487	-0.06318002
16	0xbdd780ff	-0.10522651
17	0x3d858670	0.065197825
18	0xbe1aa46d	-0.15101786
19	0xbcebf792	-0.028804574
20	0xbd908873	-0.070572756
21	0xbd17dc45	-0.0370753
22	0xbdc553cb	-0.09635123
23	0xbcfc101d	-0.030769402
24	0x3d92dba4	0.071707994
25	0xbcb0887b	-0.021549454
26	0xbc43c3fe	-0.011948584
27	0x3dcaad42	0.098963276
28	0x3db29d81	0.08721448
29	0xbe4fff2f	-0.20312189
30	0xbd32691f	-0.043557283
31	0xbd8b8d10	-0.06814015
32	0xbdf06f41	-0.1173997
33	0x3db29b60	0.08721042
34	0xbcfa3c12	-0.030546222
35	0x3e1820d3	0.14856271
36	0xbda71044	-0.08157399
37	0xbd0a562a	-0.03377358
38	0xbdd756f5	-0.105146326
39	0x3d8c5698	0.06852454
40	0xbe1173dc	-0.14204353
41	0xbd1e8ed4	-0.03871043
42	0x3d3a2bc3	0.04545189
43	0xbdf8cb04	-0.12148097
44	0xbdb0c851	-0.08631957
45	0x3e22c0d6	0.15893874
46	0xbca9b860	-0.0207178
47	0xbe525b61	-0.20542671
48	0xbdd621e9	-0.104556866
49	0xbcf131bb	-0.029442659
50	0xbe0ba5be	-0.13637444
51	0xbdd9929e	-0.10623668
52	0x3c9d6fb9	0.019218313
53	0xbc7fbad5	-0.015608509
54	0x3e67efa0	0.22650003
55	0x3d9bffc9	0.076171465
56	0xbdefc7a8	-0.11708003
57	0x3ded1b84	0.11577514
58	0xbe26c047	-0.16284285
59	0x3c3efa1f	0.011656313
60	0xbddb0229	-0.106937714
61	0xbe0d1c6e	-0.13780376
62	0xbe12028e	-0.14258787
63	0xbe299511	-0.1656077

model.4.weight f4 [8, 64]
0	0x3df86ffb	0.121307336
1	0x3f0d7690	0.55259037
2	0x3d81ff3d	0.06347511
3	0x3e9a4c72	0.30136448
4	0xbd27bc2a	-0.04095093
5	0xbb092662	-0.002092742
6	0x3d98f707	0.07468992
7	0x3cdc8460	0.02691859
8	0x3eb3c076	0.35107774
9	0x3dc81db9	0.09771294
10	0x3e78b04e	0.24286005
11	0xbd492cd4	-0.049115017
12	0xbeec1b65	-0.4611465
13	0xbb3a1e85	-0.0028399539
14	0x3c137d3b	0.009002025
15	0x3e387cc3	0.18016343
16	0xbe0e393a	-0.13889018
17	0xbf0aa75d	-0.54161626
18	0x3d495566	0.049153708
19	0xbdcfb14b	-0.10141238
20	0xbd658b1d	-0.056040872
21	0xbda1ae9e	-0.07894634
22	0xbd154eb8	-0.036452025
23	0x3d0ad71e	0.033896558
24	0x3e2baee6	0.16765937
25	0x3cab2f28	0.02089651
26	0x3d718a31	0.05896968
27	0x3f8b5d47	1.0887841
28	0x3e84d0e0	0.2594061
29	0xbe3f0ced	-0.18657275
30	0xbea9f052	-0.33191162
31	0x3cb678c4	0.022274382
32	0x3c2ffb0c	0.010741007
33	0x3eca5041	0.39514354
34	0x3e5b21e2	0.21399644
35	0x3d93bc8b	0.07213696
36	0x3d4e3c7b	0.050350647
37	0xbd2fc8f2	-0.042916246
38	0xbd84fb98	-0.064933
39	0x3de05289	0.10953242
40	0x3a1ebf76	0.00060557516
41	0xbd9332cc	-0.07187423
42	0x3e71fd45	0.23631771
43	0xbe8ca7f9	-0.27471903
44	0x3d6b7c20	0.05749142
45	0x3ebfcd89	0.37461498
46	0x3cf7829d	0.030213648
47	0xbdc1caeb	-0.09462532
48	0x3db2867e	0.087170586
49	0x3edf797e	0.4364738
50	0x3d846c36	0.06465952
51	0x3d2d6e01	0.042341236
52	0xbd47807f	-0.048706528
53	0x3c68ee90	0.014217034
54	0xbeac2296	-0.33620137
55	0x3e410e3d	0.18853088
56	0x3cc5c528	0.024141863
57	0x3f1e16db	0.61753625
58	0xbe224ce4	-0.15849644
59	0xbeb97e68	-0.36229253
60	0x3c89f4cc	0.016840361
61	0xbdb4156f	-0.08793151
62	0x3eb5f1b2	0.3553596
63	0x3e0e180d	0.13876362
64	0xbcbd7085	-0.023124943
65	0x3ec847cc	0.39117277
66	0x3e18abf7	0.1490935
67	0x3e43c83e	0.19119355
68	0x3d81d934	0.06340256
69	0xbdeb5c60	-0.114922285
70	0xbe60bf95	-0.21948083
71	0xbde4e182	-0.11175825
72	0xbd22df28	-0.0397636
73	0xbe9d7c9e	-0.30759138
74	0x3eb5fe29	0.3554547
75	0xbd84686d	-0.0646523
76	0xbe164a2a	-0.14676729
77	0x3dd39500	0.10331154
78	0xbf0aa142	-0.5415231
79	0xbd896782	-0.06709196
80	0xbe23f722	-0.16012242
81	0xbeb13481	-0.3461037
82	0x3d385637	0.045004096
83	0x3d13d8f5	0.03609558
84	0x3e38503f	0.17999361
85	0x3d75a762	0.05997408
86	0x3da87540	0.08225489
87	0x3c442edf	0.011974066
88	0x3ec6d78f	0.38836333
89	0xbbed4106	-0.0072404174
90	0xbdbbcd3a	-0.09170003
91	0x3ecfa22b	0.40553412
92	0x3e4a6f99	0.19769134
93	0x3d94763f	0.07249116
94	0x3dd7eaf2	0.10542859
95	0x3d5750fd	0.05256747
96	0xbd858362	-0.065192
97	0x3d7ef8e0	0.062249064
98	0xbdf9a2c8	-0.12189251
99	0x3d284213	0.04107864
100	0xbe3b4e4e	-0.1829159
101	0x3e35ff64	0.17773205
102	0x3e0c04e4	0.1367374
103	0xbdf49b8f	-0.11943733
104	0xbdbb7cdc	-0.091546744
105	0x3d3efbdf	0.04662692
106	0x3e00faf2	0.12595728
107	0x3d6c5c89	0.057705436
108	0x3d7f9343	0.0623963
109	0x3e0e4390	0.1389296
110	0x3e0e15a5	0.13875444
111	0x3d659ab6	0.056055747
112	0x3d9b5b71	0.075858004
113	0x3ef86f8d	0.48522606
114	0x3ddec9e4	0.10878351
115	0x3e668ac5	0.22513874
116	0x3bbe482c	0.0058069434
117	0xbd4da3d3	-0.050205063
118	0xbf19c190	-0.6006098
119	0x3e827c76	0.2548558
120	0xbdfb1f34	-0.12261811
121	0x3ed4c085	0.4155313
122	0xbe1d0553	-0.15334062
123	0x3cdcbaa9	0.026944475
124	0x3e03fed7	0.12890182
125	0x3d1b5581	0.03792334
126	0x3daf65b0	0.08564317
127	0xbe769b91	-0.24082781
128	0x3d5940bd	0.053040255
129	0x3eb7c7b8	0.3589456
130	0x3d7aa41d	0.061191667
131	0x3d287f85	0.041137237
132	0x3d0b3add	0.033991683
133	0x3f0b60e4	0.5444472
134	0x3e9fed27	0.3123562
135	0x3bf38f40	0.007432848
136	0x3efadbb3	0.48995742
137	0xbe8b8d3e	-0.27256197
138	0x3f39dc5d	0.7260187
139	0xbd29e4a3	-0.04147781
140	0xbd36968b	-0.044577163
141	0xbd92073f	-0.07130288
142	0xbe1c353d	-0.15254684
143	0xbe2b8231	-0.16748883
144	0xbf2cda5f	-0.6752071
145	0xbe930c9e	-0.28720564
146	0xbd78c74b	-0.060736936
147	0xbcb79016	-0.022407573
148	0x3e21e1c4	0.15808779
149	0x3c6e5130	0.014545724
150	0xbe735b35	-0.23765261
151	0x3e2a38d6	0.16623244
152	0x3ea84e08	0.32872033
153	0x3d97600b	0.073913656
154	0xbddfe073	-0.10931482
155	0x3e879064	0.2647735
156	0xbc92bf8e	-0.017913606
157	0xbec5f488	-0.38663125
158	0x3dab159d	0.08353732
159	0xbc89bbcd	-0.016813183
160	0x3d470688	0.048590213
161	0x3e13af61	0.1442237
162	0x3f3edcc9	0.7455564
163	0xbd1d1e6c	-0.03835909
164	0x3bced4d6	0.006311993
165	0xbcaefce0	-0.021360815
166	0x3d65ab36	0.056071483
167	0x3baaf295	0.0052169063
168	0x3d45eca4	0.04832138
169	0xbd3755d9	-0.044759605
170	0x3f2dfc90	0.67963505
171	0xbee6489e	-0.44977278
172	0xbddd3fa2	-0.108031526
173	0xbd2a4cca	-0.041577138
174	0x3c87085f	0.016483484
175	0x3eb5087b	0.35358033
176	0xbe12db87	-0.14341556
177	0x3ee301fe	0.44337457
178	0xbdd92d06	-0.10604291
179	0x3ecb14da	0.39664346
180	0x3cc1d966	0.023663234
181	0x3d1ffe7f	0.039061066
182	0xbde86981	-0.11348248
183	0x3df19ae0	0.11797118
184	0xbbad9240	-0.0052969754
185	0x3ee689b4	0.45026934
186	0xbe56fced	-0.20994921
187	0xbf87d6f2	-1.0612471
188	0xbbb6b2aa	-0.0055754976
189	0x3dc8e999	0.0981018
190	0xbf0e1324	-0.55497956
191	0xbd6f93c6	-0.058490537
192	0xbb877438	-0.0041337274
193	0x3ec8e9a5	0.39240757
194	0xbde6c2f4	-0.11267653
195	0x3d8cb0f0	0.06869686
196	0x3da7ce2d	0.08193622
197	0x3eb99320	0.3624506
198	0x3f1cd394	0.6126034
199	0x3d9be106	0.07611279
200	0x3ed25c5e	0.41086096
201	0xbe8c619a	-0.27418214
202	0x3f1b3845	0.60632735
203	0xbd40a61c	-0.047033414
204	0xbe0e3185	-0.13886078
205	0x3db879b9	0.09007592
206	0xbe2c93e3	-0.1685329
207	0xbdb7c595	-0.08973233
208	0xbf006627	-0.5015587
209	0xbe548b9e	-0.20756385
210	0x3d94348f	0.07236587
211	0x3c8ef7ff	0.017452238
212	0xbe15ddfc	-0.14635462
213	0xbd30b69d	-0.043142904
214	0xbd48ffca	-0.049072064
215	0xbe47010b	-0.19433992
216	0x3ebb02b3	0.36525497
217	0x3ca2d6a3	0.019877737
218	0x3d927c1e	0.0715258
219	0x3dc37cfc	0.09545323
220	0x3edc0780	0.42974472
221	0xbec8bcb0	-0.39206457
222	0x3e4bc883	0.19900708
223	0xbdf41588	-0.11918169
224	0x3e1f4b38	0.15556037
225	0x3c21579f	0.009847551
226	0x3ebeb0a7	0.3724415
227	0x3eb3dea3	0.35130796
228	0x3dab9a3a	0.08379026
229	0x3e06ddaa	0.13170496
230	0xbdfff880	-0.124985695
231	0xbe52ef99	-0.20599212
232	0x3d547b9b	0.05187569
233	0x3daebb06	0.08531766
234	0x3ef3b855	0.47601572
235	0xbe4af5f1	-0.19820382
236	0xbdb2faf8	-0.08739275
237	0x3e9f3f59	0.31103018
238	0x3d833e6f	0.06408393
239	0x3e520757	0.20510612
240	0xbc7cb164	-0.015423153
241	0x3f0d2188	0.5512929
242	0xbc58ba1f	-0.0132279685
243	0x3e5a107e	0.21295354
244	0xbe198322	-0.1499143
245	0xbd0febc4	-0.035136953
246	0x3e7c9902	0.24667743
247	0x3ddac52a	0.10682137
248	0x3c9b8270	0.018983096
249	0x3e5a1df4	0.21300489
250	0x3e5d6d0d	0.21623631
251	0xbf45386b	-0.7703921
252	0x3d495cb0	0.04916066
253	0xbda63abc	-0.081166714
254	0xbf0729d5	-0.52798206
255	0xbe259337	-0.1616944

model.4.bias f4 [8]
0	0xbbfc2ac9	-0.00769553
1	0x3d8a753c	0.06760642
2	0xbe0aa130	-0.1353805
3	0xbe73fbaf	-0.23826478
4	0x3d157dbe	0.03649687
5	0xbda8d588	-0.08243853
6	0x3ca955b6	0.020670753
7	0xbcb23ae4	-0.021756597
