train_pygame/stored/20250712fifth_0140.pth (torch, 30361 bytes, 6 tensors)

model.0.weight f4 [64, 32]
00000000: 0ba8 533e 47c2 9cbe ac06 79be a2dd 903e
00000010: 605e ef3c bcfa ffbe 95c9 7fbe 9afd 8abd
00000020: 8c12 dfbe 77ed 263e 66fb 1f3d cadb 2bbe
00000030: 0633 6fbe 712e 0bbe 70ea d73d 4b28 833e
00000040: fa03 513d ec2c 43be 483d 343f 56ed 36bc
00000050: 1d50 1bbf c511 c03d 9978 cdbd c77b d0be
00000060: 2a04 3ebe a709 38be 37d9 f3be a9c5 ecbd
00000070: 7bf7 d2bd 07aa 97be 0972 333e c906 953e
00000080: b0e2 56bc 3532 c63d fa93 afbd 48f5 55be
00000090: fd19 d63c 4bb7 7fbe 93a6 06be 3d9d 653c
000000a0: 1698 1dbe 083b d03c 76ce 45bd 60c4 e43d
000000b0: 0595 3b3c c76b 16bc 5821 e7bd 1479 f2bd
000000c0: c2f5 963d e13a b63d f32c 35be 9c82 dfbd
000000d0: 9c13 0ebe 7a2f d8bd 948c 59be 997a b83b
000000e0: c7b4 4bbe 437b 99bc dffe 1cbe c9bb 66bd
000000f0: d943 8bbc b6e5 bfbc 977c a83c feda c93b
00000100: 68f1 d5bd 1474 bbbd 9092 f0bc 53ee 10be
00000110: c942 d9bd d7c4 19be 7c20 603d 2595 b3bd
00000120: 0694 d43d b8ad 3abd a82a 3fbd 3ff4 03be
00000130: 40ad d03b ae81 08be f438 363d da97 b23d
00000140: 8d44 1c3e a0f2 143d dc3e 633d 429c eebd
00000150: 9d28 0ebe c0ee 583d c846 5ebd 40c5 433b
00000160: 10c4 a3bc a885 9bbc 40ed 76bb 9e73 fdbd
00000170: 0fd7 06be 6410 373d 8a6e 2abe 519e 93bd
00000180: bcb6 33be 204a 903c 374e 92bc ebb7 0a3d
00000190: eede 2abd 67af 163c dbcd 14be 7a91 f0bd
000001a0: 8a9d 713c 5b68 773d 4859 e03d ba99 4c3d
000001b0: dd5d 0bbe 850e 113e 6928 febd 5076 33be
000001c0: ada1 053e e074 f1bc 89f1 0cbd 8ee5 0cbc
000001d0: f53b 2fbd d967 f7bd 183b e93d 7d7e ff3c
000001e0: 98f5 32be b12b 3abe c82f 7b3d b5bf 063e
000001f0: bf24 36be 3e32 31bd c2fb cb3d 2598 f0bd
00000200: aaa0 c1bd 62f4 38be 8cca 35be 1f50 a43d
00000210: a6ff ab3c ade1 ffbd 0037 5ebd 7ae4 8a3d
00000220: 7c10 99bd c9eb e23d 533d 133e 2d1a 47be
00000230: 4dc6 a2bd e47e e3ba dae1 20be 047a 00be
00000240: 7fd9 103e 5b7f 52be d3bb a3bc 0313 103e
00000250: 4e36 0a3e 976b c7bd d509 96bd 9e78 4cbd
00000260: c112 54be 9f6c 013e 685b b6bd 47c0 fe3b
00000270: 85fb 44be 5451 3abe e06a 1bbe 807e 14be
00000280: c78c 86bd 3c3f 38be 7e12 6a3b 3d81 07be
00000290: 3ae5 00be 31a1 dfbd 1fd2 24bd 7906 f03d
000002a0: 12d2 24be fda9 39be bd83 94bd dafa 0cbe
000002b0: 0e1a bb3d eeaf a4bd 2e98 e93b 78aa f03d
000002c0: a025 153e 7427 393d 6512 733d 2cbb 20be
000002d0: 6345 633d 1d7f 673c bcf6 703b 8756 df3d
000002e0: 8aaf 03be cc19 fe3d 3fff 8a3b d51e 2a3d
000002f0: 96d6 c5bd f614 09bd 93ef 1f3e c093 26bc
00000300: 5531 133e 6493 0cbe f5dc f8bb 8fc4 d03c
00000310: 4f52 46be d939 d0bd 87da 0ebe 61ba 12be
00000320: 1065 29be edac 4c3b fde2 933c 3eb8 86bd
00000330: c8a0 25be 5492 8f3d c31c d23c 9a20 b6bb
00000340: edaf 913c f287 c3bc e556 85bc c654 39be
00000350: b0c1 2abe a4b8 a83d 4f97 54bb 9827 b13d
00000360: 09c9 f9bd b812 113e 6ea1 ac3c 310f 063e
00000370: 99c5 4cbe 55d2 1fbe 0a85 9c3d 586f c83d
00000380: 4424 b7bd 7496 473d f178 be3d 3b66 733e
00000390: a45e 20bd 0e6b 2dbc 7a90 e9bc 4bfa 34bc
000003a0: e474 2ebe fc6e 95bd c220 77be 65a4 bf3b
000003b0: 9b11 e2bd e99f d3bd 1c2c ec3d 764b 26be
000003c0: d3dd 1a3c 5d42 183c 8ce3 18be 8264 80be
000003d0: 8253 b73d af63 d53d dc24 b73d 99a7 61bd
000003e0: 1fc0 543c a370 053c 8858 223c eab9 b43d
000003f0: e11e 6abe 6e97 f3bd da80 50bc 59ab 2c3e
0.20669572 -0.30616972 -0.24318951 0.28294092 0.029219806 -0.49995983 -0.24979241 -0.06786652
-0.43568838 0.16301523 0.03905811 -0.16783062 -0.23359308 -0.13591935 0.10542762 0.2561668
0.051029183 -0.19060105 0.7040601 -0.011164984 -0.6066912 0.09378389 -0.10032768 -0.40719435
-0.18556276 -0.17972432 -0.4762666 -0.11561138 -0.103011094 -0.29621908 0.1752397 0.2910674
-0.01311557 0.09677545 -0.08573146 -0.20894349 0.026135439 -0.24972264 -0.1314948 0.014014539
-0.15390047 0.025418773 -0.0482926 0.11170268 0.011449103 -0.00918097 -0.11285657 -0.118395
0.07371093 0.08897949 -0.17692928 -0.10913584 -0.13874668 -0.105559304 -0.21245033 0.005629849
-0.1989318 -0.018735534 -0.153316 -0.05633143 -0.017000126 -0.023424964 0.020567222 0.006160139
-0.10446435 -0.091529995 -0.029366761 -0.14153413 -0.106084414 -0.15016495 0.05471848 -0.087686814
0.10379796 -0.045575827 -0.04667154 -0.12886141 0.0063683093 -0.13330719 0.04448791 0.0872037
0.15260525 0.036364198 0.05547987 -0.116508976 -0.1388268 0.052962065 -0.05426672 0.0029872209
-0.01999095 -0.01898463 -0.0037678033 -0.12375568 -0.13167976 0.044693366 -0.1664373 -0.07207931
-0.17550176 0.01761347 -0.017859561 0.033866804 -0.04171651 0.009197093 -0.14531653 -0.117464975
0.014747033 0.060402256 0.10954529 0.049951293 -0.13610025 0.14165695 -0.124100514 -0.17525601
0.13049956 -0.029474676 -0.034410033 -0.008599652 -0.04278179 -0.12080354 0.11388224 0.031188244
-0.17476499 -0.1818073 0.061324865 0.13159068 -0.17787455 -0.043260805 0.09960128 -0.11747769
-0.09454472 -0.18061975 -0.17753047 0.080230944 0.020995926 -0.12494216 -0.05425167 0.0678186
-0.07473847 0.11080129 0.14378862 -0.19443579 -0.07947979 -0.0017356542 -0.15711156 -0.12546545
0.14145468 -0.20556395 -0.019987023 0.14069752 0.13497278 -0.09737318 -0.07326094 -0.049919717
-0.20710279 0.12639092 -0.08904153 0.007774386 -0.19236572 -0.18195087 -0.15177488 -0.14501381
-0.0656982 -0.17992872 0.0035716589 -0.13232894 -0.12587443 -0.10919417 -0.04023945 0.117199846
-0.1609576 -0.18131252 -0.072516896 -0.13767567 0.09135829 -0.080413684 0.007128737 0.11751264
0.14565134 0.04520364 0.059343714 -0.156964 0.055486094 0.014129427 0.003676816 0.10905176
-0.12859932 0.12407264 0.0042418535 0.04153331 -0.0966007 -0.033467256 0.15618734 -0.010167062
0.14374287 -0.137281 -0.0075946995 0.025484351 -0.19367336 -0.101672836 -0.13950549 -0.1432891
-0.16542459 0.0031231001 0.018052572 -0.0657811 -0.16174614 0.07010332 0.02564848 -0.0055580856
0.017784083 -0.023868535 -0.016276786 -0.18098745 -0.16675448 0.082383424 -0.003243882 0.0865013
-0.121965475 0.14167297 0.02107307 0.13091733 -0.19997253 -0.15607579 0.07642563 0.09786862
-0.08942464 0.048727468 0.093004115 0.23769467 -0.039152756 -0.010584606 -0.028511275 -0.011046003
-0.17036778 -0.07296559 -0.2413359 0.005848455 -0.11038514 -0.10333235 0.11531851 -0.16239724
0.009452301 0.009293166 -0.14930552 -0.2507668 0.08951475 0.10419404 0.08942577 -0.055091474
0.012985258 0.0081445305 0.009908803 0.08824523 -0.22863342 -0.11894117 -0.012726033 0.16862239

model.0.bias f4 [64]
00000000: 8827 8abe aa81 e33d 00d8 283d d3dc 3bbe
00000010: ada0 16be 4063 483b 4073 943d 6789 14be
00000020: 57d6 98bd c6a6 2f3e 2e76 a73d a32a 913c
00000030: c0d9 73bc eafc 60be 005b 083a cca5 53bd
00000040: 6ff7 e5bd c6f4 b63d e511 973d d489 c23c
00000050: a4d2 d5bd 16ba 1cbe f89c 1bbd 233a 30be
00000060: fa00 aebd b9e5 1e3e 0092 02bc b97c cbbd
00000070: cca1 843d b39d 283e 3e99 0c3e 3eca 16be
00000080: 99a5 76bd 95b9 c4bd 5e72 3cbe c83d e33d
00000090: 7a06 933d 0c1d 9c3d 6001 4dbc fbcd b0bd
000000a0: b0cd 1bbd d604 e33d 0f7c af3d b1ec 19be
000000b0: 0acd fe3d afe0 1c3e ee11 3bbe 88ab f53d
000000c0: 678d 003d e028 003e 52ff 83bd ea87 13be
000000d0: 1aa1 b03d 90ee 533c d502 b03d c463 c0bd
000000e0: 6298 373b 86bf 29be c3dd d1bd a697 cfbd
000000f0: 9dd8 eebd 44bb 09be f195 b13d 84a1 f73d
-0.26983285 0.11108716 0.04122162 -0.18345957 -0.1470973 0.0030576736 0.07248545 -0.1450554
-0.07462757 0.17153463 0.08176838 0.017720526 -0.014883459 -0.21971479 0.00052015483 -0.051671788
-0.11228835 0.089334056 0.0737646 0.023747362 -0.10440567 -0.15305361 -0.037991494 -0.17209677
-0.0849628 0.1551732 -0.007969379 -0.09935898 0.06476173 0.16466407 0.13730332 -0.14725587
-0.06021652 -0.096057095 -0.18403003 0.11095768 0.0717897 0.07622728 -0.012512535 -0.08633038
-0.038037956 0.11084907 0.08568584 -0.15031697 0.12441452 0.15320085 -0.18268558 0.119956076
0.03138485 0.12515593 -0.06445183 -0.14407316 0.08624478 0.012935296 0.0859429 -0.09394029
0.0028014411 -0.16576967 -0.10247376 -0.101363465 -0.116624095 -0.13450342 0.08671177 0.120913535

model.2.weight f4 [64, 64]
00000000: 7309 6abd a802 02bd 220e ac3d 161f ae3d
00000010: c084 4a3b 280f 71bd a27b ebbd 0a8b 9e3d
00000020: fee6 ea3d 7a55 5f3d 7017 e5bd eeec ecbd
00000030: 5249 e43d ba20 3bbe dcae 2fbd 86c9 823d
00000040: 959b c9bc 9419 da3d 5725 27be 1e92 a83d
00000050: 572f d6bd c89b 003d 78fa 87bd 426c b13d
00000060: 721d 05be 7489 2fbd bed6 a23d 24aa 55bd
00000070: 7aff b1bd bcc2 c7bd f885 3c3d d221 de3d
00000080: 103d 5c3c b430 dabd aa30 b03d 3fed 16be
00000090: 776d 0bbe 9c05 613d 58e3 e1bc 8c42 c4bd
000000a0: 2c58 9b3d 89c1 8ebd b954 edbb 096a 0ebc
000000b0: cf8c cd3c f6e5 bb3d 6216 a23c f0e5 e83c
000000c0: 3fe8 bbbd 0289 a3bd 5940 dfbd 1af3 63bb
000000d0: c6ef ff3d 1851 6d3d 2e5e 90bd 18c0 5f3d
000000e0: bd14 82bd fca3 b5bd 4110 463d 7aba 803d
000000f0: ec27 df3d 60cd 9d3d 1d19 243d e693 a73d
00000100: 5e36 abbc 1bfb 51ba 144d b8bd ca7c 58bc
00000110: c400 573d 1c35 773d c46d 4f3d 7711 b2bd
00000120: 5058 c83c 183f cd3e c078 70bd 2670 55be
00000130: a0e1 623c 263e 75be c432 4b3d daea 8ebd
00000140: b9d8 1bbe c8d2 b13d 472c cc3d f071 bcbd
00000150: e90b b83c 53bb 5e3e d52e 08bf 1052 123c
00000160: 4b7e f2be 8eb9 73be 6085 8a3d a0ff 953c
00000170: 8ed6 e0bd 7077 403c 9a20 bdbd 19c2 ee3d
00000180: 9bb3 ff3d ae79 813d 15bd 88bb ff18 cebd
00000190: c280 87bd 0ef8 83bc 6e92 eebd 5459 0b3d
000001a0: 6279 ab3d e9a9 883d 4ac4 8abd 49e0 acbd
000001b0: 33cc 8abd 9c97 e8bd 51db 3e3e fad3 89bd
000001c0: d610 a23e d066 573d 90a8 f53c 8fed 0c3d
000001d0: 2ae1 b2bd f86e cd3d 51f9 cc3d 66a8 c0bd
000001e0: 0e82 bb3d a869 ecbd 48d1 a3bd 3737 fbbd
000001f0: 54a1 5dbd a81a 993c 9c9f 1bbd f82c 8d3c
00000200: 2730 3bbd 61b0 e33d a298 e1bd 70e1 cd3d
00000210: 3226 963d 9088 f0bc 6033 803b 1a66 d13d
00000220: 6455 5abd acbc 4abd d227 f73c cc95 883c
00000230: b0ce eb3c 78ea 4dbd 2c12 12bd deac 0f3d
00000240: 1361 4bbd eb17 09be 1ad8 8fbd d9ad 1cbc
00000250: eda6 8c3c 366d 9f3d b844 053d 9c84 89bd
00000260: 8ea9 3cbc a041 a9bd e2ac 02be 766f 95bd
00000270: 5abe 8dbd 8abc fcbd 7bfa b53d f6d5 533d
00000280: d813 dbbc 9c11 173b 6f4a d6bd 586a 513d
00000290: e6dd b1bd 4715 f73d e886 923c f8c9 db3d
000002a0: 6c9e a1bd 6d2b c13d 8cdb e83c 077e 3abd
000002b0: 4b8c a4bd d025 22bd 3364 2cbc 8024 fcba
000002c0: bb7a 7c3d a37e 65bd abbc 86bd 46db b43d
000002d0: d43f 083d 9039 b53d 822d 02bd 42c0 823d
000002e0: 3a77 4bbc 408c 873c 0b97 a63c 8419 533d
000002f0: d486 f63d 28b5 04bd 0b96 bf3c 8d3b ee3d
00000300: fcd0 adbe 6484 99bd 7816 7abd 2038 bfbd
00000310: 74ea 403d ec57 d13d bac4 b0bd 6c9f 24be
00000320: a442 3ebd 8d7c 16bc 09e6 513d 51de c4bd
00000330: 0050 58bc baee d4bd 8cd5 56bd 1fc5 433e
00000340: bbc8 c33d 3950 ba3d 55b8 dcbd c0fd 64bb
00000350: 32c5 863b 2ee0 ecbd 2a9c 57bd 4633 d2bd
00000360: 9c02 53bd 8390 a9bc 3866 9f3c 604a 373c
00000370: 7d5e 8a3d 801f 5b3d 81c6 7d3c 23b8 34be
00000380: 468b c3bd 4bff 3d3d e042 8cbc 9982 94bc
00000390: 9379 a5be 3937 de3d 9c11 0f3d 301f 49bc
000003a0: e832 463d 59b2 a7bd 9dbb 5e3c 2357 15bd
000003b0: e374 c8bd 5ca5 49bd f20c 7bbe 10e0 54bd
000003c0: 843c 243d 9d31 e03d 92b5 7bbc 5842 983d
000003d0: 405a 4abc f05e a93c b71a b33d e608 823d
000003e0: abb2 d5bd 92f1 e43d f413 ba3d 9eef b6bd
000003f0: 0066 28bd 165a a53d fc99 953c 251c 5abc
-0.057137918 -0.031740814 0.08401133 0.08502023 0.003090188 -0.058852345 -0.114981905 0.07741363
0.114698395 0.054524876 -0.11186111 -0.11568628 0.11146797 -0.18274203 -0.04289137 0.06386094
-0.02461032 0.1064941 -0.16322838 0.08230995 -0.10458248 0.031398565 -0.0663957 0.08663227
-0.12999514 -0.042855695 0.07951115 -0.052164212 -0.086913064 -0.097539395 0.0460262 0.108462945
0.013442293 -0.10653821 0.08603032 -0.1473894 -0.13615976 0.05493699 -0.027574226 -0.09583005
0.07585177 -0.06970508 -0.0072427657 -0.008692273 0.025091557 0.09174721 0.019786064 0.028429955
-0.09175157 -0.079851165 -0.10900945 -0.003478235 0.12496905 0.057938665 -0.07049213 0.054626554
-0.06351612 -0.08869168 0.048355345 0.062855676 0.10896286 0.07705188 0.040063012 0.08182506
-0.020899948 -0.0008010135 -0.089990765 -0.013213346 0.052490965 0.060353383 0.05064179 -0.086947374
0.024456173 0.400872 -0.058708906 -0.20843562 0.0138477385 -0.23949489 0.04960896 -0.06978388
-0.15219392 0.086827815 0.09969383 -0.09201419 0.022466617 0.21751146 -0.5319646 0.008930698
-0.4736198 -0.23801252 0.067637205 0.018310368 -0.10978423 0.011747226 -0.09234734 0.11658115
0.12485429 0.06322037 -0.004172931 -0.100633614 -0.066163555 -0.016109493 -0.11649023 0.034020737
0.08372761 0.06673033 -0.067757204 -0.084412165 -0.06777229 -0.11357042 0.1863835 -0.067298844
0.3165347 0.052588284 0.029987603 0.03440624 -0.08734353 0.10030931 0.10008491 -0.094071195
0.09155665 -0.1154359 -0.079989016 -0.12266391 -0.054108933 0.018689469 -0.037994012 0.017233357
-0.04570022 0.11117626 -0.110154405 0.100527644 0.07331504 -0.029361993 0.0039123744 0.102245525
-0.05330409 -0.049496338 0.030170355 0.016672991 0.02878508 -0.050272435 -0.03566186 0.03507697
-0.049653124 -0.1338803 -0.0702364 -0.009562933 0.01716944 0.07784502 0.03253624 -0.06714746
-0.011515034 -0.0826447 -0.12761262 -0.0729665 -0.06921072 -0.123406485 0.08885666 0.05171772
-0.02674286 0.0023051267 -0.10463416 0.051126808 -0.08684902 0.12064605 0.017886594 0.10731882
-0.07891545 0.09432111 0.028425 -0.045530345 -0.08034571 -0.039586842 -0.010521936 -0.0019236952
0.061640482 -0.056028973 -0.06578954 0.088308856 0.033263996 0.0884887 -0.03178168 0.063843265
-0.012418563 0.016546369 0.020335695 0.051538005 0.12037435 -0.032399327 0.023386976 0.11632452
-0.33948505 -0.07495955 -0.061056584 -0.09336877 0.047098592 0.10221848 -0.086312726 -0.1607644
-0.046450272 -0.009184969 0.05124477 -0.09612716 -0.013202667 -0.10397096 -0.052449748 0.19118164
0.09559771 0.090973325 -0.10777346 -0.0034941286 0.004112863 -0.115661964 -0.052639164 -0.10263686
-0.05151616 -0.020698791 0.019457921 0.011187166 0.067563035 0.053496838 0.015489222 -0.17648368
-0.09548049 0.046386044 -0.017121732 -0.01812868 -0.32319316 0.10850377 0.034928903 -0.012275502
0.04838839 -0.08188314 0.013594535 -0.036460053 -0.09787919 -0.049229965 -0.24516657 -0.051971495
0.040096775 0.10946963 -0.015363114 0.07434529 -0.012350619 0.020675153 0.0874533 0.063493535
-0.10434469 0.111788884 0.09085837 -0.08932422 -0.0411129 0.08073823 0.018261902 -0.013312374

model.2.bias f4 [64]
00000000: 1093 bbbd fe7d aa3e 0b91 21be 2860 a4bd
00000010: a3f9 5cbe 405c bbbe 20b4 57bc 9d60 22be
00000020: 1e9d 253d 93d2 90bb 214f 7fbe 4077 ecbd
00000030: a80f 9b3d 1a03 2dbd f9d7 8fbd 7eaf 01be
00000040: 65b8 08be b008 303e 6da4 1abe ae63 77bd
00000050: 7388 90bd 45dc 17bd cb53 c5bd d4d6 97bd
00000060: 2214 2dbe 7b88 b0bc add0 80bd 71b2 d03d
00000070: 5fe7 dfbd cdac 003c 6295 f23e 108d 8bbd
00000080: 416f f0bd a863 21bd 8680 b33d e9c4 7ebd
00000090: 0847 10be 8690 76bd f556 d7bd 27c2 9bbe
000000a0: dc73 11be 8708 90bd a23a 12bf 5e06 62be
000000b0: 9edc d9bd 7581 4bbe 2ab9 0b3f cb28 73be
000000c0: ac73 24be 145b 22bf 9996 4cbe d751 c3be
000000d0: a16b 9abd 8b95 79bd 1dfb e1bc 9f64 c43d
000000e0: f2e7 38be 84da 3b3e a2b6 88be 4144 9f3f
000000f0: 1cd7 94bc 0e0c 88bf 9596 a73e dc71 46be
-0.09158909 0.3329925 -0.15777986 -0.08026153 -0.21579604 -0.3659382 -0.013165504 -0.15857168
0.04043304 -0.0044196337 -0.24932529 -0.11546183 0.075713456 -0.042239286 -0.070236154 -0.12664601
-0.13351591 0.17190814 -0.15101786 -0.060397796 -0.070572756 -0.0370753 -0.09635123 -0.07414022
-0.16902211 -0.021549454 -0.06289802 0.10190285 -0.109328024 0.007853699 0.47379595 -0.06814015
-0.1173997 -0.03940168 0.08764748 -0.062199507 -0.14089596 -0.060196422 -0.105146326 -0.30421564
-0.14204353 -0.070328765 -0.57120717 -0.22072741 -0.106377825 -0.19873603 0.5457941 -0.2374603
-0.1605975 -0.63420224 -0.19979323 -0.38148376 -0.0754006 -0.06093363 -0.02758556 0.095895045
-0.1805723 0.18345076 -0.26701838 1.2442704 -0.018168978 -1.0628679 0.32732072 -0.19379371

model.4.weight f4 [8, 64]
00000000: d390 b73d 7a44 0d40 3dff 813d 724c 9a3e
00000010: 2abc 27bd 380f 03be c230 b63f 6084 dc3c
00000020: b782 4540 a505 b63d 7175 e33f d42c 49bd
00000030: 37f5 6f40 851e 3abb 5b28 39bf c37c 383e
00000040: bd4d cf3f 1f3c babe 6655 493d 4bb1 cfbd
00000050: 1d8b 65bd 9eae a1bd b84e 15bd 8d8f 563c
00000060: dd10 17be 282f ab3c 7a70 f13d 79e6 2c3f
00000070: 368d 32be 1792 3a3f e8d8 38bf c478 b63c
00000080: 0cfb 2f3c 6c0c d63f fbea 02bf 4bcf c13f
00000090: 3bbd 7dbc f2c8 2fbd 98fb 84bd 5332 6c3f
000000a0: 76bf 1e3a 8b92 30bd d4cf c93d f9a7 8cbe
000000b0: cfad 9e3c 0058 8abd 2861 45bb 90ec 8b3f
000000c0: 7e86 b23d b0ae 0a3f 3ba1 0b3d 1112 a03f
000000d0: 6a33 acbc 5370 803b 5550 943f f2a9 bf3f
000000e0: 4148 013c 8df9 093f 4592 82bd 3129 acbe
000000f0: 6a6d 213e 51dd 85bf 47e6 3abf 0d18 0e3e
00000100: 631d 1fbd f72e f33f f7ab 183e 3ec8 433e
00000110: 34d9 813d acf4 87be 9294 c73f 82e1 e4bd
00000120: 3f10 1d40 b559 c5be 6d45 0440 6d68 84bd
00000130: 75c3 1940 0095 d33d c04b 26bf 8267 89bd
00000140: 034d 0b3f f4f8 2f3f 3756 383d f5d8 133d
00000150: 3f50 383e 62a7 753d 4075 a83d ff4d f13b
00000160: e918 883e 0641 edbb 90fb 303c 304a 0f3f
00000170: 62bf 9d3f 8c87 f1be 015a c2be fd50 573d
00000180: 6283 85bd 40b3 413f 712f 5e3e 97a4 803e
00000190: f7f7 3abe e591 153e e404 0c3e 32b0 813f
000001a0: dc7c bbbd dffb 3e3d 5247 393e d666 433d
000001b0: d948 b73d c48b 42be 15ec 503f a60c 213e
000001c0: 715b 9b3d 188c 533f e4c9 de3d 6903 963f
000001d0: 2c48 be3b d3a3 4dbd 190d a33b 077b b03f
000001e0: 341f fbbd e740 0e3f 5305 1dbe b724 99be
000001f0: 82f2 94bc 4c7c 21bf da3c 92bf 919b 76be
00000200: c789 af3c c7e7 6740 1da4 7a3d 857f 283d
00000210: dd3a 0b3d a270 c33f 94c6 2440 408f f33b
00000220: d41c 7b3e 4449 e4bd a3d7 d0bc a3e4 29bd
00000230: 707a 3140 3f07 92bd 9622 90bf 3182 2bbe
00000240: 1536 0c3f d032 ef3e 4bc7 78bd 1690 b7bc
00000250: c4e1 213e 3051 6e3c 355b 73be 8d61 5b3e
00000260: a82f 393e 0b60 973d 99b8 16bd dc9b 843f
00000270: 1d53 823e f161 e4be 794e 7c3e cdbb 89bc
00000280: 8806 473d d4e0 a03f 14f9 303f 0fbd ebbe
00000290: db3d f53c 424a a83c 36ab 653d 9812 1ebf
000002a0: a4ec 453d d955 37bd 4063 8abe 9e48 e6be
000002b0: f08e 06be f48b d03d 86a5 933f 3134 eabe
000002c0: 87db 12be 5800 1040 062d d9bd eb5a 953f
000002d0: 9304 b8bb 7ffe 1f3d c72e 5e3f 2186 983f
000002e0: 4092 adbb 7f24 e43f 9fdf 37be fa24 85bf
000002f0: 7811 3fbe bb6f cabe 2a79 25bf c693 6fbd
00000300: 3874 87bb 1627 1040 f4c2 e6bd 15c0 173d
00000310: 2dce a73d b5b8 a93e 7df1 ba3f 06e1 9b3d
00000320: 1a12 263f e230 eebd 2b9b d13f 1ca6 40bd
00000330: 82ba 2840 b979 b83d d742 1ebf 95c5 b7bd
00000340: dbf1 bd3d 581c 703f 8f34 943d fff7 8e3c
00000350: fcdd 15be 9db6 30bd caff 48bd f436 45be
00000360: be84 143f a3d6 a23c c596 c43d aa29 4c3f
00000370: 3e42 353f 0e7c 6bbf ec68 00bd 8815 f4bd
00000380: 384b 1f3e d958 4a3f 5d3b 863e 27bc 30bf
00000390: 23d7 483d 0c46 cd3d 80f8 ffbd aaff 183f
000003a0: 9b7b 543d 06bb ae3d e457 ad3e 2646 4bbe
000003b0: f8fa b2bd b4e9 773e 7550 9f3f 6af1 843e
000003c0: 847a 583c 6833 2c3f 1fba 58bc a8af 8e3f
000003d0: ad8f f6bd c4eb 0fbd efb3 ab3f 6920 b93f
000003e0: 7082 9b3c 2a12 c63f ccd5 7d3e 5d36 3ebf
000003f0: bcfc 113c 9b79 46bf b6fa 98bf 3793 25be
0.0896317 2.2073045 0.06347511 0.30136448 -0.04095093 -0.12798774 1.423363 0.02691859
3.0861032 0.08887795 1.7770215 -0.049115017 3.7493417 -0.0028399539 -0.723272 0.18016343
1.6195599 -0.36373994 0.049153708 -0.10141238 -0.056040872 -0.07894634 -0.036452025 0.013095749
-0.14752527 0.02089651 0.11789031 0.67539173 -0.1743668 0.72879165 -0.7220597 0.022274382
0.010741007 1.6722541 -0.511398 1.5141386 -0.015487011 -0.042916246 -0.064933 0.9226429
0.00060557516 -0.043108504 0.09854093 -0.27471903 0.019369988 -0.06755066 -0.0030117724 1.0931568
0.087170586 0.541728 0.03408931 1.2505513 -0.02102061 0.00391964 1.1587015 1.4973738
0.007890762 0.5389641 -0.06375555 -0.33625177 0.15764394 -1.0458165 -0.73007625 0.13876362
-0.038846385 1.8998708 0.1490935 0.19119355 0.06340256 -0.26553857 1.5592215 -0.11175825
2.4541166 -0.38545004 2.0667374 -0.0646523 2.4025548 0.10331154 -0.64959335 -0.06709196
0.54414386 0.6873925 0.045004096 0.03609558 0.17999361 0.05997408 0.08225489 0.007364034
0.26581505 -0.0072404174 0.010802165 0.55972576 1.232403 -0.47173727 -0.37959293 0.05256747
-0.065192 0.7566414 0.21697785 0.25125572 -0.18258654 0.14606436 0.1367374 1.0131896
-0.091546744 0.04662692 0.18093613 0.047705494 0.089494415 -0.18998629 0.8161023 0.15727481
0.075858004 0.8263564 0.10878351 1.1719791 0.0058069434 -0.050205063 0.0049759266 1.3787545
-0.12261811 0.55567783 -0.15334062 -0.29910824 -0.018182043 -0.63080287 -1.142482 -0.24082781
0.021428002 3.6235216 0.061191667 0.041137237 0.033991683 1.5268748 2.5746202 0.007432848
0.24522716 -0.11146787 -0.025493449 -0.04147781 2.773098 -0.07130288 -1.1260555 -0.16748883
0.5477002 0.46718454 -0.060736936 -0.022407573 0.15808779 0.014545724 -0.23765261 0.21423931
0.18084586 0.073913656 -0.03679714 1.0360065 0.25454035 -0.44605973 0.2463931 -0.016813183
0.048590213 1.2568612 0.69130063 -0.46042678 0.029936722 0.020543221 0.056071483 -0.6174712
0.04832138 -0.044759605 -0.27028847 -0.44977278 -0.13140464 0.10182944 1.1534889 -0.45742944
-0.14341556 2.250021 -0.10604291 1.1668371 -0.0056157797 0.039061066 0.86790127 1.1915933
-0.0052969754 1.7823638 -0.17956398 -1.0401909 -0.18659008 -0.3953837 -0.64638007 -0.058490537
-0.0041337274 2.2523856 -0.11267653 0.037048418 0.08193622 0.33148733 1.4604946 0.07611279
0.6487137 -0.116304174 1.6375479 -0.047033414 2.6363835 0.09007592 -0.6182074 -0.08973233
0.09274646 0.9379325 0.07236587 0.017452238 -0.14635462 -0.043142904 -0.049072064 -0.19259244
0.5801505 0.019877737 0.095990695 0.79751074 0.708042 -0.9198617 -0.03135006 -0.11918169
0.15556037 0.7904182 0.26217166 -0.690371 0.049033295 0.10023126 -0.124985695 0.5976511
0.05187569 0.08531766 0.33856118 -0.19850978 -0.08739275 0.24210244 1.2446429 0.25965434
0.013212804 0.6726594 -0.0132279685 1.1147356 -0.12039123 -0.035136953 1.3414286 1.4463016
0.018983096 1.5474293 0.24788588 -0.743017 0.008910354 -0.77529305 -1.1951511 -0.1616944

model.4.bias f4 [8]
00000000: cb57 5cbe fffe bebe 0a59 47bf b50d 28bf
00000010: d6a9 2abf d9c8 32be b898 34be 2e43 48bd
-0.21517865 -0.37303922 -0.7787024 -0.65645915 -0.666654 -0.1745943 -0.17636383 -0.048892193
