train_pygame/stored/20250712third_0050.pth (torch, 30361 bytes, 6 tensors)

model.0.weight f4 [64, 32]
0	0xbed34553	-0.41263828
1	0xbe836193	-0.2566038
2	0x3f849286	1.0357215
3	0x3e9d1013	0.30676326
4	0xbe2d09dd	-0.16898294
5	0xbed31951	-0.41230252
6	0x3d81059f	0.062999
7	0x3d995cb8	0.07488388
8	0xbd0488d2	-0.032357045
9	0x3d88f291	0.06686891
10	0xbe122897	-0.14273296
11	0xbeec5103	-0.46155557
12	0xbeb45983	-0.35224542
13	0xbe013a40	-0.12619877
14	0xbe920f70	-0.28527403
15	0xbbd93313	-0.006628403
16	0x3bdf0372	0.0068058306
17	0xbe318f05	-0.17339714
18	0x3dea1d3a	0.11431356
19	0xbc1bc49f	-0.009507327
20	0xba02743b	-0.0004976426
21	0x3ef05dcd	0.46946564
22	0x3e21f512	0.15816143
23	0x3e3bbd38	0.183339
24	0x3e90400b	0.2817386
25	0x3d9a8133	0.07544174
26	0x3e95a53e	0.29227632
27	0x3eac4c4d	0.33651963
28	0xbd56e8c2	-0.05246807
29	0x3db1d944	0.08684018
30	0xbe24c061	-0.16089012
31	0x3e17977a	0.14803877
32	0xbde03a9e	-0.1094868
33	0xbe0f8232	-0.1401451
34	0xbd0abf64	-0.03387393
35	0xbdc71e5b	-0.09722587
36	0x3d92ca08	0.07167441
37	0x3d096b7c	0.03354977
38	0xbe01772c	-0.12643117
39	0xbe234562	-0.15944436
40	0x3dc787aa	0.09742673
41	0xbd3203c4	-0.043460622
42	0x3e03376d	0.12814112
43	0xbe2f74cf	-0.17134403
44	0xbde422f4	-0.11139479
45	0xbd8f1b39	-0.06987614
46	0x3d3083cc	0.04309444
47	0x3d9ff7f6	0.07810967
48	0xbe015063	-0.12628321
49	0xbd99e729	-0.075147934
50	0xbe148801	-0.14505006
51	0xbdf5b56c	-0.11997494
52	0x3d9a2b32	0.0752777
53	0x3e25a883	0.16177563
54	0x3e316435	0.17323382
55	0xbe1ff744	-0.15621668
56	0x3dcc8842	0.099869266
57	0x3d529fd0	0.05142194
58	0x3c7b6cf0	0.015345797
59	0x3e000c2d	0.12504645
60	0xbe2c700a	-0.16839615
61	0xbe311ad0	-0.17295384
62	0xbdae3095	-0.0850536
63	0x3dc24d12	0.09487356
64	0xbe18cd3c	-0.1492204
65	0xbe31af31	-0.17351986
66	0x3e1fe1d7	0.15613495
67	0x3d1df44c	0.038563058
68	0xbe0f8de4	-0.1401897
69	0xbe21696e	-0.15762874
70	0xbd908a06	-0.07057576
71	0x3d09adfc	0.03361319
72	0x3db14f06	0.08657651
73	0xbde453ee	-0.11148821
74	0xbcd0a238	-0.025467977
75	0x3df5d4b2	0.12003459
76	0xbe2e0810	-0.16995263
77	0xbe12bf90	-0.14330888
78	0x3d182780	0.037147045
79	0x3e2d000d	0.1689455
80	0xbe099aea	-0.13438001
81	0x3ca449b0	0.020054668
82	0x3dce3c9e	0.100701556
83	0x3d06ef14	0.032942846
84	0x3d624268	0.05523911
85	0x3d3293dc	0.04359804
86	0x3b8285a0	0.0039832145
87	0xbd9516c3	-0.07279732
88	0xbdcd8135	-0.1003441
89	0x3e2eeded	0.17082949
90	0x3cb738f8	0.022366032
91	0xbbc83a60	-0.0061104745
92	0xbe0868ee	-0.13321277
93	0x3d39f0cc	0.045395657
94	0xbc896818	-0.016773269
95	0xbe248f05	-0.16070183
96	0xbebc5314	-0.36782134
97	0x3ea0fab3	0.31441268
98	0x3d0a7438	0.03380224
99	0x3dbf6b96	0.09346692
100	0x3e159f47	0.1461154
101	0x3e97a18b	0.29615435
102	0x3d9429be	0.07234524
103	0xbda9a06e	-0.08282553
104	0xbd03f812	-0.032219
105	0x3db8883e	0.09010361
106	0xbd1b7f73	-0.037963342
107	0xbd3b393a	-0.045708872
108	0x3db1c848	0.08680779
109	0xbdb2fc00	-0.087394714
110	0x3df2b3fe	0.11850737
111	0xbdb035e7	-0.08604031
112	0x3e38cb77	0.18046366
113	0x3e429e69	0.19005741
114	0xbe946d0b	-0.28989443
115	0x3e3cf2f1	0.1845205
116	0xbeb26467	-0.34842226
117	0xbf0b044d	-0.5430344
118	0x3eabb4ca	0.3353637
119	0xbe774870	-0.24148726
120	0xbf3bf9f8	-0.734283
121	0x3dd591ce	0.10428201
122	0x3da44f19	0.08022899
123	0xbf2822bd	-0.65678006
124	0x3edd953a	0.43277913
125	0x3dabfa41	0.083973415
126	0xbe09dc0d	-0.13462849
127	0xbe89f2d9	-0.2694309
128	0x3c86c0b4	0.01644931
129	0x3e1ae8df	0.15127896
130	0xbdd7d95f	-0.10539507
131	0x3dd559d7	0.10417526
132	0xbd9e7bde	-0.077384695
133	0xbdb252f1	-0.08707226
134	0xbc432145	-0.011909788
135	0x3c4bdfd9	0.012443506
136	0x3e0e400b	0.13891618
137	0xbdc4c924	-0.09608677
138	0x3e084f11	0.13311411
139	0xbdd8c6e6	-0.10584812
140	0xbdbf226a	-0.09332736
141	0xbd3c10d1	-0.045914475
142	0xbd816cb0	-0.063195586
143	0xbd1e6d27	-0.038678315
144	0xbde062a0	-0.10956311
145	0x3db1c189	0.08679492
146	0x3ded3eaa	0.11584218
147	0xbe14c9b0	-0.14530063
148	0xbce39fe4	-0.027786203
149	0xbd7cd087	-0.061722305
150	0xbe37d468	-0.1795212
151	0xbd9c153d	-0.076212384
152	0x3d71fe8a	0.059080638
153	0xbdb81987	-0.08989244
154	0xbdc69844	-0.09697011
155	0xbcd966ec	-0.026538335
156	0x3d9f48b3	0.07777538
157	0x3d9cc681	0.07655049
158	0xbe3af481	-0.18257333
159	0xbae81f64	-0.001770955
160	0xbde97721	-0.11399675
161	0xbe4b1c11	-0.19834925
162	0x3d84529a	0.064610675
163	0xbd49fb13	-0.04931171
164	0x3b92be99	0.0044782874
165	0xbe307fd0	-0.17236257
166	0x3d9638af	0.0733503
167	0xbb9d14a0	-0.0047937185
168	0x3dd7b325	0.10532216
169	0x3de5d940	0.11223078
170	0xbc873b80	-0.016507864
171	0xbde09494	-0.10965839
172	0xbe1274c5	-0.14302357
173	0xbdf3436b	-0.11878093
174	0xbdd342f4	-0.10315505
175	0xbe474fac	-0.19463986
176	0x3d403463	0.04692496
177	0x3d50299c	0.05082093
178	0x3de27469	0.1105736
179	0xbd14887f	-0.036262985
180	0xbe2e4b36	-0.17020878
181	0x3c1059c6	0.008810466
182	0x3babd295	0.005243609
183	0xbc66fdff	-0.014098643
184	0xbe203af5	-0.1564749
185	0xbdab3edf	-0.08361601
186	0x3d9ad75a	0.07560606
187	0xbda19c4d	-0.0789114
188	0x3d36b79b	0.044608694
189	0xbe37a7b0	-0.17935061
190	0xbd31b54b	-0.043385785
191	0xbd67f502	-0.056630142
192	0xbd095d98	-0.033536524
193	0x3d5b10b0	0.05348271
194	0x3dc0caca	0.09413679
195	0xbe247f6a	-0.1606423
196	0x3c6622c0	0.014046371
197	0xbc848a88	-0.016179338
198	0x3e17d0d9	0.14825763
199	0xbe086293	-0.13318853
200	0xbdf97440	-0.12180376
201	0xbd948d4f	-0.07253515
202	0x3d70ff64	0.05883731
203	0x3d99cd86	0.075099036
204	0x3d5cd260	0.053911567
205	0xbceb56e8	-0.028727964
206	0x3ba71780	0.005099237
207	0xbdb4d576	-0.08829777
208	0xbe2a6292	-0.16639164
209	0xbd281fe8	-0.041046053
210	0x3e0cf8b5	0.13766749
211	0xbd92a630	-0.07160604
212	0xbe0e4197	-0.13892208
213	0x3d852e56	0.065029785
214	0xbdb25539	-0.08707661
215	0x3e218511	0.15773417
216	0x3b07aa00	0.0020700693
217	0x3d48ab94	0.048991755
218	0x3d808e6a	0.06277163
219	0x3d95a9ee	0.07307802
220	0x3e281f6d	0.16418238
221	0xbdb148ad	-0.0865644
222	0xbdcbfd2f	-0.099604
223	0xbca70078	-0.020385966
224	0xbb9ffc27	-0.004882354
225	0xbdf72191	-0.12066949
226	0x3de853cd	0.11344109
227	0x3d5947ea	0.0530471
228	0xbd261752	-0.040549584
229	0xbd986269	-0.07440645
230	0xbe0e0fee	-0.13873264
231	0xbcffa00b	-0.031204244
232	0x3c05a4c3	0.008156958
233	0xbe6460c7	-0.22302543
234	0x3c1cbffd	0.009567258
235	0x3d0502f3	0.032473516
236	0xbd00a6ab	-0.031408947
237	0x3d937267	0.07199555
238	0xbe592a22	-0.21207479
239	0x3e116803	0.14199834
240	0xbda12846	-0.0786901
241	0x3dd711e1	0.10501457
242	0x3e309197	0.17243038
243	0xbe4805e5	-0.19533499
244	0xbbb2be25	-0.005454796
245	0xbd6be70b	-0.057593387
246	0xbe400af6	-0.18754181
247	0xbe2db7e4	-0.1696468
248	0x3d04fbb0	0.03246659
249	0x3da19a31	0.07890738
250	0xbe285287	-0.16437732
251	0x3c835319	0.016030835
252	0xbe3be4fb	-0.18349068
253	0xbe00cae8	-0.12577403
254	0x3ca25586	0.019816171
255	0xbd595f05	-0.053069133

model.0.bias f4 [64]
0	0xbe653ab1	-0.2238567
1	0xbe31a679	-0.1734866
2	0xbd1765e0	-0.03696239
3	0x3d451cdd	0.04812323
4	0xbdabbf86	-0.083861396
5	0xbd722f34	-0.059127048
6	0xbd39e5fc	-0.045385346
7	0xbd58a184	-0.05288841
8	0xbe9e169b	-0.30876622
9	0x3e525cdd	0.20543237
10	0x3cb5ec04	0.022207268
11	0xbde29376	-0.11063282
12	0x3ba6e57f	0.005093276
13	0xbdf48215	-0.11938874
14	0x3c55ce13	0.01304962
15	0x3dde1d1c	0.10845396
16	0x3baaf8d7	0.0052176523
17	0xbbf8923e	-0.007585793
18	0x3e3de4da	0.18544331
19	0xbdb87474	-0.09006587
20	0xbe22db71	-0.15904023
21	0x3d8bd114	0.06826988
22	0x3da40e8c	0.08010587
23	0xbd86403b	-0.0655522
24	0x3cc44210	0.023957282
25	0xbb6604a0	-0.0035097972
26	0x3d04aa4b	0.032388967
27	0x3e077d4d	0.13231392
28	0xbe0b3cf8	-0.13597476
29	0x3d01eb7e	0.031718723
30	0x3da78def	0.081813686
31	0x3d1ce5b4	0.038305
32	0x3c18eb9d	0.009333518
33	0xbd52fdca	-0.051511563
34	0x3e0d4fce	0.13799974
35	0x3dc06862	0.093949094
36	0x3e10b9d9	0.14133395
37	0xbe08fb1c	-0.1337704
38	0xbe22e38b	-0.15907113
39	0xbd6b939c	-0.05751382
40	0x3da3198b	0.07963856
41	0x3c84474b	0.016147276
42	0xbe32687b	-0.17422669
43	0xbe141633	-0.14461593
44	0xbe3c14e1	-0.1836734
45	0x3cbe5e5d	0.023238355
46	0x3d97a2b6	0.074040815
47	0xbe2b12ca	-0.16706386
48	0xbe08221a	-0.13294259
49	0xbe249954	-0.16074115
50	0x3e2c7443	0.16841225
51	0xbe00a95f	-0.1256461
52	0xbd3efd07	-0.046628024
53	0xbd32da98	-0.0436655
54	0x3d64dfae	0.05587738
55	0x3da03646	0.07822852
56	0x3e2f20f4	0.17102414
57	0x3d8f8128	0.070070565
58	0x3e38f992	0.18063954
59	0x3d1648e2	0.0366906
60	0xbe28883b	-0.16458218
61	0xbd85817a	-0.06518836
62	0xbe6db908	-0.23215115
63	0x3c6c0723	0.014405998

model.2.weight f4 [64, 64]
0	0xbdc200cc	-0.09472808
1	0x3d9358da	0.071946815
2	0x3bed0140	0.007232815
3	0xbda2d12b	-0.07950052
4	0xbd270a20	-0.04078114
5	0x3bf58ca0	0.0074935704
6	0x3d0ffc48	0.035152704
7	0xbe0ce510	-0.13759255
8	0xbdfd456f	-0.12366759
9	0xbdc6246c	-0.09674916
10	0xbd997406	-0.07492833
11	0xbdc08b1a	-0.094015315
12	0xbd94ba96	-0.07262151
13	0xbc183470	-0.009289846
14	0xbde05d94	-0.109553486
15	0xbdeb51fb	-0.11490246
16	0x3d31443b	0.04327796
17	0xbde79ee2	-0.11309601
18	0x3b0dfdb6	0.0021666116
19	0x3b915680	0.0044353604
20	0xbd3eca60	-0.04657972
21	0x3cd94da0	0.026526272
22	0xbdf0c6a8	-0.11756641
23	0xbbd51760	-0.0065030307
24	0xbd0bb7d4	-0.03411086
25	0x3d7149f5	0.05890842
26	0xbd22c3dc	-0.039737567
27	0x3de43360	0.111426115
28	0x3afb7e00	0.0019187331
29	0x3d379f74	0.0448298
30	0xbca069b3	-0.019581651
31	0xbdae24fa	-0.085031465
32	0x3d503671	0.05083317
33	0x3d9d50ea	0.07681449
34	0x3d0fd9dd	0.03511988
35	0x3d988aa4	0.074483186
36	0x3dd20dac	0.10256514
37	0xbdbbbb58	-0.09166592
38	0xbda1c778	-0.07899374
39	0x3d439430	0.047748744
40	0xbd3a49db	-0.04548059
41	0xbe014d87	-0.1262723
42	0xbda8373c	-0.0821366
43	0x3c9d2090	0.019180566
44	0xbdac0d76	-0.08401005
45	0x3d2cd211	0.042192522
46	0xbd7ff456	-0.062488876
47	0x3dd921f6	0.10602181
48	0xbddab073	-0.10678186
49	0x3db92c3e	0.09041642
50	0xbe06b778	-0.13155925
51	0xbd5ea20c	-0.05435376
52	0x3d6a4310	0.057192862
53	0xbd73e290	-0.05954224
54	0xbe02ff2f	-0.12792657
55	0xbccd9f00	-0.025100231
56	0x3db3e6d2	0.0878426
57	0xbd1c06d8	-0.038092464
58	0xbba8f809	-0.005156521
59	0xbdae77d2	-0.08518948
60	0x3de650c2	0.11245872
61	0x3d91eb85	0.07125
62	0x3c5c68a0	0.013452679
63	0xbdf08388	-0.117438376
64	0xbdfb76ac	-0.12278494
65	0x3c3fd9d0	0.011709645
66	0xbdba3dd4	-0.09093824
67	0xbddf8d1a	-0.10915585
68	0xbdc539e6	-0.09630184
69	0x3dc3924a	0.09549387
70	0xbdb5345a	-0.08847876
71	0x3d9efe4d	0.07763348
72	0xbdc20b5b	-0.09474822
73	0xbd48c2c4	-0.049013868
74	0xbddde1bc	-0.10834071
75	0xbd8e8082	-0.06958105
76	0xbde92f06	-0.11385922
77	0x3d7340a4	0.059387818
78	0x3dd31fa6	0.10308771
79	0xbd470e30	-0.048597515
80	0xbd168824	-0.036750928
81	0xbdd0ddec	-0.10198578
82	0xbb50763c	-0.0031808754
83	0xbdba53f6	-0.090980455
84	0x3d8d58d6	0.0690171
85	0x3df91df6	0.12163918
86	0x3d5b9edc	0.053618297
87	0xbd80ffde	-0.06298803
88	0x3d9155dc	0.070964545
89	0x3c280387	0.010254747
90	0xbd1538ac	-0.036431
91	0x3ce8c500	0.02841425
92	0xbb9ce3d6	-0.0047879023
93	0xbdc6e524	-0.09711674
94	0xbd8c39ce	-0.06846963
95	0x3d935fce	0.07196008
96	0xbc470821	-0.012147934
97	0xbc51ae20	-0.012797862
98	0xbb852660	-0.0040634125
99	0x3d7f44ac	0.06232135
100	0x3d87183c	0.06596419
101	0x3a580600	0.000824064
102	0x3d4d2cc4	0.05009152
103	0x3db2e78e	0.08735572
104	0xbdc17190	-0.094454885
105	0xbd3f3152	-0.046677895
106	0xbdb9daa4	-0.090749055
107	0x3d6d8b50	0.057994187
108	0x3d81cadc	0.063375205
109	0x3d31a81f	0.043373223
110	0xbd9ebdfa	-0.07751079
111	0x3dd87996	0.10570066
112	0xbcaee345	-0.021348605
113	0xbd31278c	-0.043250605
114	0x3d79ff5d	0.06103455
115	0x3d89a488	0.06720835
116	0xbc42dff0	-0.011894211
117	0xbaa11100	-0.0012288392
118	0xbdcb655d	-0.09931443
119	0xbddae254	-0.106877
120	0xbcb5b2a5	-0.02217991
121	0x3cc86728	0.024463251
122	0x3d7a172a	0.061057247
123	0xbabf8000	-0.001461029
124	0xbde2429e	-0.110478625
125	0xbd849b9c	-0.06474993
126	0xbde697e6	-0.11259441
127	0xbc98628c	-0.018601678
128	0xbc7088fc	-0.014681097
129	0xbd65e280	-0.05612421
130	0xbb9d2400	-0.0047955513
131	0xbe91797e	-0.28413004
132	0x3d90a5bc	0.07062861
133	0xbbe6e680	-0.0070465207
134	0x3d302958	0.04300818
135	0xbddad91c	-0.106859416
136	0x3ed3f080	0.41394424
137	0x3e0754bb	0.13215916
138	0x3e244ecb	0.16045682
139	0x3d5f4de8	0.054517657
140	0x3dc68b56	0.09694545
141	0x3d4314fc	0.047627434
142	0x3d267d94	0.040647104
143	0xbc27aac2	-0.010233583
144	0x3d012462	0.031528838
145	0x3d6ee118	0.058320135
146	0x3e918010	0.28418016
147	0x3dd5392a	0.10411294
148	0x3d3db0cc	0.046311185
149	0xbdc4fdac	-0.096186966
150	0x3cb489b2	0.022038314
151	0xbd1735a8	-0.036916405
152	0xbd873144	-0.066011935
153	0xbe11c490	-0.14235139
154	0x3d4f6a61	0.05063856
155	0xbd167b9c	-0.036738977
156	0x3de9f114	0.11422935
157	0x3dbfa5ca	0.09357794
158	0xbea44354	-0.32082617
159	0xbb71b200	-0.0036879778
160	0xbe20d09a	-0.15704575
161	0xbdf997be	-0.12187146
162	0xbf4918d6	-0.7855352
163	0x3bc629e0	0.0060474724
164	0xbcd00bb8	-0.025396213
165	0xbd0d893c	-0.034554705
166	0xbd128c54	-0.03577836
167	0xbdaa0562	-0.08301808
168	0x3e9254fd	0.28580466
169	0x3e70299a	0.2345337
170	0x3da01074	0.07815638
171	0xbdcf4e3c	-0.10122344
172	0xbdad4984	-0.084612876
173	0xbde4c4dc	-0.111703604
174	0x3cc607ac	0.02417358
175	0xbd9ff824	-0.07811001
176	0xbea5d77d	-0.32390967
177	0xbdb2a2a6	-0.08722429
178	0xbdeeac5f	-0.11653971
179	0xbde44d68	-0.111475766
180	0xbd60b456	-0.05485948
181	0x3bf24ce0	0.007394418
182	0xbe81a07e	-0.25317758
183	0xbdc08e8a	-0.09402187
184	0xbe91d5ca	-0.2848342
185	0xbc268040	-0.010162413
186	0xbcdcf19f	-0.026970683
187	0x3ded8dd1	0.11599315
188	0xbacd0780	-0.0015642494
189	0x3e8e5f04	0.27806866
190	0xbcbfa2a8	-0.02339299
191	0xbd3f1ccf	-0.046658333
192	0x3dcd2426	0.100166604
193	0xbd239a64	-0.03994216
194	0xbb10b880	-0.0022082627
195	0xbe6d5414	-0.23176605
196	0x3b1d8de8	0.0024040882
197	0x3b70f5bc	0.0036767563
198	0xbdb0cea6	-0.08633165
199	0xbdbe81f9	-0.09302134
200	0xbf923046	-1.1420982
201	0x3e179c7a	0.14805785
202	0xbe3355b8	-0.17513168
203	0x3dfc9162	0.12332417
204	0x3d73711f	0.059434053
205	0x3d6597d0	0.056052983
206	0x3df71ac2	0.120656505
207	0x3da57a57	0.08079975
208	0x3de21afd	0.11040304
209	0x3dad2e69	0.08456118
210	0x3dfb5c2e	0.12273441
211	0x3d85bb82	0.06529905
212	0x3d967282	0.073460594
213	0xbde9a73c	-0.114088506
214	0xbe6e7159	-0.23285426
215	0x3d001aa8	0.03127542
216	0xbd075530	-0.033040226
217	0xbd978682	-0.07398702
218	0xbb8ee555	-0.0043608346
219	0x3da7d26e	0.08194433
220	0xbbb8e6c8	-0.0056427456
221	0xbc7fdd62	-0.015616747
222	0xbc170da0	-0.009219557
223	0xbd63c5a8	-0.05560842
224	0x3f0688e1	0.5255261
225	0x3bf65ea1	0.007518605
226	0x3ee4574a	0.44597846
227	0x3d2a0084	0.041504398
228	0x3d0a62da	0.03378568
229	0x3d8a4d12	0.06752981
230	0xbc1e3600	-0.009656429
231	0x3ccd4a00	0.0250597
232	0xbf0c3e5f	-0.5478267
233	0xbf1ed4bb	-0.6204335
234	0x3d5b8464	0.053593054
235	0xbd86965a	-0.06571646
236	0x3d2e0c94	0.042492464
237	0x3ddbc8c3	0.10731652
238	0x3e931ba9	0.2873204
239	0xbd00c6c8	-0.031439573
240	0x3f0eb0a9	0.5573831
241	0xbddafe66	-0.10693054
242	0x3ea04bda	0.3130787
243	0x3decd0c6	0.11563258
244	0x3f03f15b	0.51540154
245	0x3d0807c8	0.033210546
246	0xbf493ecc	-0.78611445
247	0x3dff5a3e	0.12468384
248	0x3d25b943	0.040459882
249	0x3ba3f34d	0.005003369
250	0x3eebc12f	0.46045825
251	0xbe61241a	-0.21986428
252	0x3dd57f42	0.10424663
253	0x3cd41fae	0.025894012
254	0x3dc14fd4	0.09439054
255	0xbdb5b914	-0.088731915

model.2.bias f4 [64]
0	0xbd50b889	-0.050957236
1	0xbd513bb1	-0.051082317
2	0xbd0fc084	-0.035095707
3	0x3d3575b9	0.044301722
4	0xbe1ba16e	-0.151983
5	0xbe4be4cd	-0.199115
6	0xbbe380da	-0.0069428505
7	0xbe36ed5e	-0.17863986
8	0xbe55b92d	-0.2087142
9	0x3e298a5c	0.16556686
10	0xbe041b8b	-0.12901132
11	0xbd875617	-0.06608217
12	0xbcc64f59	-0.024207758
13	0xbd8e0f9e	-0.069365725
14	0x3dc4c995	0.09608761
15	0x3dca5126	0.09878759
16	0xbd7efa32	-0.062250324
17	0xbdea642b	-0.11444887
18	0x3dca8d53	0.09890237
19	0xbd758b70	-0.05994743
20	0x3d9278be	0.07151936
21	0xbcfaa1a9	-0.030594664
22	0xbd9c4e53	-0.07632127
23	0x3e104c45	0.14091595
24	0x3ccadaaf	0.02476248
25	0xbddf2faa	-0.10897763
26	0xbcb57dee	-0.022154775
27	0xbc86b57b	-0.016443959
28	0x3ea3a1d5	0.31959406
29	0xbe090527	-0.13380872
30	0xbe3ab8ee	-0.18234608
31	0x3daf1255	0.085484184
32	0xbe110852	-0.1416333
33	0x3e97aa2b	0.29622015
34	0x3e0e23bc	0.13880819
35	0xbdb230f1	-0.08700741
36	0x3da4b6b7	0.080426626
37	0x3d658908	0.056038886
38	0x3dd87318	0.105688274
39	0xbdd0d739	-0.101973005
40	0xbe0b1577	-0.13582407
41	0xbd187f99	-0.03723106
42	0xbc600183	-0.013672235
43	0xbdc97a40	-0.098377705
44	0xbe0c2b2d	-0.13688345
45	0xbdd85e5a	-0.10564871
46	0x3d9697e3	0.07353189
47	0xbd5accdf	-0.053418037
48	0xbe206b41	-0.15665914
49	0x3d9910cd	0.074739076
50	0xbe011ba1	-0.12608196
51	0xbc42a8ff	-0.011881112
52	0xbd7d5a02	-0.061853416
53	0xbe3929be	-0.1808233
54	0x3c694133	0.014236736
55	0x3dcd315d	0.10019181
56	0xbd4585ed	-0.048223425
57	0x3ca6d308	0.0203643
58	0xbdb727f0	-0.08943164
59	0xbd450435	-0.048099715
60	0xbe0c888a	-0.1372396
61	0xbd08a8e0	-0.033364177
62	0xbbce58f1	-0.0062972237
63	0xbce27dc1	-0.027647855

model.4.weight f4 [8, 64]
0	0x3d9e7dac	0.07738814
1	0xbdb51f40	-0.08843851
2	0xbe0862ca	-0.13318935
3	0x3e624648	0.22097123
4	0xbaadf180	-0.0013270825
5	0x3e24024b	0.160165
6	0x3ebff2ac	0.3748983
7	0xbe7d28ef	-0.24722646
8	0xbd3d77b7	-0.046256747
9	0xbc53ece6	-0.012934899
10	0xbd91f3ac	-0.07126555
11	0x3e0dfde5	0.13866384
12	0xbd75ced8	-0.060011715
13	0xbd1cedfe	-0.038312905
14	0x3ea4bbaf	0.3217444
15	0xbe1c1d5d	-0.15245576
16	0x3d7fd594	0.062459543
17	0x3e09c8b1	0.13455464
18	0xbc2d87e1	-0.010591478
19	0xbda66e2b	-0.081264816
20	0xbd093c73	-0.033504914
21	0xbe31211b	-0.17297785
22	0xbe3a86dc	-0.18215507
23	0x378b4406	1.6601767e-05
24	0x3ea669c4	0.32502568
25	0x3e50f655	0.20406468
26	0xbdd6f0d8	-0.10495156
27	0xbe2daa85	-0.1695958
28	0x3e908e9c	0.28233802
29	0x3d320d9f	0.04347002
30	0xbe09b169	-0.13446583
31	0xbe3881e9	-0.18018307
32	0x3d3ba36c	0.045810148
33	0x3de51e9f	0.11187481
34	0xbe185222	-0.14875081
35	0xbce75af8	-0.02824162
36	0x3daf9142	0.085726276
37	0x3eb36423	0.35037336
38	0xbe6872a2	-0.22699979
39	0xbb94a55b	-0.0045363135
40	0x3db7abb3	0.08968296
41	0x3ebf8b97	0.37411186
42	0xbe2045fb	-0.15651695
43	0x3d98222a	0.07428391
44	0x3e9e098e	0.30866665
45	0xbdacd678	-0.08439344
46	0x3f06e37c	0.52690864
47	0x3d1e11f5	0.038591344
48	0x3ccf0327	0.025270058
49	0x3e91efac	0.28503168
50	0xbd4231e8	-0.047410876
51	0x3e7ccfbe	0.24688622
52	0x3e0d59e2	0.13803819
53	0xbcdae69f	-0.026721297
54	0x3e45f85e	0.19333026
55	0x3e50a87b	0.2037677
56	0xbc046372	-0.00808035
57	0xbe131285	-0.14362533
58	0x3de79f5c	0.11309692
59	0x3cda893d	0.026676768
60	0x3e8a0c3a	0.26962453
61	0x3e9d4db2	0.3072334
62	0x3e555619	0.20833625
63	0xbd63ef34	-0.055648044
64	0x3ba5e260	0.0050623864
65	0x3b313600	0.0027040243
66	0x3e61d88a	0.2205526
67	0x3e70d99a	0.23520508
68	0xbdd83c92	-0.10558428
69	0x3d32c2cd	0.043642808
70	0x3e432098	0.19055402
71	0xbdf3f810	-0.119125485
72	0xbe9af64b	-0.30266032
73	0x3e0b4885	0.13601883
74	0xbd8a41e8	-0.06750852
75	0x3ea8d351	0.32973722
76	0x3c44e760	0.012018055
77	0x3d53ebb4	0.051738456
78	0x3e3616fa	0.17782202
79	0xbdc93a11	-0.098255284
80	0xbd8b86e4	-0.06812838
81	0x3eb639a6	0.35590857
82	0xbe6afe2b	-0.2294852
83	0x3bb5e938	0.0055514835
84	0x3e916f9c	0.28405464
85	0xbd9157a9	-0.07096798
86	0xbf1470c2	-0.57984555
87	0x3e635de2	0.22203782
88	0x3e55de96	0.20885691
89	0x3e5b0547	0.21388732
90	0x3c9b28a1	0.018940272
91	0x3e811504	0.25211346
92	0x3e875d99	0.26438597
93	0x3d0ed1f9	0.034868214
94	0xbdfeca9a	-0.12440987
95	0xbe4dc181	-0.20093347
96	0xbde150de	-0.11001752
97	0x3ebdbf96	0.3706023
98	0xbe5f3b4f	-0.21799968
99	0xbca3f178	-0.020012602
100	0x3df128c9	0.11775357
101	0x3e9dc7a1	0.30816367
102	0xbe9a4ee0	-0.30138302
103	0xbe14983a	-0.14511195
104	0xbd5fdb8e	-0.054652743
105	0x3de34f53	0.11099114
106	0xbe44ebf0	-0.19230628
107	0x3d8931d9	0.06698961
108	0xbdffb631	-0.12485922
109	0x3d440dc4	0.04786469
110	0x3f0af964	0.5428679
111	0x3dc55468	0.0963524
112	0xbc62c00e	-0.013839735
113	0x3d4c3f5f	0.049865123
114	0xbd849562	-0.06473805
115	0xbda04825	-0.078262605
116	0x3e8e7ddc	0.27830398
117	0x3d416f5c	0.04722534
118	0x3da3c102	0.07995798
119	0x3eb147b7	0.34625027
120	0x3d27c255	0.040956814
121	0xbeb767f5	-0.358215
122	0x3cf8c4d0	0.030367285
123	0xbcaf1412	-0.021371875
124	0x3e816f2d	0.25280133
125	0x3f012e63	0.50461406
126	0x3ecc6f59	0.39928702
127	0xbd89aad2	-0.067220345
128	0xbcb2350e	-0.021753814
129	0xbdac7164	-0.08420065
130	0x3e6db96f	0.23215269
131	0x3e2fa91d	0.17154355
132	0xbdbb0014	-0.09130874
133	0x3e07b9eb	0.13254516
134	0x3eb28e70	0.34874296
135	0xbe1b1c51	-0.1514752
136	0xbea4b797	-0.32171318
137	0x3ea1311d	0.31482783
138	0x3e063e38	0.13109672
139	0x3e81e1dc	0.2536763
140	0xbda0ee90	-0.07858002
141	0x3c3e2d50	0.011607483
142	0x3d8bf51d	0.06833861
143	0xbd1e01de	-0.038576
144	0x3d952b02	0.07283594
145	0x3e8d91a3	0.27650174
146	0xbe163987	-0.14670382
147	0xbdd33b1a	-0.10314007
148	0x3e807e5d	0.25096408
149	0x3a63487b	0.0008670163
150	0xbdc4911b	-0.09597989
151	0x3ea6f216	0.32606572
152	0xbc738e7b	-0.014865513
153	0x3e8f5cbc	0.28000438
154	0x3d335c6e	0.04378932
155	0x3ed0430a	0.40676147
156	0x3e374b74	0.17899877
157	0x3d14479b	0.0362011
158	0x3d25c5fa	0.04047201
159	0xbef95165	-0.48694912
160	0xbd8200eb	-0.06347831
161	0x3eaac6eb	0.33354887
162	0xbe65592a	-0.22397295
163	0xbdd997e7	-0.10624676
164	0xbc00c5ea	-0.007859686
165	0x3dab10c7	0.083528094
166	0xbddcde80	-0.10784626
167	0xbe385d1d	-0.1800427
168	0x3c1be70b	0.009515534
169	0xbca3910e	-0.019966628
170	0xbe677155	-0.22601826
171	0xbd35ef11	-0.044417445
172	0xbdaf5518	-0.08561152
173	0xbd2817a8	-0.041038185
174	0x3eb21008	0.34777856
175	0xbced1a4e	-0.028943207
176	0x3dd21643	0.10258152
177	0x3da04929	0.07826454
178	0x3dbc1f7e	0.09185694
179	0xbec45a15	-0.38349977
180	0x3eba6d0f	0.3641133
181	0x3deecc8e	0.116601095
182	0xbe0aa032	-0.13537672
183	0x3ed27c0b	0.41110262
184	0x3d7fce3c	0.06245254
185	0xbeb753c4	-0.35806096
186	0x3d975cd4	0.073907524
187	0xbd7c5663	-0.061605822
188	0x3e9a6300	0.30153656
189	0x3d0ff9e0	0.03515041
190	0x3ec8bf81	0.39208606
191	0x3cd7e44d	0.02635398
192	0xbd07e731	-0.033179466
193	0xbcdb5758	-0.026775047
194	0x3eb6cb8a	0.35702163
195	0x3d1ec30b	0.038760226
196	0xbadf4a00	-0.0017035604
197	0x3dc9e232	0.098575965
198	0x3d871b46	0.06596999
199	0xbe73d86e	-0.2381303
200	0xbeb03d9e	-0.3442201
201	0x3ece97f2	0.403503
202	0x3d854641	0.065075405
203	0xbd183f08	-0.037169486
204	0x3ddf5e72	0.10906686
205	0x3d06ac9d	0.03287946
206	0x3cbae24c	0.022812985
207	0x3e7f535a	0.2493414
208	0x3dbb5340	0.09146738
209	0x3ba9bf87	0.0051803025
210	0x3e2ce041	0.16882421
211	0x3ddf6b47	0.109091334
212	0x3d4bbad3	0.049738716
213	0x3eb1e707	0.34746572
214	0xbbb36e52	-0.0054757977
215	0x3ec9df81	0.39428332
216	0xbe036b18	-0.12833822
217	0x3daa771f	0.08323502
218	0xbda26578	-0.0792951
219	0x3e71336b	0.2355477
220	0x3de37881	0.11106969
221	0xbddac63e	-0.10682343
222	0x3db8dfc1	0.09027053
223	0xbefa0246	-0.4882986
224	0x3deea170	0.116518855
225	0xbe7f276b	-0.2491738
226	0xbe2d8a6c	-0.16947335
227	0xbd99ed41	-0.07515956
228	0x3e2a8651	0.166528
229	0xbcb84810	-0.0224953
230	0x3ded5e47	0.115902476
231	0xbf0431f4	-0.5163872
232	0x3dbbd232	0.09170951
233	0x3dd18b35	0.1023163
234	0xbe42bcd4	-0.19017345
235	0xbbd1b28c	-0.0063994583
236	0xbd48f126	-0.049058102
237	0x3d0220cc	0.03176956
238	0xbe71ae21	-0.23601581
239	0x3c7bf2e0	0.01537773
240	0xbcc98ba9	-0.024602728
241	0x3e1f2e7d	0.15545078
242	0x3c53601b	0.012901331
243	0xbee050ff	-0.43811795
244	0x3ea39f39	0.31957415
245	0xbd662d79	-0.05619571
246	0x3b06079c	0.0020451313
247	0x3eccea48	0.40022492
248	0x3dc9f554	0.09861246
249	0xbdf96d23	-0.12179019
250	0x3ddef86c	0.108872265
251	0x3d734b36	0.0593979
252	0x3e8322c8	0.25612473
253	0x3e547f6b	0.20751731
254	0x3eb2e40a	0.34939605
255	0x3dde3d40	0.10851526

model.4.bias f4 [8]
0	0x3e1a2774	0.15054113
1	0x3e0f82bc	0.14014715
2	0x3de0170b	0.10941895
3	0x3de92bdf	0.11385321
4	0x3de9c12f	0.114138
5	0x3e0d739b	0.13813631
6	0x3e2ff39c	0.17182773
7	0x3e2e0f20	0.16997957
