train_pygame/stored/20250712fifth_0250.pth (torch, 30361 bytes, 6 tensors)

model.0.weight f4 [64, 32]
0.20669572 -0.30616972 -0.24318951 0.28294092 0.029219806 -0.49995983 -0.24979241 -0.06786652
-0.43568838 0.16301523 0.03905811 -0.16783062 -0.23359308 -0.13591935 0.10542762 0.2561668
0.051029183 -0.19060105 0.7040601 -0.011164984 -0.6066912 0.09378389 -0.10032768 -0.40719435
-0.18556276 -0.17972432 -0.4762666 -0.11561138 -0.103011094 -0.29621908 0.1752397 0.2910674
-0.01311557 0.09677545 -0.08573146 -0.20894349 0.026135439 -0.24972264 -0.1314948 0.014014539
-0.15390047 0.025418773 -0.0482926 0.11170268 0.011449103 -0.00918097 -0.11285657 -0.118395
0.07371093 0.08897949 -0.17692928 -0.10913584 -0.13874668 -0.105559304 -0.21245033 0.005629849
-0.1989318 -0.018735534 -0.153316 -0.05633143 -0.017000126 -0.023424964 0.020567222 0.006160139
-0.10446435 -0.091529995 -0.029366761 -0.14153413 -0.106084414 -0.15016495 0.05471848 -0.087686814
0.10379796 -0.045575827 -0.04667154 -0.12886141 0.0063683093 -0.13330719 0.04448791 0.0872037
0.15260525 0.036364198 0.05547987 -0.116508976 -0.1388268 0.052962065 -0.05426672 0.0029872209
-0.01999095 -0.01898463 -0.0037678033 -0.12375568 -0.13167976 0.044693366 -0.1664373 -0.07207931
-0.17550176 0.01761347 -0.017859561 0.033866804 -0.04171651 0.009197093 -0.14531653 -0.117464975
0.014747033 0.060402256 0.10954529 0.049951293 -0.13610025 0.14165695 -0.124100514 -0.17525601
0.13049956 -0.029474676 -0.034410033 -0.008599652 -0.04278179 -0.12080354 0.11388224 0.031188244
-0.17476499 -0.1818073 0.061324865 0.13159068 -0.17787455 -0.043260805 0.09960128 -0.11747769
-0.09454472 -0.18061975 -0.17753047 0.080230944 0.020995926 -0.12494216 -0.05425167 0.0678186
-0.07473847 0.11080129 0.14378862 -0.19443579 -0.07947979 -0.0017356542 -0.15711156 -0.12546545
0.14145468 -0.20556395 -0.019987023 0.14069752 0.13497278 -0.09737318 -0.07326094 -0.049919717
-0.20710279 0.12639092 -0.08904153 0.007774386 -0.19236572 -0.18195087 -0.15177488 -0.14501381
-0.0656982 -0.17992872 0.0035716589 -0.13232894 -0.12587443 -0.10919417 -0.04023945 0.117199846
-0.1609576 -0.18131252 -0.072516896 -0.13767567 0.09135829 -0.080413684 0.007128737 0.11751264
0.14565134 0.04520364 0.059343714 -0.156964 0.055486094 0.014129427 0.003676816 0.10905176
-0.12859932 0.12407264 0.0042418535 0.04153331 -0.0966007 -0.033467256 0.15618734 -0.010167062
0.14374287 -0.137281 -0.0075946995 0.025484351 -0.19367336 -0.101672836 -0.13950549 -0.1432891
-0.16542459 0.0031231001 0.018052572 -0.0657811 -0.16174614 0.07010332 0.02564848 -0.0055580856
0.017784083 -0.023868535 -0.016276786 -0.18098745 -0.16675448 0.082383424 -0.003243882 0.0865013
-0.121965475 0.14167297 0.02107307 0.13091733 -0.19997253 -0.15607579 0.07642563 0.09786862
-0.08942464 0.048727468 0.093004115 0.23769467 -0.039152756 -0.010584606 -0.028511275 -0.011046003
-0.17036778 -0.07296559 -0.2413359 0.005848455 -0.11038514 -0.10333235 0.11531851 -0.16239724
0.009452301 0.009293166 -0.14930552 -0.2507668 0.08951475 0.10419404 0.08942577 -0.055091474
0.012985258 0.0081445305 0.009908803 0.08824523 -0.22863342 -0.11894117 -0.012726033 0.16862239
00000000: 0ba8 533e 47c2 9cbe ac06 79be a2dd 903e
00000010: 605e ef3c bcfa ffbe 95c9 7fbe 9afd 8abd
00000020: 8c12 dfbe 77ed 263e 66fb 1f3d cadb 2bbe
00000030: 0633 6fbe 712e 0bbe 70ea d73d 4b28 833e
00000040: fa03 513d ec2c 43be 483d 343f 56ed 36bc
00000050: 1d50 1bbf c511 c03d 9978 cdbd c77b d0be
00000060: 2a04 3ebe a709 38be 37d9 f3be a9c5 ecbd
00000070: 7bf7 d2bd 07aa 97be 0972 333e c906 953e
00000080: b0e2 56bc 3532 c63d fa93 afbd 48f5 55be
00000090: fd19 d63c 4bb7 7fbe 93a6 06be 3d9d 653c
000000a0: 1698 1dbe 083b d03c 76ce 45bd 60c4 e43d
000000b0: 0595 3b3c c76b 16bc 5821 e7bd 1479 f2bd
000000c0: c2f5 963d e13a b63d f32c 35be 9c82 dfbd
000000d0: 9c13 0ebe 7a2f d8bd 948c 59be 997a b83b
000000e0: c7b4 4bbe 437b 99bc dffe 1cbe c9bb 66bd
000000f0: d943 8bbc b6e5 bfbc 977c a83c feda c93b
00000100: 68f1 d5bd 1474 bbbd 9092 f0bc 53ee 10be
00000110: c942 d9bd d7c4 19be 7c20 603d 2595 b3bd
00000120: 0694 d43d b8ad 3abd a82a 3fbd 3ff4 03be
00000130: 40ad d03b ae81 08be f438 363d da97 b23d
00000140: 8d44 1c3e a0f2 143d dc3e 633d 429c eebd
00000150: 9d28 0ebe c0ee 583d c846 5ebd 40c5 433b
00000160: 10c4 a3bc a885 9bbc 40ed 76bb 9e73 fdbd
00000170: 0fd7 06be 6410 373d 8a6e 2abe 519e 93bd
00000180: bcb6 33be 204a 903c 374e 92bc ebb7 0a3d
00000190: eede 2abd 67af 163c dbcd 14be 7a91 f0bd
000001a0: 8a9d 713c 5b68 773d 4859 e03d ba99 4c3d
000001b0: dd5d 0bbe 850e 113e 6928 febd 5076 33be
000001c0: ada1 053e e074 f1bc 89f1 0cbd 8ee5 0cbc
000001d0: f53b 2fbd d967 f7bd 183b e93d 7d7e ff3c
000001e0: 98f5 32be b12b 3abe c82f 7b3d b5bf 063e
000001f0: bf24 36be 3e32 31bd c2fb cb3d 2598 f0bd
00000200: aaa0 c1bd 62f4 38be 8cca 35be 1f50 a43d
00000210: a6ff ab3c ade1 ffbd 0037 5ebd 7ae4 8a3d
00000220: 7c10 99bd c9eb e23d 533d 133e 2d1a 47be
00000230: 4dc6 a2bd e47e e3ba dae1 20be 047a 00be
00000240: 7fd9 103e 5b7f 52be d3bb a3bc 0313 103e
00000250: 4e36 0a3e 976b c7bd d509 96bd 9e78 4cbd
00000260: c112 54be 9f6c 013e 685b b6bd 47c0 fe3b
00000270: 85fb 44be 5451 3abe e06a 1bbe 807e 14be
00000280: c78c 86bd 3c3f 38be 7e12 6a3b 3d81 07be
00000290: 3ae5 00be 31a1 dfbd 1fd2 24bd 7906 f03d
000002a0: 12d2 24be fda9 39be bd83 94bd dafa 0cbe
000002b0: 0e1a bb3d eeaf a4bd 2e98 e93b 78aa f03d
000002c0: a025 153e 7427 393d 6512 733d 2cbb 20be
000002d0: 6345 633d 1d7f 673c bcf6 703b 8756 df3d
000002e0: 8aaf 03be cc19 fe3d 3fff 8a3b d51e 2a3d
000002f0: 96d6 c5bd f614 09bd 93ef 1f3e c093 26bc
00000300: 5531 133e 6493 0cbe f5dc f8bb 8fc4 d03c
00000310: 4f52 46be d939 d0bd 87da 0ebe 61ba 12be
00000320: 1065 29be edac 4c3b fde2 933c 3eb8 86bd
00000330: c8a0 25be 5492 8f3d c31c d23c 9a20 b6bb
00000340: edaf 913c f287 c3bc e556 85bc c654 39be
00000350: b0c1 2abe a4b8 a83d 4f97 54bb 9827 b13d
00000360: 09c9 f9bd b812 113e 6ea1 ac3c 310f 063e
00000370: 99c5 4cbe 55d2 1fbe 0a85 9c3d 586f c83d
00000380: 4424 b7bd 7496 473d f178 be3d 3b66 733e
00000390: a45e 20bd 0e6b 2dbc 7a90 e9bc 4bfa 34bc
000003a0: e474 2ebe fc6e 95bd c220 77be 65a4 bf3b
000003b0: 9b11 e2bd e99f d3bd 1c2c ec3d 764b 26be
000003c0: d3dd 1a3c 5d42 183c 8ce3 18be 8264 80be
000003d0: 8253 b73d af63 d53d dc24 b73d 99a7 61bd
000003e0: 1fc0 543c a370 053c 8858 223c eab9 b43d
000003f0: e11e 6abe 6e97 f3bd da80 50bc 59ab 2c3e

model.0.bias f4 [64]
-0.26983285 0.11108716 0.04122162 -0.18345957 -0.1470973 0.0030576736 0.07248545 -0.1450554
-0.07462757 0.098898016 0.08176838 0.017720526 0.08681081 -0.21971479 0.00052015483 -0.051671788
-0.11228835 0.089334056 0.0737646 0.023747362 -0.10440567 -0.15305361 -0.16651261 -0.17209677
-0.0849628 0.16634247 -0.007969379 -0.09935898 0.06476173 0.13292986 0.13730332 -0.14725587
-0.06021652 -0.096057095 -0.18403003 0.11095768 0.0717897 0.07622728 -0.012512535 -0.08633038
-0.038037956 0.11084907 0.08568584 -0.15031697 0.12441452 0.15320085 -0.18268558 0.119956076
0.03138485 0.12515593 -0.06445183 -0.14407316 0.07481297 0.012935296 0.0859429 -0.09394029
0.0028014411 -0.16576967 -0.10247376 -0.049271688 -0.116624095 -0.13450342 0.08671177 0.120913535
00000000: 8827 8abe aa81 e33d 00d8 283d d3dc 3bbe
00000010: ada0 16be 4063 483b 4073 943d 6789 14be
00000020: 57d6 98bd 0b8b ca3d 2e76 a73d a32a 913c
00000030: dec9 b13d eafc 60be 005b 083a cca5 53bd
00000040: 6ff7 e5bd c6f4 b63d e511 973d d489 c23c
00000050: a4d2 d5bd 16ba 1cbe 4882 2abe 233a 30be
00000060: fa00 aebd ae55 2a3e 0092 02bc b97c cbbd
00000070: cca1 843d c41e 083e 3e99 0c3e 3eca 16be
00000080: 99a5 76bd 95b9 c4bd 5e72 3cbe c83d e33d
00000090: 7a06 933d 0c1d 9c3d 6001 4dbc fbcd b0bd
000000a0: b0cd 1bbd d604 e33d 0f7c af3d b1ec 19be
000000b0: 0acd fe3d afe0 1c3e ee11 3bbe 88ab f53d
000000c0: 678d 003d e028 003e 52ff 83bd ea87 13be
000000d0: 8b37 993d 90ee 533c d502 b03d c463 c0bd
000000e0: 6298 373b 86bf 29be c3dd d1bd 1cd1 49bd
000000f0: 9dd8 eebd 44bb 09be f195 b13d 84a1 f73d

model.2.weight f4 [64, 64]
-0.057137918 -0.031740814 0.08401133 0.08502023 0.003090188 -0.058852345 -0.114981905 0.07741363
0.114698395 1.3180386 -0.11186111 -0.11568628 0.065381445 -0.18274203 -0.04289137 0.06386094
-0.02461032 0.1064941 -0.16322838 0.08230995 -0.10458248 0.031398565 -0.90376437 0.08663227
-0.12999514 -1.826932 0.07951115 -0.052164212 -0.086913064 -0.097539395 0.0460262 0.108462945
0.013442293 -0.10653821 0.08603032 -0.1473894 -0.13615976 0.05493699 -0.027574226 -0.09583005
0.07585177 -0.06970508 -0.0072427657 -0.008692273 0.025091557 0.09174721 0.019786064 0.028429955
-0.09175157 -0.079851165 -0.10900945 -0.003478235 0.12496905 0.057938665 -0.07049213 0.054626554
-0.06351612 -0.08869168 0.048355345 0.062855676 0.10896286 0.07705188 0.040063012 0.08182506
-0.020899948 -0.0008010135 -0.089990765 -0.013213346 0.052490965 0.060353383 0.05064179 -0.086947374
0.024456173 -0.8437804 -0.058708906 -0.20843562 -0.49847698 -0.23949489 0.04960896 -0.06978388
-0.15219392 0.086827815 0.09969383 -0.09201419 0.022466617 0.21751146 -0.29368505 0.008930698
-0.4736198 0.5668808 0.067637205 0.018310368 -0.10978423 0.011747226 -0.09234734 0.11658115
0.12485429 0.06322037 -0.004172931 -0.100633614 -0.066163555 -0.016109493 -0.11649023 0.034020737
0.08372761 0.06673033 -0.067757204 -0.084412165 -0.06777229 -0.11357042 0.1863835 -0.067298844
0.3165347 0.052588284 0.029987603 0.03440624 -0.04401008 0.10030931 0.10008491 -0.094071195
0.09155665 -0.1154359 -0.079989016 -0.5548786 -0.054108933 0.018689469 -0.037994012 0.017233357
-0.04570022 0.11117626 -0.110154405 0.100527644 0.07331504 -0.029361993 0.0039123744 0.102245525
-0.05330409 -0.049496338 0.030170355 0.016672991 0.02878508 -0.050272435 -0.03566186 0.03507697
-0.049653124 -0.1338803 -0.0702364 -0.009562933 0.01716944 0.07784502 0.03253624 -0.06714746
-0.011515034 -0.0826447 -0.12761262 -0.0729665 -0.06921072 -0.123406485 0.08885666 0.05171772
-0.02674286 0.0023051267 -0.10463416 0.051126808 -0.08684902 0.12064605 0.017886594 0.10731882
-0.07891545 0.09432111 0.028425 -0.045530345 -0.08034571 -0.039586842 -0.010521936 -0.0019236952
0.061640482 -0.056028973 -0.06578954 0.088308856 0.033263996 0.0884887 -0.03178168 0.063843265
-0.012418563 0.016546369 0.020335695 0.051538005 0.12037435 -0.032399327 0.023386976 0.11632452
-0.33948505 -0.07495955 -0.061056584 -0.09336877 0.047098592 0.10221848 -0.086312726 -0.1607644
-0.046450272 -0.009184969 0.05124477 -0.09612716 -0.013202667 -0.10397096 -0.052449748 0.19118164
0.09559771 0.090973325 -0.10777346 -0.0034941286 0.004112863 -0.115661964 -0.052639164 -0.10263686
-0.05151616 -0.020698791 0.019457921 0.011187166 0.067563035 0.053496838 0.015489222 -0.17648368
-0.09548049 0.046386044 -0.017121732 -0.01812868 -0.32319316 0.10850377 0.034928903 -0.012275502
0.04838839 -0.08188314 0.013594535 -0.036460053 -0.09787919 -0.049229965 -0.24516657 -0.051971495
0.040096775 0.10946963 -0.015363114 0.07434529 -0.012350619 0.020675153 0.0874533 0.063493535
-0.10434469 0.111788884 0.09085837 -0.08932422 -0.0411129 0.08073823 0.018261902 -0.013312374
00000000: 7309 6abd a802 02bd 220e ac3d 161f ae3d
00000010: c084 4a3b 280f 71bd a27b ebbd 0a8b 9e3d
00000020: fee6 ea3d 7db5 a83f 7017 e5bd eeec ecbd
00000030: b5e6 853d ba20 3bbe dcae 2fbd 86c9 823d
00000040: 959b c9bc 9419 da3d 5725 27be 1e92 a83d
00000050: 572f d6bd c89b 003d 1a5d 67bf 426c b13d
00000060: 721d 05be e8d8 e9bf bed6 a23d 24aa 55bd
00000070: 7aff b1bd bcc2 c7bd f885 3c3d d221 de3d
00000080: 103d 5c3c b430 dabd aa30 b03d 3fed 16be
00000090: 776d 0bbe 9c05 613d 58e3 e1bc 8c42 c4bd
000000a0: 2c58 9b3d 89c1 8ebd b954 edbb 096a 0ebc
000000b0: cf8c cd3c f6e5 bb3d 6216 a23c f0e5 e83c
000000c0: 3fe8 bbbd 0289 a3bd 5940 dfbd 1af3 63bb
000000d0: c6ef ff3d 1851 6d3d 2e5e 90bd 18c0 5f3d
000000e0: bd14 82bd fca3 b5bd 4110 463d 7aba 803d
000000f0: ec27 df3d 60cd 9d3d 1d19 243d e693 a73d
00000100: 5e36 abbc 1bfb 51ba 144d b8bd ca7c 58bc
00000110: c400 573d 1c35 773d c46d 4f3d 7711 b2bd
00000120: 5058 c83c fe01 58bf c078 70bd 2670 55be
00000130: 6038 ffbe 263e 75be c432 4b3d daea 8ebd
00000140: b9d8 1bbe c8d2 b13d 472c cc3d f071 bcbd
00000150: e90b b83c 53bb 5e3e e35d 96be 1052 123c
00000160: 4b7e f2be 1a1f 113f 6085 8a3d a0ff 953c
00000170: 8ed6 e0bd 7077 403c 9a20 bdbd 19c2 ee3d
00000180: 9bb3 ff3d ae79 813d 15bd 88bb ff18 cebd
00000190: c280 87bd 0ef8 83bc 6e92 eebd 5459 0b3d
000001a0: 6279 ab3d e9a9 883d 4ac4 8abd 49e0 acbd
000001b0: 33cc 8abd 9c97 e8bd 51db 3e3e fad3 89bd
000001c0: d610 a23e d066 573d 90a8 f53c 8fed 0c3d
000001d0: ea43 34bd f86e cd3d 51f9 cc3d 66a8 c0bd
000001e0: 0e82 bb3d a869 ecbd 48d1 a3bd 860c 0ebf
000001f0: 54a1 5dbd a81a 993c 9c9f 1bbd f82c 8d3c
00000200: 2730 3bbd 61b0 e33d a298 e1bd 70e1 cd3d
00000210: 3226 963d 9088 f0bc 6033 803b 1a66 d13d
00000220: 6455 5abd acbc 4abd d227 f73c cc95 883c
00000230: b0ce eb3c 78ea 4dbd 2c12 12bd deac 0f3d
00000240: 1361 4bbd eb17 09be 1ad8 8fbd d9ad 1cbc
00000250: eda6 8c3c 366d 9f3d b844 053d 9c84 89bd
00000260: 8ea9 3cbc a041 a9bd e2ac 02be 766f 95bd
00000270: 5abe 8dbd 8abc fcbd 7bfa b53d f6d5 533d
00000280: d813 dbbc 9c11 173b 6f4a d6bd 586a 513d
00000290: e6dd b1bd 4715 f73d e886 923c f8c9 db3d
000002a0: 6c9e a1bd 6d2b c13d 8cdb e83c 077e 3abd
000002b0: 4b8c a4bd d025 22bd 3364 2cbc 8024 fcba
000002c0: bb7a 7c3d a37e 65bd abbc 86bd 46db b43d
000002d0: d43f 083d 9039 b53d 822d 02bd 42c0 823d
000002e0: 3a77 4bbc 408c 873c 0b97 a63c 8419 533d
000002f0: d486 f63d 28b5 04bd 0b96 bf3c 8d3b ee3d
00000300: fcd0 adbe 6484 99bd 7816 7abd 2038 bfbd
00000310: 74ea 403d ec57 d13d bac4 b0bd 6c9f 24be
00000320: a442 3ebd 8d7c 16bc 09e6 513d 51de c4bd
00000330: 0050 58bc baee d4bd 8cd5 56bd 1fc5 433e
00000340: bbc8 c33d 3950 ba3d 55b8 dcbd c0fd 64bb
00000350: 32c5 863b 2ee0 ecbd 2a9c 57bd 4633 d2bd
00000360: 9c02 53bd 8390 a9bc 3866 9f3c 604a 373c
00000370: 7d5e 8a3d 801f 5b3d 81c6 7d3c 23b8 34be
00000380: 468b c3bd 4bff 3d3d e042 8cbc 9982 94bc
00000390: 9379 a5be 3937 de3d 9c11 0f3d 301f 49bc
000003a0: e832 463d 59b2 a7bd 9dbb 5e3c 2357 15bd
000003b0: e374 c8bd 5ca5 49bd f20c 7bbe 10e0 54bd
000003c0: 843c 243d 9d31 e03d 92b5 7bbc 5842 983d
000003d0: 405a 4abc f05e a93c b71a b33d e608 823d
000003e0: abb2 d5bd 92f1 e43d f413 ba3d 9eef b6bd
000003f0: 0066 28bd 165a a53d fc99 953c 251c 5abc

model.2.bias f4 [64]
0.15662608 -0.23407291 -0.15777986 -0.08026153 -0.21579604 -0.39770058 -0.6593141 -0.19033597
0.74338543 -0.0044196337 -0.8200925 -0.11546183 -0.27478337 -0.042239286 -0.22293809 -0.12664601
-0.6475576 -0.2717179 -0.15101786 -0.060397796 -0.070572756 -0.0370753 -0.09635123 -0.07414022
0.2625545 -0.021549454 -0.06289802 -1.222064 -0.109328024 -0.023907244 2.5401242 -0.06814015
-0.1173997 0.5510467 -0.18086286 0.014450667 -0.14089596 -0.060196422 -0.105146326 -0.3099611
-0.1416083 -0.070328765 -0.32781303 -0.22072741 -0.1287906 0.13256994 -0.1320448 -2.1558833
-0.1605975 -1.695622 -0.19979323 -0.7700155 -0.0754006 -0.06093363 -0.02758556 0.29072678
-0.1805723 -0.86226803 -0.33315733 3.85878 -0.018168978 -1.5371474 1.3994612 -0.034672137
00000000: 9662 203e cfb0 6fbe 0b91 21be 2860 a4bd
00000010: a3f9 5cbe 699f cbbe cfc8 28bf 6fe7 42be
00000020: 824e 3e3f 93d2 90bb 95f1 51bf 4077 ecbd
00000030: 68b0 8cbe 1a03 2dbd e249 64be 7eaf 01be
00000040: 56c6 25bf 9c1e 8bbe 6da4 1abe ae63 77bd
00000050: 7388 90bd 45dc 17bd cb53 c5bd d4d6 97bd
00000060: 8b6d 863e 7b88 b0bc add0 80bd 986c 9cbf
00000070: 5fe7 dfbd 20d9 c3bc 6591 2240 108d 8bbd
00000080: 416f f0bd 6611 0d3f 1d34 39be 7ec2 6c3c
00000090: 0847 10be 8690 76bd f556 d7bd 39b3 9ebe
000000a0: c401 11be 8708 90bd 1cd7 a7be 5e06 62be
000000b0: afe1 03be 6ac0 073e c136 07be fef9 09c0
000000c0: ac73 24be 240a d9bf 9996 4cbe bc1f 45bf
000000d0: a16b 9abd 8b95 79bd 1dfb e1bc 24da 943e
000000e0: f2e7 38be 99bd 5cbf 9993 aabe 40f6 7640
000000f0: 1cd7 94bc 3fc1 c4bf 8b21 b33f 5f04 0ebd

model.4.weight f4 [8, 64]
2.940318 2.6034036 0.06347511 0.30136448 -0.04095093 -0.097429365 3.4076366 0.02691859
3.8692946 0.08887795 3.725033 -0.049115017 3.4782646 -0.0028399539 0.5291903 0.18016343
1.3110934 1.9354361 0.049153708 -0.10141238 -0.056040872 -0.07894634 -0.036452025 0.013095749
0.6128006 0.02089651 0.11789031 5.048888 -0.1743668 0.72879165 -0.870591 0.022274382
0.010741007 3.5431564 -1.5309285 0.9487211 -0.015487011 -0.042916246 -0.064933 0.51830333
0.09897075 -0.043108504 0.21463004 -0.27471903 0.019369988 0.8859579 1.1680392 -0.43762034
0.087170586 0.5383359 0.03408931 2.558324 -0.02102061 0.00391964 1.1587015 3.2723224
0.007890762 2.65156 0.054534107 -0.6147335 0.15764394 -0.4436233 -0.5642267 0.8963282
3.4914737 0.78992933 0.1490935 0.19119355 0.06340256 -0.26553857 1.6761591 -0.11175825
6.072932 -0.38545004 0.84730774 -0.0646523 1.9907428 0.10331154 0.1578405 -0.06709196
0.73572606 0.6843258 0.045004096 0.03609558 0.17999361 0.05997408 0.08225489 0.007364034
0.51350075 -0.0072404174 0.010802165 4.179929 1.232403 -0.47173727 -0.8736449 0.05256747
-0.065192 5.911726 -0.09652898 -0.507516 -0.18258654 0.14606436 0.1367374 0.9979843
-0.059777677 0.04662692 1.5122756 0.047705494 0.089494415 -0.4511582 2.7674065 -1.9940906
0.075858004 1.7579927 0.10878351 3.7521336 0.0058069434 -0.050205063 0.0049759266 3.8546724
-0.12261811 2.617078 -0.034547787 -0.8446001 -0.018182043 -0.655359 -1.7588735 1.0235451
3.8502462 3.4060373 0.061191667 0.041137237 0.033991683 1.5268748 2.242664 0.007432848
4.97368 -0.11146787 2.2245517 -0.04147781 2.8346076 -0.07130288 0.7721943 -0.16748883
1.785743 2.1367943 -0.060736936 -0.022407573 0.15808779 0.014545724 -0.23765261 0.21423931
0.16079122 0.073913656 -0.03679714 1.4430946 0.25454035 -0.44605973 -0.33665428 -0.016813183
0.048590213 5.046664 -0.14846878 1.9156461 0.029936722 0.020543221 0.056071483 0.7001333
0.10357489 -0.044759605 0.010846036 -0.44977278 -0.13140464 2.3612707 3.2443678 3.25243
-0.14341556 0.2758903 -0.10604291 1.7673619 -0.0056157797 0.039061066 0.86790127 1.7692208
-0.0052969754 2.370572 -0.20458357 -1.9579307 -0.18659008 -1.875156 -1.8411444 1.1459233
3.409385 3.425322 -0.11267653 0.037048418 0.08193622 0.33148733 0.2214895 0.04444505
4.951957 -0.116304174 0.97957814 -0.047033414 3.7083416 0.09007592 0.9368196 -0.08973233
0.07050384 1.2324717 0.07236587 0.017452238 -0.14635462 -0.043142904 -0.049072064 -0.19259244
1.5469668 0.019877737 0.095990695 1.3343729 0.708042 -0.9198617 -0.62200624 -0.11918169
0.15556037 5.0962405 0.48926866 0.2602672 0.049033295 0.10023126 -0.124985695 0.8191353
0.03177897 0.08531766 -0.109761484 -0.19850978 -0.05572618 1.4188157 5.0013413 -0.023136072
0.013212804 -1.5305637 -0.0132279685 3.8427567 -0.12039123 -0.035136953 1.3414286 -0.5652035
0.018983096 -0.39532343 0.28676578 -1.6458914 0.008910354 0.5359479 -0.56469053 -1.5085046
00000000: 2c2e 3c40 2a9e 2640 3dff 813d 724c 9a3e
00000010: 2abc 27bd 0c89 c7bd b816 5a40 6084 dc3c
00000020: 86a2 7740 a505 b63d f166 6e40 d42c 49bd
00000030: e39b 5e40 851e 3abb 0479 073f c37c 383e
00000040: e9d1 a73f 5fbc f73f 6655 493d 4bb1 cfbd
00000050: 1d8b 65bd 9eae a1bd b84e 15bd 8d8f 563c
00000060: 80e0 1c3f 282f ab3c 7a70 f13d 7e90 a140
00000070: 368d 32be 1792 3a3f 0ddf 5ebf c478 b63c
00000080: 0cfb 2f3c 13c3 6240 77f5 c3bf 63df 723f
00000090: 3bbd 7dbc f2c8 2fbd 98fb 84bd 87af 043f
000000a0: 2db1 ca3d 8b92 30bd fac7 5b3e f9a7 8cbe
000000b0: cfad 9e3c 23ce 623f 4f82 953f c60f e0be
000000c0: 7e86 b23d 62d0 093f 3ba1 0b3d 95bb 2340
000000d0: 6a33 acbc 5370 803b 5550 943f bb6d 5140
000000e0: 4148 013c 29b3 2940 285f 5f3d 2d5f 1dbf
000000f0: 6a6d 213e 9822 e3be 2971 10bf c475 653f
00000100: 4e74 5f40 cf38 4a3f f7ab 183e 3ec8 433e
00000110: 34d9 813d acf4 87be 628c d63f 82e1 e4bd
00000120: 7555 c240 b559 c5be 29e9 583f 6d68 84bd
00000130: a9d0 fe3f 0095 d33d f1a0 213e 8267 89bd
00000140: 8b58 3c3f fa2f 2f3f 3756 383d f5d8 133d
00000150: 3f50 383e 62a7 753d 4075 a83d ff4d f13b
00000160: c974 033f 0641 edbb 90fb 303c fac1 8540
00000170: 62bf 9d3f 8c87 f1be 31a7 5fbf fd50 573d
00000180: 6283 85bd dc2c bd40 fcb0 c5bd 92ec 01bf
00000190: f7f7 3abe e591 153e e404 0c3e e67b 7f3f
000001a0: 70d9 74bd dffb 3e3d 3f92 c13f d666 433d
000001b0: d948 b73d 35fe e6be 301d 3140 5c3e ffbf
000001c0: 715b 9b3d e805 e13f e4c9 de3d f522 7040
000001d0: 2c48 be3b d3a3 4dbd 190d a33b f4b2 7640
000001e0: 341f fbbd 357e 2740 fb81 0dbd b637 58bf
000001f0: 82f2 94bc 9cc5 27bf c422 e1bf 8703 833f
00000200: 6f6a 7640 84fc 5940 1da4 7a3d 857f 283d
00000210: dd3a 0b3d a270 c33f cf87 0f40 408f f33b
00000220: 6328 9f40 4449 e4bd 0e5f 0e40 a3e4 29bd
00000230: 366a 3540 3f07 92bd 87ae 453f 3182 2bbe
00000240: 3a93 e43f 3dc1 0840 4bc7 78bd 1690 b7bc
00000250: c4e1 213e 3051 6e3c 355b 73be 8d61 5b3e
00000260: 74a6 243e 0b60 973d 99b8 16bd 53b7 b83f
00000270: 1d53 823e f161 e4be f35d acbe cdbb 89bc
00000280: 8806 473d 467e a140 3308 18be e433 f53f
00000290: db3d f53c 424a a83c 36ab 653d f03b 333f
000002a0: 121f d43d d955 37bd 92b3 313c 9e48 e6be
000002b0: f08e 06be 0f1f 1740 b9a3 4f40 d027 5040
000002c0: 87db 12be 7e41 8d3e 062d d9bd ea38 e23f
000002d0: 9304 b8bb 7ffe 1f3d c72e 5e3f d475 e23f
000002e0: 4092 adbb 74b7 1740 5b7e 51be 799d fabf
000002f0: 7811 3fbe 1d05 f0bf 9faa ebbf 9dad 923f
00000300: 5d33 5a40 7a38 5b40 f4c2 e6bd 15c0 173d
00000310: 2dce a73d b5b8 a93e 25ce 623e 030c 363d
00000320: 6f76 9e40 e230 eebd a2c5 7a3f 1ca6 40bd
00000330: 7855 6d40 b979 b83d 69d3 6f3f 95c5 b7bd
00000340: 5164 903d a2c1 9d3f 8f34 943d fff7 8e3c
00000350: fcdd 15be 9db6 30bd caff 48bd f436 45be
00000360: 0203 c63f a3d6 a23c c596 c43d bbcc aa3f
00000370: 3e42 353f 0e7c 6bbf cd3b 1fbf 8815 f4bd
00000380: 384b 1f3e 6714 a340 6c81 fa3e be41 853e
00000390: 23d7 483d 0c46 cd3d 80f8 ffbd dab2 513f
000003a0: aa2a 023d 06bb ae3d a1ca e0bd 2646 4bbe
000003b0: 2341 64bd c19b b53f fd0a a040 dc87 bdbc
000003c0: 847a 583c 83e9 c3bf 1fba 58bc baef 7540
000003d0: ad8f f6bd c4eb 0fbd efb3 ab3f 2db1 10bf
000003e0: 7082 9b3c d567 cabe f7d2 923e 92ac d2bf
000003f0: bcfc 113c e233 093f 8f8f 10bf ae16 c1bf

model.4.bias f4 [8]
-0.5812988 -0.59173954 -1.9784976 -1.5125595 -1.4964876 -0.98179346 -1.0812417 -0.028873371
00000000: 00d0 14bf 3e7c 17bf 693f fdbf 8d9b c1bf
00000010: e88c bfbf d156 7bbf 2166 8abf d987 ecbc
