train_pygame/stored/20250712fifth_0350.pth (torch, 30361 bytes, 6 tensors)

model.0.weight f4 [64, 32]
0	0x3e3321a0	0.17493296
1	0xbead016c	-0.33790147
2	0xbe8cc58b	-0.27494463
3	0x3e809a92	0.25117928
4	0xbb26a7c9	-0.0025429598
5	0xbf081e29	-0.5317102
6	0xbe9027c4	-0.2815534
7	0xbdcc0a6d	-0.09962926
8	0xbeef5464	-0.46744072
9	0x3e066766	0.13125381
10	0x3bef0dd2	0.0072953487
11	0xbe4c5dc1	-0.1995764
12	0xbe87dc63	-0.2653533
13	0xbe2bb4de	-0.16768214
14	0x3d96df9b	0.07366868
15	0x3e65ca49	0.22440447
16	0x3c9dd49a	0.019266415
17	0xbe63b151	-0.2223561
18	0x3f2c1bbc	0.6722982
19	0xbd2fd4fd	-0.04292773
20	0xbf2370ad	-0.63843805
21	0x3d7e0ab3	0.062021922
22	0xbe0742ba	-0.13209048
23	0xbee0bdbe	-0.43894762
24	0xbe5e8a7b	-0.21732514
25	0xbe589014	-0.21148711
26	0xbf0208ab	-0.50794476
27	0xbe16e8e8	-0.14737284
28	0xbe0a022a	-0.13477388
29	0xbea7e98e	-0.32795376
30	0x3e12ebb5	0.14347728
31	0x3e84c397	0.25930473
32	0xbc56e2b0	-0.01311557
33	0x3dc63235	0.09677545
34	0xbdaf93fa	-0.08573146
35	0xbe55f548	-0.20894349
36	0x3cd619fd	0.026135439
37	0xbe7fb74b	-0.24972264
38	0xbe06a693	-0.1314948
39	0x3c659d3d	0.014014539
40	0xbe1d9816	-0.15390047
41	0x3cd03b08	0.025418773
42	0xbd45ce76	-0.0482926
43	0x3de4c460	0.11170268
44	0x3c3b9505	0.011449103
45	0xbc166bc7	-0.00918097
46	0xbde72158	-0.11285657
47	0xbdf27914	-0.118395
48	0x3d96f5c2	0.07371093
49	0x3db63ae1	0.08897949
50	0xbe352cf3	-0.17692928
51	0xbddf829c	-0.10913584
52	0xbe0e139c	-0.13874668
53	0xbdd82f7a	-0.105559304
54	0xbe598c94	-0.21245033
55	0x3bb87a99	0.005629849
56	0xbe4bb4c7	-0.1989318
57	0xbc997b43	-0.018735534
58	0xbe1cfedf	-0.153316
59	0xbd66bbc9	-0.05633143
60	0xbc8b43d9	-0.017000126
61	0xbcbfe5b6	-0.023424964
62	0x3ca87c97	0.020567222
63	0x3bc9dafe	0.006160139
64	0xbdd5f168	-0.10446435
65	0xbdbb7414	-0.091529995
66	0xbcf09290	-0.029366761
67	0xbe10ee53	-0.14153413
68	0xbdd942c9	-0.106084414
69	0xbe19c4d7	-0.15016495
70	0x3d60207c	0.05471848
71	0xbdb39525	-0.087686814
72	0x3dd49406	0.10379796
73	0xbd3aadb8	-0.045575827
74	0xbd3f2aa8	-0.04667154
75	0xbe03f43f	-0.12886141
76	0x3bd0ad40	0.0063683093
77	0xbe0881ae	-0.13330719
78	0x3d3638f4	0.04448791
79	0x3db297da	0.0872037
80	0x3e1c448d	0.15260525
81	0x3d14f2a0	0.036364198
82	0x3d633edc	0.05547987
83	0xbdee9c42	-0.116508976
84	0xbe0e289d	-0.1388268
85	0x3d58eec0	0.052962065
86	0xbd5e46c8	-0.05426672
87	0x3b43c540	0.0029872209
88	0xbca3c410	-0.01999095
89	0xbc9b85a8	-0.01898463
90	0xbb76ed40	-0.0037678033
91	0xbdfd739e	-0.12375568
92	0xbe06d70f	-0.13167976
93	0x3d371064	0.044693366
94	0xbe2a6e8a	-0.1664373
95	0xbd939e51	-0.07207931
96	0xbe33b6bc	-0.17550176
97	0x3c904a20	0.01761347
98	0xbc924e37	-0.017859561
99	0x3d0ab7eb	0.033866804
100	0xbd2adeee	-0.04171651
101	0x3c16af67	0.009197093
102	0xbe14cddb	-0.14531653
103	0xbdf0917a	-0.117464975
104	0x3c719d8a	0.014747033
105	0x3d77685b	0.060402256
106	0x3de05948	0.10954529
107	0x3d4c99ba	0.049951293
108	0xbe0b5ddd	-0.13610025
109	0x3e110e85	0.14165695
110	0xbdfe2869	-0.124100514
111	0xbe337650	-0.17525601
112	0x3e05a1ad	0.13049956
113	0xbcf174e0	-0.029474676
114	0xbd0cf189	-0.034410033
115	0xbc0ce58e	-0.008599652
116	0xbd2f3bf5	-0.04278179
117	0xbdf767d9	-0.12080354
118	0x3de93b18	0.11388224
119	0x3cff7e7d	0.031188244
120	0xbe32f598	-0.17476499
121	0xbe3a2bb1	-0.1818073
122	0x3d7b2fc8	0.061324865
123	0x3e06bfb5	0.13159068
124	0xbe3624bf	-0.17787455
125	0xbd31323e	-0.043260805
126	0x3dcbfbc2	0.09960128
127	0xbdf09825	-0.11747769
128	0xbdc1a0aa	-0.09454472
129	0xbe38f462	-0.18061975
130	0xbe35ca8c	-0.17753047
131	0x3da4501f	0.080230944
132	0x3cabffa6	0.020995926
133	0xbdffe1ad	-0.12494216
134	0xbd5e3700	-0.05425167
135	0x3d8ae47a	0.0678186
136	0xbd99107c	-0.07473847
137	0x3de2ebc9	0.11080129
138	0x3e133d53	0.14378862
139	0xbe471a2d	-0.19443579
140	0xbda2c64d	-0.07947979
141	0xbae37ee4	-0.0017356542
142	0xbe20e1da	-0.15711156
143	0xbe007a04	-0.12546545
144	0x3e10d97f	0.14145468
145	0xbe527f5b	-0.20556395
146	0xbca3bbd3	-0.019987023
147	0x3e101303	0.14069752
148	0x3e0a364e	0.13497278
149	0xbdc76b97	-0.09737318
150	0xbd9609d5	-0.07326094
151	0xbd4c789e	-0.049919717
152	0xbe5412c1	-0.20710279
153	0x3e016c9f	0.12639092
154	0xbdb65b68	-0.08904153
155	0x3bfec047	0.007774386
156	0xbe44fb85	-0.19236572
157	0xbe3a5154	-0.18195087
158	0xbe1b6ae0	-0.15177488
159	0xbe147e80	-0.14501381
160	0xbd868cc7	-0.0656982
161	0xbe383f3c	-0.17992872
162	0x3b6a127e	0.0035716589
163	0xbe07813d	-0.13232894
164	0xbe00e53a	-0.12587443
165	0xbddfa131	-0.10919417
166	0xbd24d21f	-0.04023945
167	0x3df00679	0.117199846
168	0xbe24d212	-0.1609576
169	0xbe39a9fd	-0.18131252
170	0xbd9483bd	-0.072516896
171	0xbe0cfada	-0.13767567
172	0x3dbb1a0e	0.09135829
173	0xbda4afee	-0.080413684
174	0x3be9982e	0.007128737
175	0x3df0aa78	0.11751264
176	0x3e1525a0	0.14565134
177	0x3d392774	0.04520364
178	0x3d731265	0.059343714
179	0xbe20bb2c	-0.156964
180	0x3d634563	0.055486094
181	0x3c677f1d	0.014129427
182	0x3b70f6bc	0.003676816
183	0x3ddf5687	0.10905176
184	0xbe03af8a	-0.12859932
185	0x3dfe19cc	0.12407264
186	0x3b8aff3f	0.0042418535
187	0x3d2a1ed5	0.04153331
188	0xbdc5d696	-0.0966007
189	0xbd0914f6	-0.033467256
190	0x3e1fef93	0.15618734
191	0xbc2693c0	-0.010167062
192	0x3e133155	0.14374287
193	0xbe0c9364	-0.137281
194	0xbbf8dcf5	-0.0075946995
195	0x3cd0c48f	0.025484351
196	0xbe46524f	-0.19367336
197	0xbdd039d9	-0.101672836
198	0xbe0eda87	-0.13950549
199	0xbe12ba61	-0.1432891
200	0xbe296510	-0.16542459
201	0x3b4caced	0.0031231001
202	0x3c93e2fd	0.018052572
203	0xbd86b83e	-0.0657811
204	0xbe25a0c8	-0.16174614
205	0x3d8f9254	0.07010332
206	0x3cd21cc3	0.02564848
207	0xbbb6209a	-0.0055580856
208	0x3c91afed	0.017784083
209	0xbcc387f2	-0.023868535
210	0xbc8556e5	-0.016276786
211	0xbe3954c6	-0.18098745
212	0xbe2ac1b0	-0.16675448
213	0x3da8b8a4	0.082383424
214	0xbb54974f	-0.003243882
215	0x3db12798	0.0865013
216	0xbdf9c909	-0.121965475
217	0x3e1112b8	0.14167297
218	0x3caca16e	0.02107307
219	0x3e060f31	0.13091733
220	0xbe4cc599	-0.19997253
221	0xbe1fd255	-0.15607579
222	0x3d9c850a	0.07642563
223	0x3dc86f58	0.09786862
224	0xbdb72444	-0.08942464
225	0x3d479674	0.048727468
226	0x3dbe78f1	0.093004115
227	0x3e73663b	0.23769467
228	0xbd205ea4	-0.039152756
229	0xbc2d6b0e	-0.010584606
230	0xbce9907a	-0.028511275
231	0xbc34fa4b	-0.011046003
232	0xbe2e74e4	-0.17036778
233	0xbd956efc	-0.07296559
234	0xbe7720c2	-0.2413359
235	0x3bbfa465	0.005848455
236	0xbde2119b	-0.11038514
237	0xbdd39fe9	-0.10333235
238	0x3dec2c1c	0.11531851
239	0xbe264b76	-0.16239724
240	0x3c1addd3	0.009452301
241	0x3c18425d	0.009293166
242	0xbe18e38c	-0.14930552
243	0xbe806482	-0.2507668
244	0x3db75382	0.08951475
245	0x3dd563af	0.10419404
246	0x3db724dc	0.08942577
247	0xbd61a799	-0.055091474
248	0x3c54c01f	0.012985258
249	0x3c0570a3	0.0081445305
250	0x3c225888	0.009908803
251	0x3db4b9ea	0.08824523
252	0xbe6a1ee1	-0.22863342
253	0xbdf3976e	-0.11894117
254	0xbc5080da	-0.012726033
255	0x3e2cab59	0.16862239

model.0.bias f4 [64]
0	0xbe9a6aba	-0.3015955
1	0x3de381aa	0.11108716
2	0x3d28d800	0.04122162
3	0xbe3bdcd3	-0.18345957
4	0xbe16a0ad	-0.1470973
5	0x3b486340	0.0030576736
6	0x3d947340	0.07248545
7	0xbe148967	-0.1450554
8	0xbd98d657	-0.07462757
9	0xbca8ab33	-0.020589447
10	0x3da7762e	0.08176838
11	0x3c912aa3	0.017720526
12	0x3da4024c	0.080082506
13	0xbe60fcea	-0.21971479
14	0x3a085b00	0.00052015483
15	0xbd53a5cc	-0.051671788
16	0xbde5f76f	-0.11228835
17	0x3db6f4c6	0.089334056
18	0x3d9711e5	0.0737646
19	0x3cc289d4	0.023747362
20	0xbdd5d2a4	-0.10440567
21	0xbe1cba16	-0.15305361
22	0xbedfbaa6	-0.4369709
23	0xbe303a23	-0.17209677
24	0xbdae00fa	-0.0849628
25	0x3dd368e7	0.10322743
26	0xbc029200	-0.007969379
27	0xbdcb7cb9	-0.09935898
28	0x3d84a1cc	0.06476173
29	0x3e081ec4	0.13292986
30	0x3e0c993e	0.13730332
31	0xbe16ca3e	-0.14725587
32	0xbd76a599	-0.06021652
33	0xbdc4b995	-0.096057095
34	0xbe3c725e	-0.18403003
35	0x3de33dc8	0.11095768
36	0x3d93067a	0.0717897
37	0x3d9c1d0c	0.07622728
38	0xbc4d0160	-0.012512535
39	0xbdb0cdfb	-0.08633038
40	0xbd1bcdb0	-0.038037956
41	0x3de304d6	0.11084907
42	0x3daf7c0f	0.08568584
43	0xbe19ecb1	-0.15031697
44	0x3dfecd0a	0.12441452
45	0x3e1ce0af	0.15320085
46	0xbe3b11ee	-0.18268558
47	0x3df5ab88	0.119956076
48	0x3d008d67	0.03138485
49	0x3e0028e0	0.12515593
50	0xbd83ff52	-0.06445183
51	0xbe1387ea	-0.14407316
52	0x3d99378b	0.07481297
53	0x3c53ee90	0.012935296
54	0x3db002d5	0.0859429
55	0xbdc063c4	-0.09394029
56	0x3b379862	0.0028014411
57	0xbe29bf86	-0.16576967
58	0xbdd1ddc3	-0.10247376
59	0xbd49d11c	-0.049271688
60	0xbdeed89d	-0.116624095
61	0xbe09bb44	-0.13450342
62	0x3db195f1	0.08671177
63	0x3df7a184	0.120913535

model.2.weight f4 [64, 64]
0	0xbd6a0973	-0.057137918
1	0xbd0202a8	-0.031740814
2	0x3dac0e22	0.08401133
3	0x3dae1f16	0.08502023
4	0x3b4a84c0	0.003090188
5	0xbd710f28	-0.058852345
6	0xbdeb7ba2	-0.114981905
7	0x3d9e8b0a	0.07741363
8	0x3deae6fe	0.114698395
9	0x3e85a98b	0.26105914
10	0xbde51770	-0.11186111
11	0xbdececee	-0.11568628
12	0x3d9a0779	0.075209565
13	0xbe3b20ba	-0.18274203
14	0xbd2faedc	-0.04289137
15	0x3d82c986	0.06386094
16	0xbcc99b95	-0.02461032
17	0x3dda1994	0.1064941
18	0xbe272557	-0.16322838
19	0x3da8921e	0.08230995
20	0xbdd62f57	-0.10458248
21	0x3d009bc8	0.031398565
22	0xbdf81785	-0.12113861
23	0x3db16c42	0.08663227
24	0xbe051d72	-0.12999514
25	0xbf589005	-0.84594756
26	0x3da2d6be	0.07951115
27	0xbd55aa24	-0.052164212
28	0xbdb1ff7a	-0.086913064
29	0xbdc7c2bc	-0.097539395
30	0x3d3c85f8	0.0460262
31	0x3dde21d2	0.108462945
32	0x3c5c3d10	0.013442293
33	0xbdda30b4	-0.10653821
34	0x3db030aa	0.08603032
35	0xbe16ed3f	-0.1473894
36	0xbe0b6d77	-0.13615976
37	0x3d61059c	0.05493699
38	0xbce1e358	-0.027574226
39	0xbdc4428c	-0.09583005
40	0x3d9b582c	0.07585177
41	0xbd8ec189	-0.06970508
42	0xbbed54b9	-0.0072427657
43	0xbc0e6a09	-0.008692273
44	0x3ccd8ccf	0.025091557
45	0x3dbbe5f6	0.09174721
46	0x3ca21662	0.019786064
47	0x3ce8e5f0	0.028429955
48	0xbdbbe83f	-0.09175157
49	0xbda38902	-0.079851165
50	0xbddf4059	-0.10900945
51	0xbb63f31a	-0.003478235
52	0x3dffefc6	0.12496905
53	0x3d6d5118	0.057938665
54	0xbd905e2e	-0.07049213
55	0x3d5fc018	0.054626554
56	0xbd8214bd	-0.06351612
57	0xbdb5a3fc	-0.08869168
58	0x3d461041	0.048355345
59	0x3d80ba7a	0.062855676
60	0x3ddf27ec	0.10896286
61	0x3d9dcd60	0.07705188
62	0x3d24191d	0.040063012
63	0x3da793e6	0.08182506
64	0x3c2fcd19	0.010730051
65	0xba51fb1b	-0.0008010135
66	0xbdb84d14	-0.089990765
67	0xbc587cca	-0.013213346
68	0x3d5700c4	0.052490965
69	0x3d77351c	0.060353383
70	0x3d4f6dc4	0.05064179
71	0xbdb21177	-0.086947374
72	0x3cc85850	0.024456173
73	0xbf232847	-0.63733333
74	0xbd7078c0	-0.058708906
75	0xbe557026	-0.20843562
76	0xbefb5c2a	-0.49093753
77	0xbe753e26	-0.23949489
78	0x3d4b32c4	0.04960896
79	0xbd8eeada	-0.06978388
80	0xbe1bd8b9	-0.15219392
81	0x3db1d2c8	0.086827815
82	0x3dcc2c47	0.09969383
83	0xbdbc71f0	-0.09201419
84	0x3cb80be9	0.022466617
85	0x3e5ebb53	0.21751146
86	0x3d209fde	0.03921496
87	0x3c125210	0.008930698
88	0xbef27e4b	-0.4736198
89	0x3f1ce0e1	0.6128064
90	0x3d8a8560	0.067637205
91	0x3c95ffa0	0.018310368
92	0xbde0d68e	-0.10978423
93	0x3c407770	0.011747226
94	0xbdbd209a	-0.09234734
95	0x3deec219	0.11658115
96	0x3dffb39b	0.12485429
97	0x3d8179ae	0.06322037
98	0xbb88bd15	-0.004172931
99	0xbdce18ff	-0.100633614
100	0xbd8780c2	-0.066163555
101	0xbc83f80e	-0.016109493
102	0xbdee926e	-0.11649023
103	0x3d0b5954	0.034020737
104	0x3dab7962	0.08372761
105	0x3d88a9e9	0.06673033
106	0xbd8ac44a	-0.067757204
107	0xbdace049	-0.084412165
108	0xbd8acc33	-0.06777229
109	0xbde8979c	-0.11357042
110	0x3e3edb51	0.1863835
111	0xbd89d3fa	-0.067298844
112	0x3ea210d6	0.3165347
113	0x3d5766d0	0.052588284
114	0x3cf5a890	0.029987603
115	0x3d0ced8f	0.03440624
116	0xbd3443ea	-0.04401008
117	0x3dcd6ef8	0.10030931
118	0x3dccf951	0.10008491
119	0xbdc0a866	-0.094071195
120	0x3dbb820e	0.09155665
121	0xbdec69a8	-0.1154359
122	0xbda3d148	-0.079989016
123	0xbf0e0c86	-0.5548786
124	0xbd5da154	-0.054108933
125	0x3c991aa8	0.018689469
126	0xbd1b9f9c	-0.037994012
127	0x3c8d2cf8	0.017233357
128	0xbd3b3027	-0.04570022
129	0x3de3b061	0.11117626
130	0xbde198a2	-0.110154405
131	0x3dcde170	0.100527644
132	0x3d962632	0.07331504
133	0xbcf08890	-0.029361993
134	0x3b803360	0.0039123744
135	0x3dd1661a	0.102245525
136	0xbd5a5564	-0.05330409
137	0xbd4abcac	-0.049496338
138	0x3cf727d2	0.030170355
139	0x3c8895cc	0.016672991
140	0x3cebceb0	0.02878508
141	0xbd4dea78	-0.050272435
142	0xbd12122c	-0.03566186
143	0x3d0facde	0.03507697
144	0xbd4b6113	-0.049653124
145	0xbe0917eb	-0.1338803
146	0xbd8fd81a	-0.0702364
147	0xbc1cadd9	-0.009562933
148	0x3c8ca6ed	0.01716944
149	0x3d9f6d36	0.07784502
150	0x3d0544b8	0.03253624
151	0xbd89849c	-0.06714746
152	0xbc3ca98e	-0.011515034
153	0xbda941a0	-0.0826447
154	0xbe02ace2	-0.12761262
155	0xbd956f76	-0.0729665
156	0xbd8dbe5a	-0.06921072
157	0xbdfcbc8a	-0.123406485
158	0x3db5fa7b	0.08885666
159	0x3d53d5f6	0.05171772
160	0xbcdb13d8	-0.02674286
161	0x3b17119c	0.0023051267
162	0xbdd64a6f	-0.10463416
163	0x3d516a58	0.051126808
164	0xbdb1dde6	-0.08684902
165	0x3df71547	0.12064605
166	0x3c9286e8	0.017886594
167	0x3ddbc9f8	0.10731882
168	0xbda19e6c	-0.07891545
169	0x3dc12b6d	0.09432111
170	0x3ce8db8c	0.028425
171	0xbd3a7e07	-0.045530345
172	0xbda48c4b	-0.08034571
173	0xbd2225d0	-0.039586842
174	0xbc2c6433	-0.010521936
175	0xbafc2480	-0.0019236952
176	0x3d7c7abb	0.061640482
177	0xbd657ea3	-0.056028973
178	0xbd86bcab	-0.06578954
179	0x3db4db46	0.088308856
180	0x3d083fd4	0.033263996
181	0x3db53990	0.0884887
182	0xbd022d82	-0.03178168
183	0x3d82c042	0.063843265
184	0xbc4b773a	-0.012418563
185	0x3c878c40	0.016546369
186	0x3ca6970b	0.020335695
187	0x3d531984	0.051538005
188	0x3df686d4	0.12037435
189	0xbd04b528	-0.032399327
190	0x3cbf960b	0.023386976
191	0x3dee3b8d	0.11632452
192	0xbeadd0fc	-0.33948505
193	0xbd998464	-0.07495955
194	0xbd7a1678	-0.061056584
195	0xbdbf3820	-0.09336877
196	0x3d40ea74	0.047098592
197	0x3dd157ec	0.10221848
198	0xbdb0c4ba	-0.086312726
199	0xbe249f6c	-0.1607644
200	0xbd3e42a4	-0.046450272
201	0xbc167c8d	-0.009184969
202	0x3d51e609	0.05124477
203	0xbdc4de51	-0.09612716
204	0xbc585000	-0.013202667
205	0xbdd4eeba	-0.10397096
206	0xbd56d58c	-0.052449748
207	0x3e43c51f	0.19118164
208	0x3dc3c8bb	0.09559771
209	0x3dba5039	0.090973325
210	0xbddcb855	-0.10777346
211	0xbb64fdc0	-0.0034941286
212	0x3b86c532	0.004112863
213	0xbdece02e	-0.115661964
214	0xbd579c2a	-0.052639164
215	0xbdd23346	-0.10263686
216	0xbd53029c	-0.05151616
217	0xbca99083	-0.020698791
218	0x3c9f6638	0.019457921
219	0x3c374a60	0.011187166
220	0x3d8a5e7d	0.067563035
221	0x3d5b1f80	0.053496838
222	0x3c7dc681	0.015489222
223	0xbe34b823	-0.17648368
224	0xbdc38b46	-0.09548049
225	0x3d3dff4b	0.046386044
226	0xbc8c42e0	-0.017121732
227	0xbc948299	-0.01812868
228	0xbea57993	-0.32319316
229	0x3dde3739	0.10850377
230	0x3d0f119c	0.034928903
231	0xbc491f30	-0.012275502
232	0x3d4632e8	0.04838839
233	0xbda7b259	-0.08188314
234	0x3c5ebb9d	0.013594535
235	0xbd155723	-0.036460053
236	0xbdc874e3	-0.09787919
237	0xbd49a55c	-0.049229965
238	0xbe7b0cf2	-0.24516657
239	0xbd54e010	-0.051971495
240	0x3d243c84	0.040096775
241	0x3de0319d	0.10946963
242	0xbc7bb592	-0.015363114
243	0x3d984258	0.07434529
244	0xbc4a5a40	-0.012350619
245	0x3ca95ef0	0.020675153
246	0x3db31ab7	0.0874533
247	0x3d8208e6	0.063493535
248	0xbdd5b2ab	-0.10434469
249	0x3de4f192	0.111788884
250	0x3dba13f4	0.09085837
251	0xbdb6ef9e	-0.08932422
252	0xbd286600	-0.0411129
253	0x3da55a16	0.08073823
254	0x3c9599fc	0.018261902
255	0xbc5a1c25	-0.013312374

model.2.bias f4 [64]
0	0x3f4f7610	0.81039524
1	0xbe8d714c	-0.276255
2	0xbe21910b	-0.15777986
3	0xbda46028	-0.08026153
4	0xbe5cf9a3	-0.21579604
5	0xbecb9f69	-0.39770058
6	0xbf30ea98	-0.6910796
7	0xbe42e76f	-0.19033597
8	0x3f1bdaa3	0.6088049
9	0xbb90d293	-0.0044196337
10	0xbf51f195	-0.8200925
11	0xbdec7740	-0.11546183
12	0xbe8cb068	-0.27478337
13	0xbd2d031a	-0.042239286
14	0x3f97e6cf	1.1867312
15	0xbe01af7e	-0.12664601
16	0xbf942ce3	-1.1576198
17	0x3ee7fd2c	0.45310342
18	0xbe1aa46d	-0.15101786
19	0xbd7763ae	-0.060397796
20	0xbd908873	-0.070572756
21	0xbd17dc45	-0.0370753
22	0xbdc553cb	-0.09635123
23	0xbd97d6d4	-0.07414022
24	0xbe1a9efc	-0.1509971
25	0xbcb0887b	-0.021549454
26	0xbd80d0ad	-0.06289802
27	0xbfa07d78	-1.253829
28	0xbddfe75f	-0.109328024
29	0xbcc3d920	-0.023907244
30	0x40546301	3.3185427
31	0xbd8b8d10	-0.06814015
32	0xbdf06f41	-0.1173997
33	0x3f32073b	0.6954228
34	0x3f6fd7c4	0.9368861
35	0xbf865324	-1.0494123
36	0xbe104708	-0.14089596
37	0xbd769086	-0.060196422
38	0xbdd756f5	-0.105146326
39	0xbf884ef9	-1.06491
40	0xbe1101c4	-0.1416083
41	0xbd900887	-0.070328765
42	0xbf0ffb8a	-0.56243193
43	0xbe62065e	-0.22072741
44	0xbe03e1af	-0.1287906
45	0x3df66f54	0.12032953
46	0xbd4be883	-0.049782287
47	0xc0141a12	-2.3140912
48	0xbe44fac3	-0.19236283
49	0xbfc0a637	-1.5050725
50	0xbe4c9699	-0.19979323
51	0xbed302a0	-0.4121294
52	0xbd9a6ba1	-0.0754006
53	0xbd79958b	-0.06093363
54	0xbce1fb1d	-0.02758556
55	0xbef891c8	-0.48548722
56	0xbe38e7f2	-0.1805723
57	0xbf025e55	-0.5092519
58	0xbeaa9399	-0.33315733
59	0x408b371b	4.3504767
60	0xbc94d71c	-0.018168978
61	0xbfc4c13f	-1.5371474
62	0x4041c282	3.0274968
63	0xbf000843	-0.50012606

model.4.weight f4 [8, 64]
0	0x4080bfad	4.023398
1	0x4024149c	2.563758
2	0x3d81ff3d	0.06347511
3	0x3e9a4c72	0.30136448
4	0xbd27bc2a	-0.04095093
5	0xbdc7890c	-0.097429365
6	0x405a16b8	3.4076366
7	0x3cdc8460	0.02691859
8	0x409312db	4.5960517
9	0x3db605a5	0.08887795
10	0x406e66f1	3.725033
11	0xbd492cd4	-0.049115017
12	0x405e9be3	3.4782646
13	0xbb3a1e85	-0.0028399539
14	0x3ffe97c7	1.9890069
15	0x3e387cc3	0.18016343
16	0x3f8184b6	1.0118625
17	0x402b3d6e	2.6756244
18	0x3d495566	0.049153708
19	0xbdcfb14b	-0.10141238
20	0xbd658b1d	-0.056040872
21	0xbda1ae9e	-0.07894634
22	0xbd154eb8	-0.036452025
23	0x3c568f8d	0.013095749
24	0x3e77b0d7	0.24188553
25	0x3cab2f28	0.02089651
26	0x3df1707a	0.11789031
27	0x40a1907e	5.048888
28	0xbe328d36	-0.1743668
29	0x3f3a9217	0.72879165
30	0xbf833e7f	-1.0253447
31	0x3cb678c4	0.022274382
32	0x3c2ffb0c	0.010741007
33	0x40e87a51	7.264931
34	0xc00f20ad	-2.2363694
35	0x3fca89ab	1.5823263
36	0xbc7dbd3b	-0.015487011
37	0xbd2fc8f2	-0.042916246
38	0xbd84fb98	-0.064933
39	0x3e1ef9da	0.15524998
40	0x3dcab12d	0.09897075
41	0xbd30928b	-0.043108504
42	0x3f2edb42	0.6830331
43	0xbe8ca7f9	-0.27471903
44	0x3c9eadcf	0.019369988
45	0x3f177053	0.5915577
46	0x40175f37	2.3651865
47	0x400e5841	2.2241366
48	0x3db2867e	0.087170586
49	0x3f0a342e	0.5398587
50	0x3d0ba13b	0.03408931
51	0x4037669d	2.865638
52	0xbcac336a	-0.02102061
53	0x3b807053	0.00391964
54	0x3f945055	1.1587015
55	0x409442be	4.6331472
56	0x3c014841	0.007890762
57	0x40491f85	3.1425488
58	0x3d5f5f28	0.054534107
59	0xbf213dd3	-0.6298496
60	0x3e216d6a	0.15764394
61	0xbee32298	-0.4436233
62	0xbf589b2a	-0.8461176
63	0x3fdfc8b8	1.748313
64	0x40de31e5	6.9435906
65	0x40062517	2.0960138
66	0x3e18abf7	0.1490935
67	0x3e43c83e	0.19119355
68	0x3d81d934	0.06340256
69	0xbe87f4ac	-0.26553857
70	0x3fd68c62	1.6761591
71	0xbde4e182	-0.11175825
72	0x401d724e	2.4601016
73	0xbec559b5	-0.38545004
74	0x3f58e929	0.84730774
75	0xbd84686d	-0.0646523
76	0x3ffed0a9	1.9907428
77	0x3dd39500	0.10331154
78	0x3f299bed	0.6625355
79	0xbd896782	-0.06709196
80	0x3eabad3c	0.33530605
81	0x40a4b8e3	5.147569
82	0x3d385637	0.045004096
83	0x3d13d8f5	0.03609558
84	0x3e38503f	0.17999361
85	0x3d75a762	0.05997408
86	0x3da87540	0.08225489
87	0x3bf14dff	0.007364034
88	0x3e486038	0.19567955
89	0xbbed4106	-0.0072404174
90	0x3c30fb90	0.010802165
91	0x4085c1fa	4.179929
92	0x3f9dbf62	1.232403
93	0xbef1878c	-0.47173727
94	0xbf68a596	-0.90877664
95	0x3d5750fd	0.05256747
96	0xbd858362	-0.065192
97	0x40f32fb9	7.5995755
98	0xbff336b1	-1.9001065
99	0x3f43d4ca	0.76496565
100	0xbe3af7f7	-0.18258654
101	0x3e1591e5	0.14606436
102	0x3e0c04e4	0.1367374
103	0x3f557458	0.8338065
104	0xbd74d970	-0.059777677
105	0x3d3efbdf	0.04662692
106	0x3f75621f	0.95852846
107	0x3d4366d6	0.047705494
108	0x3db748d9	0.089494415
109	0xbdf2b71c	-0.118513316
110	0x40460676	3.0941443
111	0x401be127	2.4356172
112	0x3d9b5b71	0.075858004
113	0x3fa3511b	1.2759126
114	0x3ddec9e4	0.10878351
115	0x40803add	4.0071855
116	0x3bbe482c	0.0058069434
117	0xbd4da3d3	-0.050205063
118	0x3ba30d19	0.0049759266
119	0x4081e0ee	4.058707
120	0xbdfb1f34	-0.12261811
121	0x3ff27680	1.8942413
122	0xbd0d81fb	-0.034547787
123	0xbf18a206	-0.5962223
124	0xbc94f282	-0.018182043
125	0xbf27c59c	-0.655359
126	0xbfe893d8	-1.8170118
127	0x3fba7c5a	1.4569199
128	0x40e128fe	7.036254
129	0x408ce9c8	4.4035378
130	0x3d7aa41d	0.061191667
131	0x3d287f85	0.041137237
132	0x3d0b3add	0.033991683
133	0x3fc370a2	1.5268748
134	0x400f87cf	2.242664
135	0x3bf38f40	0.007432848
136	0x406c3f80	3.6913757
137	0xbde44944	-0.11146787
138	0x400e5f0e	2.2245517
139	0xbd29e4a3	-0.04147781
140	0x40356a36	2.8346076
141	0xbd92073f	-0.07130288
142	0x3f903e46	1.1269004
143	0xbe2b8231	-0.16748883
144	0x3fa7410e	1.3066728
145	0x40aef898	5.467846
146	0xbd78c74b	-0.060736936
147	0xbcb79016	-0.022407573
148	0x3e21e1c4	0.15808779
149	0x3c6e5130	0.014545724
150	0xbe735b35	-0.23765261
151	0x3e5b618d	0.21423931
152	0xbea992aa	-0.33119708
153	0x3d97600b	0.073913656
154	0xbd16b899	-0.03679714
155	0x3fb8b753	1.4430946
156	0x3e82531d	0.25454035
157	0xbee461f1	-0.44605973
158	0xbe567518	-0.20943105
159	0xbc89bbcd	-0.016813183
160	0x3d470688	0.048590213
161	0x412b3fe3	10.703097
162	0xbf981be4	-1.1883512
163	0x3fe38c07	1.7777108
164	0x3cf53ddb	0.029936722
165	0x3ca84a42	0.020543221
166	0x3d65ab36	0.056071483
167	0x3ef44cdd	0.47714892
168	0x3dd41f12	0.10357489
169	0xbd3755d9	-0.044759605
170	0x3e3a4b63	0.1819282
171	0xbee6489e	-0.44977278
172	0xbe068ef0	-0.13140464
173	0x4029fca9	2.6560462
174	0x403df2e2	2.9679494
175	0x4043b55a	3.0579438
176	0xbe12db87	-0.14341556
177	0xbbfb76f1	-0.007674091
178	0xbdd92d06	-0.10604291
179	0x3fe9518b	1.822801
180	0xbbb80493	-0.0056157797
181	0x3d1ffe7f	0.039061066
182	0x3f5e2ec7	0.86790127
183	0x40952cea	4.6617327
184	0xbbad9240	-0.0052969754
185	0x3ff0f152	1.8823645
186	0xbe517e5b	-0.20458357
187	0xbfc922c2	-1.5713732
188	0xbe3f1178	-0.18659008
189	0xbff0051d	-1.875156
190	0xc003834a	-2.0548882
191	0x3fa17bf4	1.2615952
192	0x4080bae5	4.0228143
193	0x40748d04	3.821107
194	0xbde6c2f4	-0.11267653
195	0x3d17c015	0.037048418
196	0x3da7ce2d	0.08193622
197	0x3ea9b8b5	0.33148733
198	0x3e62ce25	0.2214895
199	0x3d360c03	0.04444505
200	0x4011dc2e	2.2790637
201	0xbdee30e2	-0.116304174
202	0x3f7ac5a2	0.97957814
203	0xbd40a61c	-0.047033414
204	0x406d5578	3.7083416
205	0x3db879b9	0.09007592
206	0x3f9e31fa	1.2359002
207	0xbdb7c595	-0.08973233
208	0x3dcf2734	0.10114899
209	0x4036e130	2.8574944
210	0x3d94348f	0.07236587
211	0x3c8ef7ff	0.017452238
212	0xbe15ddfc	-0.14635462
213	0xbd30b69d	-0.043142904
214	0xbd48ffca	-0.049072064
215	0xbe4536f4	-0.19259244
216	0x3fb0639f	1.3780402
217	0x3ca2d6a3	0.019877737
218	0x3dc496c5	0.095990695
219	0x3faaccbb	1.3343729
220	0x3f35423e	0.708042
221	0xbf6b7c0e	-0.9198617
222	0xbf1b84f3	-0.6074974
223	0xbdf41588	-0.11918169
224	0x3e1f4b38	0.15556037
225	0x410602e8	8.37571
226	0xbeaaaa3e	-0.3333301
227	0x403197ec	2.7748976
228	0x3d48d723	0.049033295
229	0x3dcd460c	0.10023126
230	0xbdfff880	-0.124985695
231	0x3f54b090	0.83081913
232	0x3d022aaa	0.03177897
233	0x3daebb06	0.08531766
234	0x3f07ec83	0.53095263
235	0xbe4b4626	-0.19850978
236	0xbd644123	-0.05572618
237	0x3fb53e92	1.415972
238	0x409979f9	4.7961392
239	0x3f3b41be	0.7314719
240	0x3c587a84	0.013212804
241	0xbfb0f716	-1.3825405
242	0xbc58ba1f	-0.0132279685
243	0x4076a317	3.8537042
244	0xbdf68fad	-0.12039123
245	0xbd0febc4	-0.035136953
246	0x3fabb3ef	1.3414286
247	0x4094d382	4.650819
248	0x3c9b8270	0.018983096
249	0x3e784b44	0.24247462
250	0x3e92d2f7	0.28676578
251	0xbfc81699	-1.5631896
252	0x3c11fcbc	0.008910354
253	0x3f0933e2	0.5359479
254	0xbf7f4079	-0.9970775
255	0xbb5144b3	-0.0031931817

model.4.bias f4 [8]
0	0xbf1e7f1e	-0.61912715
1	0x3edd89fd	0.4326934
2	0xbf878b5f	-1.0589408
3	0xbfb2781e	-1.3942907
4	0xbfb70c55	-1.4300638
5	0xbf441f57	-0.7661032
6	0xbf881211	-1.0630513
7	0x3e147431	0.14497449
