train_pygame/stored/closer_bigbig_reward_0000.pth (torch, 29997 bytes, 6 tensors)

model.0.weight f4 [64, 30]
0	0xbe2aed5a	-0.16692105
1	0x3d167a4a	0.036737718
2	0x3ce5efbc	0.028068416
3	0x3e0f50cf	0.1399567
4	0xbde59039	-0.11209149
5	0x3de4423f	0.11145448
6	0xbdbdfff8	-0.09277338
7	0x3e1e63af	0.15467714
8	0x3e19b8b7	0.1501187
9	0x3c703161	0.01466021
10	0x3d1f13d3	0.038837265
11	0xbe122c05	-0.14274605
12	0xbd8ca888	-0.06868082
13	0xbd49eb0d	-0.049296428
14	0xbdd0ea33	-0.1020092
15	0x3e105787	0.14095889
16	0x3dcd8935	0.10035936
17	0xbe0e40fb	-0.13891976
18	0x3e2e2b3f	0.17008685
19	0xbe18d635	-0.14925463
20	0x3da92737	0.08259433
21	0x3c63e3d1	0.013909296
22	0x3d3bd0ff	0.04585361
23	0xbe4105b0	-0.18849826
24	0xbd46b525	-0.048512597
25	0xbc2d7f4d	-0.010589433
26	0x3d9955ba	0.07487054
27	0xbd34bd16	-0.04412564
28	0x3d36a072	0.044586606
29	0x3da6f0e2	0.081514135
30	0x3c0e1398	0.008671664
31	0x3da8c42e	0.08240543
32	0xbd98de07	-0.07464223
33	0x3dacc196	0.08435361
34	0xbd3a3b78	-0.04546687
35	0x3d8817aa	0.066451386
36	0x3d1a7759	0.037711475
37	0xbe3d7374	-0.18501073
38	0xbdc26415	-0.094917454
39	0xbc9218cf	-0.017834095
40	0xbdd23331	-0.1026367
41	0xbab97c4a	-0.0014151421
42	0x3e1b8061	0.15185691
43	0xbd994ead	-0.07485709
44	0xbe344741	-0.17605306
45	0xbd0df852	-0.034660645
46	0xbd5a1fa0	-0.053252816
47	0xbdc6e140	-0.09710932
48	0xbda8e8cc	-0.082475275
49	0x3e118ce1	0.14213897
50	0xbdcd9f66	-0.100401685
51	0xbc095bb1	-0.008383677
52	0x3e0175bd	0.1264257
53	0x3e0040cb	0.12524717
54	0xbe399fcb	-0.18127362
55	0x3d228180	0.039674282
56	0x3e0cd981	0.13754846
57	0x3dab0da6	0.083522126
58	0x3dbdb91a	0.09263821
59	0xbde73d5f	-0.112910025
60	0x3ca563e0	0.020189226
61	0x3c968840	0.018375516
62	0x3d448474	0.04797788
63	0xbe012262	-0.12610772
64	0xbe27f414	-0.16401702
65	0xbe2cfa21	-0.16892292
66	0xbd784da4	-0.06062092
67	0xbdfa6894	-0.12226978
68	0xbb27a6c0	-0.0025581568
69	0x3da0ee48	0.078579485
70	0xbd8b47d9	-0.06800813
71	0x3ba73080	0.005102217
72	0xbe36a7b2	-0.17837408
73	0x3e127072	0.14300707
74	0x3daf2bb4	0.085532576
75	0x3ded4918	0.11586207
76	0x3dd895fc	0.10575482
77	0xbe39e43c	-0.18153471
78	0x3db260f8	0.087099016
79	0xbe2032da	-0.15644398
80	0x3d89d37c	0.067297906
81	0xbcb844b0	-0.02249369
82	0xbd7652c0	-0.06013751
83	0xbcbbb4d8	-0.022913381
84	0xbe211306	-0.15729913
85	0x3e14b316	0.14521441
86	0x3e31752e	0.17329857
87	0x3dc615c8	0.09672123
88	0x3ba3e820	0.0050020367
89	0xbcdef750	-0.027217537
90	0x3e1c6b54	0.15275317
91	0xbddd54b0	-0.108071685
92	0xbcdb5238	-0.026772603
93	0xbe288802	-0.16458133
94	0x3dbc2958	0.09187573
95	0xbdaf9f8b	-0.08575352
96	0xbd249284	-0.04017879
97	0xbe2bf315	-0.16791947
98	0xbdc1d00d	-0.09463511
99	0x3d08a5a0	0.033361077
100	0xbd48f50c	-0.04906182
101	0x3da84adc	0.08217403
102	0x3dad29a4	0.08455208
103	0x3e2b51e4	0.16730458
104	0xbd9dd6ab	-0.0770696
105	0x3e22b584	0.15889555
106	0xbe0f1d8e	-0.13976118
107	0xbe0dbf91	-0.13842608
108	0xbdb7a77d	-0.08967493
109	0xbd6661e0	-0.056245685
110	0x3ccc5af0	0.024945706
111	0xbdab37b1	-0.08360232
112	0xbd5874d0	-0.052845776
113	0xbe1bdf37	-0.15221868
114	0x3c922eb8	0.017844543
115	0x3df89344	0.12137464
116	0x3e0caf7a	0.13738814
117	0xbde7e22e	-0.11322437
118	0xbc6359a0	-0.013876349
119	0xbd5df0a8	-0.054184586
120	0x3d8618e4	0.06547716
121	0x3cb225e0	0.021746576
122	0xbe32d33a	-0.17463389
123	0xbd90b73c	-0.07066199
124	0xbe062bf4	-0.13102704
125	0xbc79dc50	-0.0152502805
126	0xbd6a5028	-0.05720535
127	0xbd4cd788	-0.050010234
128	0xbdb9b7bb	-0.09068247
129	0xbd621d7c	-0.0552039
130	0xbd18b458	-0.037281364
131	0x3ddfd204	0.10928729
132	0xbb117280	-0.0022193491
133	0xbe23a123	-0.15979438
134	0xbe2518e7	-0.1612278
135	0xbe077ece	-0.13231966
136	0x3d886972	0.06660737
137	0x3d83bc42	0.06432392
138	0xbe298775	-0.16555579
139	0x3dc82f38	0.09774631
140	0x3bc2e960	0.0059482306
141	0xbd7fc26a	-0.062441267
142	0xbdea2f8b	-0.11434849
143	0xbd459f44	-0.04824759
144	0x3d82e8d4	0.06392065
145	0xbe253204	-0.1613236
146	0x3aa66a00	0.0012696385
147	0xb81ec000	-3.784895e-05
148	0x3d7c5f58	0.061614364
149	0xbd9f910c	-0.07791337
150	0x3b27db80	0.002561301
151	0xbd85d648	-0.065350115
152	0xbd912c00	-0.070884705
153	0x3dd33e00	0.1031456
154	0xbd8bd128	-0.06827003
155	0xbc2e18a0	-0.010625988
156	0x3cd95178	0.026528105
157	0xbd607384	-0.054797664
158	0x3e029d9a	0.12755433
159	0x3d6db73c	0.058036074
160	0x3d29ce30	0.0414564
161	0xbd5db198	-0.054124445
162	0x3e057c7e	0.13035771
163	0xbe02a788	-0.1275922
164	0x3e273b1c	0.16331142
165	0xbd3521ac	-0.044221565
166	0xbd3ed0a8	-0.04658571
167	0xbe304695	-0.17214425
168	0xba966a80	-0.0011475831
169	0xbe08bdb9	-0.13353623
170	0xbe126561	-0.14296485
171	0xbdeefd3f	-0.116693966
172	0xbdea6832	-0.11445655
173	0xbd66f5bc	-0.056386694
174	0x3d88174e	0.0664507
175	0xbd105a80	-0.035242558
176	0x3ba1c3e0	0.00493668
177	0xbdb1131b	-0.08646222
178	0xbd57dc10	-0.052700102
179	0xbe24fcaa	-0.16112009
180	0xbcc4042d	-0.023927772
181	0x3e2102ff	0.15723799
182	0xbe051777	-0.12997232
183	0x3e12910a	0.1431314
184	0x3e0d78e2	0.13815644
185	0x3de79f2d	0.11309657
186	0xbdb446fd	-0.088026024
187	0xbe02e3ab	-0.12782161
188	0xbdc83b52	-0.097769395
189	0x3cc822a2	0.024430577
190	0xbd15e6ad	-0.036596943
191	0xbd5da903	-0.05411626
192	0x3d50f6fa	0.051016785
193	0x3da171b2	0.07883014
194	0xbd094dac	-0.03352134
195	0xbdb93406	-0.09043126
196	0xbd384bf5	-0.044994313
197	0x3e354191	0.17700793
198	0x3d868614	0.06568542
199	0x3e083a77	0.13303553
200	0x3bab3b70	0.0052255914
201	0xbd0d1329	-0.0344421
202	0xbd943dcb	-0.072383486
203	0x3e281463	0.16414027
204	0x3de91f15	0.113828816
205	0xbe122a52	-0.14273956
206	0xbe271d2c	-0.16319722
207	0x3dee8d87	0.11648088
208	0xbd583d75	-0.052792985
209	0x3e05ec0b	0.13078324
210	0xbd989cf0	-0.074518085
211	0x3dd442e9	0.103643246
212	0x3dd9dd4b	0.106379114
213	0x3dab5a21	0.083668
214	0xba38d5f2	-0.00070509233
215	0xbd2785ba	-0.040899016
216	0x3c712b7c	0.01471984
217	0x3d59702a	0.053085484
218	0xbe0ab41f	-0.13545273
219	0x3e252769	0.16128315
220	0x3d24f01c	0.04026805
221	0xbdafee93	-0.08590426
222	0x3df84121	0.12121797
223	0xbd43c6bb	-0.047796946
224	0x3d99cd17	0.07509821
225	0xbca4c80f	-0.020114927
226	0xbe189691	-0.14901187
227	0x3cfe436c	0.031038009
228	0x3ddc1b4b	0.10747393
229	0xbc39dda2	-0.011344345
230	0x3de345a9	0.11097271
231	0x3df03a0d	0.11729822
232	0x3cd8c012	0.026458774
233	0xbe01d983	-0.1268063
234	0xbde5eab7	-0.11226409
235	0x3d78f8c6	0.060784124
236	0xbdd4dbc2	-0.10393478
237	0xbd91349e	-0.07090114
238	0xbe06d913	-0.13168745
239	0xbabb429a	-0.0014286817
240	0xbcb5ebe0	-0.0222072
241	0x3b9d2660	0.0047958344
242	0xbddde3c8	-0.108344615
243	0x39bf2800	0.0003646016
244	0x3deacc34	0.1146473
245	0xbe0de5a2	-0.13857129
246	0x3e2dca50	0.16971707
247	0xbddc4256	-0.1075484
248	0xbd03f9d4	-0.032220677
249	0x3dbd27ec	0.0923613
250	0xbde29eb4	-0.110654265
251	0x3de006f8	0.10938829
252	0xbd5e6cb8	-0.0543029
253	0xbd511614	-0.051046446
254	0xbd4b0518	-0.049565405
255	0xbde85421	-0.11344171

model.0.bias f4 [64]
0	0x3cefdb65	0.02927942
1	0xbd40ecdb	-0.047100883
2	0xbd5a7418	-0.053333372
3	0xbd3379e8	-0.04381743
4	0xbd915bf9	-0.070976205
5	0xbe379a7e	-0.17930028
6	0xbd52e66f	-0.05148929
7	0xbd92c41d	-0.07166312
8	0x3d28a198	0.041169733
9	0x3d676854	0.05649598
10	0x3e0d9281	0.13825418
11	0x3e215a94	0.15757209
12	0xbc2aff26	-0.010436809
13	0xbdfa57ec	-0.12223801
14	0x3de3521a	0.11099644
15	0xbd089351	-0.033343617
16	0x3e00b48c	0.12568873
17	0x3e14d0b1	0.14532734
18	0xbdc7e2ae	-0.097600326
19	0x3c6f73f0	0.014615044
20	0x3d390ad4	0.045176342
21	0x3b791340	0.0038005859
22	0xbd5dd2d2	-0.054156132
23	0xbe19184e	-0.14950678
24	0x3d9a5e40	0.07537508
25	0xbda7c093	-0.081910275
26	0x3e392c79	0.18083371
27	0xbd395e5d	-0.045256007
28	0x3decb59c	0.11558077
29	0xbdd4f167	-0.10397606
30	0xbd8c77e5	-0.068588056
31	0x3e38e7ec	0.18057221
32	0xbe08d094	-0.13360816
33	0x3e048538	0.12941444
34	0xbe3237ce	-0.174041
35	0xbce3ca28	-0.027806357
36	0x3e1967bc	0.14980978
37	0x3c5175c9	0.01278443
38	0x3e0cb8de	0.13742396
39	0x3d988206	0.07446675
40	0xbdbd1e00	-0.09234238
41	0xbdf2d6ed	-0.118574
42	0xbe1db4d2	-0.15401009
43	0x3dca81c4	0.09888032
44	0x3d8c0b14	0.068380505
45	0xbdf36d25	-0.11886052
46	0x3e003030	0.12518382
47	0xbe055558	-0.13020837
48	0xbe0355cc	-0.12825698
49	0x3d4930af	0.049118694
50	0xbd2644c0	-0.04059291
51	0x3c6f1690	0.014592782
52	0x3dc023f5	0.09381858
53	0x3e0ffb90	0.14060807
54	0x3dd71e70	0.10503852
55	0xbd653bd0	-0.055965245
56	0x3e0edf4f	0.13952373
57	0xbdcc88b1	-0.09987009
58	0xbdede43a	-0.116157964
59	0x3e0430a5	0.12909181
60	0xbda08cee	-0.0783938
61	0x3e2e871d	0.17043729
62	0xbd785b3d	-0.060633887
63	0x3d9f3fd4	0.07775846

model.2.weight f4 [64, 64]
0	0xbdf8f25a	-0.121556
1	0x3da496a0	0.08036542
2	0x3d9ace36	0.07558863
3	0x3c2c13d0	0.010502771
4	0xbdc73f9c	-0.097289294
5	0x3d84cbae	0.06484161
6	0xbc7cfbf0	-0.015440926
7	0x3dd35022	0.103180185
8	0x3d8ab984	0.067736655
9	0x3d81384a	0.063095644
10	0xbcb08a70	-0.021550387
11	0x3cef1108	0.029182926
12	0x3d0a565c	0.033773765
13	0x3dd173d2	0.10227169
14	0xbdcde5fa	-0.1005363
15	0x3d79d4e0	0.06099403
16	0xbaf10380	-0.0018387884
17	0xbd04bec4	-0.03240849
18	0x3d7a72f8	0.0611448
19	0x3b94f060	0.0045452565
20	0xbc125a20	-0.00893262
21	0x3df2423a	0.11829038
22	0xbdd9fd76	-0.10644047
23	0xbd39a580	-0.04532385
24	0xbc0a8730	-0.008455083
25	0xbcfd1620	-0.03089434
26	0x3d872bf4	0.0660018
27	0xbcd32860	-0.025776088
28	0x3d531470	0.051533163
29	0xbd9b49d4	-0.07582441
30	0x3da02462	0.078194395
31	0x3d48f5dc	0.049062595
32	0xbd04106c	-0.032242224
33	0xbce74a90	-0.028233796
34	0xbc18f250	-0.009335116
35	0xbdcdc2a6	-0.10046892
36	0x3b8ec980	0.0043575168
37	0xbdd8680a	-0.10566719
38	0xbce6b460	-0.028162181
39	0xbd189984	-0.03725578
40	0xbdc3e0a6	-0.09564333
41	0x3c87b4c8	0.016565695
42	0x3dbcf672	0.09226693
43	0x3cf3eb30	0.029775232
44	0x3dc79cb4	0.097466856
45	0x3de458ce	0.11149751
46	0xbc3408b0	-0.010988399
47	0xbdb04f8c	-0.08608922
48	0x3d65bf98	0.05609092
49	0xbd899f86	-0.0671988
50	0x3d2b6970	0.0418486
51	0x3dbbe482	0.09174444
52	0x3def9d7c	0.1169996
53	0x3d643098	0.055710405
54	0xbd31d62c	-0.04341714
55	0xbde8e6a0	-0.11372113
56	0x3d8fcbb4	0.07021275
57	0x3dfe1410	0.1240617
58	0xbc0d8c90	-0.00863947
59	0xbdfd0b5e	-0.12355684
60	0x3ddaf4e6	0.10691242
61	0xbdffefc6	-0.12496905
62	0x3df2d0e8	0.11856252
63	0x3df548ac	0.11976752
64	0x3df822e0	0.12116027
65	0x3dfc6e04	0.12325671
66	0x3d31cdd4	0.043409184
67	0x3da34708	0.079725325
68	0x3d81c88a	0.06337078
69	0xbdb9fc60	-0.0908134
70	0xbde351de	-0.11099599
71	0xbdaab304	-0.08334926
72	0x3d83d600	0.06437302
73	0xbdafa948	-0.0857721
74	0x3bc778a0	0.0060873777
75	0x3dbc9392	0.09207834
76	0xbdc2c860	-0.09510875
77	0x3d6718f0	0.056420267
78	0xbdbc35da	-0.09189959
79	0xbc35a110	-0.011085764
80	0xbdf9d22c	-0.1219829
81	0x3dd7b7c8	0.105331
82	0xbd944e24	-0.07241467
83	0x3dfc400a	0.12316902
84	0x3d67bce4	0.056576625
85	0xbd0c0b20	-0.034190297
86	0x3decf786	0.11570649
87	0xbdaa1f82	-0.08306791
88	0xbd986e08	-0.07442862
89	0x3cc601f0	0.024170846
90	0xbd4dcc94	-0.05024393
91	0x3daa654c	0.08320102
92	0xbd846c52	-0.06465973
93	0x3d1a7100	0.03770542
94	0xbd7844f8	-0.06061265
95	0x3dedc068	0.11608964
96	0x3de1783a	0.110092595
97	0xbd41df10	-0.04733187
98	0xbc651a70	-0.013983354
99	0x3d29ae6c	0.041426107
100	0xbdbdad2e	-0.09261547
101	0x3df525fc	0.119701356
102	0xbcc54ae8	-0.02408357
103	0xbdf908e0	-0.12159896
104	0x3dd80404	0.10547641
105	0x3dd5566a	0.10416873
106	0x3df20bf6	0.118186876
107	0x3d655c6c	0.055996343
108	0xbdcc815a	-0.09985609
109	0x3c8fd710	0.017558604
110	0xbdb9db36	-0.09075014
111	0xbbc71180	-0.006075084
112	0x3d8a94bc	0.0676665
113	0xbdafb7cc	-0.08579978
114	0x3de44006	0.11145024
115	0x3d90d56a	0.070719555
116	0xbdeef382	-0.11667539
117	0x3c004b60	0.007830471
118	0x3d3b6ca0	0.04575789
119	0x3d7e1fbc	0.062041983
120	0xbdcad276	-0.099034235
121	0x3dd2ce4a	0.10293253
122	0xbae7de00	-0.0017690063
123	0xbd3d27a8	-0.046180397
124	0xbdb90a76	-0.090351984
125	0x3d73a230	0.059480846
126	0x3c6f6940	0.014612496
127	0xbdf3c684	-0.11903098
128	0xbd961428	-0.07328063
129	0xbdce00dc	-0.10058758
130	0xbde51866	-0.11186294
131	0xbcd9ad98	-0.026572034
132	0x3c390150	0.011291817
133	0x3da27420	0.07932305
134	0xbdd70a1a	-0.104999736
135	0x3b590ac0	0.003311798
136	0x3dac7410	0.08420575
137	0x3dc48d06	0.095972106
138	0xbde444b6	-0.11145918
139	0x3cb3bbe8	0.021940187
140	0x3d24e998	0.040261835
141	0xbd9fb148	-0.077974856
142	0xbdee5bc2	-0.11638595
143	0xbd909248	-0.07059151
144	0xbd6103f0	-0.054935396
145	0xbc01f150	-0.007931069
146	0x3d8016a4	0.06254318
147	0xbda6e72a	-0.0814956
148	0x3d027c14	0.03185661
149	0xbd264abc	-0.040598616
150	0x3da86fda	0.08224459
151	0x3dfcfda0	0.12353063
152	0xbda9228a	-0.08258541
153	0x3d7ae930	0.06125754
154	0xbd574368	-0.052554518
155	0x3dd36168	0.10321313
156	0xbb8a9c80	-0.004230082
157	0xbd84b270	-0.06479347
158	0x3d87f54c	0.066385835
159	0x3dbcc1f0	0.09216678
160	0xbcc2e9a8	-0.023793057
161	0xbdc12ab4	-0.09431973
162	0xbd0f9ef0	-0.035063684
163	0xbde6aa24	-0.112629205
164	0x3dfcdd2e	0.12346874
165	0xbd806e0e	-0.06270991
166	0xbd9a0536	-0.07520525
167	0xbdde062c	-0.10841021
168	0xbdb0c372	-0.08631028
169	0xbd91b690	-0.07114899
170	0x3ddfcc74	0.10927668
171	0x3de27f08	0.110593855
172	0xbdad7e98	-0.084714115
173	0x3b798d00	0.0038078427
174	0xbd9e2e02	-0.07723619
175	0xbbb0f060	-0.0053997487
176	0xbd589f44	-0.052886263
177	0x3de1ff6a	0.110350445
178	0x3d2259e4	0.039636508
179	0x3ded529a	0.115880206
180	0xbdefd84c	-0.11711177
181	0x3dbb8d3e	0.09157799
182	0x3d5c0fb8	0.053725928
183	0xbdffc7f6	-0.124893114
184	0x3ddd93c6	0.10819201
185	0xbd9992ea	-0.07498725
186	0xbdb5a65a	-0.0886962
187	0x3c0105e0	0.007874936
188	0x3c98f628	0.018672064
189	0xbde80d1a	-0.11330624
190	0x3da16b84	0.07881835
191	0x3c4c35f0	0.012464032
192	0x3d5b64f4	0.053563073
193	0xbda5a8aa	-0.08088811
194	0x3cea4978	0.028599486
195	0xbdcf5266	-0.10123138
196	0x3d760ae0	0.060068965
197	0x3d3c8a5c	0.046030387
198	0x3dd9878e	0.10621558
199	0xbcf76640	-0.030200124
200	0x3d17a760	0.037024856
201	0xbd39b3fc	-0.045337662
202	0xbd90846e	-0.07056509
203	0x3cc381a8	0.023865536
204	0xbd5236e0	-0.051321864
205	0xbdda803e	-0.106689915
206	0xbcb56cf0	-0.022146672
207	0xbd8f9584	-0.0701094
208	0xbde04b64	-0.109518796
209	0xbd4e8820	-0.050422788
210	0x3d261664	0.040548697
211	0x3c1e5b00	0.009665251
212	0xbd4abb98	-0.04949531
213	0xbd27a624	-0.04092993
214	0xbd310438	-0.043216914
215	0xbd85da1c	-0.06535742
216	0x3da7a9f2	0.08186711
217	0xbddc5b1e	-0.10759567
218	0x3cf81698	0.030284211
219	0x3df8a2e8	0.12140447
220	0x3df3b76e	0.11900221
221	0xbcac54c0	-0.021036506
222	0xbd886b42	-0.06661083
223	0xbab6cc00	-0.0013946295
224	0x3d6ea828	0.058265835
225	0xbd897bba	-0.06713052
226	0xbcb16b40	-0.021657586
227	0xbce52d48	-0.027975693
228	0x3dfa78dc	0.12230083
229	0xbdfda78e	-0.12385474
230	0x3defd9ca	0.11711462
231	0xbdebf2dc	-0.11520931
232	0x3ccad100	0.024757862
233	0xbd0aa558	-0.03384909
234	0xbd047500	-0.032338142
235	0x3d8022ea	0.06256659
236	0x3d425dac	0.047452614
237	0xbc8079c8	-0.01568307
238	0xbc3489f0	-0.011019215
239	0xbdc5ac10	-0.09651959
240	0xbd7bccb8	-0.061474532
241	0xbd9de544	-0.077097446
242	0xba258c00	-0.0006315112
243	0xbde4df94	-0.11175457
244	0x3b04d180	0.0020266473
245	0x3c21bd80	0.0098718405
246	0x3d44c83c	0.04804252
247	0x3dd2eb44	0.102987796
248	0x3d56c4c4	0.052433744
249	0xbddc8290	-0.1076709
250	0xbdd790e0	-0.105256796
251	0xbdd624da	-0.10456248
252	0x3d840dfa	0.06447978
253	0xbd64fba0	-0.05590403
254	0xbdbf745a	-0.09348364
255	0xbcd61e10	-0.026137382

model.2.bias f4 [64]
0	0xbcb93180	-0.022606611
1	0xbd2e54ac	-0.04256122
2	0xbdab1b22	-0.083547845
3	0x3d979876	0.074021265
4	0xbc0368ac	-0.008020561
5	0xbdba01c1	-0.09082366
6	0xbc5895c0	-0.013219297
7	0xbd9abb3f	-0.075552456
8	0x3d8d3488	0.06894785
9	0x3d185cd0	0.037197888
10	0xbc8615fb	-0.016367903
11	0xbd928334	-0.07153931
12	0x3dea378a	0.114363745
13	0x3e04cca0	0.12968683
14	0x3cbd7b28	0.023130015
15	0x3c9a6066	0.018844794
16	0x3e09bdb5	0.13451274
17	0xbd553a19	-0.05205736
18	0x3c4a7e20	0.012359172
19	0x3da3686e	0.07978903
20	0xbb728d2c	-0.0037010415
21	0x3c931098	0.017952248
22	0xbce50ce8	-0.027960256
23	0xbd06ef5c	-0.032943115
24	0x3d8ec79c	0.06971666
25	0x3c144ec6	0.009051984
26	0x3d77785e	0.060417525
27	0x3dfc77e4	0.12327555
28	0x3d54c64e	0.05194693
29	0x3df5a557	0.11994427
30	0x3a64f818	0.00087344786
31	0x3dda805c	0.10669014
32	0x3dda7e5c	0.106686324
33	0x3dc013a0	0.09378743
34	0xbc7db0ca	-0.015484044
35	0x3d4bf513	0.049794268
36	0xbd8a0674	-0.06739512
37	0x3df38b18	0.118917644
38	0xbd908d87	-0.07058244
39	0x3df2a763	0.11848333
40	0x3dd96008	0.1061402
41	0xbc5bab84	-0.013407592
42	0xbde6c354	-0.11267725
43	0x3df9399c	0.12169191
44	0x3d8ae1df	0.06781363
45	0xbd938770	-0.07203567
46	0x3d4bf029	0.04978958
47	0xbce9a19d	-0.028519446
48	0xbbfcc5da	-0.0077140154
49	0x3bf85432	0.0075783962
50	0x3baad11d	0.0052129165
51	0xbdae9078	-0.08523649
52	0x3c5e6399	0.013573551
53	0x3df1af48	0.1180101
54	0xbd94b0da	-0.07260294
55	0xbdad782b	-0.08470186
56	0x3da9c862	0.08290173
57	0xbc4c5098	-0.012470387
58	0x3d8c023a	0.06836362
59	0xbdd4939a	-0.10379715
60	0x3c5d3c14	0.013503093
61	0xbc9d9e2a	-0.019240458
62	0x3d38a00e	0.045074515
63	0x3d066148	0.03280762

model.4.weight f4 [8, 64]
0	0xbd00ff64	-0.03149356
1	0xbd972864	-0.07380751
2	0x3dc405b2	0.09571399
3	0x3d3008d8	0.042977184
4	0xbbb3c519	-0.0054861424
5	0x3ddd5cfe	0.108087525
6	0xbcb1b980	-0.021694899
7	0xbd1c063b	-0.03809188
8	0x3e08b17e	0.13348958
9	0x3d3e6c64	0.046490088
10	0x3c63a438	0.013894133
11	0xbde3e1c2	-0.11127044
12	0x3c9b0a20	0.018925726
13	0x3d58dbb0	0.052943885
14	0xbc5d41f0	-0.01350449
15	0xbd8710f4	-0.065950304
16	0xbda7e088	-0.08197123
17	0x3ddbdbb8	0.107352674
18	0x3d165bdc	0.036708698
19	0xbd123af6	-0.03570076
20	0x3da0a23c	0.07843444
21	0x3d2e6c2f	0.04258364
22	0x3d5ab004	0.053390518
23	0x3bc7c4e1	0.006096468
24	0x3d51dd04	0.051236168
25	0xbd816ab0	-0.06319177
26	0x3dac6242	0.08417179
27	0x3de8df58	0.113707244
28	0xbd5e4237	-0.054262366
29	0x3de43dc5	0.11144594
30	0xbd85eeb2	-0.06539668
31	0xbbb143c0	-0.0054096878
32	0x3c2abf1f	0.010421543
33	0xbd648a51	-0.05579597
34	0xbd645d79	-0.055753205
35	0x3db43983	0.08800032
36	0x3dd2120c	0.102573484
37	0x3dfda002	0.12384035
38	0x3d72b173	0.05925126
39	0x3dde5ddd	0.10857747
40	0xbd47d06c	-0.04878275
41	0x3d22143c	0.03957008
42	0x3de9d6a8	0.114178956
43	0xbd77a560	-0.06046045
44	0x3e113305	0.14179619
45	0x3d968aa8	0.07350665
46	0xbc82369a	-0.015895177
47	0x3d9c5a4d	0.07634411
48	0xbd4fd1ca	-0.05073718
49	0x3cc6af8f	0.024253635
50	0x3dbc0fcd	0.09182701
51	0xbd9ebdd8	-0.077510536
52	0xbd296e33	-0.04136486
53	0x3d3fd1d8	0.046830982
54	0x3c698490	0.014252797
55	0x3cd17b7f	0.025571583
56	0xbe600770	-0.21877837
57	0x3dd29c20	0.10283685
58	0xbd07e535	-0.033177573
59	0x3db36d40	0.08761072
60	0xbde7faad	-0.113271095
61	0x3cb734bd	0.022364015
62	0xbdd4c8b1	-0.10389841
63	0x3ba75480	0.0051065087
64	0xbdc4198e	-0.09575187
65	0xbddfd2a8	-0.10928851
66	0x3d0b1608	0.033956558
67	0xbd67dce8	-0.056607157
68	0xbdadb115	-0.08481041
69	0x3dd43540	0.10361719
70	0x3cb3da48	0.02195467
71	0xbb44cb71	-0.0030028487
72	0x3d0ecf95	0.034865934
73	0xbd88c446	-0.06678061
74	0xbd9369c9	-0.07197911
75	0x3ded064a	0.11573465
76	0x3c753fc0	0.0149688125
77	0xbdd1f004	-0.102508575
78	0xbd8db8a6	-0.069199845
79	0x3df74913	0.12074485
80	0x3d6b785b	0.057487827
81	0xbc602b29	-0.013682165
82	0xbdc4a1e8	-0.09601194
83	0xbda1aa9c	-0.07893869
84	0xbdb43b1d	-0.088003375
85	0xbd0d20e7	-0.034455206
86	0x3db1ec46	0.08687644
87	0xbdeb8751	-0.11500419
88	0xbdc95c30	-0.098320365
89	0x3d70f3e4	0.058826342
90	0xbdac084a	-0.084000185
91	0x3dba92ec	0.091100544
92	0xbdac6bf3	-0.08419027
93	0x3d7d9062	0.061905272
94	0x3e0ea42b	0.13929813
95	0x3d4d8758	0.050177902
96	0x3d2c5ad7	0.04207882
97	0xbde4cc4e	-0.111717805
98	0x3dd2a0f5	0.10284606
99	0x3d31cc5d	0.043407787
100	0xbdcf42ac	-0.101201385
101	0xbd31b620	-0.04338658
102	0x3d69a37a	0.05704067
103	0x3e0b0c71	0.13578965
104	0x3dcb5a2e	0.0992931
105	0x3d75036f	0.059817728
106	0x3dd6d044	0.10488942
107	0x3cd08378	0.025453314
108	0xbdc839c2	-0.097766414
109	0xbd290c80	-0.041271687
110	0x3bc8021e	0.006103768
111	0x3d3ec162	0.046571143
112	0xbd9592ab	-0.07303365
113	0xbcc2c7aa	-0.023776848
114	0x3d3e9abc	0.046534285
115	0x3daa1930	0.083055854
116	0xbd14906d	-0.036270548
117	0x3d3f8074	0.04675336
118	0xbd2005a0	-0.039067864
119	0xbd8de091	-0.06927598
120	0xbe053d47	-0.13011657
121	0xbcfd158a	-0.03089406
122	0x3d737457	0.059437122
123	0xbd8e41bb	-0.06946131
124	0xbdcbdd4f	-0.09954321
125	0xbd9c9446	-0.076454684
126	0xbd3043c2	-0.04303337
127	0x3d024e98	0.031813234
128	0x3cb70f20	0.02234608
129	0x3d993f28	0.07482749
130	0x3ddf0662	0.10889889
131	0xbd1c2074	-0.038116887
132	0xbdc7e27c	-0.09759995
133	0x3d2f0905	0.04273321
134	0x3da22c18	0.079185665
135	0x3da0a36d	0.07843671
136	0x3dafa992	0.08577265
137	0xbc3269d0	-0.0108894855
138	0x3d1cdd2e	0.03829687
139	0x3d5fb88c	0.054619357
140	0xbd31fa64	-0.04345168
141	0x3dd6cd7e	0.10488413
142	0x3ce1c608	0.027560249
143	0x3d88edc3	0.066859744
144	0x3df556e1	0.119794615
145	0x3cd92c09	0.026510255
146	0x3dae1698	0.08500403
147	0xbdd84522	-0.10560061
148	0x3dce65c0	0.10078001
149	0xbdb427d6	-0.087966606
150	0x3dcb0608	0.0991326
151	0x3d9595bd	0.07303951
152	0x3cbb0230	0.022828192
153	0x3d5e9926	0.054345272
154	0x3db4f8a3	0.08836486
155	0x3d8ca67c	0.06867692
156	0x3d968df8	0.07351297
157	0xbcb82d85	-0.022482643
158	0xbde2b6e1	-0.11070038
159	0x3dfb3570	0.12266052
160	0xbd869d31	-0.06572951
161	0x3df605ae	0.12012802
162	0x3d82c4db	0.063852035
163	0x3cdda3a5	0.02705557
164	0xbcd4a828	-0.02595909
165	0x3d251110	0.040299475
166	0xbdd291de	-0.10281728
167	0x3d31f732	0.043448634
168	0x3d20cf2c	0.039260074
169	0x3d8f99d6	0.07011764
170	0xbcaec020	-0.021331847
171	0x3d5fc104	0.054627433
172	0x3d76ee58	0.060285896
173	0xbdc0ef42	-0.09420635
174	0xbdc46ac9	-0.0959068
175	0x3d939586	0.07206254
176	0x3c1bf4d8	0.0095188245
177	0xbd5204ef	-0.051274236
178	0x3d1553a2	0.03645671
179	0xbc806b28	-0.015676096
180	0xbd755503	-0.059895527
181	0x3d466448	0.04843548
182	0xbd413a10	-0.047174513
183	0x3d3048ba	0.043038107
184	0xbe4247ef	-0.18972753
185	0xbd12a327	-0.035800125
186	0x3d9e4829	0.07728607
187	0x3dd02e25	0.10165051
188	0x3d665970	0.056237638
189	0xbd2ecf0c	-0.042677924
190	0x3ddaba4b	0.10680064
191	0x3dd622ca	0.10455854
192	0x3db32b1c	0.08748457
193	0x3da0b2b0	0.07846582
194	0x3dc95c5a	0.09832068
195	0x3dd00084	0.10156348
196	0xbdc30898	-0.095231235
197	0xbd291903	-0.04128362
198	0x3d2104dc	0.039311275
199	0x3d8e7056	0.0695502
200	0xbd8cd111	-0.06875814
201	0xbdb5066a	-0.08839114
202	0x3c82f14b	0.015984198
203	0xbd0b6984	-0.034036174
204	0x3d543730	0.051810443
205	0x3da6f05b	0.08151313
206	0xbc8a2c70	-0.016866893
207	0x3d740495	0.059574682
208	0x3d3fa6e1	0.046790008
209	0xbda327d3	-0.0796658
210	0xbd8afe7a	-0.06786819
211	0x3e02aa29	0.12760223
212	0x3d5bc65c	0.053655967
213	0xbdd0fdc2	-0.102046505
214	0xbd0bef74	-0.034163907
215	0xbbec0e09	-0.0072038216
216	0xbd94b650	-0.07261336
217	0xbc8fa13b	-0.017532935
218	0xbd0be905	-0.03415777
219	0xbdc7c6ec	-0.09754738
220	0x3db37ecb	0.08764418
221	0xbd88f696	-0.066876575
222	0x3d0564af	0.032566722
223	0xbd8cfbec	-0.06883988
224	0xbd573c94	-0.052548006
225	0xbd8c0396	-0.068366215
226	0xbd0a3217	-0.033739176
227	0xbc84dbca	-0.016218085
228	0xbd750608	-0.059820205
229	0xbd4a8748	-0.04944542
230	0xbdc11592	-0.09427942
231	0xbd09a9a0	-0.033609033
232	0xbdbec438	-0.093147695
233	0x3dc2d7c7	0.095138125
234	0xbd8f4ee6	-0.069974706
235	0x3df70b48	0.120626986
236	0xbc4431fd	-0.011974809
237	0xbd5e3304	-0.05424787
238	0x3da226d5	0.07917563
239	0x3da07bc4	0.078361064
240	0xbd97a7ff	-0.074050896
241	0x3da950eb	0.08267387
242	0xbdea31ca	-0.11435278
243	0xbd1e0874	-0.03858228
244	0xbd9513f0	-0.072791934
245	0x3c3e22a0	0.011604935
246	0x3ca33e60	0.019927204
247	0x3d76bc58	0.060238212
248	0xbe6b3539	-0.22969522
249	0x3d6c7772	0.0577311
250	0x3d097521	0.03355897
251	0xbd89a484	-0.06720832
252	0x3d7a609f	0.0611273
253	0x3c5b88f7	0.013399354
254	0x3db25249	0.08707101
255	0x3db3c0ce	0.08777009

model.4.bias f4 [8]
0	0x3e200c5e	0.15629718
1	0x3d0878d5	0.03331836
2	0xbdd9a40b	-0.10626992
3	0xbcfe5c8d	-0.031049991
4	0xbd5b8e17	-0.053602304
5	0xbdb0d4c9	-0.086343355
6	0x3cdf899a	0.027287293
7	0x3d50b734	0.050955966
