archive/train_pygame/stored/20250712first_0000.pth (torch, 30361 bytes, 6 tensors)

model.0.weight f4 [64, 32]
00000000: 0415 a7bd a1f5 10be afe8 7fbd 7ce3 773e
00000010: 43e8 2a3e 6de0 eabd 0e8e 1a3d dfa1 bbbb
00000020: 31c3 6bbd 3c69 e3bd f995 0abc bbdb 65bd
00000030: 9c1e 0c3e c787 8b3c 5a35 ca3d 22a5 f9bd
00000040: a4e0 19bd d030 b83d 7740 043e 34be 2cbd
00000050: b85f 303d 6911 fbbd 2895 093e e884 64be
00000060: 5ed7 ce3d 9442 a03d 7d2c aabc 1abf 28be
00000070: 2509 143e dd41 0f3e 5ddf 993d ae6a 94bd
00000080: 7314 23bd 446c 9f3d d4e1 b5bd bf0d 163e
00000090: adf1 37be a345 5bbd b25d 103e 705e 1c3e
000000a0: 4a99 073e a904 053e 3207 213d 7b29 03be
000000b0: 50df 0d3e 79b6 c93c 7207 22be fc7b 03be
000000c0: cd08 af3d 49f0 f03c ac1a b0bd f308 8f3c
000000d0: a1a5 253e c419 603d 7e11 32be 7630 0a3e
000000e0: 8e8f 6f3c 7e9d 73bd dc42 f03d 2578 f6bd
000000f0: d62b 4cbd 34fc bebd 3f99 923d a169 d83c
00000100: 3ea8 1bbe 5206 0e3e a69b b1bc eeb9 b43d
00000110: bd98 88bb f783 26be bcc8 d3bd 6730 653d
00000120: 6f3e 7bbd 500c 13bd 60d4 10be 6776 003e
00000130: 09fe 723c b9b6 ee3d 36ea 20be e168 0d3b
00000140: 08da 083e 7cae 873d 7753 b2bb 4909 2bbc
00000150: 7d8c 2abe 524d 203e a29b b6bd 44ac e1bd
00000160: a64c 92bc 0e7d 54bd 73d5 07be 7e4c 043d
00000170: 1e18 b03d f10c d63d 735d 053d 815a 06be
00000180: 751d 143e 40ad bdbc 8871 00be 6273 f03d
00000190: a433 42bd 7af2 ba3d 03e9 9cbd 936c 23be
000001a0: ef6c 083e 5330 053e 654f 033e e63a c93d
000001b0: c792 c6bd 7781 143e 6a45 cfbd fab2 953d
000001c0: d5d8 8ebd 0f18 b2bd 6100 c1bd 763e 00be
000001d0: b712 8dbd 8c5b 813d e8fa 7a3d e0fd 8fbd
000001e0: 366e 61bd 78bb adbc 6a28 e23d 2cf7 0dbe
000001f0: 8e70 f33d b9bf 1dbe 60ed f9bc 803d e33a
00000200: 3275 d3bc 8e2b 37bd 401b d43d 9e80 a03d
00000210: 4dea 7abc 2b63 f33d bfb2 26be dceb 3abe
00000220: e80b 263d b9a0 b9bd 3291 3fbd de65 30be
00000230: 5632 b93d 8051 b13d 323d 9bbc cd63 bebd
00000240: 9613 bbbd 719d 60bd fd34 5cbc 38ab 1abd
00000250: 49ce eabd fb53 8fbd 90e2 bb3d 4e59 823c
00000260: 1cac 5dbd f630 483d 22e5 02be cf6d 273e
00000270: ef8a 063e b79e b93d 5a27 a2bd 8310 bdbc
00000280: bed1 a73c b803 87bd 5945 03bc 1c30 593e
00000290: 4bf5 8d3d ad7e 7a3d 5753 563d b0bd 08be
000002a0: 5377 313e 14eb 183d 9b39 debc c539 903d
000002b0: fc7f f03d f42e 34be f19a 45be d8dc 52bd
000002c0: c97a 433c 8a6d b1bb 9990 47bc 8285 023e
000002d0: 4c0c 343e d115 0dbe 2613 32be 0ae5 e5bb
000002e0: f63b 2c3e 03b5 edbc 03f8 d0bc 438d 08bd
000002f0: 15c0 833d 15f1 24be 582f 293e 9a7d 873b
00000300: f3d3 9abd 62d1 2b3e 0301 183e 6906 a6bc
00000310: 161f 4c3d db64 b2bb eb7b 363d bcc6 253e
00000320: dd3b b03d 2b9d 00bd 0d33 d2bd 250c c93c
00000330: 3148 793d 1e37 273e d21e f4bc ad41 403d
00000340: 0020 113e 42c7 2c3e b945 ce3d b27c c7ba
00000350: c84a 86bd e9bf 823d e2d2 3a3e c8c1 f5bc
00000360: edc1 25be f4bc 05bd 3f2a 0cbe 14eb 41be
00000370: ffb8 c1bd 1612 93bd d7af f1bd d605 11be
00000380: 8e72 15be f949 18be fa41 f7bd 5860 913d
00000390: a79d 22be 3b3c 23be ec60 1c3d 2b00 0c3e
000003a0: 8004 edbb fa4c b23d 3a80 f7bd bed0 05be
000003b0: 40b7 f93b 7053 503c da03 ed3d 79af 063e
000003c0: 901b 2cbd a0af 853d 44b0 213d a8ae 13bd
000003d0: 31ba 283e 1dbd bebd 809b a3bb a0d5 993b
000003e0: 64dc f9bd d0a8 dbbc 7eb4 d6bd 119a 123e
000003f0: e219 b93d c63b d53d b0ad 3bbc e0d6 323c
-0.08158305 -0.141562 -0.062477764 0.24207872 0.16690163 -0.11468587 0.03773313 -0.0057260836
-0.057559196 -0.11104056 -0.008458608 -0.056117754 0.13683552 0.017032517 0.09873457 -0.121897
-0.03756775 0.08993685 0.12915216 -0.04217358 0.043060035 -0.1225918 0.13435805 -0.22316325
0.10099672 0.07825199 -0.020773167 -0.1647915 0.14456613 0.13989969 0.07513306 -0.0724691
-0.039814424 0.07784322 -0.08880964 0.14653681 -0.17963286 -0.053533208 0.14098242 0.152704
0.13242069 0.12990059 0.039313503 -0.12808792 0.13854718 0.024623143 -0.15823153 -0.12840265
0.085466005 0.029411452 -0.08598837 0.017460322 0.16176464 0.054712072 -0.17389485 0.13495049
0.014621628 -0.059476368 0.117315024 -0.120346345 -0.049846493 -0.09325448 0.071581356 0.026417555
-0.15200898 0.13869599 -0.021680664 0.08824526 -0.0041685984 -0.16261278 -0.103410214 0.055954363
-0.06133884 -0.035900414 -0.14143515 0.12545167 0.0148310745 0.11655945 -0.15714344 0.0021577405
0.13364422 0.06625077 -0.0054420787 -0.0104392255 -0.16655155 0.15654495 -0.08916403 -0.11019185
-0.017858814 -0.051877074 -0.13265018 0.03229951 0.0859835 0.10451687 0.032559823 -0.13120462
0.14464362 -0.023153901 -0.12543309 0.117407575 -0.04741253 0.0912828 -0.07661631 -0.15959387
0.13322805 0.13006715 0.12823255 0.09825687 -0.09695964 0.14502512 -0.101206616 0.07309528
-0.06974951 -0.08695995 -0.094239004 -0.12523827 -0.06888335 0.06316289 0.06127444 -0.07030845
-0.055036746 -0.021207556 0.110428646 -0.1386382 0.118867025 -0.15405168 -0.030508697 0.0017337054
-0.025812719 -0.04471927 0.1035676 0.07837032 -0.015314651 0.11884149 -0.16279124 -0.18254036
0.0405387 -0.090638585 -0.04676933 -0.17226359 0.09042804 0.08658123 -0.018950079 -0.09296379
-0.09134595 -0.054837648 -0.013440368 -0.037760943 -0.11465127 -0.0699844 0.09174073 0.015911724
-0.054119214 0.048874818 -0.1278272 0.16350482 0.13138936 0.090634756 -0.07917662 -0.023079162
0.020485755 -0.06592506 -0.008012139 0.21209759 0.069315515 0.061155964 0.052325573 -0.1335361
0.17330675 0.037333563 -0.027127078 0.07042269 0.11743161 -0.17596036 -0.19297387 -0.051480144
0.01193113 -0.0054146694 -0.012180471 0.12746242 0.17582816 -0.13777854 -0.17390117 -0.007015829
0.16819748 -0.029016977 -0.025508886 -0.033337843 0.06433121 -0.1610759 0.16521966 0.004134846
-0.07559957 0.16779092 0.14844136 -0.020266728 0.049834333 -0.005444152 0.04455177 0.16189092
0.08605168 -0.031399887 -0.102636434 0.024541924 0.060859863 0.1632962 -0.029799853 0.046937633
0.14172363 0.16872886 0.10071892 -0.0015219657 -0.06557232 0.0638426 0.18244508 -0.029999629
-0.16187258 -0.032650903 -0.1368799 -0.18937331 -0.09459113 -0.07181184 -0.11801117 -0.14162382
-0.1459448 -0.14871968 -0.12073131 0.07098454 -0.15880452 -0.15940945 0.03817837 0.13671939
-0.0072332025 0.08706088 -0.12085004 -0.1306791 0.007620722 0.012715206 0.11573 0.13152875
-0.042018473 0.065276384 0.03947474 -0.036055237 0.16477276 -0.09313414 -0.0049929023 0.0046946555
-0.12200239 -0.026813895 -0.10483645 0.14316584 0.0903814 0.104117915 -0.011454985 0.010915488

model.0.bias f4 [64]
00000000: a2d1 ba3c 88fd 3fbe aa23 c83c 083b 0fbe
00000010: 06b8 3a3d 69e3 273e c1e2 93bc e838 e3bc
00000020: aaab 223e c066 7abc 5d54 f9bd b648 f8bd
00000030: da28 32be d296 fa3d 3f47 30bc dd9d f1bd
00000040: 6e1d b23d b13d 6d3d 5435 83bd aa26 f63d
00000050: 71be fb3d c32c 003e 0db9 1c3e c5de 30be
00000060: d7f1 a9bd 5c6c 2a3e fef6 d23d 8882 05be
00000070: 6bce 913d bf1c 193e b8f1 69bd 2018 e13b
00000080: 9ba4 5fbc f61d ec3d de92 5a3d 2865 0bbe
00000090: 9b27 0e3e 7bef 123e 1b63 743c 3b02 31be
000000a0: 6baf 00be c520 fdbd 1053 033c 9403 05be
000000b0: a1af 0f3e cd28 0d3e 80d9 d73a c0c0 9cbc
000000c0: a7f7 a0bd 09f9 13be f220 8b3d 215e b33c
000000d0: 7dd2 b43d b919 f0bd 382f 51bd 9caf 17bd
000000e0: 167d 353d ccc7 063e bfc6 bf3d 24c9 34bd
000000f0: 8226 7e3d 3344 5abd 906f 5fbd 51a3 15be
0.022805039 -0.18749058 0.024431068 -0.13987362 0.045585655 0.16395344 -0.01805246 -0.027737096
0.15885797 -0.015283287 -0.12174294 -0.121232435 -0.17398396 0.12235798 -0.010759174 -0.11797688
0.086970195 0.05792016 -0.06406656 0.12019093 0.12292183 0.12517075 0.15304966 -0.1727248
-0.082980804 0.16642898 0.10301016 -0.13038075 0.07119449 0.14952372 -0.057115287 0.006869331
-0.013650085 0.11529152 0.05336272 -0.13612807 0.13882296 0.14349167 0.014916207 -0.17286007
-0.12566917 -0.12359766 0.008015409 -0.12989646 0.14031841 0.13785096 0.0016468018 -0.01913488
-0.07859736 -0.14450468 0.06793393 0.02189547 0.0882921 -0.11723656 -0.051070422 -0.03703271
0.044308744 0.13162154 0.0936408 -0.044137135 0.062048443 -0.053287696 -0.054549754 -0.14613082

model.2.weight f4 [64, 64]
00000000: c858 e93d 80c2 c13c 561a cdbd d41b 6b3d
00000010: 34e6 dd3d c88b d2bc 2890 833d 78cb 89bc
00000020: d246 923d 3cef 923d d0ff 8a3d bc5e 06bd
00000030: 2ca9 43bd 527c a4bd 00ca 8abd 8819 dc3c
00000040: 8040 b43c 7c0b 75bd f0c0 f0bd 507f 64bd
00000050: 1698 c53d de0f cd3d 14ee d2bd a8b5 353d
00000060: 608a f53b 5099 77bd f06d d9bc 8ca3 5cbd
00000070: d8c9 7ebd 846e 02bd 6221 c53d c4c9 84bd
00000080: e8c1 7d3d 7092 413d 3a04 9fbd 5a27 abbd
00000090: 58c6 623d f06b f5bd 00c1 7bbd 809e 07bc
000000a0: 6a2a e43d 502e f9bd e85b 89bc a03d 933b
000000b0: e818 d83d 488b 1cbd b65b f1bd e054 813b
000000c0: 5867 443d a029 bd3c 3868 823d a0e1 d83c
000000d0: d89b 693d d028 f5bc 18ae 853c 6031 643d
000000e0: 50fd 57bc 88c5 c5bc e6d1 f6bd c0f9 c13d
000000f0: 1a92 debd 5ce1 193d ee66 f0bd 8caa ab3d
00000100: 21fe e13d 5bef 0dbe 98a5 dbbd 2019 b9bb
00000110: 904b acb9 8805 803d 6698 7f3d a496 ac3d
00000120: cec4 3d3d 4c71 4ebd 90e5 63bd e0d1 fb3c
00000130: 6c8b d8bd 98ba ce3d 7f5b 793d 0859 2b3d
00000140: c448 2cbd 0676 453d 70e6 ce3d f449 12bd
00000150: 497d 2dbd c012 44bc 504f c5bd a40a bbbd
00000160: 6f32 edbd 49b9 80bc 8f9c 8b3d 8a9d 573d
00000170: 1663 053e 6c6e 473d fcec 96bc 203f c3bb
00000180: e237 9dbc 397c 2abd 56ab b4bd 1ba5 47be
00000190: 40a4 173e 4d4a e0bb a4e4 cf3d 9095 a6bc
000001a0: 697c 113e c8da 3f3e d86a 2c3d 70ff 873d
000001b0: 69ba 1dbe 646e c4bb 2269 eabd 180c e6bc
000001c0: 38eb 81bd 4278 db3d b109 c33d 2467 443d
000001d0: 3ff8 b4ba 0610 f9bd e65d b3bd 6648 373e
000001e0: 36dc 22bd 8f93 323d df7e eabd 19e4 373d
000001f0: 6ef3 103d 4b07 3d3e c86b c4bd 2829 ecbd
00000200: dedf 003c 31b1 9fbc 81c9 3fbc 4ad5 c23d
00000210: 6111 4f3c d2c2 58bd 88e2 d13d 1249 fdbd
00000220: e0ce 343e d088 593c 7032 503d d820 88bd
00000230: f8e4 ac3c ebb1 99bd cc49 4bbd 51f0 803c
00000240: b4b9 383d 8274 55bc d2fa ab3c b826 d2bc
00000250: ff77 b0bd 1c5d 753d 6459 d13d 40e1 5b3b
00000260: ac76 003e b8d4 eebc 08ff ee3d 9065 8ebd
00000270: 7f75 4bbd 808a daba 5e79 fbbc aa17 d33d
00000280: e40b 5e3d fb32 a33d f057 703d 6930 253e
00000290: be9d 5e3c 2eed c5bd 96eb 7f3d 9e16 aebd
000002a0: 1f00 1dbd 2640 83be d252 fd3d 9077 1c3d
000002b0: 043c 5f3d 3109 c9bd d00d 3b3c 2863 1c3d
000002c0: b021 d63d 2016 29bc 74c1 953c ee3e d2bd
000002d0: 8fc1 89bb 4626 dabd 3071 00bd 5b8a 96bd
000002e0: 53fe 803d 9834 bd3d aa37 da3d 9343 f0bd
000002f0: ce84 f03c 38fc 77bd b11c 613d 48ff aabc
00000300: f0c7 be3d 17a0 733d 8dfb c3bc 109e 273d
00000310: 3223 c5bd 2e6b c23d f42b debd d454 4abd
00000320: 7f78 07be 10b5 e6bc d428 2ebd 183f 663d
00000330: 2851 f53c 1b05 8fbd 2cd9 103d 89b7 4abd
00000340: a0db 9e3c cc86 123e 48ce 5f3e 08f2 a2bd
00000350: 5bc6 b8bc 344f 7fbd 568c 923d 840d 44bd
00000360: 1105 45bd 9ca4 7b3d 31ac ed3d 2f7c b43c
00000370: 2f7f bb3d 8293 f03d 62d5 393e e854 dc3d
00000380: 06ef d23c 9109 413d 97b0 bbbd 36db 6ebe
00000390: 8c11 4a3d b94b 12be b28c d33d c40d 64bd
000003a0: f0fe 0c3e a875 9b3d d02a d03c 0817 b43d
000003b0: e1d9 abbd 4597 17bc c0c9 6a3d 5e69 adbd
000003c0: 648c b43d a292 ecbd 8a2b 1b3e dcde b93d
000003d0: b942 6c3c 147e a8bc 839a 253d b2b9 e03d
000003e0: 2929 bcbd 9df3 2a3d fb38 54bd df31 0abc
000003f0: c9e0 75bd 24e8 123e 5f4f cbbd 9e5c b43d
0.11393887 0.023652315 -0.10014789 0.057399586 0.108349234 -0.025701419 0.0642398 -0.016820654
0.07142414 0.071745366 0.067870736 -0.03280519 -0.047768757 -0.08031525 -0.0677681 0.026867643
0.022003412 -0.059825405 -0.1175555 -0.055785477 0.09648149 0.10012792 -0.10299316 0.044362694
0.007493302 -0.060448945 -0.02654168 -0.053866908 -0.062204212 -0.031843677 0.09625508 -0.06483796
0.0619525 0.047258794 -0.07764478 -0.08357115 0.055364937 -0.11983478 -0.061463356 -0.008277535
0.11140902 -0.121670365 -0.016767457 0.0044934303 0.105516255 -0.038218766 -0.117850706 0.0039468855
0.04795012 0.023091137 0.063675344 0.026474774 0.05703339 -0.029926687 0.016318366 0.05571115
-0.013182953 -0.024142042 -0.12051754 0.09471464 -0.108677104 0.037568435 -0.11738382 0.083821386
0.11034799 -0.13860838 -0.10724944 -0.005648747 -0.00032862695 0.06251055 0.062401198 0.0842717
0.046330266 -0.050401017 -0.05563885 0.030739725 -0.105734676 0.10094184 0.060878273 0.041832954
-0.042061582 0.04820826 0.10102546 -0.03571506 -0.04235581 -0.011967361 -0.09634268 -0.09132889
-0.11581885 -0.01571335 0.068169706 0.052640475 0.1302608 0.04868929 -0.01842355 -0.005958453
-0.019191686 -0.041622374 -0.08821742 -0.19496576 0.1480875 -0.006844795 0.101510316 -0.020334989
0.14207615 0.18735802 0.04209408 0.06640518 -0.15403141 -0.005994605 -0.11445834 -0.028081939
-0.063436925 0.10716297 0.09523333 0.047949925 -0.0013806893 -0.12161259 -0.08758144 0.17898712
-0.03976079 0.043597754 -0.1144998 0.044895265 0.035388403 0.18459813 -0.0959087 -0.115312874
0.007865874 -0.019493671 -0.011705757 0.09513338 0.012638421 -0.05292017 0.102482855 -0.12367453
0.17657042 0.013277248 0.05082935 -0.066468894 0.021105275 -0.07504638 -0.049630925 0.015739592
0.045098975 -0.013028266 0.020993624 -0.025653228 -0.086166374 0.05990325 0.10222128 0.0033551008
0.1254527 -0.029154167 0.11669737 -0.06952965 -0.0496726 -0.0016673356 -0.03069752 0.10307248
0.05421056 0.07968708 0.058677614 0.16131748 0.013587413 -0.09664379 0.06248053 -0.08500408
-0.038330194 -0.2563488 0.12369312 0.03819996 0.054500595 -0.09816206 0.011416867 0.0381805
0.10455644 -0.010320216 0.018280722 -0.10265909 -0.004203982 -0.10651831 -0.031357944 -0.07350608
0.062985085 0.09238547 0.10655148 -0.11731639 0.029360201 -0.06054327 0.054959003 -0.02087368
0.09315479 0.059478845 -0.02392366 0.040922225 -0.096258536 0.09493099 -0.10848227 -0.049397305
-0.1322956 -0.02816251 -0.042519405 0.056212515 0.029945925 -0.06983396 0.03536336 -0.04949144
0.019391835 0.14309233 0.21856034 -0.0795632 -0.02255552 -0.062331393 0.07155673 -0.047864452
-0.048100535 0.06143628 0.116051085 0.022031872 0.09155118 0.11746885 0.18147805 0.10758382
0.02574874 0.047128264 -0.09164541 -0.2332581 0.04933314 -0.14286698 0.1032957 -0.05567719
0.13769126 0.075908005 0.02541104 0.08793455 -0.083911665 -0.009252374 0.05732131 -0.08467363
0.0881584 -0.115514055 0.15153328 0.0907571 0.014420205 -0.020567931 0.040430557 0.109729186
-0.09187538 0.041736234 -0.051812153 -0.008434742 -0.060028825 0.14346367 -0.09927248 0.08806728

model.2.bias f4 [64]
00000000: 2a96 f3bd 424e 66bc cae5 a23d f012 893d
00000010: 87ad b3bc 7efe 093e 217e b13d c821 8fbd
00000020: 0210 a7bd b8a9 d3bd 21a9 893d 06d4 b5bd
00000030: 3a1a 9dbd c685 fcbd e0fe b3bc f2d8 773d
00000040: 2b8b 073d 00c4 573c bed6 003e add0 883d
00000050: dd54 763d e8c4 f43c 7242 41bd 5709 0cbd
00000060: bc07 aabd d225 5b3d c595 8d3d 6640 2f3d
00000070: 1604 f8bd 3281 81bd bcfe a43d bb81 933c
00000080: 407e 54bd 8612 353d 68bd b1bc 3c07 b63d
00000090: 2f2a 683d 2ca3 c7ba a049 f4bc a862 163d
000000a0: 30be 543c 34f2 283d d68e a33d 4cd0 f3bd
000000b0: 6030 d7bb 52f5 523d d58a a0bc 1830 51bd
000000c0: 9a98 803d f1db 913d dc3e 583d 6e73 d63d
000000d0: dfe6 593d e420 fbbd 40ce fbbb e811 a4bd
000000e0: a741 debc 02a6 313c d91c 1bbd 4bb4 bb3c
000000f0: be9b 4a3d 7552 a73d 662c 953d 272d 77bd
-0.11893876 -0.014056744 0.07953985 0.06693065 -0.02193333 0.13475987 0.08666635 -0.06988865
-0.0815735 -0.10335106 0.06721712 -0.08878331 -0.07671018 -0.12330203 -0.02197212 0.06050963
0.033091705 0.013169289 0.12581918 0.06680427 0.060139526 0.029879048 -0.047182508 -0.034188595
-0.083022565 0.053502865 0.06913332 0.042786025 -0.12110154 -0.0632347 0.08056399 0.018006196
-0.051878214 0.04420712 -0.021696761 0.088880986 0.056680854 -0.0015231124 -0.029820263 0.03671518
0.012984797 0.041246608 0.07986228 -0.11904964 -0.006567046 0.051503487 -0.01959745 -0.051071256
0.062791064 0.071220286 0.052794322 0.10471235 0.05319869 -0.12262133 -0.007684499 -0.08011228
-0.027130915 0.010842802 -0.03786931 0.022913119 0.049464934 0.08170024 0.07283859 -0.060345795

model.4.weight f4 [8, 64]
00000000: c0fd 073d 3bd1 78bd b0dc 1d3d 08bb 45bd
00000010: 0b8a e0bd 469c ad3d 223b d93c 081f d33c
00000020: f036 99bc 20b8 aebd 1dfe 863d 002d 143d
00000030: 16c2 a1bd ac6a 813d ce0a dfbd 45a3 ba3d
00000040: 01cb 6cbe 7601 f5bd a541 033e ab92 1a3d
00000050: 9b77 1a3e 604e 9ebb 08ea 09be 9909 18be
00000060: 783f ee3d 7b11 5fbd a9e8 593e ff88 a9bd
00000070: 50ea 0e3d 84d3 e13d ecdd 94bd c048 69be
00000080: 12a4 ce3d d24e 0c3d a02c d43b 2dfd 71bd
00000090: 2047 99bd 13af 203c 7066 773d 4436 903d
000000a0: 802b de3b a9e1 983d 66c2 c83d 4064 62bb
000000b0: dceb f83d c132 813d d478 f6bc 52d7 c2bd
000000c0: 77da 3c3d 0bd5 c73d a6c6 a73d 2241 e93c
000000d0: 81c1 0e3b 508d a13c 0059 a63a 589c b23c
000000e0: f03d 2fbd a9ab 523d 892a 0dbd dc1c d7bd
000000f0: 5e77 9fbd 9cc4 adbd a21f 25bd 593e 83bc
00000100: 6076 723c 24af 693e 7f3a d0bc 195b 3c3e
00000110: 2be5 ae3d 0491 5abc 32a7 fbbd 5c51 00bd
00000120: 0c01 673d 3656 01bd 507c 0fbd 0050 9ab8
00000130: 8c9b e33d 32b0 e53d c666 e8bd 2a66 b93d
00000140: b229 17bd c0ca 9e3b 84e1 893d e8ce 693c
00000150: fed9 2b3e 6015 a43d 9175 c13b 9f9b 64bd
00000160: 70e6 963d dbbe 993d b8d6 4b3e 91a8 3e3d
00000170: 404f aabd a276 8ebd d8ea 02bd ff64 22be
00000180: 4c12 33bd 3c45 a3bd b29a d1bd a3f0 dcbb
00000190: 4047 073b 79df 573c 7886 0c3d ece8 d93d
000001a0: 70e3 ef3c 0480 783d 6579 9abd 60b0 493c
000001b0: 7842 6d3d bbc3 a9bd 543b e03d d4ab cfbd
000001c0: f4f6 903e 5524 cd3c eaec 833d c064 84bd
000001d0: 37ed 8abc 20e5 033d fc64 aa3d a8a8 073d
000001e0: d20b 59bd 071d e53d 73ea a5bc 65e8 adbd
000001f0: c5d2 3dbc 01b5 823b bd88 b73d e143 d9bc
00000200: be54 ee3d 36aa cebc b271 253d fcbc d83d
00000210: 3095 b7bc efe5 a03d 1f94 0fbd 046b 273d
00000220: 8042 afbc ef12 86bd 1d5e 95bd 6023 db3b
00000230: c242 c9bd 6ceb 54bd a017 fcbd 8417 b9bd
00000240: 3769 b23d 4058 36bc c840 d43d 1a66 debc
00000250: 27ab 193e c4d7 093d e071 cf3c 299e 723d
00000260: 18eb c7bd d684 85bd faee 3b3e 15af 09bd
00000270: 90d8 1ebc a207 97bd 82ad da3d cbdf 0bbe
00000280: 8476 00bd 38a9 cb3d e2ff fd3d 9652 8d3d
00000290: b8e2 31bd 7ce9 c3bd 104f 143c 9a9f 6f3d
000002a0: 587e f43d c3fb b2bd 78d5 ba3d 3cd1 edbd
000002b0: 4019 ebbc cb6c a9bd aea6 8e3d 7037 a43c
000002c0: 538a 823d 4b9c f23d 14d1 cc3d a6fb babd
000002d0: 9109 48be c82e b03d d058 5b3d 00ff b43d
000002e0: f0c4 b73d ce9f 92bc 1439 493d d8d1 0b3e
000002f0: 7731 193d 393f 1cbd b80f 953d 0e26 15bd
00000300: 4cef 29bd 5a5e 82bd b58b 553d 43e3 143e
00000310: 1414 043e a285 d73d 3261 e33c 00b0 a839
00000320: bc5f 99bd 6ed3 b5bd f82b 723c 28af debd
00000330: 9c2d 5dbd b867 83bd 7cab 38bd a136 d9bd
00000340: 88f1 003e 6e3f d93d 4244 8a3d d508 063e
00000350: c59d 24bd 60dd b53c 9f8d 66bd fbd3 88bd
00000360: b87d 40bd ca25 4ebd 5067 97bd 53a0 993c
00000370: 088b b4bd 20ef 593c 3c32 4f3d 9e0e 123d
00000380: 4e39 de3d e600 84bd 6079 b73b 00ab 6a3d
00000390: 006a b0ba 433c 553c ce6c 94bd 49d0 0c3e
000003a0: 5069 adbc f549 0f3e cfb3 e63d 0424 6c3d
000003b0: f0c8 babd 2ef4 62bd b404 0ebb 6a15 cb3d
000003c0: 4c89 8bbd 0d81 e8bd 784c 863d d3e2 ad3d
000003d0: 176c 1cbe 5236 c03d 2440 b3bd 3ec7 ef3d
000003e0: b353 c43d 69e0 f23c 02ab 5abd f26b d63d
000003f0: d53a e43b 7464 a03d 3b23 bcbd c5d3 d13d
0.03320098 -0.060746413 0.038540542 -0.04827407 -0.109638296 0.084770724 0.026517455 0.025771633
-0.018702954 -0.08531213 0.06591437 0.036175728 -0.07898347 0.06319174 -0.10890733 0.091131724
-0.23124315 -0.11963169 0.1281801 0.03773753 0.15084688 -0.0048311204 -0.13468182 -0.14847411
0.116331995 -0.05446003 0.21280159 -0.08278083 0.034891427 0.110266715 -0.07268891 -0.22781658
0.10089888 0.034254856 0.0064750463 -0.059079338 -0.07484269 0.009807366 0.060400426 0.070416
0.006780088 0.07464916 0.098027036 -0.0034544617 0.121543616 0.06308509 -0.030086912 -0.09513725
0.04610678 0.097574316 0.08192186 0.02847344 0.0021782818 0.019720703 0.0012691319 0.021803066
-0.042783678 0.05143324 -0.034464393 -0.10503551 -0.07786439 -0.08484766 -0.04031337 -0.01602094
0.014798731 0.22820717 -0.025418518 0.18394126 0.08539804 -0.0133402385 -0.12287749 -0.03132759
0.056397483 -0.031576358 -0.035030663 -7.3581934e-05 0.111136526 0.11215247 -0.113477275 0.090526894
-0.036904998 0.004845947 0.06732467 0.014270522 0.16782376 0.080118895 0.0059039076 -0.055812474
0.07368171 0.07507106 0.19906127 0.046547476 -0.08315897 -0.06956221 -0.031962246 -0.1585884
-0.04371862 -0.0797219 -0.10234584 -0.0067425533 0.0020641834 0.013175839 0.034307927 0.106401294
0.029283255 0.06066896 -0.075426854 0.0123101175 0.057924718 -0.08289286 0.10948816 -0.101401955
0.2831341 0.025041739 0.06441672 -0.06464529 -0.016958816 0.032200933 0.083200425 0.033119828
-0.05298979 0.11187177 -0.020253396 -0.08491591 -0.011585896 0.0039888625 0.08961628 -0.026521625
0.11637257 -0.025227647 0.04039163 0.10582921 -0.022410005 0.07856356 -0.03505337 0.040873542
-0.021394014 -0.0654658 -0.07293341 0.0066875666 -0.09827186 -0.05198233 -0.123091936 -0.090376884
0.087114744 -0.011129439 0.103639185 -0.027148295 0.15006696 0.033653036 0.025322855 0.059232865
-0.097616374 -0.06519477 0.18352881 -0.033614237 -0.009695187 -0.07374503 0.10677625 -0.13659589
-0.031363025 0.09944385 0.124023214 0.06900518 -0.043429106 -0.09566018 0.009052053 0.058501817
0.11938161 -0.08739426 0.09122747 -0.11612174 -0.028698564 -0.08272704 0.069653854 0.020045966
0.063740395 0.11846217 0.10000816 -0.091300294 -0.195349 0.08602673 0.053551495 0.088377
0.0897311 -0.017898466 0.0491267 0.13654268 0.03740069 -0.03814623 0.07278389 -0.036413245
-0.041487977 -0.063656524 0.052135188 0.14539818 0.12898284 0.10523535 0.027756307 0.00032174587
-0.07488963 -0.08878218 0.014780991 -0.10873252 -0.053998575 -0.06416267 -0.045085415 -0.10606123
0.12592137 0.106078014 0.067513004 0.13089307 -0.040189523 0.022200286 -0.056287404 -0.06681057
-0.046994895 -0.050329007 -0.07392752 0.018753206 -0.088155806 0.013301641 0.050585017 0.03565847
0.10850774 -0.06445484 0.005599186 0.057291985 -0.0013459325 0.013014856 -0.07247315 0.1375133
-0.021168381 0.13993056 0.112647645 0.057651535 -0.09120357 -0.05540865 -0.0021670284 0.09916194
-0.06813297 -0.113527395 0.06557554 0.08490529 -0.15275608 0.09385361 -0.08752468 0.11707924
0.09586277 0.029648023 -0.053385742 0.10469808 0.006965021 0.0783166 -0.09186407 0.1024547

model.4.bias f4 [8]
00000000: 4990 db3d 169d ab3d 064a ac3b 9986 fc3c
00000010: 35f4 de3c b889 223e a9a6 adbd adfa 573c
0.107208796 0.08379571 0.0052578477 0.0308259 0.027216056 0.15872848 -0.084790535 0.013182324
