archive/train_pygame/stored/20250712third_0060.pth (torch, 30361 bytes, 6 tensors)

model.0.weight f4 [64, 32]
-0.47299165 -0.25571418 1.0615356 0.4089341 -0.18211736 -0.33951837 0.12564997 0.061750054
-0.26205644 0.18161002 -0.15586738 -0.5036393 -0.32505885 -0.13933302 -0.40108252 -0.15335004
-0.0063743796 -0.14284088 -0.022286111 0.010366513 0.039673712 0.4646691 0.21221101 0.28274173
0.28167593 0.11520822 0.4147072 0.35603774 -0.08613326 0.14708596 -0.26504615 0.102416605
-0.1094868 -0.1401451 -0.03387393 -0.09722587 0.07167441 0.03354977 -0.12643117 -0.15944436
0.09742673 -0.043460622 0.12814112 -0.17134403 -0.11139479 -0.06987614 0.04309444 0.07810967
-0.12628321 -0.075147934 -0.14505006 -0.11997494 0.0752777 0.16177563 0.17323382 -0.15621668
0.099869266 0.05142194 0.015345797 0.12504645 -0.16839615 -0.17295384 -0.0850536 0.09487356
-0.1492204 -0.17351986 0.15613495 0.038563058 -0.1401897 -0.15762874 -0.07057576 0.03361319
0.08657651 -0.11148821 -0.025467977 0.12003459 -0.16995263 -0.14330888 0.037147045 0.1689455
-0.13438001 0.020054668 0.100701556 0.032942846 0.05523911 0.04359804 0.0039832145 -0.07279732
-0.1003441 0.17082949 0.022366032 -0.0061104745 -0.13321277 0.045395657 -0.016773269 -0.16070183
-0.4366639 0.358039 -0.009255542 0.05457603 0.12859331 0.37820566 0.15393344 -0.100347586
0.02371607 0.061461713 -0.05548489 -0.10925631 -0.098778576 -0.104916774 0.04949612 -0.264109
0.16294141 0.22441301 -0.40284264 0.16699825 -0.3261427 -0.58487207 0.31784117 -0.2930382
-0.66740096 0.06088783 0.020510629 -0.76431906 0.37440476 0.16731967 -0.33581385 -0.16425474
0.01644931 0.15127896 -0.10539507 0.10417526 -0.077384695 -0.08707226 -0.011909788 0.012443506
0.13891618 -0.09608677 0.13311411 -0.10584812 -0.09332736 -0.045914475 -0.063195586 -0.038678315
-0.10956311 0.08679492 0.11584218 -0.14530063 -0.027786203 -0.061722305 -0.1795212 -0.076212384
0.059080638 -0.08989244 -0.09697011 -0.026538335 0.07777538 0.07655049 -0.18257333 -0.001770955
-0.11399675 -0.19834925 0.064610675 -0.04931171 0.0044782874 -0.17236257 0.0733503 -0.0047937185
0.10532216 0.11223078 -0.016507864 -0.10965839 -0.14302357 -0.11878093 -0.10315505 -0.19463986
0.04692496 0.05082093 0.1105736 -0.036262985 -0.17020878 0.008810466 0.005243609 -0.014098643
-0.1564749 -0.08361601 0.07560606 -0.0789114 0.044608694 -0.17935061 -0.043385785 -0.056630142
-0.033536524 0.05348271 0.09413679 -0.1606423 0.014046371 -0.016179338 0.14825763 -0.13318853
-0.12180376 -0.07253515 0.05883731 0.075099036 0.053911567 -0.028727964 0.005099237 -0.08829777
-0.16639164 -0.041046053 0.13766749 -0.07160604 -0.13892208 0.065029785 -0.08707661 0.15773417
0.0020700693 0.048991755 0.06277163 0.07307802 0.16418238 -0.0865644 -0.099604 -0.020385966
-0.004882354 -0.12066949 0.11344109 0.0530471 -0.040549584 -0.07440645 -0.13873264 -0.031204244
0.008156958 -0.22302543 0.009567258 0.032473516 -0.031408947 0.07199555 -0.21207479 0.14199834
-0.0786901 0.10501457 0.17243038 -0.19533499 -0.005454796 -0.057593387 -0.18754181 -0.1696468
0.03246659 0.07890738 -0.16437732 0.016030835 -0.18349068 -0.12577403 0.019816171 -0.053069133
00000000: f62b f2be f8ec 82be 66e0 873f cf5f d13e
00000010: f97c 3abe 5ad5 adbe 63aa 003e a0ed 7c3d
00000020: 432c 86be faf7 393e b39b 1fbe 81ee 00bf
00000030: 1d6e a6be 51ad 0ebe b05a cdbe cb07 1dbe
00000040: 2ce0 d0bb e144 12be 5d91 b6bc 4fd8 293c
00000050: e780 223d 1ce9 ed3e d84d 593e 86c3 903e
00000060: d437 903e 4af2 eb3d 8154 d43e 944a b63e
00000070: a266 b0bd b49d 163e 21b4 87be ccbf d13d
00000080: 9e3a e0bd 3282 0fbe 64bf 0abd 5b1e c7bd
00000090: 08ca 923d 7c6b 093d 2c77 01be 6245 23be
000000a0: aa87 c73d c403 32bd 6d37 033e cf74 2fbe
000000b0: f422 e4bd 391b 8fbd cc83 303d f6f7 9f3d
000000c0: 6350 01be 29e7 99bd 0188 14be 6cb5 f5bd
000000d0: 322b 9a3d 83a8 253e 3564 313e 44f7 1fbe
000000e0: 4288 cc3d d09f 523d f06c 7b3c 2d0c 003e
000000f0: 0a70 2cbe d01a 31be 9530 aebd 124d c23d
00000100: 3ccd 18be 31af 31be d7e1 1f3e 4cf4 1d3d
00000110: e48d 0fbe 6e69 21be 068a 90bd fcad 093d
00000120: 064f b13d ee53 e4bd 38a2 d0bc b2d4 f53d
00000130: 1008 2ebe 90bf 12be 8027 183d 0d00 2d3e
00000140: ea9a 09be b049 a43c 9e3c ce3d 14ef 063d
00000150: 6842 623d dc93 323d a085 823b c316 95bd
00000160: 3581 cdbd eded 2e3e f838 b73c 603a c8bb
00000170: ee68 08be ccf0 393d 1868 89bc 058f 24be
00000180: 6992 dfbe e350 b73e 8fa4 17bc 1d8b 5f3d
00000190: f7ad 033e 2ca4 c13e baa0 1d3e 0983 cdbd
000001a0: 3448 c23c 47bf 7b3d 2044 63bd c6c1 dfbd
000001b0: 6c4c cabd 9bde d6bd 72bc 4a3d 4b39 87be
000001c0: 1dda 263e 86cc 653e 6441 cebe 9701 2b3e
000001d0: 2dfc a6be 2dba 15bf 14bc a23e 1a09 96be
000001e0: cada 2abf 8465 793d e805 a83c 6aaa 43bf
000001f0: fbb1 bf3e d955 2b3e cbef abbe 6532 28be
00000200: b4c0 863c dfe8 1a3e 5fd9 d7bd d759 d53d
00000210: de7b 9ebd f152 b2bd 4521 43bc d9df 4b3c
00000220: 0b40 0e3e 24c9 c4bd 114f 083e e6c6 d8bd
00000230: 6a22 bfbd d110 3cbd b06c 81bd 276d 1ebd
00000240: a062 e0bd 89c1 b13d aa3e ed3d b0c9 14be
00000250: e49f e3bc 87d0 7cbd 68d4 37be 3d15 9cbd
00000260: 8afe 713d 8719 b8bd 4498 c6bd ec66 d9bc
00000270: b348 9f3d 81c6 9c3d 81f4 3abe 641f e8ba
00000280: 2177 e9bd 111c 4bbe 9a52 843d 13fb 49bd
00000290: 99be 923b d07f 30be af38 963d a014 9dbb
000002a0: 25b3 d73d 40d9 e53d 803b 87bc 9494 e0bd
000002b0: c574 12be 6b43 f3bd f442 d3bd ac4f 47be
000002c0: 6334 403d 9c29 503d 6974 e23d 7f88 14bd
000002d0: 364b 2ebe c659 103c 95d2 ab3b fffd 66bc
000002e0: f53a 20be df3e abbd 5ad7 9a3d 4d9c a1bd
000002f0: 9bb7 363d b0a7 37be 4bb5 31bd 02f5 67bd
00000300: 985d 09bd b010 5b3d caca c03d 6a7f 24be
00000310: c022 663c 888a 84bc d9d0 173e 9362 08be
00000320: 4074 f9bd 4f8d 94bd 64ff 703d 86cd 993d
00000330: 60d2 5c3d e856 ebbc 8017 a73b 76d5 b4bd
00000340: 9262 2abe e81f 28bd b5f8 0c3e 30a6 92bd
00000350: 9741 0ebe 562e 853d 3955 b2bd 1185 213e
00000360: 00aa 073b 94ab 483d 6a8e 803d eea9 953d
00000370: 6d1f 283e ad48 b1bd 2ffd cbbd 7800 a7bc
00000380: 27fc 9fbb 9121 f7bd cd53 e83d ea47 593d
00000390: 5217 26bd 6962 98bd ee0f 0ebe 0ba0 ffbc
000003a0: c3a4 053c c760 64be fdbf 1c3c f302 053d
000003b0: aba6 00bd 6772 933d 222a 59be 0368 113e
000003c0: 4628 a1bd e111 d73d 9791 303e e505 48be
000003d0: 25be b2bb 0be7 6bbd f60a 40be e4b7 2dbe
000003e0: b0fb 043d 319a a13d 8752 28be 1953 833c
000003f0: fbe4 3bbe e8ca 00be 8655 a23c 055f 59bd

model.0.bias f4 [64]
-0.2369912 -0.1734866 -0.03696239 0.030601712 -0.083861396 -0.059127048 -0.045385346 -0.05288841
-0.3348383 0.19985068 0.020214472 -0.11063282 0.005093276 -0.11938874 0.01304962 0.10845396
0.0052176523 -0.007585793 0.20114826 -0.09006587 -0.15904023 0.06826988 0.08010587 -0.0655522
0.023957282 -0.014707522 0.032388967 0.13231392 -0.13597476 0.031718723 0.09938386 0.038305
-0.0062498436 -0.051511563 0.1639372 0.093949094 0.14133395 -0.1337704 -0.15907113 -0.05751382
0.08958076 0.011515558 -0.17422669 -0.14461593 -0.1836734 0.003045904 0.085894175 -0.16706386
-0.120785154 -0.16074115 0.19202171 -0.1256461 -0.046628024 -0.0436655 0.062985204 0.07822852
0.19047074 0.070070565 0.18252204 0.018489176 -0.16458218 -0.08062681 -0.23215115 0.004249488
00000000: d2ad 72be 79a6 31be e065 17bd 71b0 fa3c
00000010: 86bf abbd 342f 72bd fce5 39bd 84a1 58bd
00000020: ed6f abbe a8a5 4c3e d298 a53c 7693 e2bd
00000030: 7fe5 a63b 1582 f4bd 13ce 553c 1c1d de3d
00000040: d7f8 aa3b 3e92 f8bb cff9 4d3e 7474 b8bd
00000050: 71db 22be 14d1 8b3d 8c0e a43d 3b40 86bd
00000060: 1042 c43c d1f7 70bc 4baa 043d 4d7d 073e
00000070: f83c 0bbe 7eeb 013d c489 cb3d b4e5 1c3d
00000080: 7dcb ccbb cafd 52bd 27df 273e 6268 c03d
00000090: d9b9 103e 1cfb 08be 8be3 22be 9c93 6bbd
000000a0: 1e76 b73d c0ab 3c3c 7b68 32be 3316 14be
000000b0: e114 3cbe ca9d 473b 49e9 af3d ca12 2bbe
000000c0: 355e f7bd 5499 24be 57a1 443e 5fa9 00be
000000d0: 07fd 3ebd 98da 32bd 63fe 803d 4636 a03d
000000e0: c30a 433e 2881 8f3d 0fe7 3a3e 9d76 973c
000000f0: 3b88 28be ab1f a5bd 08b9 6dbe 4a3f 8b3b

model.2.weight f4 [64, 64]
-0.09472808 0.071946815 0.007232815 -0.07950052 -0.04078114 0.0074935704 0.035152704 -0.13759255
-0.12366759 -0.09674916 -0.10555379 -0.094015315 -0.07262151 -0.009289846 -0.109553486 -0.11490246
0.04327796 -0.11309601 0.0021666116 0.0044353604 -0.04657972 0.026526272 -0.11756641 -0.0065030307
-0.03411086 0.027285842 -0.039737567 0.111426115 0.0019187331 0.0448298 -0.019581651 -0.085031465
0.05083317 0.07681449 0.004390014 0.074483186 0.10256514 -0.09166592 -0.07899374 0.047748744
-0.07647692 -0.1262723 -0.0821366 0.019180566 -0.08401005 0.042192522 -0.09144259 0.10602181
-0.10678186 0.09041642 -0.16081373 -0.05435376 0.057192862 -0.05954224 -0.12792657 -0.025100231
0.05646491 -0.038092464 -0.036570672 -0.116227336 0.11245872 0.039964132 0.013452679 -0.117438376
-0.12278494 0.011709645 -0.09093824 -0.10915585 -0.09630184 0.09549387 -0.08847876 0.07763348
-0.09474822 -0.049013868 -0.10834071 -0.06958105 -0.11385922 0.059387818 0.10308771 -0.048597515
-0.036750928 -0.10198578 -0.0031808754 -0.090980455 0.0690171 0.12163918 0.053618297 -0.06298803
0.070964545 0.010254747 -0.036431 0.02841425 -0.0047879023 -0.09711674 -0.06846963 0.07196008
-0.012147934 -0.012797862 -0.0040634125 0.06232135 0.06596419 0.000824064 0.05009152 0.08735572
-0.094454885 -0.046677895 -0.090749055 0.057994187 0.063375205 0.043373223 -0.07751079 0.10570066
-0.021348605 -0.043250605 0.06103455 0.06720835 -0.011894211 -0.0012288392 -0.09931443 -0.106877
-0.02217991 0.024463251 0.061057247 -0.001461029 -0.110478625 -0.06474993 -0.11259441 -0.018601678
-0.039133504 -0.05612421 -0.0047955513 -0.05346906 0.07062861 -0.0070465207 0.04300818 -0.106859416
0.40641674 0.26134586 0.0066718627 0.054517657 0.09694545 0.047627434 0.040647104 -0.010233583
0.031528838 0.058320135 -0.39597997 0.10411294 0.046311185 -0.096186966 0.022038314 -0.036916405
-0.066011935 -0.05119378 0.05063856 -0.036738977 0.11422935 0.09357794 -0.50472945 -0.0036879778
-0.043455966 -0.12187146 -1.6083624 0.0060474724 -0.025396213 -0.034554705 -0.03577836 -0.08301808
0.33341706 0.21690726 0.07815638 -0.10122344 -0.084612876 -0.15647793 -0.17988642 -0.07811001
0.19872043 -0.08722429 -0.44142044 -0.111475766 -0.05485948 0.007394418 -0.00322778 -0.09402187
-0.12215996 -0.010162413 -0.04220575 0.04797387 -0.0015642494 0.3133061 -0.02339299 -0.36771616
0.31963682 -0.03994216 -0.0022082627 -0.04841692 0.0024040882 0.0036767563 -0.08633165 -0.09302134
-0.99632376 0.20892684 -0.036714237 0.12332417 0.059434053 0.056052983 0.120656505 0.08079975
0.11040304 0.08456118 -0.035833668 0.06529905 0.073460594 -0.114088506 -0.23285426 0.03127542
-0.033040226 0.111470036 -0.0043608346 0.08194433 -0.0056427456 -0.015616747 -0.22829543 -0.05560842
0.54639345 0.007518605 0.617731 0.041504398 0.03378568 0.06752981 -0.009656429 0.0250597
-0.53126794 -0.39364398 0.053593054 -0.06571646 0.042492464 0.100492686 0.4906192 -0.031439573
0.53038913 -0.10693054 0.40083888 0.11563258 0.51540154 0.033210546 -1.0276408 0.12468384
-0.053642534 0.005003369 0.6406673 -0.3656343 0.10424663 -0.08725233 0.09439054 -0.8819551
00000000: cc00 c2bd da58 933d 4001 ed3b 2bd1 a2bd
00000010: 200a 27bd a08c f53b 48fc 0f3d 10e5 0cbe
00000020: 6f45 fdbd 6c24 c6bd 962c d8bd 1a8b c0bd
00000030: 96ba 94bd 7034 18bc 945d e0bd fb51 ebbd
00000040: 3b44 313d e29e e7bd b6fd 0d3b 8056 913b
00000050: 60ca 3ebd a04d d93c a8c6 f0bd 6017 d5bb
00000060: d4b7 0bbd 8f86 df3c dcc3 22bd 6033 e43d
00000070: 007e fb3a 749f 373d b369 a0bc fa24 aebd
00000080: 7136 503d ea50 9d3d 1bda 8f3b a48a 983d
00000090: ac0d d23d 58bb bbbd 78c7 a1bd 3094 433d
000000a0: ee9f 9cbd 874d 01be 3c37 a8bd 9020 9d3c
000000b0: 760d acbd 11d2 2c3d 4146 bbbd f621 d93d
000000c0: 73b0 dabd 3e2c b93d 5bac 24be 0ca2 5ebd
000000d0: 1043 6a3d 90e2 73bd 2fff 02be 009f cdbc
000000e0: c047 673d d806 1cbd 21cb 15bd 9908 eebd
000000f0: c250 e63d 6eb1 233d a068 5c3c 8883 f0bd
00000100: ac76 fbbd d0d9 3f3c d43d babd 1a8d dfbd
00000110: e639 c5bd 4a92 c33d 5a34 b5bd 4dfe 9e3d
00000120: 5b0b c2bd c4c2 48bd bce1 ddbd 8280 8ebd
00000130: 062f e9bd a440 733d a61f d33d 300e 47bd
00000140: 2488 16bd ecdd d0bd 3c76 50bb f653 babd
00000150: d658 8d3d f61d f93d dc9e 5b3d deff 80bd
00000160: dc55 913d 8703 283c ac38 15bd 00c5 e83c
00000170: d6e3 9cbb 24e5 c6bd ce39 8cbd ce5f 933d
00000180: 2108 47bc 20ae 51bc 6026 85bb ac44 7f3d
00000190: 3c18 873d 0006 583a c42c 4d3d 8ee7 b23d
000001a0: 9071 c1bd 5231 3fbd a4da b9bd 508b 6d3d
000001b0: dcca 813d 1fa8 313d fabd 9ebd 9679 d83d
000001c0: 45e3 aebc 8c27 31bd 5dff 793d 88a4 893d
000001d0: f0df 42bc 0011 a1ba 5d65 cbbd 54e2 dabd
000001e0: a5b2 b5bc 2867 c83c 2a17 7a3d 0080 bfba
000001f0: 9e42 e2bd 9c9b 84bd e697 e6bd 8c62 98bc
00000200: 744a 20bd 80e2 65bd 0024 9dbb 6002 5bbd
00000210: bca5 903d 80e6 e6bb 5829 303d 1cd9 dabd
00000220: db15 d03e 20cf 853e a49f da3b e84d 5f3d
00000230: 568b c63d fc14 433d 947d 263d c2aa 27bc
00000240: 6224 013d 18e1 6e3d e3bd cabe 2a39 d53d
00000250: ccb0 3d3d acfd c4bd b289 b43c a835 17bd
00000260: 4431 87bd 92b0 51bd 616a 4f3d 9c7b 16bd
00000270: 14f1 e93d caa5 bf3d f335 01bf 00b2 71bb
00000280: e2fe 31bd be97 f9bd d2de cdbf e029 c63b
00000290: b80b d0bc 3c89 0dbd 548c 12bd 6205 aabd
000002a0: a4b5 aa3e f01c 5e3e 7410 a03d 3c4e cfbd
000002b0: 8449 adbd c03b 20be 2534 38be 24f8 9fbd
000002c0: 5e7d 4b3e a6a2 b2bd dc01 e2be 684d e4bd
000002d0: 56b4 60bd e04c f23b 2a89 53bb 8a8e c0bd
000002e0: 002f fabd 4080 26bc f0df 2cbd 4080 443d
000002f0: 8007 cdba a869 a03e a8a2 bfbc 4b45 bcbe
00000300: 70a7 a33e 649a 23bd 80b8 10bb d250 46bd
00000310: e88d 1d3b bcf5 703b a6ce b0bd f981 bebd
00000320: 130f 7fbf ebf0 553e ab61 16bd 6291 fc3d
00000330: 1f71 733d d097 653d c21a f73d 577a a53d
00000340: fd1a e23d 692e ad3d 53c6 12bd 82bb 853d
00000350: 8272 963d 3ca7 e9bd 5971 6ebe a81a 003d
00000360: 3055 07bd 674a e43d 55e5 8ebb 6ed2 a73d
00000370: c8e6 b8bb 62dd 7fbc 47c6 69be a8c5 63bd
00000380: 71e0 0b3f a15e f63b 9e23 1e3f 8400 2a3d
00000390: da62 0a3d 124d 8a3d 0036 1ebc 004a cd3c
000003a0: 2d01 08bf b48b c9be 6484 5b3d 5a96 86bd
000003b0: 940c 2e3d 1ccf cd3d 7132 fb3e c8c6 00bd
000003c0: 95c7 073f 66fe dabd c13a cd3e c6d0 ec3d
000003d0: 5bf1 033f c807 083d bc89 83bf 3e5a ff3d
000003e0: 46b8 5bbd 4df3 a33b c602 243f 6b34 bbbe
000003f0: 427f d53d 59b1 b2bd d44f c13d cfc7 61bf

model.2.bias f4 [64]
-0.08261856 -0.051082317 -0.021058489 0.14113335 -0.151983 -0.13750346 0.09358714 -0.17863986
-0.13011515 0.16515203 -0.14248756 -0.16873235 -0.024207758 -0.069365725 0.16327435 0.17199811
-0.062250324 -0.14604501 0.2342943 -0.05994743 0.037887976 -0.13096626 -0.06830913 0.07354464
0.23987426 -0.12479051 -0.053836077 -0.055534683 0.30860987 -0.13380872 -0.18234608 0.021164617
-0.1416333 0.24569091 0.1678718 -0.08700741 0.1581162 0.03403391 0.061591785 -0.101973005
-0.13582407 -0.028629728 0.01896575 -0.098377705 -0.13688345 -0.10564871 0.13634399 -0.053418037
-0.15665914 -0.08733541 -0.12608196 -0.028505934 0.04227626 -0.1808233 0.08192975 0.12521842
-0.048223425 0.06301518 -0.11567004 -0.048099715 -0.02562427 -0.05474606 0.039900824 -0.027647855
00000000: eb33 a9bd b13b 51bd da82 acbc 4385 103e
00000010: 6ea1 1bbe b5cd 0cbe 9daa bf3d 5eed 36be
00000020: e83c 05be 9d1d 293e 42e8 11be 2cc8 2cbe
00000030: 594f c6bc 9e0f 8ebd 6431 273e 4620 303e
00000040: 32fa 7ebd d38c 15be d8ea 6f3e 708b 75bd
00000050: 6c30 1b3d 051c 06be a8e5 8bbd 929e 963d
00000060: 99a1 753e 2b92 ffbd 3883 5cbd 5678 63bd
00000070: 1d02 9e3e 2705 09be eeb8 3abe 6b61 ad3c
00000080: 5208 11be 6696 7b3e 96e6 2b3e f130 b2bd
00000090: 37e9 213e 2467 0b3d ab47 7c3d 39d7 d0bd
000000a0: 7715 0bbe e488 eabc 0f5e 9b3c 407a c9bd
000000b0: 2d2b 0cbe 5a5e d8bd c29d 0b3e dfcc 5abd
000000c0: 416b 20be e8dc b2bd a11b 01be 4785 e9bc
000000d0: df29 2d3d be29 39be c9ca a73d 4239 003e
000000e0: ed85 45bd 1a0e 813d 6ae4 ecbd 3504 45bd
000000f0: fde9 d1bc 683d 60bd 0c6f 233d c17d e2bc

model.4.weight f4 [8, 64]
0.053425584 -0.08843851 0.16128932 0.3171036 -0.0013270825 0.15296258 0.29507294 -0.24722646
0.015875064 -0.0463057 -0.11160332 -0.03703485 -0.060011715 -0.038312905 0.279655 -0.36912882
0.062459543 0.13455464 0.34663805 -0.081264816 0.12148097 -0.18607032 -0.55800897 0.12801173
0.35081434 0.076435864 -0.10495156 0.23299979 0.21674381 0.04347002 -0.13446583 -0.20322576
0.045810148 0.11524145 -0.12631541 -0.02824162 0.35351238 0.30650553 -0.17022257 -0.0045363135
0.08968296 0.119067445 -0.25146914 0.07428391 0.30866665 -0.08439344 0.10578773 0.038591344
0.025270058 0.39476857 -0.047410876 0.43988693 -0.07324025 -0.026721297 0.19852743 0.13124348
-0.00808035 0.13097568 0.10853342 0.026676768 0.33726153 0.30673704 0.21738246 -0.055648044
0.0050623864 0.0027040243 0.43620235 0.25942943 -0.10558428 0.053824134 0.20841478 -0.119125485
-0.218983 0.06320009 -0.06750852 0.13175261 0.012018055 0.051738456 0.1596013 -0.068142705
-0.06812838 0.35590857 0.24592395 0.0055514835 0.3337417 -0.3175472 -0.12512739 0.30522153
0.11117869 0.21801211 -0.012461892 0.2256985 0.21037401 0.034868214 -0.12440987 -0.27698243
-0.11001752 0.17359443 -0.19267133 -0.020012602 0.41520596 0.38425684 -0.24180943 -0.14511195
-0.054652743 0.0747399 -0.21053742 0.06698961 -0.12485922 0.04786469 0.4164792 0.0963524
-0.013839735 0.35137612 -0.06473805 0.08994582 0.1787506 0.04722534 0.06221287 0.26437616
0.040956814 -0.10791843 0.015291204 -0.021371875 0.18842359 0.39299685 0.3243288 -0.067220345
-0.021753814 -0.08420065 0.38806078 0.14863376 -0.09130874 0.14008446 0.20888348 -0.1514752
-0.20955627 0.30100316 0.10289403 0.18930435 -0.07858002 0.011607483 0.03432364 0.17362265
0.07283594 0.27650174 0.114116326 -0.10314007 0.3179782 -0.32092836 -0.24141456 0.3942695
-0.050593402 -0.04782594 0.04378932 0.24251926 0.2856527 0.0362011 0.04047201 -0.3339789
-0.06347831 0.07181435 -0.15479349 -0.10624676 0.26137733 0.19157258 -0.064447634 -0.1800427
0.009515534 0.13267565 -0.3034028 -0.044417445 -0.08561152 -0.041038185 0.29293686 -0.028943207
0.10258152 0.19799928 0.09185694 0.06950065 0.33279806 0.116601095 0.057402406 0.33114687
0.06245254 0.084101185 0.025724495 -0.061605822 0.32813993 -0.010734678 0.29686537 0.02635398
-0.033179466 -0.026775047 0.51206475 0.08284536 -0.0017035604 0.22828826 0.03759133 -0.2381303
-0.26739886 0.3685469 0.036430318 -0.17541356 0.10906686 0.03287946 -0.03713443 0.22397076
0.09146738 0.0051803025 -0.02240405 0.109091334 0.14746967 0.08265436 0.022329705 0.39154044
-0.26810107 0.064725354 -0.0792951 0.43121317 0.3945174 -0.10682343 0.09027053 -0.40746748
0.116518855 0.074241996 -0.13707168 -0.07515956 0.47331378 -0.07225892 0.16244133 -0.5163872
0.09170951 0.079928845 -0.20910482 -0.0063994583 -0.049058102 0.03176956 0.3090975 0.01537773
-0.024602728 0.35073134 0.012901331 -0.19777793 0.2457547 -0.05619571 0.18078738 0.27566296
0.09861246 -0.037612934 0.14028072 0.0593979 0.24057919 0.17765248 0.25137237 0.10851526
00000000: c9d4 5a3d 401f b5bd 0729 253e 675b a23e
00000010: 80f1 adba 39a2 1c3e cd13 973e ef28 7dbe
00000020: 6c0c 823c 0cab 3dbd 4890 e4bd dbb1 17bd
00000030: d8ce 75bd feed 1cbd f12e 8f3e 74fe bcbe
00000040: 94d5 7f3d b1c8 093e 8b7a b13e 2b6e a6bd
00000050: 04cb f83d 3889 3ebe add9 0ebf 8215 033e
00000060: f09d b33e 688a 9c3d d8f0 d6bd 7f97 6e3e
00000070: 17f2 5d3e 9f0d 323d 69b1 09be 6a1a 50be
00000080: 6ca3 3b3d b603 ec3d d458 01be f85a e7bc
00000090: 93ff b43e 4bee 9c3e d34e 2ebe 5ba5 94bb
000000a0: b3ab b73d a2d9 f33d 90c0 80be 2a22 983d
000000b0: 8e09 9e3e 78d6 acbd 3da7 d83d f511 1e3d
000000c0: 2703 cf3c 1b1f ca3e e831 42bd dc38 e13e
000000d0: fcfe 95bd 9fe6 dabc c64a 4b3e b164 063e
000000e0: 7263 04bc 7d1e 063e c546 de3d 3d89 da3c
000000f0: 8bad ac3e a30c 9d3e 8299 5e3e 34ef 63bd
00000100: 60e2 a53b 0036 313b ea55 df3e efd3 843e
00000110: 923c d8bd b276 5c3d af6a 553e 10f8 f3bd
00000120: 143d 60be 0c6f 813d e841 8abd 28ea 063e
00000130: 60e7 443c b4eb 533d 866e 233e 678e 8bbd
00000140: e486 8bbd a639 b63e 7dd3 7b3e 38e9 b53b
00000150: 31e0 aa3e 8c95 a2be 6521 00be ff45 9c3e
00000160: a7b1 e33d 913e 5f3e f72c 4cbc 821d 673e
00000170: 496c 573e f9d1 0e3d 9aca febd a4d0 8dbe
00000180: de50 e1bd bdc2 313e a24b 45be 78f1 a3bc
00000190: e095 d43e 50bd c43e e49c 77be 3a98 14be
000001a0: 8edb 5fbd 3c11 993d 1f97 57be d931 893d
000001b0: 31b6 ffbd c40d 443d c33c d53e 6854 c53d
000001c0: 0ec0 62bc 92e7 b33e 6295 84bd 8435 b83d
000001d0: 660a 373e 5c6f 413d ecd2 7e3d 505c 873e
000001e0: 55c2 273d 5604 ddbd f587 7a3c 1214 afbc
000001f0: 1df2 403e e236 c93e 6d0e a63e d2aa 89bd
00000200: 0e35 b2bc 6471 acbd e7af c63e 7333 183e
00000210: 1400 bbbd 4d72 0f3e 8de5 553e 511c 1bbe
00000220: eb95 56be 161d 9a3e 1bba d23d 00d9 413e
00000230: 90ee a0bd 502d 3e3c f296 0c3d 23ca 313e
00000240: 022b 953d a391 8d3e d2b5 e93d 1a3b d3bd
00000250: 0ace a23e b950 a4be 6135 77be b1dd c93e
00000260: 073b 4fbd 22e5 43bd 6e5c 333d f856 783e
00000270: 1241 923e 9b47 143d fac5 253d 48ff aabe
00000280: eb00 82bd 6713 933d 2f82 1ebe e797 d9bd
00000290: 40d3 853e 9a2b 443e 1ffd 83bd 1d5d 38be
000002a0: 0be7 1b3c 20dc 073e 9d57 9bbe 11ef 35bd
000002b0: 1855 afbd a817 28bd d2fb 953e 4e1a edbc
000002c0: 4316 d23d 53c0 4a3e 7e1f bc3d 5b56 8e3d
000002d0: 8264 aa3e 8ecc ee3d c91e 6b3d 158c a93e
000002e0: 3cce 7f3d 3e3d ac3d 2dbc d23c 6356 7cbd
000002f0: f501 a83e 81e0 2fbc bdfe 973e 4de4 d73c
00000300: 31e7 07bd 5857 dbbc ad16 033f d4aa a93d
00000310: 004a dfba 66c4 693e 5ef9 193d 6ed8 73be
00000320: 81e8 88be 2eb2 bc3e f537 153d 9d9f 33be
00000330: 725e df3d 9dac 063d 461a 18bd 9758 653e
00000340: 4053 bb3d 87bf a93b b388 b7bc 476b df3d
00000350: 4a02 173e b046 a93d c9ec b63c fd77 c83e
00000360: 8b44 89be ba8e 843d 7865 a2bd f9c7 dc3e
00000370: 2ffe c93e 3ec6 dabd c1df b83d 949f d0be
00000380: 70a1 ee3d 300c 983d 855c 0cbe 41ed 99bd
00000390: 2f56 f23e 7cfc 93bd 0557 263e f431 04bf
000003a0: 32d2 bb3d bcb1 a33d 931f 56be 8cb2 d1bb
000003b0: 26f1 48bd cc20 023d 0742 9e3e e0f2 7b3c
000003c0: a98b c9bc 0f93 b33e 1b60 533c 4c86 4abe
000003d0: 1fa7 7b3e 792d 66bd 5420 393e b223 8d3e
000003e0: 54f5 c93d 0510 1abd c0a5 0f3e 364b 733d
000003f0: 645a 763e 88ea 353e e1b3 803e 403d de3d

model.4.bias f4 [8]
0.1772277 0.17551807 0.1583468 0.191299 0.19581547 0.2033475 0.19304688 0.17977375
00000000: 2e7b 353e 02bb 333e aa25 223e e3e3 433e
00000010: da83 483e 543a 503e 15ae 453e 9c16 383e
