archive/train_pygame/stored/20250712third_0020.pth (torch, 30361 bytes, 6 tensors)

model.0.weight f4 [64, 32]
0	0xbd7d6056	-0.06185945
1	0x3de2154d	0.11039219
2	0x3f1f68db	0.6226937
3	0x3e729050	0.23687863
4	0xbe001e9f	-0.12511681
5	0xbe2ce42f	-0.1688392
6	0xbc0fbbeb	-0.0087728305
7	0x3df33356	0.11875026
8	0x3d903702	0.07041742
9	0x3d88323d	0.06650207
10	0xbdca7a46	-0.09886603
11	0xbf31aa3a	-0.6940037
12	0xbe924518	-0.2856834
13	0xbda89de4	-0.0823324
14	0xbe050cc3	-0.1299315
15	0xbc08ef64	-0.008357856
16	0x3ce11545	0.027475962
17	0xbdcb2065	-0.09918288
18	0xbb0ba84b	-0.0021310027
19	0x3d026a46	0.03183963
20	0x3de40139	0.11133046
21	0xbc3c1924	-0.011480603
22	0x3ceced88	0.028921857
23	0x3e995be0	0.29952908
24	0xbd6ebf7f	-0.058288094
25	0x3d64ce36	0.05586072
26	0x3dc9fe88	0.09863001
27	0x3be5d64d	0.007014072
28	0x3e205595	0.15657647
29	0xbd9a6867	-0.075394444
30	0xbe288ff1	-0.1646116
31	0x3e6aeda6	0.22942218
32	0xbde03a9e	-0.1094868
33	0xbe0f8232	-0.1401451
34	0xbd0abf64	-0.03387393
35	0xbdc71e5b	-0.09722587
36	0x3d92ca08	0.07167441
37	0x3d096b7c	0.03354977
38	0xbe01772c	-0.12643117
39	0xbe234562	-0.15944436
40	0x3dc787aa	0.09742673
41	0xbd3203c4	-0.043460622
42	0x3e03376d	0.12814112
43	0xbe2f74cf	-0.17134403
44	0xbde422f4	-0.11139479
45	0xbd8f1b39	-0.06987614
46	0x3d3083cc	0.04309444
47	0x3d9ff7f6	0.07810967
48	0xbe015063	-0.12628321
49	0xbd99e729	-0.075147934
50	0xbe148801	-0.14505006
51	0xbdf5b56c	-0.11997494
52	0x3d9a2b32	0.0752777
53	0x3e25a883	0.16177563
54	0x3e316435	0.17323382
55	0xbe1ff744	-0.15621668
56	0x3dcc8842	0.099869266
57	0x3d529fd0	0.05142194
58	0x3c7b6cf0	0.015345797
59	0x3e000c2d	0.12504645
60	0xbe2c700a	-0.16839615
61	0xbe311ad0	-0.17295384
62	0xbdae3095	-0.0850536
63	0x3dc24d12	0.09487356
64	0xbe18cd3c	-0.1492204
65	0xbe31af31	-0.17351986
66	0x3e1fe1d7	0.15613495
67	0x3d1df44c	0.038563058
68	0xbe0f8de4	-0.1401897
69	0xbe21696e	-0.15762874
70	0xbd908a06	-0.07057576
71	0x3d09adfc	0.03361319
72	0x3db14f06	0.08657651
73	0xbde453ee	-0.11148821
74	0xbcd0a238	-0.025467977
75	0x3df5d4b2	0.12003459
76	0xbe2e0810	-0.16995263
77	0xbe12bf90	-0.14330888
78	0x3d182780	0.037147045
79	0x3e2d000d	0.1689455
80	0xbe099aea	-0.13438001
81	0x3ca449b0	0.020054668
82	0x3dce3c9e	0.100701556
83	0x3d06ef14	0.032942846
84	0x3d624268	0.05523911
85	0x3d3293dc	0.04359804
86	0x3b8285a0	0.0039832145
87	0xbd9516c3	-0.07279732
88	0xbdcd8135	-0.1003441
89	0x3e2eeded	0.17082949
90	0x3cb738f8	0.022366032
91	0xbbc83a60	-0.0061104745
92	0xbe0868ee	-0.13321277
93	0x3d39f0cc	0.045395657
94	0xbc896818	-0.016773269
95	0xbe248f05	-0.16070183
96	0xbe999cd5	-0.30002466
97	0x3e8995e9	0.26872185
98	0x3e78964e	0.24276087
99	0x3ddd82b3	0.108159445
100	0x3e152700	0.14565659
101	0x3e595108	0.21222317
102	0xbd2cca68	-0.042185217
103	0xbdaa919d	-0.08328555
104	0x3e8968c1	0.26837733
105	0xbdd1e6db	-0.1024911
106	0xbd1d6256	-0.03842386
107	0x3e02efe7	0.12786828
108	0x3da84ae7	0.082174115
109	0xbdb3ed2f	-0.087854736
110	0xbdde55f5	-0.10856239
111	0x3d7f2392	0.062289782
112	0x3e385330	0.18000484
113	0x3d87f2e5	0.06638125
114	0xbeae7524	-0.34073746
115	0x3e297618	0.16548955
116	0xbdafaa11	-0.085773595
117	0xbef445c1	-0.47709468
118	0x3e404eb8	0.18780029
119	0xbe3d7485	-0.1850148
120	0xbf162809	-0.5865484
121	0x3dd5db18	0.104421794
122	0x3e4cdcba	0.20006076
123	0xbeb94066	-0.36181945
124	0x3d56ce20	0.05244267
125	0x3e534bb5	0.20634349
126	0xbc3b9b8d	-0.01145066
127	0xbeba338a	-0.36367446
128	0x3cd13010	0.025535613
129	0x3e156634	0.14589769
130	0xbdbdc4ff	-0.0926609
131	0x3de86926	0.113481805
132	0xbd845b1f	-0.064626925
133	0xbd839e55	-0.06426684
134	0x3c155fd3	0.009117085
135	0x3cce72f9	0.025201308
136	0x3e04269c	0.12905353
137	0xbd908c7f	-0.070580475
138	0x3e155f71	0.1458719
139	0xbdc0ed29	-0.09420235
140	0xbdbd5ccc	-0.09246215
141	0xbd07cf4d	-0.03315668
142	0xbd49e14b	-0.04928712
143	0xbbf3a064	-0.0074348915
144	0xbdc641e0	-0.096805334
145	0x3dd526e3	0.10407808
146	0x3e0c275e	0.13686892
147	0xbe091afc	-0.133892
148	0xbd023c95	-0.031796057
149	0xbd5843fe	-0.052799217
150	0xbe099631	-0.134362
151	0xbda58ae9	-0.08083136
152	0x3d9a8762	0.075453535
153	0xbd373a08	-0.044733077
154	0xbdca2104	-0.098695785
155	0xbbec6c24	-0.00721504
156	0x3dfbc536	0.122934744
157	0x3dcfe3b2	0.10150851
158	0xbe2925ff	-0.165184
159	0x3cd65b51	0.02616659
160	0xbde97721	-0.11399675
161	0xbe4b1c11	-0.19834925
162	0x3d84529a	0.064610675
163	0xbd49fb13	-0.04931171
164	0x3b92be99	0.0044782874
165	0xbe307fd0	-0.17236257
166	0x3d9638af	0.0733503
167	0xbb9d14a0	-0.0047937185
168	0x3dd7b325	0.10532216
169	0x3de5d940	0.11223078
170	0xbc873b80	-0.016507864
171	0xbde09494	-0.10965839
172	0xbe1274c5	-0.14302357
173	0xbdf3436b	-0.11878093
174	0xbdd342f4	-0.10315505
175	0xbe474fac	-0.19463986
176	0x3d403463	0.04692496
177	0x3d50299c	0.05082093
178	0x3de27469	0.1105736
179	0xbd14887f	-0.036262985
180	0xbe2e4b36	-0.17020878
181	0x3c1059c6	0.008810466
182	0x3babd295	0.005243609
183	0xbc66fdff	-0.014098643
184	0xbe203af5	-0.1564749
185	0xbdab3edf	-0.08361601
186	0x3d9ad75a	0.07560606
187	0xbda19c4d	-0.0789114
188	0x3d36b79b	0.044608694
189	0xbe37a7b0	-0.17935061
190	0xbd31b54b	-0.043385785
191	0xbd67f502	-0.056630142
192	0xbd095d98	-0.033536524
193	0x3d5b10b0	0.05348271
194	0x3dc0caca	0.09413679
195	0xbe247f6a	-0.1606423
196	0x3c6622c0	0.014046371
197	0xbc848a88	-0.016179338
198	0x3e17d0d9	0.14825763
199	0xbe086293	-0.13318853
200	0xbdf97440	-0.12180376
201	0xbd948d4f	-0.07253515
202	0x3d70ff64	0.05883731
203	0x3d99cd86	0.075099036
204	0x3d5cd260	0.053911567
205	0xbceb56e8	-0.028727964
206	0x3ba71780	0.005099237
207	0xbdb4d576	-0.08829777
208	0xbe2a6292	-0.16639164
209	0xbd281fe8	-0.041046053
210	0x3e0cf8b5	0.13766749
211	0xbd92a630	-0.07160604
212	0xbe0e4197	-0.13892208
213	0x3d852e56	0.065029785
214	0xbdb25539	-0.08707661
215	0x3e218511	0.15773417
216	0x3b07aa00	0.0020700693
217	0x3d48ab94	0.048991755
218	0x3d808e6a	0.06277163
219	0x3d95a9ee	0.07307802
220	0x3e281f6d	0.16418238
221	0xbdb148ad	-0.0865644
222	0xbdcbfd2f	-0.099604
223	0xbca70078	-0.020385966
224	0x3cd43c92	0.025907788
225	0xbdb9f7a8	-0.0908044
226	0x3e133742	0.14376548
227	0x3dab11f9	0.083530374
228	0xbc1c9fc9	-0.00955958
229	0xbd3670ff	-0.044541355
230	0xbddf39d2	-0.108997
231	0xb9609cbf	-0.00021420697
232	0x3d19fdcc	0.037595555
233	0xbe45dc39	-0.1932229
234	0x3d261f66	0.040557288
235	0x3d7ff0a2	0.062485345
236	0xba31c03b	-0.0006780659
237	0x3dd2ea1c	0.10298559
238	0xbe3d6108	-0.18494046
239	0x3e30c9a5	0.17264421
240	0xbd436122	-0.047700055
241	0x3e072106	0.13196191
242	0x3e4ff7f9	0.20309438
243	0xbe284a12	-0.16434506
244	0x3ccaf90e	0.024776962
245	0xbce02fec	-0.0273666
246	0xbe400af6	-0.18754181
247	0xbe0ef430	-0.13960338
248	0x3d8079ae	0.062732086
249	0x3da19a31	0.07890738
250	0xbe0974b7	-0.1342343
251	0x3d3e3d37	0.046445098
252	0xbe3be4fb	-0.18349068
253	0xbdc4d077	-0.09610074
254	0x3d4df0c2	0.050278433
255	0xbd595f05	-0.053069133

model.0.bias f4 [64]
0	0xbe384f86	-0.17999086
1	0xbe31a679	-0.1734866
2	0xbd1765e0	-0.03696239
3	0x3d433a1b	0.047662836
4	0xbd919ec6	-0.07110362
5	0xbd722f34	-0.059127048
6	0xbd39e5fc	-0.045385346
7	0xbcb36448	-0.021898404
8	0xbe588fb0	-0.21148562
9	0x3e25d855	0.16195805
10	0x3c915ffa	0.01774596
11	0xbde29376	-0.11063282
12	0x3d186137	0.037202086
13	0xbdf48215	-0.11938874
14	0x3d1a52e0	0.037676692
15	0x3df6419d	0.120242335
16	0x3cec8db7	0.028876169
17	0x3cc59634	0.024119474
18	0x3ddf8db2	0.10915698
19	0xbdb87474	-0.09006587
20	0xbe22db71	-0.15904023
21	0x3d8bd114	0.06826988
22	0x3dfc29f2	0.12312688
23	0xbd86403b	-0.0655522
24	0x3cc44210	0.023957282
25	0xbbe1b358	-0.0068878345
26	0x3d825b5c	0.06365082
27	0x3e077d4d	0.13231392
28	0xbe0b3cf8	-0.13597476
29	0x3d1c7177	0.038194146
30	0x3d81fe53	0.063473366
31	0x3d1ce5b4	0.038305
32	0x3b2e6f8f	0.0026616787
33	0xbd52fdca	-0.051511563
34	0x3db63007	0.08895879
35	0x3e007fe1	0.12548782
36	0x3e10b9d9	0.14133395
37	0xbe08fb1c	-0.1337704
38	0xbe22e38b	-0.15907113
39	0xbd6b939c	-0.05751382
40	0x3d89dbc6	0.067313716
41	0x3d539ec4	0.051665083
42	0xbe1007dc	-0.14065498
43	0xbe141633	-0.14461593
44	0xbe3c14e1	-0.1836734
45	0x3ce4bfb6	0.027923446
46	0x3dc54f0f	0.0963422
47	0xbe2b12ca	-0.16706386
48	0xbdd6b158	-0.104830444
49	0xbe249954	-0.16074115
50	0x3e1952e2	0.14973024
51	0xbe00a95f	-0.1256461
52	0xbd212c5f	-0.039348956
53	0xbd32da98	-0.0436655
54	0x3d9a7052	0.07540955
55	0x3da03646	0.07822852
56	0x3e0f656b	0.14003532
57	0x3d8f8128	0.070070565
58	0x3e03be3c	0.12865537
59	0x3d8177c9	0.06321675
60	0xbe28883b	-0.16458218
61	0xbca08adc	-0.019597463
62	0xbe4d3f82	-0.20043758
63	0x3ddafb45	0.10692457

model.2.weight f4 [64, 64]
0	0xbdc200cc	-0.09472808
1	0x3d9358da	0.071946815
2	0x3bed0140	0.007232815
3	0xbda2d12b	-0.07950052
4	0xbd270a20	-0.04078114
5	0x3bf58ca0	0.0074935704
6	0x3d0ffc48	0.035152704
7	0xbe0ce510	-0.13759255
8	0xbdfd456f	-0.12366759
9	0xbdc6246c	-0.09674916
10	0xbd997406	-0.07492833
11	0xbdc08b1a	-0.094015315
12	0xbd94ba96	-0.07262151
13	0xbc183470	-0.009289846
14	0xbde05d94	-0.109553486
15	0xbdeb51fb	-0.11490246
16	0x3d31443b	0.04327796
17	0xbde79ee2	-0.11309601
18	0x3b0dfdb6	0.0021666116
19	0x3b915680	0.0044353604
20	0xbd3eca60	-0.04657972
21	0x3cd94da0	0.026526272
22	0xbdf0c6a8	-0.11756641
23	0xbbd51760	-0.0065030307
24	0xbd0bb7d4	-0.03411086
25	0x3d7149f5	0.05890842
26	0xbd22c3dc	-0.039737567
27	0x3de43360	0.111426115
28	0x3afb7e00	0.0019187331
29	0x3d379f74	0.0448298
30	0xbca069b3	-0.019581651
31	0xbdae24fa	-0.085031465
32	0x3d503671	0.05083317
33	0x3d9d50ea	0.07681449
34	0x3d0fd9dd	0.03511988
35	0x3d988aa4	0.074483186
36	0x3dd20dac	0.10256514
37	0xbdbbbb58	-0.09166592
38	0xbda1c778	-0.07899374
39	0x3d439430	0.047748744
40	0xbd3a49db	-0.04548059
41	0xbe014d87	-0.1262723
42	0xbda8373c	-0.0821366
43	0x3c9d2090	0.019180566
44	0xbdac0d76	-0.08401005
45	0x3d2cd211	0.042192522
46	0xbd7ff456	-0.062488876
47	0x3dd921f6	0.10602181
48	0xbddab073	-0.10678186
49	0x3db92c3e	0.09041642
50	0xbe06b778	-0.13155925
51	0xbd5ea20c	-0.05435376
52	0x3d6a4310	0.057192862
53	0xbd73e290	-0.05954224
54	0xbe02ff2f	-0.12792657
55	0xbccd9f00	-0.025100231
56	0x3db3e6d2	0.0878426
57	0xbd1c06d8	-0.038092464
58	0xbba8f809	-0.005156521
59	0xbdae77d2	-0.08518948
60	0x3de650c2	0.11245872
61	0x3d91eb85	0.07125
62	0x3c5c68a0	0.013452679
63	0xbdf08388	-0.117438376
64	0xbdfb76ac	-0.12278494
65	0x3c3fd9d0	0.011709645
66	0xbdba3dd4	-0.09093824
67	0xbddf8d1a	-0.10915585
68	0xbdc539e6	-0.09630184
69	0x3dc3924a	0.09549387
70	0xbdb5345a	-0.08847876
71	0x3d9efe4d	0.07763348
72	0xbdc20b5b	-0.09474822
73	0xbd48c2c4	-0.049013868
74	0xbddde1bc	-0.10834071
75	0xbd8e8082	-0.06958105
76	0xbde92f06	-0.11385922
77	0x3d7340a4	0.059387818
78	0x3dd31fa6	0.10308771
79	0xbd470e30	-0.048597515
80	0xbd168824	-0.036750928
81	0xbdd0ddec	-0.10198578
82	0xbb50763c	-0.0031808754
83	0xbdba53f6	-0.090980455
84	0x3d8d58d6	0.0690171
85	0x3df91df6	0.12163918
86	0x3d5b9edc	0.053618297
87	0xbd80ffde	-0.06298803
88	0x3d9155dc	0.070964545
89	0x3c280387	0.010254747
90	0xbd1538ac	-0.036431
91	0x3ce8c500	0.02841425
92	0xbb9ce3d6	-0.0047879023
93	0xbdc6e524	-0.09711674
94	0xbd8c39ce	-0.06846963
95	0x3d935fce	0.07196008
96	0xbc470821	-0.012147934
97	0xbc51ae20	-0.012797862
98	0xbb852660	-0.0040634125
99	0x3d7f44ac	0.06232135
100	0x3d87183c	0.06596419
101	0x3a580600	0.000824064
102	0x3d4d2cc4	0.05009152
103	0x3db2e78e	0.08735572
104	0xbdc17190	-0.094454885
105	0xbd3f3152	-0.046677895
106	0xbdb9daa4	-0.090749055
107	0x3d6d8b50	0.057994187
108	0x3d81cadc	0.063375205
109	0x3d31a81f	0.043373223
110	0xbd9ebdfa	-0.07751079
111	0x3dd87996	0.10570066
112	0xbcaee345	-0.021348605
113	0xbd31278c	-0.043250605
114	0x3d79ff5d	0.06103455
115	0x3d89a488	0.06720835
116	0xbc42dff0	-0.011894211
117	0xbaa11100	-0.0012288392
118	0xbdcb655d	-0.09931443
119	0xbddae254	-0.106877
120	0xbcb5b2a5	-0.02217991
121	0x3cc86728	0.024463251
122	0x3d7a172a	0.061057247
123	0xbabf8000	-0.001461029
124	0xbde2429e	-0.110478625
125	0xbd849b9c	-0.06474993
126	0xbde697e6	-0.11259441
127	0xbc98628c	-0.018601678
128	0x3d3d4737	0.046210494
129	0xbd65e280	-0.05612421
130	0xbb9d2400	-0.0047955513
131	0x3d5f7314	0.054553106
132	0x3d90a5bc	0.07062861
133	0xbbe6e680	-0.0070465207
134	0x3d302958	0.04300818
135	0xbddad91c	-0.106859416
136	0x3dbf6f00	0.093473434
137	0x3da9699d	0.08272097
138	0xbdc7f9c6	-0.097644374
139	0x3d5f4de8	0.054517657
140	0x3cd4e886	0.025989782
141	0x3d4314fc	0.047627434
142	0x3d267d94	0.040647104
143	0xbc27aac2	-0.010233583
144	0xbd829616	-0.06376283
145	0x3d6ee118	0.058320135
146	0x3d1bfd4f	0.03808337
147	0x3dd5392a	0.10411294
148	0x3d3db0cc	0.046311185
149	0xbdc4fdac	-0.096186966
150	0x3cb489b2	0.022038314
151	0xbd1735a8	-0.036916405
152	0xbd873144	-0.066011935
153	0xbc20c66d	-0.009812933
154	0xbc2864c0	-0.010277927
155	0xbd167b9c	-0.036738977
156	0x3de9f114	0.11422935
157	0x3dbfa5ca	0.09357794
158	0xbd19599c	-0.037438974
159	0xbb71b200	-0.0036879778
160	0xbdc61bdd	-0.09673283
161	0xbdf997be	-0.12187146
162	0xbdeaaae6	-0.114583775
163	0x3bc629e0	0.0060474724
164	0xbcd00bb8	-0.025396213
165	0xbd0d893c	-0.034554705
166	0xbd128c54	-0.03577836
167	0xbdaa0562	-0.08301808
168	0x3d663d82	0.056211002
169	0x3db89155	0.09012095
170	0x3da01074	0.07815638
171	0xbdcf4e3c	-0.10122344
172	0xbdad4984	-0.084612876
173	0xbda5606d	-0.080750324
174	0xbd1e548c	-0.03865485
175	0xbd9ff824	-0.07811001
176	0xbd43abe0	-0.047771335
177	0xbdb2a2a6	-0.08722429
178	0xbd2bcaa0	-0.041941285
179	0xbde44d68	-0.111475766
180	0xbd60b456	-0.05485948
181	0x3bf24ce0	0.007394418
182	0xbddc098a	-0.10744007
183	0xbdc08e8a	-0.09402187
184	0xbdecd56c	-0.115641445
185	0xbc268040	-0.010162413
186	0x3d3bdaf8	0.04586312
187	0x3da66b46	0.081259295
188	0xbacd0780	-0.0015642494
189	0x3c81c6e4	0.015841909
190	0xbcbfa2a8	-0.02339299
191	0xbde31a17	-0.110889606
192	0xbd828d62	-0.06374623
193	0xbd239a64	-0.03994216
194	0xbb10b880	-0.0022082627
195	0xbe0df7ea	-0.13864103
196	0x3cb51b70	0.02210781
197	0x3b70f5bc	0.0036767563
198	0xbdb0cea6	-0.08633165
199	0xbdbe81f9	-0.09302134
200	0x3b7ec231	0.0038873071
201	0xbe453f94	-0.19262534
202	0xbf2bbfdb	-0.67089623
203	0x3dfc9162	0.12332417
204	0xbe856d85	-0.2606012
205	0x3d6597d0	0.056052983
206	0x3de4da50	0.11174452
207	0x3cf5b476	0.029993277
208	0xbebebe12	-0.37254387
209	0x3dec81de	0.11548208
210	0xbe57343d	-0.21016021
211	0x3d85bb82	0.06529905
212	0x3d967282	0.073460594
213	0xbde9a73c	-0.114088506
214	0xbe3c1760	-0.18368292
215	0x3d001aa8	0.03127542
216	0xbd075530	-0.033040226
217	0x3d681b2d	0.05666654
218	0xbd09bf7c	-0.03362988
219	0x3da7d26e	0.08194433
220	0xbbb8e6c8	-0.0056427456
221	0xbd626058	-0.05526766
222	0xbd3ab07e	-0.045578472
223	0xbd63c5a8	-0.05560842
224	0x3ed29b94	0.41134322
225	0x3bf65ea1	0.007518605
226	0x3e98e99f	0.2986574
227	0x3d2a0084	0.041504398
228	0x3d0a62da	0.03378568
229	0x3d8a4d12	0.06752981
230	0xbc1e3600	-0.009656429
231	0x3ccd4a00	0.0250597
232	0xbf0c93f1	-0.5491324
233	0xbd1d35f4	-0.03838153
234	0x3db0cc0c	0.08632669
235	0xbd86965a	-0.06571646
236	0x3d2e0c94	0.042492464
237	0x3ba9be96	0.0051801903
238	0x3deb0eb8	0.11477417
239	0xbd00c6c8	-0.031439573
240	0x3dc9d361	0.098547705
241	0xbddafe66	-0.10693054
242	0x3ea85dc4	0.32884037
243	0x3decd0c6	0.11563258
244	0x3e546350	0.2074101
245	0x3d0807c8	0.033210546
246	0xbef7ce34	-0.48399508
247	0x3dff5a3e	0.12468384
248	0xbdc7c7ca	-0.097549036
249	0x3ba3f34d	0.005003369
250	0x3eaad298	0.33363795
251	0xbe981785	-0.29705444
252	0x3dd57f42	0.10424663
253	0x3cd4454b	0.025911948
254	0x3e010d0d	0.12602635
255	0xbd834cb9	-0.06411118

model.2.bias f4 [64]
0	0xbd50b889	-0.050957236
1	0xbd513bb1	-0.051082317
2	0xbe042cce	-0.12907717
3	0x3e05b526	0.13057384
4	0xbdf81d16	-0.12114923
5	0xbda82141	-0.08209468
6	0xbd2fc793	-0.04291494
7	0xbdab1fa5	-0.08355645
8	0xbcadce3e	-0.021216508
9	0x3bd160de	0.0063897213
10	0xbe041b8b	-0.12901132
11	0x3e33edfc	0.17571253
12	0xbcc64f59	-0.024207758
13	0xbd8e0f9e	-0.069365725
14	0x3df6a21a	0.12042637
15	0xbccebdc3	-0.02523697
16	0xbd7efa32	-0.062250324
17	0x3c8bdc74	0.017072894
18	0x3d073f72	0.03301949
19	0xbd758b70	-0.05994743
20	0x3d38f239	0.045152877
21	0x3d5c0d97	0.053723898
22	0xbcd77194	-0.026299275
23	0xbd1bb121	-0.03801072
24	0xbdd0d70f	-0.10197269
25	0x3d821ced	0.063531734
26	0xbcb57dee	-0.022154775
27	0xbc012be8	-0.007884003
28	0x3e3e9f31	0.18615414
29	0xbde21a46	-0.110401675
30	0xbe352ceb	-0.17692916
31	0x3e1c7b94	0.15281516
32	0xbde11739	-0.109907575
33	0x3df97c68	0.12181932
34	0x3d68feb2	0.05688352
35	0xbdb230f1	-0.08700741
36	0xbc59e7b2	-0.013299869
37	0x3d77efd0	0.060531437
38	0x3c3b0ca0	0.011416584
39	0xbd9231e5	-0.07138423
40	0xbde10c29	-0.109886475
41	0xbd5011da	-0.050798275
42	0xbc6b1f5b	-0.014350737
43	0xbdc97a40	-0.098377705
44	0xbd8b6e6c	-0.06808171
45	0xbdd85e5a	-0.10564871
46	0xbd57375b	-0.052543025
47	0xbd5accdf	-0.053418037
48	0xbe04473f	-0.12917803
49	0xbd388575	-0.04504915
50	0xbe011ba1	-0.12608196
51	0xbb57ddbc	-0.003293856
52	0x3d1762b1	0.036959354
53	0xbe068ca4	-0.13139588
54	0x3c6ea1a0	0.014564902
55	0xbca9e5e2	-0.0207395
56	0xbd4585ed	-0.048223425
57	0x3d55134f	0.052020367
58	0xbdb727f0	-0.08943164
59	0xbd450435	-0.048099715
60	0x3d28db7c	0.04122494
61	0x3c553f72	0.013015615
62	0x3d50a218	0.050935835
63	0xbce27dc1	-0.027647855

model.4.weight f4 [8, 64]
0	0x3d9e7dac	0.07738814
1	0xbdb51f40	-0.08843851
2	0xbbbfe6a0	-0.00585635
3	0x3f0eb99f	0.55751985
4	0xbaadf180	-0.0013270825
5	0x3e5ea052	0.21740845
6	0x3edf7fb0	0.43652105
7	0xbe7d28ef	-0.24722646
8	0x3d971f5a	0.07379027
9	0x3e3dfb61	0.18552925
10	0xbd91f3ac	-0.07126555
11	0x3e31df53	0.17370348
12	0xbd75ced8	-0.060011715
13	0xbd1cedfe	-0.038312905
14	0x3e719e67	0.23595582
15	0x3db5be20	0.08874154
16	0x3d7fd594	0.062459543
17	0xbe23d493	-0.1599906
18	0xbe1549d1	-0.1457894
19	0xbda66e2b	-0.081264816
20	0x3e26c06b	0.16284339
21	0xbd5026be	-0.050818197
22	0xbeca01e4	-0.39454567
23	0x3d80e229	0.062931366
24	0x3e9fe678	0.3123052
25	0x3e4d2b58	0.20036066
26	0xbdd6f0d8	-0.10495156
27	0xbe862e71	-0.26207307
28	0xbde8589f	-0.11345028
29	0x3bbff860	0.005858466
30	0xbe09b169	-0.13446583
31	0x3e809c2a	0.25119144
32	0x3d3ba36c	0.045810148
33	0xbd78590c	-0.060631797
34	0xbe2c3601	-0.16817476
35	0xbce75af8	-0.02824162
36	0xbcad3d01	-0.021147253
37	0x3ec0a5b3	0.37626418
38	0x3c4a038b	0.012329946
39	0xbc971677	-0.01844333
40	0x3cedd97e	0.029034372
41	0x3d7a2a15	0.06107529
42	0x3e406de8	0.18791926
43	0x3d98222a	0.07428391
44	0x3e9e098e	0.30866665
45	0xbdacd678	-0.08439344
46	0x3ea0d8ec	0.31415498
47	0x3d1e11f5	0.038591344
48	0xbccf1fcf	-0.025283722
49	0xbe9acbc7	-0.30233595
50	0xbd4231e8	-0.047410876
51	0x3e514a0f	0.20438407
52	0xbd446f19	-0.047957513
53	0xbdb2f58a	-0.08738239
54	0x3e42344a	0.18965259
55	0x3e0f8a7d	0.14017673
56	0xbc046372	-0.00808035
57	0xbd263e21	-0.040586594
58	0x3de79f5c	0.11309692
59	0x3cda893d	0.026676768
60	0x3f199a4a	0.6000105
61	0x3ebf953f	0.37418553
62	0x3da29953	0.079394005
63	0xbd63ef34	-0.055648044
64	0x3ba5e260	0.0050623864
65	0x3b313600	0.0027040243
66	0xbdb2db23	-0.08733203
67	0x3e8f3a53	0.27974185
68	0xbdd83c92	-0.10558428
69	0x3cda9c74	0.02668593
70	0x3ea5c3fe	0.32376093
71	0xbdf3f810	-0.119125485
72	0x3d1035df	0.035207625
73	0x3d9c9f0c	0.07647523
74	0xbd8a41e8	-0.06750852
75	0x3e00f9f8	0.12595356
76	0x3c44e760	0.012018055
77	0x3d53ebb4	0.051738456
78	0xbcbca509	-0.023027914
79	0x3defe17f	0.11712932
80	0xbd8b86e4	-0.06812838
81	0x3d787214	0.06065567
82	0xbed516ab	-0.41618857
83	0x3bb5e938	0.0055514835
84	0x3f070f66	0.5275787
85	0xbdd97aa5	-0.10619096
86	0xbe565cc0	-0.20933819
87	0x3eb2c7ac	0.34917963
88	0x3e989bd0	0.29806376
89	0x3e435e7d	0.19079013
90	0x3c9b28a1	0.018940272
91	0xbe35285b	-0.17691176
92	0x3c9567bf	0.018237947
93	0x3d9dbe9c	0.077023715
94	0xbdfeca9a	-0.12440987
95	0x3dcc6090	0.09979355
96	0xbde150de	-0.11001752
97	0xbc8ffd39	-0.0175768
98	0xbf02cc55	-0.51093036
99	0xbca3f178	-0.020012602
100	0xbd72751f	-0.059193727
101	0x3e3fb6e5	0.18722112
102	0x3d989551	0.07450355
103	0xbe14983a	-0.14511195
104	0xbd03fc2d	-0.032222915
105	0xbe675467	-0.2259079
106	0xbe0d27d8	-0.1378473
107	0x3d8931d9	0.06698961
108	0xbdffb631	-0.12485922
109	0x3d440dc4	0.04786469
110	0xbc76c17b	-0.015060778
111	0x3dc55468	0.0963524
112	0xbd822997	-0.06355589
113	0xbe8148c3	-0.25250825
114	0xbd849562	-0.06473805
115	0xbe56ae88	-0.20965016
116	0x3e3fb693	0.1872199
117	0x3d0e5178	0.034745663
118	0x3e4eda62	0.20200494
119	0x3e957b1d	0.2919549
120	0x3d27c255	0.040956814
121	0xbe26efc5	-0.16302402
122	0x3cf8c4d0	0.030367285
123	0xbcaf1412	-0.021371875
124	0x3eab343e	0.33438295
125	0x3f1b25ca	0.60604537
126	0x3e982157	0.29712936
127	0xbd89aad2	-0.067220345
128	0xbcb2350e	-0.021753814
129	0xbdac7164	-0.08420065
130	0x3d87316e	0.06601225
131	0x3d864cf5	0.06557647
132	0xbdbb0014	-0.09130874
133	0x3e016ee8	0.12639964
134	0xbde1b033	-0.110199355
135	0xbe37e65b	-0.17958967
136	0xbe2b9426	-0.16755733
137	0x3e7a5913	0.24448042
138	0x3e063e38	0.13109672
139	0xbe95d75d	-0.29265872
140	0xbda0ee90	-0.07858002
141	0x3c3e2d50	0.011607483
142	0xbdd2c69b	-0.10291787
143	0x3e6119a8	0.21982443
144	0x3d952b02	0.07283594
145	0x3e5e71f2	0.21723154
146	0xbea5d03a	-0.32385427
147	0xbdd33b1a	-0.10314007
148	0x3f12bc39	0.57318455
149	0xbe08b581	-0.13350488
150	0xbda94751	-0.08265556
151	0x3eb3511f	0.35022828
152	0xbdc847ea	-0.097793415
153	0x3e9aa061	0.30200484
154	0x3d335c6e	0.04378932
155	0x3e834134	0.25635684
156	0x3e6d64f1	0.23183037
157	0x3dc531a6	0.0962861
158	0x3d25c5fa	0.04047201
159	0x3e9995e0	0.29997158
160	0xbdbf9308	-0.09354216
161	0x3e09a1bc	0.13440603
162	0xbd7dc1e7	-0.061952498
163	0xbdd997e7	-0.10624676
164	0x3e234776	0.15945229
165	0x3eb494f2	0.35269886
166	0x3e31c4e5	0.17360266
167	0xbe385d1d	-0.1800427
168	0xbcee4d14	-0.029089488
169	0xbe607220	-0.21918535
170	0xbed83032	-0.4222427
171	0xbd35ef11	-0.044417445
172	0xbdaf5518	-0.08561152
173	0xbd2817a8	-0.041038185
174	0x3e807d81	0.25095752
175	0xbced1a4e	-0.028943207
176	0x3ddc5d82	0.10760023
177	0xbe151eba	-0.14562503
178	0x3dbc1f7e	0.09185694
179	0xbe2fd11d	-0.17169614
180	0x3e93d192	0.28870827
181	0x3deecc8e	0.116601095
182	0xbda67ad5	-0.08128897
183	0x3e403b31	0.1877258
184	0x3d7fce3c	0.06245254
185	0x3c2a95b8	0.010411672
186	0x3d975cd4	0.073907524
187	0xbd7c5663	-0.061605822
188	0x3eb98044	0.3623067
189	0x3ce0b3fa	0.02742957
190	0x3e8c02d0	0.27345896
191	0x3cd7e44d	0.02635398
192	0xbd07e731	-0.033179466
193	0xbcdb5758	-0.026775047
194	0xbd408f90	-0.047011912
195	0x3bfeb089	0.0077725095
196	0xbadf4a00	-0.0017035604
197	0x3e46bfdc	0.19409126
198	0x3de51dda	0.11187334
199	0xbe8a0998	-0.26960444
200	0xbea0ee0d	-0.31431618
201	0x3ef2a59c	0.47391975
202	0x3d854641	0.065075405
203	0xbe9f5ef6	-0.31127137
204	0x3ddf5e72	0.10906686
205	0x3d06ac9d	0.03287946
206	0xbd5ec3e2	-0.054386027
207	0x3e2e3017	0.17010532
208	0x3dbb5340	0.09146738
209	0x3e0ef2be	0.13959786
210	0xbe576fca	-0.21038738
211	0x3ddf6b47	0.109091334
212	0xbe2dd726	-0.16976604
213	0x3ed9cea6	0.42540473
214	0xbcf5e19b	-0.030014804
215	0x3eaa27a6	0.33233374
216	0xbe3ca8d1	-0.18423773
217	0x3da44d38	0.08022541
218	0xbda26578	-0.0792951
219	0x3ea73ff0	0.32665968
220	0x3eaf7be8	0.3427422
221	0xbdc6aa4a	-0.09700449
222	0x3db8dfc1	0.09027053
223	0x3dd9c55e	0.10633348
224	0x3deea170	0.116518855
225	0xbc2c427b	-0.010513897
226	0xbe08acc3	-0.13347153
227	0xbd99ed41	-0.07515956
228	0x3e99b953	0.30024204
229	0xbc8e2d83	-0.017355686
230	0x3e77461a	0.24147835
231	0xbf0431f4	-0.5163872
232	0x3e12e5b5	0.14345439
233	0xbe1830a9	-0.14862312
234	0xbe23a30a	-0.15980163
235	0xbbd1b28c	-0.0063994583
236	0xbd854ee6	-0.06509189
237	0x3d0220cc	0.03176956
238	0x3e79836b	0.24366538
239	0x3c7bf2e0	0.01537773
240	0xbd8b2a75	-0.067952074
241	0x3e2a8245	0.16651256
242	0x3c53601b	0.012901331
243	0xbd4c11db	-0.049821716
244	0x3c5a4b70	0.01332365
245	0xbdaa9730	-0.08329618
246	0xbd97c11f	-0.07409882
247	0x3e6366b0	0.22207141
248	0x3dc9f554	0.09861246
249	0x3e5aca14	0.21366149
250	0x3ddef86c	0.108872265
251	0x3d734b36	0.0593979
252	0x3ea1d36c	0.31606615
253	0x3e3f6246	0.18689832
254	0x3e8dd226	0.27699393
255	0x3dde3d40	0.10851526

model.4.bias f4 [8]
0	0x3c8965e2	0.016772214
1	0x3d528b09	0.051402126
2	0x3d0e57b0	0.034751594
3	0x3cfcd1b1	0.030861707
4	0x3d846c19	0.064659305
5	0x3d795634	0.060873225
6	0x3d443079	0.04789779
7	0x3d5ca4c5	0.053868074
